mnc_ml_test/output/train/20221128-0250-model.pth (torch, 62813 bytes, 21 tensors)

module.0.weight f4 [60, 6]
0	0x3eab3310	0.33437395
1	0xbe71e079	-0.23620786
2	0x3f2bab73	0.67058486
3	0xbe227f50	-0.15868878
4	0x3b82b16d	0.003988436
5	0x3e09704e	0.13421747
6	0x3d38256a	0.044957556
7	0xbe855ca0	-0.2604723
8	0x3f4a1431	0.7893706
9	0xbeb8eece	-0.36119694
10	0xbefbaaec	-0.4915384
11	0x3f145f0d	0.57957536
12	0x3e8b2b2d	0.27181378
13	0xbe70583e	-0.23471162
14	0x3f46b418	0.7761855
15	0x3d68511d	0.05671798
16	0xbea08a58	-0.31355548
17	0x3f035e74	0.51316
18	0x3e921482	0.2853127
19	0xbe64418c	-0.22290629
20	0xbe32d1b2	-0.17462805
21	0x3e071fd9	0.13195743
22	0xbf00c3ec	-0.50298953
23	0x3e387a58	0.1801542
24	0xbe190a8a	-0.14945427
25	0x3fb65d1c	1.4247165
26	0xbf39f345	-0.72636825
27	0x3eba1a34	0.36348116
28	0x3d8c5342	0.06851818
29	0xbf07f06e	-0.5310124
30	0xbbfb96d0	-0.0076778904
31	0xbd487003	-0.048934948
32	0xbde9a8f1	-0.11409176
33	0x3d42ae46	0.04752948
34	0x3cd99963	0.026562398
35	0xbd5b88d3	-0.053597283
36	0xbf3c70ee	-0.7360982
37	0x3e69d2ba	0.22834292
38	0xbed73c53	-0.4203821
39	0x3db2b9a6	0.08726816
40	0x3e618bbb	0.22025959
41	0xbbe082d0	-0.0068515316
42	0xbefaf846	-0.49017543
43	0x3e5ff07e	0.21869084
44	0xbe8fe6dd	-0.28105822
45	0xbda5abb7	-0.08089393
46	0xbdec480b	-0.115371786
47	0x3da5782f	0.08079564
48	0x3edaee90	0.42760134
49	0xbedb7e49	-0.42869785
50	0x3f479d8f	0.7797479
51	0xbd0177fb	-0.031608563
52	0xbe9d4f1e	-0.30724424
53	0x3d6267ea	0.05527488
54	0xbf22139c	-0.6331117
55	0xbdf84b35	-0.121237196
56	0xbef99d36	-0.48752755
57	0x3f0d74f2	0.5525657
58	0x3d6a26d4	0.057165936
59	0x3e82723c	0.2547778
60	0x3da62781	0.081130035
61	0x3ec70b03	0.3887559
62	0xbf527c2d	-0.8222073
63	0xbe4a487e	-0.19754216
64	0x3e412448	0.18861496
65	0xbeea5eda	-0.4577549
66	0x3f1e919a	0.6194092
67	0x3f1a1983	0.6019518
68	0xbf1d7263	-0.61502665
69	0x3e9ce0c1	0.30640224
70	0xbe1096af	-0.14119981
71	0xbeba7c5e	-0.3642301
72	0xbda5efe4	-0.08102396
73	0x3d9710d5	0.07376257
74	0xbe49964a	-0.19686237
75	0x3ce8ef87	0.028434528
76	0x3bd7cef5	0.0065859505
77	0xbcbef3ee	-0.023309674
78	0x3f16225b	0.5864617
79	0xbcc7f4db	-0.024408748
80	0x3f4d895d	0.80287725
81	0x3df7947d	0.12088869
82	0x3eda2708	0.42607903
83	0x3de93916	0.113878414
84	0x3e5d0ed5	0.21587689
85	0xbe304e8a	-0.1721746
86	0x3ee244dc	0.4419316
87	0xbdd3293a	-0.10310598
88	0x3c938912	0.018009696
89	0x3d755e4c	0.05990438
90	0xbf19c4db	-0.60066
91	0xbf07bd48	-0.53023195
92	0xbe97f355	-0.29677835
93	0x3eb4ee90	0.3533826
94	0xbe8392aa	-0.25697833
95	0x3ed53567	0.41642305
96	0x3e081971	0.13290955
97	0xbdedb06a	-0.11605914
98	0x3e95e202	0.29273993
99	0xbd82b047	-0.063812785
100	0x3be9b5d9	0.0071322736
101	0x3d0f9b63	0.035060298
102	0x3e95455c	0.2915448
103	0x3e2942f1	0.16529442
104	0xbf3c08a5	-0.7345069
105	0x3de1c7a2	0.11024405
106	0xbed4c7c8	-0.4155867
107	0xbe7a74b0	-0.24458575
108	0xbf123824	-0.57116914
109	0xbe57fddd	-0.21092935
110	0xbf0ee8b7	-0.55823845
111	0x3e99f951	0.30073026
112	0xbe313ac1	-0.17307569
113	0x3bc44c3a	0.005990532
114	0xbf8aff64	-1.0859189
115	0xbf01f6b6	-0.50767076
116	0xbf47bbf0	-0.78021145
117	0x3e4ca0c6	0.19983205
118	0x3de293fd	0.11063383
119	0xbe419034	-0.18902665
120	0x3f03baad	0.5145672
121	0xbedd5565	-0.43229213
122	0x3f2c98e5	0.674208
123	0xbe0d74bd	-0.13814063
124	0x3dd22a8f	0.10262024
125	0x3cd902c1	0.026490571
126	0x3f0b3f94	0.5439389
127	0xbe6a5dff	-0.22887419
128	0x3f3df827	0.74206775
129	0xbec98427	-0.39358637
130	0x3e65620e	0.22400686
131	0xbcda4d35	-0.026648143
132	0x3e940e08	0.28916955
133	0xbf2a53cb	-0.6653411
134	0x3f276d6f	0.6540136
135	0x3e862c99	0.262059
136	0xbece0b9c	-0.40243232
137	0x3f0ee8cc	0.5582397
138	0x3e44411d	0.19165464
139	0xbe5b32bd	-0.21406074
140	0x3f1fda00	0.62442017
141	0xbeb50a3b	-0.35359368
142	0xbe442196	-0.19153437
143	0xbe44764d	-0.19185753
144	0xbd35d923	-0.04439653
145	0x3c91560d	0.017741228
146	0x3e956ceb	0.2918466
147	0xbdeef886	-0.11668496
148	0xbdb0f603	-0.08640673
149	0x3e11282b	0.14175479
150	0xbed48ba3	-0.41512784
151	0x3f97142e	1.1803033
152	0x3e1093d2	0.14118889
153	0x3e1a086f	0.1504228
154	0x3e02cd87	0.12773715
155	0x3e2625d7	0.16225372
156	0xbe6b1d5a	-0.22960415
157	0x3e8d65c5	0.27616706
158	0xbf8d2e47	-1.1029748
159	0x3edfceeb	0.43712553
160	0x3b82b043	0.003988297
161	0xbe95a97f	-0.29230878
162	0x3e7e00e6	0.2480503
163	0x3e018795	0.12649377
164	0x3edba1b9	0.42896822
165	0xbe1133cc	-0.14179915
166	0x3ccc5cfb	0.02494668
167	0x3e6310f5	0.22174437
168	0xbf195f7b	-0.59911317
169	0x3e09b7e2	0.13449052
170	0xbef5fb96	-0.48043507
171	0x3e78b587	0.24287997
172	0xbde815d5	-0.11332289
173	0x3d06dfb6	0.03292819
174	0xbeb56ae3	-0.3543311
175	0x3eb22ee9	0.34801415
176	0xbf28853e	-0.6582831
177	0x3e1e2f71	0.15447785
178	0x3d4b0797	0.049567785
179	0xbd4241e7	-0.04742613
180	0x3e8825db	0.2659138
181	0xbec652e6	-0.3873512
182	0x3f8d2f38	1.1030035
183	0xbea89fbb	-0.32934365
184	0x3ea36435	0.3191239
185	0x3eb6bd5f	0.35691354
186	0x3c0b7fdf	0.008514374
187	0x3e2322f7	0.15931307
188	0x3f077133	0.52907103
189	0x3d714d56	0.058911644
190	0xbf2766b1	-0.6539107
191	0xbe2ea6f7	-0.1705588
192	0xbe86fab4	-0.26363146
193	0x3f112a41	0.567051
194	0x3e96a0ab	0.29419455
195	0x3e9f77cb	0.31146082
196	0x3e2f91bf	0.17145441
197	0xbe27940c	-0.16365069
198	0xbe8b9759	-0.27263907
199	0x3e7fcc8d	0.24980374
200	0x3f10f5f1	0.56625277
201	0xbe3ccb60	-0.18436956
202	0x3d776a4f	0.06040412
203	0xbec23d90	-0.37937593
204	0x3e837bca	0.2568038
205	0xbf209665	-0.62729484
206	0x3f398881	0.72473913
207	0xbe09e465	-0.13466032
208	0x3d446f0b	0.04795746
209	0x3e530eb6	0.2061108
210	0x3f0d2ea9	0.5514932
211	0xbea2c60b	-0.3179172
212	0x3f32bfdf	0.6982402
213	0x3ea93939	0.3305147
214	0x3f21d270	0.6321173
215	0x3edb25a0	0.42802143
216	0xbf5c63da	-0.8608986
217	0x3f3ed765	0.74547416
218	0x3e37374e	0.17892191
219	0xbe89fdfe	-0.26951593
220	0xbbbd135e	-0.005770131
221	0xbe4c9699	-0.19979323
222	0xbe0831cb	-0.13300245
223	0xbf3149ed	-0.69253427
224	0xbfa4e545	-1.2882468
225	0xbcfb88da	-0.030704904
226	0x3ec1a8c5	0.37824073
227	0x3d0e1856	0.034691177
228	0x3de2af0a	0.11068542
229	0xbf031b87	-0.5121388
230	0x3f3ab074	0.72925496
231	0xbea6eb15	-0.32601228
232	0xbd38f9f0	-0.045160234
233	0x3e650cb5	0.22368129
234	0xbf5856d6	-0.845075
235	0x3e52fcdb	0.20604269
236	0xbf7d236f	-0.9888219
237	0x3ed6800c	0.41894567
238	0x3dddc23d	0.10828064
239	0xbe5f6aed	-0.21818133
240	0xbee24015	-0.44189516
241	0x3f3365f1	0.70077425
242	0xbead2a31	-0.33821252
243	0x3e2501f6	0.1611403
244	0xbe54e33d	-0.2078981
245	0xbd873265	-0.06601409
246	0x3e72d097	0.23712383
247	0xbf17302f	-0.590579
248	0x3f59bece	0.8505677
249	0xbe395e8b	-0.18102472
250	0x3c7d5735	0.015462686
251	0x3eb5c535	0.3550202
252	0xbcb7ca3f	-0.022435306
253	0xbe0cabfd	-0.13737483
254	0x3f7f1340	0.9963875
255	0xbc67e976	-0.0141547825

module.0.bias f4 [60]
0	0x3dba9d8f	0.09112083
1	0xbe9d4f6f	-0.30724666
2	0xbdd10b55	-0.102072395
3	0xbeddf142	-0.43348128
4	0xbf04c0fe	-0.5185698
5	0x3c95d51f	0.0182901
6	0xbe976c01	-0.29574588
7	0xbd826d41	-0.06368495
8	0x3dfe876d	0.12428174
9	0x3dfc5f98	0.123229206
10	0x3e21c0bc	0.15796179
11	0x3e3c955e	0.18416354
12	0xbcbe3884	-0.023220308
13	0x3eb65851	0.35614255
14	0x3d9460c6	0.072450206
15	0xbe4bea2a	-0.19913545
16	0x3d5ebfa7	0.054381993
17	0xbece0bdb	-0.4024342
18	0x3e3b3a4b	0.18283956
19	0xbe932d70	-0.28745604
20	0x3e27bba1	0.16380168
21	0xbd8d4b3e	-0.06899117
22	0x3e116d5a	0.1420187
23	0xbdd3c8c3	-0.10341027
24	0x3bb7d087	0.005609575
25	0xbebba666	-0.3665039
26	0x3ddbfc8e	0.1074153
27	0xbe53b97f	-0.2067623
28	0x3e49e4b6	0.19716153
29	0xbe0fbdf9	-0.14037313
30	0x3edc4e84	0.43028653
31	0xbed34bab	-0.41268668
32	0x3dfd944e	0.123818025
33	0x3e89679d	0.26836863
34	0x3f02f6b7	0.51157707
35	0x3ebac165	0.36475673
36	0xbd8452a8	-0.06461078
37	0xbebe139e	-0.37124342
38	0x3ecf44f2	0.4048229
39	0x3ccfbc3c	0.025358312
40	0xbec45867	-0.38348696
41	0x3ede3c32	0.434053
42	0x3ecba83b	0.39776787
43	0xbf1177f8	-0.5682368
44	0xbd342932	-0.0439846
45	0xbe884db6	-0.2662179
46	0x3d84b286	0.06479363
47	0x3e725c2c	0.23667973
48	0x3e63a1f9	0.22229756
49	0xbefa9336	-0.48940438
50	0xbea4773d	-0.32122222
51	0x3ed571af	0.41688296
52	0x3e2b1119	0.16705741
53	0x3ec05e0d	0.37571755
54	0xbee2d4c4	-0.44302952
55	0x3e5d11da	0.21588841
56	0x3e171045	0.147523
57	0xbabe85ff	-0.0014535784
58	0x3ef2ca10	0.47419786
59	0x3e260853	0.16214113

module.2.weight f4 [60, 60]
0	0x3e357afc	0.17722696
1	0x3e5ede99	0.21764602
2	0x3ea7f5f4	0.32804835
3	0x3eb1ff75	0.3476521
4	0xbe99910d	-0.29993477
5	0x3c07aacd	0.008280468
6	0xbd4b51ab	-0.04963843
7	0xbe869825	-0.26287952
8	0x3e80acf2	0.25131947
9	0x3d947fd0	0.07250941
10	0xbeae1787	-0.34002325
11	0xbe9cb683	-0.30607995
12	0x3e1cb040	0.15301609
13	0xbe294290	-0.16529298
14	0x3e3aa064	0.18225247
15	0x3ee00403	0.4375306
16	0xbe3613bc	-0.17780966
17	0x3d3eab84	0.04655029
18	0xbec1eaa2	-0.37874323
19	0xbea18bda	-0.3155201
20	0x3f0a3b37	0.53996605
21	0x3eca976a	0.39568645
22	0x3ed48bd8	0.41512942
23	0xbd58f798	-0.0529705
24	0xbe2aaff4	-0.16668683
25	0xbede7ff3	-0.43456993
26	0xbe37d19f	-0.17951058
27	0x3eb5e344	0.35524952
28	0xbece22e1	-0.40260985
29	0xbd157347	-0.03648689
30	0xbcbe1017	-0.023201032
31	0x3e5d3e09	0.21605696
32	0xbeaf922d	-0.3429121
33	0xbf229df9	-0.635223
34	0x3da7d3d8	0.08194703
35	0x3ec4d99c	0.38447273
36	0xbe8ece3c	-0.2789172
37	0x3f8afc11	1.0858175
38	0x3cbdc8d2	0.023167048
39	0xbf122401	-0.5708619
40	0xbc39ebde	-0.011347739
41	0x3e588ffb	0.21148674
42	0xbf221eb1	-0.6332808
43	0x3e545c5f	0.20738362
44	0xbf0b359c	-0.54378676
45	0xbf09b1d4	-0.5378697
46	0xbec9ae69	-0.39390877
47	0x3ee69f93	0.4504362
48	0x3cf45915	0.029827634
49	0x3ea191e3	0.31556615
50	0x3dcf93ec	0.10135636
51	0xbe0d9c10	-0.13829064
52	0xbe06ecae	-0.13176224
53	0xbf383152	-0.71950257
54	0xbe8de299	-0.27711943
55	0x3ed7edea	0.42173702
56	0xbe5b3b9c	-0.21409458
57	0xbdd4dc27	-0.10393553
58	0xbf1632de	-0.5867137
59	0xbe5a47ce	-0.21316454
60	0x3de1d841	0.11027575
61	0x3c221fd9	0.009895288
62	0xbc838fa8	-0.016059712
63	0xbd81ee7c	-0.063443154
64	0x3b86a554	0.004109064
65	0xbd46be0b	-0.048521083
66	0x3d7b2eb7	0.061323848
67	0x3d22eb35	0.039775092
68	0x3d95da32	0.07317008
69	0x3d0eeda1	0.03489459
70	0x3c059c69	0.008154967
71	0xbd7d8a81	-0.061899666
72	0x3bffe21b	0.0078089363
73	0xbdc008e5	-0.093766965
74	0x3dcee5dd	0.10102437
75	0xbc0e73ab	-0.00869457
76	0xbd1c7dda	-0.03820596
77	0x3d956781	0.072951324
78	0xbdf5a912	-0.11995138
79	0x3d16a410	0.036777556
80	0x3d9659c7	0.073413424
81	0x3d59fb99	0.053218458
82	0x3d1cf2a2	0.03831733
83	0x3e6011e1	0.2188182
84	0x3d32cee1	0.043654326
85	0xbd06c743	-0.032904875
86	0xbc9e60d1	-0.019333275
87	0x3e1ab432	0.15107802
88	0x3cae709b	0.021293929
89	0xbc1975cd	-0.009366465
90	0xbd7b6cf6	-0.06138321
91	0xbddcba42	-0.10777713
92	0x3dc26a1d	0.09492896
93	0xbdb67e58	-0.08910817
94	0x3d80a84f	0.06282102
95	0xbca8a825	-0.02058799
96	0x3b86c096	0.0041123135
97	0x3cc34eeb	0.023841342
98	0xbd85999b	-0.065234385
99	0xbdc5a5b3	-0.09650745
100	0x3ddb9004	0.10720828
101	0xbd1eeef1	-0.03880209
102	0x3d395b82	0.045253284
103	0xbaf8c875	-0.0018980639
104	0x3d3d0c0f	0.046154078
105	0x3da36195	0.07977597
106	0x3cb61eac	0.022231422
107	0x3d476ce1	0.04868782
108	0xbd1816be	-0.037131064
109	0xbcae00a3	-0.021240538
110	0xbdd3e568	-0.1034649
111	0x3d56dcc9	0.05245665
112	0x3dba2f5f	0.090910666
113	0xbcd97180	-0.026543379
114	0xbd3503ea	-0.044193186
115	0xbcf26969	-0.02959128
116	0x3cba3f9b	0.022735408
117	0x3d8f498f	0.06996452
118	0x3c9ee840	0.019397855
119	0xbd8dd5cb	-0.069255434
120	0xbe066b4c	-0.13126868
121	0xbf47b853	-0.7801563
122	0xbf5e1288	-0.86747026
123	0xbe206eb7	-0.15667234
124	0x3f9d0a57	1.226878
125	0xbdfde295	-0.12396733
126	0x3ea0251d	0.31278315
127	0x3e73bf43	0.2380343
128	0xbf4652f1	-0.7747031
129	0x3d97a808	0.07405096
130	0x3e903ed9	0.2817295
131	0x3de5b7e1	0.11216713
132	0xbd94278a	-0.07234104
133	0xbe870a51	-0.26375058
134	0xbd2ac481	-0.041691307
135	0xbdbbdcd7	-0.09172981
136	0xba7f7506	-0.0009744916
137	0x3ed43422	0.41446024
138	0xbd7cbc4e	-0.06170302
139	0x3f092d4c	0.5358474
140	0xbea56dce	-0.32310337
141	0xbe501587	-0.20320712
142	0xbf8dace4	-1.1068387
143	0xbd306770	-0.043067396
144	0x3e40eabf	0.18839549
145	0x3f546e22	0.8298055
146	0x3eb76e8c	0.35826528
147	0xbdfef9ca	-0.12449987
148	0xbb8b19a1	-0.0042449986
149	0x3daa05f6	0.08301918
150	0xbfdcf8ad	-1.726339
151	0x3e288618	0.16457403
152	0x3e4353ed	0.19074984
153	0x3d20e559	0.039281223
154	0xbfb0be94	-1.380816
155	0xbf182507	-0.594315
156	0x3ec06798	0.37579036
157	0x3f8bc7a2	1.0920298
158	0xbef5877b	-0.47954926
159	0x3f255269	0.6457887
160	0x3f1a54e6	0.60285795
161	0xbf93f1fd	-1.1558224
162	0xbf14ce2f	-0.5812711
163	0x3f249dea	0.6430346
164	0x3e9a0d71	0.3008838
165	0x3f32f081	0.6989823
166	0x3e2ec8b0	0.17068744
167	0xbf942987	-1.1575173
168	0xbe2632e1	-0.16230346
169	0x3ecce231	0.4001632
170	0x3e68fc84	0.22752577
171	0x3e237c14	0.15965301
172	0xbd9b4d50	-0.075831056
173	0xbe6dae69	-0.23211063
174	0xbc8a0cae	-0.01685175
175	0xbfb47fb5	-1.4101473
176	0x3e6d266f	0.23159193
177	0x3cbfd080	0.02341485
178	0xbf680bf0	-0.90643215
179	0xbf60498c	-0.87612224
180	0xbc9e6f2b	-0.019340118
181	0xbdc92e56	-0.09823291
182	0x3e2a770f	0.1664698
183	0x3dbd3e28	0.09240371
184	0x3f2e6bf3	0.6813347
185	0x3979e2d2	0.00023830988
186	0x3e102d37	0.14079748
187	0x3e42ae9e	0.19011924
188	0xbe6dd103	-0.23224263
189	0xbdd6b3fa	-0.104835466
190	0x3e9dae5c	0.30797088
191	0x3f27cb17	0.65544266
192	0x3e5b8dee	0.2144086
193	0x3c6d6b1d	0.01449087
194	0xbe965da5	-0.2936832
195	0xbdeec18b	-0.11658009
196	0xbd880fad	-0.06643615
197	0x3ecb41f2	0.3969875
198	0xbe091aaf	-0.13389085
199	0x3f03080e	0.51184165
200	0xbdb4f8c9	-0.088365145
201	0xbe93e95f	-0.28888986
202	0x3e255da1	0.16148998
203	0xbde8e062	-0.113709226
204	0x3e546a08	0.20743573
205	0x3e7b422d	0.24536963
206	0x3ef03f78	0.46923423
207	0xbc0b199c	-0.0084899925
208	0x3dc3d3ce	0.09561883
209	0x3e9a8f67	0.30187532
210	0xbf8bbee7	-1.0917634
211	0x3e07b791	0.13253619
212	0xbe2b49c3	-0.16727357
213	0xbee09045	-0.4386007
214	0xbf5996bf	-0.84995645
215	0xbe3065ee	-0.17226383
216	0x3d056151	0.03256351
217	0x3f5325ce	0.8247956
218	0xbe54dedd	-0.2078814
219	0x3e9042ce	0.28175968
220	0x3dedd044	0.11611989
221	0xbe96de5f	-0.2946653
222	0xbea9e884	-0.33185208
223	0x3e460e18	0.19341314
224	0xbe0fd77f	-0.14047049
225	0x3e934c6c	0.28769243
226	0x3f1af824	0.6053488
227	0xbe96880b	-0.29400668
228	0xbef14f4f	-0.4713082
229	0x3f2dcf25	0.678942
230	0xbe4c262d	-0.19936438
231	0x3ae6ea24	0.0017617387
232	0x3dd13308	0.102148116
233	0xbe007be9	-0.12547268
234	0x3e2d9774	0.16952306
235	0xbf0c3acb	-0.5477721
236	0x3ef37f61	0.4755812
237	0x3db36ae9	0.08760626
238	0xbf374d11	-0.7160197
239	0xbf287eac	-0.65818286
240	0x3f1f12fa	0.6213833
241	0x3f1e6ed6	0.6188787
242	0x3eff8abe	0.4991054
243	0xbeccb983	-0.39985284
244	0xbe825079	-0.2545202
245	0xbe697fcc	-0.22802657
246	0xbee6ed62	-0.45102984
247	0xbea62925	-0.32453266
248	0x3ed3ca25	0.41365162
249	0xbe8a2124	-0.2697841
250	0xbf0f4691	-0.5596705
251	0xbf7eb17d	-0.99489576
252	0xbe52c84c	-0.2058422
253	0x3ec17f07	0.37792227
254	0x3edac9b6	0.42732018
255	0xbe9b305b	-0.3031033

module.2.bias f4 [60]
0	0xbe7d59ac	-0.24741238
1	0x3d9acc6b	0.07558521
2	0xbe4348b9	-0.1907071
3	0xbdaec832	-0.08534278
4	0xbe7aaf90	-0.24481034
5	0xbcdc6c27	-0.02690704
6	0xbe85c519	-0.26126936
7	0xbc3aa94c	-0.011392903
8	0xbe24e803	-0.1610413
9	0x3de73d94	0.11291042
10	0xbd4eec5c	-0.05051838
11	0xbc6d6ddc	-0.014491525
12	0xbe2df29a	-0.16987076
13	0xbeb3f1d7	-0.35145447
14	0x3dba8824	0.09107998
15	0xbee691a0	-0.45032978
16	0xbebdd664	-0.3707763
17	0xbf088354	-0.5332539
18	0xbf0ed718	-0.55796957
19	0x3b9f56ca	0.004862641
20	0xbeefdfac	-0.46850336
21	0x3ce4bd02	0.027922157
22	0xbe635ec2	-0.22204116
23	0x3cef0708	0.029178157
24	0xbe09da6f	-0.13462232
25	0xbde20fc3	-0.110381626
26	0xbd9bfd53	-0.07616677
27	0xbe123d10	-0.14281106
28	0x3e57bf2f	0.21069025
29	0xbbdb258d	-0.006687826
30	0x3df9c081	0.1219492
31	0xbcdd7146	-0.027031552
32	0xbda0e57c	-0.07856271
33	0xbeada836	-0.33917397
34	0x3c8a3b76	0.016874056
35	0xbe696ba8	-0.22794974
36	0xbdb5d9d5	-0.08879439
37	0xbe2fa029	-0.1715094
38	0xbed95bdb	-0.42452893
39	0xbd990abb	-0.0747275
40	0xbdd2d30c	-0.1029416
41	0xbd4aa087	-0.049469497
42	0xbcd13386	-0.025537264
43	0xbf15039a	-0.5820862
44	0x3d092969	0.033486757
45	0xbd13fe8a	-0.03613142
46	0xbda0810b	-0.07837113
47	0xbe73d707	-0.23812495
48	0xbd8d1c7b	-0.06890198
49	0xbd1e49e6	-0.038644694
50	0xbe4a02fb	-0.197277
51	0x3e0c489b	0.13699572
52	0xbd860d5f	-0.06545519
53	0xbd581dce	-0.0527628
54	0xbec80523	-0.3906642
55	0x3d6f1550	0.058369935
56	0xbe0ce8f3	-0.13760738
57	0x3dcd93e3	0.10037973
58	0xbe80d132	-0.25159603
59	0x3dee6263	0.116398595

module.4.weight f4 [6, 60]
0	0x3d7bc8c3	0.06147076
1	0xbb04b700	-0.0020250678
2	0xbeadb537	-0.33927318
3	0xbd681eba	-0.056669928
4	0x3e6be152	0.23035172
5	0xbc24eebd	-0.010066685
6	0x3dd60b00	0.10451317
7	0x3bf2a171	0.007404499
8	0x3e856a98	0.26057887
9	0xba1efbff	-0.0006064772
10	0xbeb81972	-0.35956913
11	0xbb941af8	-0.0045198165
12	0xbe07930e	-0.1323969
13	0x3e6b539d	0.22981115
14	0xbb942624	-0.0045211483
15	0x3e04f3fd	0.12983699
16	0xbede78cd	-0.4345154
17	0x3e8a891a	0.27057725
18	0x3eaad5fc	0.33366382
19	0x3bc374ab	0.0059648356
20	0x3e64f61a	0.22359505
21	0xbeca3588	-0.39493966
22	0xbda14bab	-0.07875761
23	0xbd757a9e	-0.05993139
24	0xbe2943bd	-0.16529746
25	0xba8ad52e	-0.0010592097
26	0x3aff1aa0	0.0019462891
27	0x3e37ce70	0.17949843
28	0xbf271d81	-0.65279394
29	0xba565623	-0.00081762875
30	0xbb52c467	-0.0032160522
31	0x3c2706b4	0.010194469
32	0x3bb196fb	0.0054196096
33	0xbdf68723	-0.12037494
34	0x3bb77c66	0.0055995462
35	0xbdc14a22	-0.09437968
36	0x380783ca	3.2309246e-05
37	0xbd139010	-0.03602606
38	0xbd3a5abf	-0.0454967
39	0x3ada29cf	0.001664454
40	0xbda8671c	-0.082227916
41	0xbd98ef83	-0.07467558
42	0x3dfeebaa	0.12447293
43	0x3ea877e2	0.32903963
44	0x38520a79	5.0077655e-05
45	0xb98c5d3a	-0.0002677234
46	0xb53a9780	-6.951086e-07
47	0xbf1c5b75	-0.6107705
48	0x3b1e554c	0.0024159728
49	0xbdf80e3a	-0.121120885
50	0x3e429097	0.19000469
51	0xbef63994	-0.48090804
52	0xbcd9f621	-0.026606621
53	0x39dc1c52	0.0004198277
54	0x3de29f53	0.11065545
55	0x3c33b369	0.010968068
56	0x3e2b6631	0.16738202
57	0xbe0fb03a	-0.14032069
58	0x3e615fdb	0.22009222
59	0xbde78bbf	-0.11305951
60	0x3dda14b1	0.10648478
61	0xbb5aefb0	-0.0033407025
62	0xbe7b3450	-0.24531674
63	0xbda9e3e5	-0.082954206
64	0xbda3d87e	-0.08000277
65	0x3bc306f8	0.0059517585
66	0xbc5a033c	-0.013306435
67	0xbb6cb99d	-0.0036121376
68	0x3d2dd4aa	0.04243914
69	0xbb3dcdec	-0.002896185
70	0xbe5c5017	-0.21514927
71	0x3ad215db	0.0016028242
72	0xbe0bfb20	-0.13670015
73	0xbcb5bdaa	-0.022185165
74	0x3b7c4dd9	0.003849855
75	0xbd0064a5	-0.031345982
76	0xbddad0e0	-0.10684371
77	0xbda54835	-0.08070413
78	0xbdda3f6c	-0.10656628
79	0xbb55189c	-0.003251589
80	0xbd6d85f6	-0.057989083
81	0x3de93ba1	0.113883264
82	0xbe152cc7	-0.14567862
83	0xbc99b001	-0.018760683
84	0x3cd1efbd	0.025627011
85	0x3b0a96af	0.0021146943
86	0x398e6079	0.00027156228
87	0x3cb248a1	0.021763148
88	0xbec18a6d	-0.37800923
89	0x3a105ba7	0.00055068213
90	0xba0bb7dd	-0.0005329827
91	0xbb9509a6	-0.0045482693
92	0xbbad3638	-0.0052860044
93	0xbe8bf7c3	-0.27337465
94	0xbb6f7f2d	-0.0036544309
95	0xbe80a162	-0.25123125
96	0x3a4423da	0.0007482149
97	0x3d8987c3	0.067153476
98	0xbdaae2e4	-0.08344057
99	0xbba4ffa6	-0.0050353585
100	0xbd7bfc94	-0.061520174
101	0x3e6b7f96	0.22997889
102	0xbe3d5230	-0.18488383
103	0xbd37c7d7	-0.044868317
104	0xba37fb63	-0.00070183555
105	0x3e447717	0.19186054
106	0x39f19fc5	0.0004608614
107	0xbe1cc1a2	-0.1530824
108	0xba97a592	-0.001156973
109	0x3e48b2c1	0.19599439
110	0x3df5b5f0	0.119975924
111	0x3de4a4ed	0.111642696
112	0xbee488e7	-0.44635698
113	0x3af912e9	0.0019002828
114	0xbe0a0b6c	-0.1348092
115	0xbba53dd8	-0.0050427727
116	0x3e28dbac	0.16490048
117	0xbe0cb040	-0.13739109
118	0xbe80dcb6	-0.2516839
119	0xbcda06f8	-0.026614651
120	0xbe262459	-0.16224803
121	0xbaf9a677	-0.0019046803
122	0x3db8162e	0.089886054
123	0x3eb458c9	0.35223988
124	0xbe30fa5f	-0.17283009
125	0x3c08a1f8	0.008339398
126	0xbc9065da	-0.017626692
127	0xbba08a11	-0.0048992713
128	0x3cbc3b8f	0.022977619
129	0xbb537288	-0.003226431
130	0x3dec8a58	0.115498245
131	0x3b741960	0.003724657
132	0x3be8c271	0.0071032573
133	0xbe022738	-0.12710273
134	0x3b8f6bd2	0.004376867
135	0x3d08194e	0.033227257
136	0xbd40c160	-0.047059417
137	0xbdc2beab	-0.09509023
138	0xbe28733d	-0.1645021
139	0xbb2672b3	-0.0025397956
140	0x3d4eb6e2	0.05046738
141	0xbd1c1fe1	-0.03811634
142	0xbbd615b7	-0.0065333503
143	0x3d083ada	0.03325925
144	0x3d7e3734	0.062064365
145	0x39ebcb7c	0.000449743
146	0x3b0f4fb0	0.0021867566
147	0x3edbd168	0.42933202
148	0x3e08d4e5	0.13362463
149	0x3abbc142	0.0014324563
150	0x36180e68	2.265815e-06
151	0xbc0525c6	-0.008126682
152	0xbbc57c3c	-0.006026773
153	0x3d2b92f4	0.041888192
154	0xbbed803f	-0.007247954
155	0x3cc15eee	0.023604836
156	0x3b06f6a8	0.0020593796
157	0x3e6c51d2	0.23078087
158	0xbcda79e2	-0.026669446
159	0xbb52abc2	-0.0032145833
160	0x3c8a4ccc	0.016882323
161	0xbb02c75f	-0.001995526
162	0xbe240f30	-0.16021419
163	0x3c86ea68	0.016469195
164	0xb9bc5a9b	-0.0003592566
165	0xbcabe80a	-0.020984668
166	0x38faa580	0.00011951756
167	0xbd2feb55	-0.04294904
168	0x3989c58e	0.00026277866
169	0x3e08e47a	0.13368407
170	0x3b47bd74	0.0030477913
171	0xbec4d757	-0.3844554
172	0x3f106e86	0.56418645
173	0xba8aeb95	-0.0010598773
174	0xbccbe968	-0.02489157
175	0xbbf69f9e	-0.007526352
176	0xbcdd3f3a	-0.027007688
177	0xbdd54387	-0.104132704
178	0x3e7a1924	0.24423653
179	0x3ebf8e88	0.3741343
180	0xbcf75b71	-0.03019497
181	0xbc75bd06	-0.01499868
182	0x3e204e65	0.15654905
183	0xbe080af6	-0.13285431
184	0x3f072d99	0.5280395
185	0x3c7f5d81	0.015586258
186	0x3e6b537b	0.22981064
187	0xbc16fa84	-0.009215001
188	0x3e669da3	0.22521071
189	0xba8948a4	-0.0010473919
190	0xbf00dda0	-0.5033817
191	0x3ba6bdd8	0.005088549
192	0x3df5371c	0.11973402
193	0x3ea27f12	0.31737572
194	0x3c45dfbf	0.012077271
195	0x3eda1c5f	0.4259977
196	0x3b2d0483	0.0026400394
197	0x3e392f02	0.18084338
198	0x3ed74c35	0.4205033
199	0xbb21c2bf	-0.0024682728
200	0x3ed097f5	0.40740934
201	0xbebb832d	-0.36623517
202	0x3e5dec64	0.21672207
203	0xbd01585f	-0.031578418
204	0xbf18e484	-0.5972369
205	0x3c2a4c4e	0.010394169
206	0x3c54dbb2	0.012991833
207	0x3c6b3b0d	0.0143573405
208	0xbf021c42	-0.5082437
209	0xba6abb99	-0.0008954346
210	0xb908d5fc	-0.00013049686
211	0xbc9a3b9f	-0.018827258
212	0xbc8c7e8c	-0.017150186
213	0x3ea62526	0.32450217
214	0xbc59bade	-0.0132891815
215	0x3de9d489	0.11417491
216	0x3b2be0e7	0.0026226582
217	0xbf5d0d22	-0.86348164
218	0x3ec35ea7	0.38158152
219	0xbc124f95	-0.008930107
220	0xbdc79c79	-0.09746642
221	0x3e065d9b	0.13121645
222	0x3d43d9a3	0.047814976
223	0x3eb98a53	0.36238346
224	0xbb7ad9cc	-0.003827679
225	0xbd0fe3ee	-0.03512948
226	0x3bcb7ed2	0.0062101865
227	0x3e2bb1b1	0.16767003
228	0xbb3c9bc6	-0.0028779372
229	0x3c3d8453	0.011567193
230	0x3cbe7da1	0.023253264
231	0xbdbb3eeb	-0.0914286
232	0xbed96e78	-0.42467093
233	0x3b8d27f1	0.00430774
234	0x3e20a141	0.15686513
235	0xbd0c2629	-0.03421608
236	0x3d3e2aab	0.04642741
237	0xbeadf315	-0.3397452
238	0x3eefefd9	0.46862677
239	0xbf3e7850	-0.7440233
240	0x3d6446ea	0.05573169
241	0xbc159385	-0.00912941
242	0x3f1f9447	0.6233563
243	0x3dec51d4	0.11539045
244	0x3eca03bf	0.39455983
245	0xbb4d13a7	-0.0031292231
246	0x3e5142db	0.2043566
247	0x3b441cf2	0.002992448
248	0x3ea2ef57	0.31823227
249	0x3c2a1347	0.010380573
250	0xbbc306a9	-0.0059517217
251	0x3b27d2e2	0.0025607874
252	0x3ede5861	0.43426803
253	0x3e715793	0.23568563
254	0xbbc404a7	-0.005982
255	0x3eaccd45	0.33750358

module.4.bias f4 [6]
0	0xbec555a7	-0.3854191
1	0x3df4bda4	0.119502336
2	0xbcd7c107	-0.02633716
3	0xbec7a260	-0.3899107
4	0xbecdccb7	-0.40195248
5	0xbde45f99	-0.11151046

module.6.weight f4 [1, 6]
0	0xbd9cad8f	-0.07650291
1	0x3d80af4d	0.06283436
2	0xbd8159f0	-0.06315982
3	0xbeda88ee	-0.42682594
4	0xbeab2414	-0.33425963
5	0xbd522a05	-0.051309604

exp_avg f4 [60, 6]
0	0x358cc4e3	1.0488114e-06
1	0xb2bc93b7	-2.1953253e-08
2	0xb4d07a37	-3.8831942e-07
3	0x32ecd8bf	2.757258e-08
4	0x341274a8	1.3639749e-07
5	0x3287b743	1.5799406e-08
6	0xb39e53b9	-7.3726774e-08
7	0xb55bee5c	-8.1930716e-07
8	0xb6468ca4	-2.9586163e-06
9	0xb651c63e	-3.125882e-06
10	0x35be448a	1.4176051e-06
11	0x3643292f	2.9081236e-06
12	0x36271991	2.489982e-06
13	0xb54dfd64	-7.6737183e-07
14	0xb63802c4	-2.7419746e-06
15	0xb5c8f125	-1.4971343e-06
16	0x35d5bcff	1.5924742e-06
17	0x35e079af	1.6724715e-06
18	0x35286c01	6.2742043e-07
19	0x338f291f	6.666436e-08
20	0x354fa94c	7.735987e-07
21	0x35ab234e	1.2750768e-06
22	0xb373f0c0	-5.6796807e-08
23	0xb5a57a5b	-1.2329068e-06
24	0xb6f7d8da	-7.3864185e-06
25	0xb5c37098	-1.4561401e-06
26	0x36c4fbb5	5.8705577e-06
27	0x36bb899c	5.589054e-06
28	0xb5a79693	-1.2486292e-06
29	0xb630ee8e	-2.63649e-06
30	0xb453124e	-1.9657566e-07
31	0xb3fbd244	-1.17263454e-07
32	0x34b36a83	3.3418846e-07
33	0x34b95d9e	3.452705e-07
34	0xb38c6cfe	-6.5390836e-08
35	0xb4fca1e5	-4.7056452e-07
36	0xb6ef03e2	-7.123207e-06
37	0x363319f4	2.6688185e-06
38	0x35da8924	1.6282179e-06
39	0x34c8ef0e	3.7426838e-07
40	0x349b95db	2.8980034e-07
41	0x36fa0f8d	7.452391e-06
42	0xb5b18663	-1.3226639e-06
43	0x35073b6c	5.037789e-07
44	0xb4feaf2a	-4.7438635e-07
45	0xb5629833	-8.441304e-07
46	0xb382d628	-6.0925515e-08
47	0x362ce8f8	2.5765603e-06
48	0x36af279b	5.220017e-06
49	0xb5e3905d	-1.6954833e-06
50	0xb67e8943	-3.7928846e-06
51	0xb613377c	-2.1937003e-06
52	0x35db6e0c	1.6348799e-06
53	0xb4f67057	-4.590281e-07
54	0xb643aff7	-2.915969e-06
55	0x360326d1	1.9543115e-06
56	0x35dd6a84	1.6496783e-06
57	0x352cedfa	6.4421295e-07
58	0xb555c21d	-7.9631155e-07
59	0x35eac2b9	1.749103e-06
60	0xb5d38ab4	-1.5761093e-06
61	0xb44c6838	-1.9036895e-07
62	0x3590eba3	1.0797415e-06
63	0x34831193	2.4413438e-07
64	0xb5868544	-1.0022563e-06
65	0xb4d43de9	-3.9533123e-07
66	0xb57b1da6	-9.354793e-07
67	0x341aa7fc	1.440348e-07
68	0x361dfbc9	2.3541381e-06
69	0x36241a85	2.445334e-06
70	0xb58ee4eb	-1.0646448e-06
71	0xb597fe9f	-1.1324481e-06
72	0xb48eeefd	-2.6623448e-07
73	0xb377ae37	-5.7667616e-08
74	0x3446eb72	1.8525841e-07
75	0x345ceeea	2.0576013e-07
76	0x33f079c1	1.1198018e-07
77	0xb2fac826	-2.9194847e-08
78	0x3656953e	3.1975355e-06
79	0xb577a34d	-9.2252304e-07
80	0xb63392b9	-2.6758482e-06
81	0xb6264281	-2.4774638e-06
82	0x356b7540	8.7714943e-07
83	0xb3d92d18	-1.01130524e-07
84	0x351fe6ad	5.9567793e-07
85	0x33a4b5c7	7.66991e-08
86	0xb434866b	-1.6812707e-07
87	0xb34e0259	-4.7965248e-08
88	0xb4273e16	-1.5575674e-07
89	0xb2ae8ba7	-2.0319773e-08
90	0xb6261a84	-2.4751362e-06
91	0x35bbecb4	1.4001475e-06
92	0x357fa512	9.523511e-07
93	0x34ccd4c6	3.8152774e-07
94	0xb3a7b487	-7.809381e-08
95	0x36185b27	2.2702823e-06
96	0x34ed1dd0	4.4166381e-07
97	0x324cd0c4	1.1921831e-08
98	0xb414f4bb	-1.3872607e-07
99	0x331dc805	3.6736328e-08
100	0xb430bf30	-1.6460831e-07
101	0xb3698551	-5.437079e-08
102	0xb690cff5	-4.315744e-06
103	0xb5668ed6	-8.588953e-07
104	0x36a69293	4.964249e-06
105	0x36a8732c	5.020198e-06
106	0x33ad8c20	8.081429e-08
107	0xb64b74ee	-3.031742e-06
108	0xb60984ee	-2.0491966e-06
109	0x3613a548	2.2000913e-06
110	0x356bdcc4	8.786558e-07
111	0xb4f71cdd	-4.6028336e-07
112	0xb5ac662e	-1.2844737e-06
113	0x35f87ee1	1.8514367e-06
114	0xb6b08509	-5.260696e-06
115	0x36887631	4.066875e-06
116	0x361823ea	2.267067e-06
117	0x35439d0c	7.2871694e-07
118	0xb572b57c	-9.041612e-07
119	0x36a518ee	4.9202854e-06
120	0x362b7843	2.5550987e-06
121	0xb4feb615	-4.744367e-07
122	0xb5047d48	-4.935614e-07
123	0x34e37faa	4.2374933e-07
124	0x3488caee	2.5479625e-07
125	0xb5e5197a	-1.7069244e-06
126	0x360b491c	2.075517e-06
127	0xb4eda9ad	-4.4268145e-07
128	0xb5815d17	-9.638342e-07
129	0xb4545df4	-1.9778219e-07
130	0x34e10fb7	4.192095e-07
131	0xb587bd6f	-1.0113416e-06
132	0x36821016	3.8761746e-06
133	0x34abe76a	3.2019608e-07
134	0xb62c5ee4	-2.568523e-06
135	0xb5c9b1c5	-1.5027405e-06
136	0x347a9846	2.3338461e-07
137	0x359a1a8d	1.1481621e-06
138	0xb4f5e463	-4.580098e-07
139	0xb4c2edc1	-3.6308305e-07
140	0xb5394d03	-6.902994e-07
141	0x30fd05b5	1.8409795e-09
142	0x35900f14	1.0733224e-06
143	0x35e35b94	1.6939471e-06
144	0xb50849a1	-5.077109e-07
145	0xb447632f	-1.8569402e-07
146	0xb4ffa815	-4.7619747e-07
147	0xb4f3fe57	-4.5447334e-07
148	0x349746c5	2.8177433e-07
149	0x3594eccb	1.1095775e-06
150	0xb638fb3c	-2.7564374e-06
151	0x35038306	4.8991967e-07
152	0x363eac63	2.8412549e-06
153	0x3612bcb1	2.1865528e-06
154	0xb5c8c3bd	-1.4958129e-06
155	0xb5d24c49	-1.5668421e-06
156	0xb628095d	-2.50394e-06
157	0x35b7eb42	1.3703032e-06
158	0x3692b356	4.3720165e-06
159	0x36610a60	3.3533652e-06
160	0xb643ee67	-2.9196033e-06
161	0xb65e884b	-3.315991e-06
162	0x3588be45	1.0188165e-06
163	0x323e3086	1.10704885e-08
164	0xb4955d4d	-2.7821298e-07
165	0x3487d4a2	2.530042e-07
166	0x3289e44c	1.6052716e-08
167	0xb49f8262	-2.9710924e-07
168	0xb5e8b468	-1.7337852e-06
169	0x35b71708	1.3641265e-06
170	0xb2d28acf	-2.451034e-08
171	0xb5a9fdc5	-1.2665338e-06
172	0xb56bb934	-8.781383e-07
173	0x3619ffb7	2.2947622e-06
174	0xb5a68840	-1.2407618e-06
175	0x349d5198	2.9302896e-07
176	0x3522306d	6.042017e-07
177	0xb34e82f1	-4.8082203e-08
178	0xb4d6b05c	-3.9988925e-07
179	0x34909903	2.693342e-07
180	0x37227910	9.6841395e-06
181	0xb392f67e	-6.8434915e-08
182	0xb7676140	-1.3791316e-05
183	0xb7553767	-1.2708689e-05
184	0x36688ed7	3.4653838e-06
185	0x374ab611	1.2082529e-05
186	0xb5a9274b	-1.2602917e-06
187	0xb57c7a32	-9.4055133e-07
188	0x346d83a0	2.212023e-07
189	0x351e66d1	5.9009204e-07
190	0x3546132d	7.378865e-07
191	0xb46788cf	-2.1563322e-07
192	0xb57493ae	-9.1111986e-07
193	0x34ee54a2	4.4392533e-07
194	0xb51ed3b9	-5.9167684e-07
195	0xb5472c37	-7.419762e-07
196	0x34b7926e	3.4192948e-07
197	0x3642c3ab	2.9022146e-06
198	0xb482b22d	-2.4344027e-07
199	0x34aaec8e	3.1837084e-07
200	0xb5d558b9	-1.5895558e-06
201	0xb5e66782	-1.716646e-06
202	0x34917ff9	2.7101467e-07
203	0x364220b7	2.8927295e-06
204	0x3703595e	7.829016e-06
205	0x35468e1f	7.396756e-07
206	0xb70be43e	-8.338187e-06
207	0xb705ca2d	-7.9744905e-06
208	0x35e5aa77	1.7111441e-06
209	0x36c13d11	5.7589573e-06
210	0x3645f8d2	2.950012e-06
211	0x34960b00	2.794768e-07
212	0xb65b708f	-3.269906e-06
213	0xb65e41e4	-3.3118931e-06
214	0x35395e2d	6.9054914e-07
215	0x35ffef7b	1.9068679e-06
216	0xb6a1263d	-4.8026254e-06
217	0x360453ef	1.9718389e-06
218	0xb44f7b32	-1.9323195e-07
219	0xb61b61d2	-2.3153739e-06
220	0xb55bf0d5	-8.1934314e-07
221	0x36cd8791	6.125258e-06
222	0xb68642cf	-4.0012887e-06
223	0x34a75b25	3.117249e-07
224	0x3701589c	7.70963e-06
225	0x370f2c55	8.533786e-06
226	0x34e4336f	4.2505732e-07
227	0xb69f2f15	-4.7440503e-06
228	0x363a7d50	2.7789101e-06
229	0xb495175f	-2.7770417e-07
230	0xb6897969	-4.097052e-06
231	0xb688c2b0	-4.0757805e-06
232	0x35abb93a	1.2794401e-06
233	0x365ee4b7	3.3213707e-06
234	0xb6ba4056	-5.5507217e-06
235	0x368a63e9	4.1243516e-06
236	0x3688c67b	4.076222e-06
237	0x36232a9e	2.43137e-06
238	0xb65391bc	-3.1526279e-06
239	0x361556d2	2.2253266e-06
240	0xb64c45d4	-3.0439014e-06
241	0x3503c870	4.909298e-07
242	0x35f536a6	1.8269827e-06
243	0x35335b43	6.68155e-07
244	0xb56f3da1	-8.912412e-07
245	0xb4c4a887	-3.6630465e-07
246	0x36ca4efe	6.029265e-06
247	0xb48b80fe	-2.5984622e-07
248	0xb701615a	-7.711666e-06
249	0xb6ea784a	-6.987747e-06
250	0x362e02de	2.592969e-06
251	0x36d485f4	6.3336865e-06
252	0x361f2f05	2.3720215e-06
253	0xb4dcb793	-4.111176e-07
254	0xb69b5dcc	-4.6302794e-06
255	0xb6990014	-4.5597644e-06

exp_avg_sq f4 [60, 6]
0	0x2d927885	1.66518e-11
1	0x2d418bad	1.1001794e-11
2	0x2d2aec70	9.715881e-12
3	0x2dfba485	2.8608458e-11
4	0x2d8226e7	1.4796565e-11
5	0x2da888c5	1.9160127e-11
6	0x30a68b19	1.2117624e-09
7	0x302c440c	6.2669936e-10
8	0x305a8120	7.9491436e-10
9	0x308d9c8e	1.0303596e-09
10	0x306a663e	8.5274e-10
11	0x3046f3fb	7.23787e-10
12	0x3084a246	9.650385e-10
13	0x3037e239	6.6896494e-10
14	0x3016aa60	5.48118e-10
15	0x3070251e	8.736424e-10
16	0x302698a4	6.0607364e-10
17	0x30279bce	6.097566e-10
18	0x2efd7cd0	1.1527279e-10
19	0x2e5b2c12	4.9833977e-11
20	0x2e5350a4	4.804747e-11
21	0x2eb09b96	8.031191e-11
22	0x2ecaf17d	9.2287934e-11
23	0x2eb31127	8.1430244e-11
24	0x31ac4592	5.013768e-09
25	0x3189f295	4.014803e-09
26	0x313fd4a5	2.7915033e-09
27	0x31954d35	4.345248e-09
28	0x3138e1e7	2.6903935e-09
29	0x311bdcf7	2.2681073e-09
30	0x2c75a326	3.490716e-12
31	0x2c0ddd62	2.0160197e-12
32	0x2ba298b4	1.1553176e-12
33	0x2c2ed991	2.484766e-12
34	0x2bdb6d43	1.5591212e-12
35	0x2c16980f	2.1400692e-12
36	0x31237147	2.3784013e-09
37	0x30262a36	6.0450434e-10
38	0x2fb0e575	3.2177253e-10
39	0x30cf65d7	1.5090177e-09
40	0x3009465a	4.9940285e-10
41	0x30850bab	9.68034e-10
42	0x2edab009	9.9447624e-11
43	0x2dc636c3	2.2534313e-11
44	0x2d50c7f4	1.186783e-11
45	0x2ebbbb48	8.537043e-11
46	0x2e183776	3.4610058e-11
47	0x2e865f42	6.110536e-11
48	0x3107668d	1.970338e-09
49	0x30a894f7	1.2265947e-09
50	0x30850158	9.677406e-10
51	0x3101c1ea	1.8882198e-09
52	0x309de59b	1.1488511e-09
53	0x309cbc5d	1.140403e-09
54	0x3052d4cf	7.6699974e-10
55	0x2f93ecd6	2.6907426e-10
56	0x2f4bab1a	1.852353e-10
57	0x3026b197	6.064282e-10
58	0x2f925018	2.6614155e-10
59	0x30022e07	4.7359133e-10
60	0x300144f8	4.7027937e-10
61	0x2fd443e2	3.861081e-10
62	0x2fac67ce	3.1360375e-10
63	0x30300c85	6.404622e-10
64	0x2fd82d63	3.932242e-10
65	0x2fbb179b	3.4031875e-10
66	0x30ab66a4	1.247106e-09
67	0x30763fa5	8.9584723e-10
68	0x306eea85	8.691717e-10
69	0x30ada3fa	1.2634012e-09
70	0x30700fc1	8.733388e-10
71	0x30693876	8.484514e-10
72	0x2b33d574	6.38898e-13
73	0x2ac5b66e	3.5120816e-13
74	0x2aa37326	2.9034517e-13
75	0x2b262a61	5.903386e-13
76	0x2b0a04d5	4.9034155e-13
77	0x2b0f5a4d	5.0929123e-13
78	0x303a878e	6.785904e-10
79	0x2fc527b2	3.5862296e-10
80	0x2fdacded	3.9800288e-10
81	0x30288d41	6.131878e-10
82	0x2fcfec75	3.7821093e-10
83	0x3002cf47	4.7588283e-10
84	0x2be79c30	1.6456888e-12
85	0x2ba2d45d	1.1569735e-12
86	0x2b7c5754	8.9649577e-13
87	0x2c160aae	2.132221e-12
88	0x2bfc63cd	1.7933377e-12
89	0x2c26c414	2.3698864e-12
90	0x2ff1b5b9	4.3966766e-10
91	0x2ed80b7d	9.8245835e-11
92	0x2e883b3e	6.1950875e-11
93	0x2f743b1f	2.2212675e-10
94	0x2ec48972	8.937463e-11
95	0x2f5712ac	1.956077e-10
96	0x2b8978b9	9.767943e-13
97	0x2b0623ad	4.7655873e-13
98	0x2aaf190d	3.1103627e-13
99	0x2b6df9fe	8.454625e-13
100	0x2b8afc0f	9.87545e-13
101	0x2b60666e	7.9722936e-13
102	0x31212931	2.3451998e-09
103	0x30bf1c2e	1.3905088e-09
104	0x30c9d642	1.468557e-09
105	0x3104f9dc	1.9350557e-09
106	0x30bb5e0f	1.3632774e-09
107	0x30a403af	1.1933617e-09
108	0x302e7f72	6.348194e-10
109	0x2f7d2697	2.3023926e-10
110	0x2f2176e6	1.4685106e-10
111	0x3023c77f	5.9582556e-10
112	0x2f9a6aab	2.808823e-10
113	0x2fe32480	4.1316994e-10
114	0x31118bbb	2.1179705e-09
115	0x301c688d	5.6901045e-10
116	0x2ff60997	4.4753953e-10
117	0x30f86a72	1.8074628e-09
118	0x30324b3c	6.486294e-10
119	0x30909577	1.0519859e-09
120	0x2f49ec1e	1.8364729e-10
121	0x2ef521d6	1.11473206e-10
122	0x2eb1687e	8.0675897e-11
123	0x2f82886d	2.3743799e-10
124	0x2f03908c	1.1965734e-10
125	0x2f1ce32c	1.4268825e-10
126	0x2f850aa9	2.4200134e-10
127	0x2f24bdea	1.4983184e-10
128	0x2f2dd4ab	1.5809813e-10
129	0x2fde1011	4.039298e-10
130	0x2f4ab024	1.8434371e-10
131	0x2f74305c	2.2208851e-10
132	0x302d8b29	6.313479e-10
133	0x300f9c71	5.2245414e-10
134	0x2fa4249f	2.9857447e-10
135	0x30097c77	5.0017185e-10
136	0x2fb4e8ba	3.2907171e-10
137	0x2fa4e045	2.999078e-10
138	0x2f3ed2b5	1.7355258e-10
139	0x2eec8595	1.07557664e-10
140	0x2ec66b21	9.0230275e-11
141	0x2f4c459c	1.8578422e-10
142	0x2f1f2bca	1.4476523e-10
143	0x2ed46fdb	9.6605134e-11
144	0x2dbf321f	2.1736444e-11
145	0x2cb15f87	5.0412482e-12
146	0x2cb3207a	5.0910916e-12
147	0x2d32fa1a	1.0173662e-11
148	0x2ceae187	6.6757186e-12
149	0x2d0b2e4b	7.911514e-12
150	0x308d494f	1.0279936e-09
151	0x3085320f	9.691251e-10
152	0x30155f38	5.43412e-10
153	0x308de54e	1.0324273e-09
154	0x30073fd3	4.9203414e-10
155	0x301ece94	5.777363e-10
156	0x3127520f	2.4348343e-09
157	0x30efa016	1.7435038e-09
158	0x30e32287	1.6526237e-09
159	0x31400e08	2.7947653e-09
160	0x30e8b08d	1.69304e-09
161	0x30ed1e18	1.7252573e-09
162	0x2dab3b24	1.9466713e-11
163	0x2d05a05e	7.595783e-12
164	0x2ca630cc	4.7234213e-12
165	0x2dcf1b2b	2.354524e-11
166	0x2d04e7eb	7.554827e-12
167	0x2d9abc3c	1.7591366e-11
168	0x2f967f24	2.737518e-10
169	0x2ede67f7	1.0113859e-10
170	0x2e9c6e48	7.1136486e-11
171	0x2fcc51b1	3.716543e-10
172	0x2f3ab276	1.6980004e-10
173	0x2f973dad	2.7510563e-10
174	0x2e98986d	6.939236e-11
175	0x2e93e432	6.725322e-11
176	0x2e86a8a8	6.123574e-11
177	0x2f211c5e	1.4652943e-10
178	0x2ec5c6ec	8.9938584e-11
179	0x2eeb1f91	1.069217e-10
180	0x328122a9	1.5033338e-08
181	0x3233d3cc	1.0467328e-08
182	0x32201f9e	9.320415e-09
183	0x32790e15	1.44969095e-08
184	0x32038b6e	7.656906e-09
185	0x32118f9b	8.472763e-09
186	0x2f71bbc8	2.1985536e-10
187	0x2f46150c	1.8015472e-10
188	0x2e9af5de	7.046784e-11
189	0x2f66315a	2.0935911e-10
190	0x2fa75fcf	3.04452e-10
191	0x2f0fde27	1.3084699e-10
192	0x2f24ac58	1.4976942e-10
193	0x2dd1a7a5	2.3834998e-11
194	0x2d59e763	1.23864e-11
195	0x2e98db45	6.95111e-11
196	0x2ddf0586	2.5354618e-11
197	0x2e4b578d	4.6234617e-11
198	0x2fa364ae	2.9721064e-10
199	0x2ef8ff6e	1.1323108e-10
200	0x2f007502	1.1683102e-10
201	0x2f6382d7	2.0692013e-10
202	0x2f1eecc8	1.4454138e-10
203	0x2f104143	1.311991e-10
204	0x31ff05f9	7.422156e-09
205	0x31bf2edd	5.5641594e-09
206	0x319a96df	4.499142e-09
207	0x31ed3a51	6.9042376e-09
208	0x31951d98	4.339835e-09
209	0x31828d29	3.799546e-09
210	0x30b33d38	1.3041364e-09
211	0x30846982	9.634251e-10
212	0x304d9a3a	7.4797735e-10
213	0x3091ef7a	1.0618202e-09
214	0x302ddb04	6.3248273e-10
215	0x30593068	7.901293e-10
216	0x30f2919c	1.7649202e-09
217	0x3054fd76	7.748534e-10
218	0x2fbcf8cf	3.437379e-10
219	0x310328df	1.9086241e-09
220	0x306e027b	8.658742e-10
221	0x3094a7c1	1.0816096e-09
222	0x318f973b	4.1790407e-09
223	0x3101a643	1.886648e-09
224	0x3151c01e	3.0522709e-09
225	0x31929331	4.265893e-09
226	0x3117c7e1	2.208701e-09
227	0x312e6dfe	2.5382856e-09
228	0x30c4d723	1.4322022e-09
229	0x308c72d3	1.0218976e-09
230	0x3072b3ae	8.829443e-10
231	0x30b9eb75	1.3527442e-09
232	0x30604578	8.1589446e-10
233	0x3057f7e5	7.8568824e-10
234	0x314335b6	2.8406766e-09
235	0x30ed36f4	1.7259638e-09
236	0x30b608f9	1.3244793e-09
237	0x318141ae	3.761861e-09
238	0x30ef214c	1.7399002e-09
239	0x31237ff4	2.3792355e-09
240	0x2fb550b1	3.2981043e-10
241	0x2fc7161b	3.6213596e-10
242	0x2f440f70	1.783158e-10
243	0x2fd45a11	3.862657e-10
244	0x2f89f2e7	2.5092747e-10
245	0x2f65eb89	2.0911108e-10
246	0x31be9c27	5.5474803e-09
247	0x319249ab	4.2575343e-09
248	0x3163ddd4	3.3158942e-09
249	0x31b6c867	5.3196803e-09
250	0x31541c8b	3.0866285e-09
251	0x314a1102	2.9404537e-09
252	0x310e1c4e	2.067981e-09
253	0x30b5de9b	1.3232752e-09
254	0x30b6311e	1.3256203e-09
255	0x30f8dfc7	1.8107976e-09

exp_avg f4 [60]
0	0xb5179792	-5.647245e-07
1	0x368b8a06	4.158591e-06
2	0x3561c5e5	8.4107006e-07
3	0xb65e6f51	-3.3145373e-06
4	0xb69e7fb7	-4.723635e-06
5	0xb553b382	-7.8864844e-07
6	0x372f02bc	1.04314495e-05
7	0x367d114e	3.771001e-06
8	0xb608040d	-2.0267937e-06
9	0x36620bc6	3.3683477e-06
10	0x34e920fd	4.3423634e-07
11	0xb68b9971	-4.1603857e-06
12	0xb489b054	-2.5646534e-07
13	0x354540b1	7.348236e-07
14	0xb4a78a33	-3.1206727e-07
15	0x366993ba	3.4805694e-06
16	0xb4a2610e	-3.0245468e-07
17	0xb6cbe298	-6.0762504e-06
18	0x368e18c5	4.2348133e-06
19	0x3710d0fa	8.631725e-06
20	0xb66af3cf	-3.5010632e-06
21	0xb5ccaf04	-1.5250121e-06
22	0x3496030c	2.7941894e-07
23	0x35601d2f	8.348897e-07
24	0x35eceaf2	1.7651748e-06
25	0xb5e6c5df	-1.7193923e-06
26	0xb68bca30	-4.1660605e-06
27	0xb52eae53	-6.5073726e-07
28	0x369b4d13	4.6283326e-06
29	0x358b3627	1.0372067e-06
30	0x378d2cbe	1.6829345e-05
31	0xb5ccb8d0	-1.5252972e-06
32	0x365d4acb	3.2975101e-06
33	0x36aabacc	5.088141e-06
34	0x370c439c	8.360392e-06
35	0x367761d7	3.6862818e-06
36	0x3755e1df	1.2748379e-05
37	0xb742dace	-1.16142455e-05
38	0x36a98cdc	5.0529907e-06
39	0x36a6d484	4.9719256e-06
40	0x343c1c84	1.7519238e-07
41	0x370d3b2d	8.418033e-06
42	0x36c52ab6	5.8760297e-06
43	0xb5ee0d65	-1.773628e-06
44	0x358b549b	1.038093e-06
45	0x363e76e6	2.8381414e-06
46	0xb6cda529	-6.1287033e-06
47	0x37168089	8.970624e-06
48	0x371a74c4	9.206302e-06
49	0xb67ec321	-3.796253e-06
50	0xb61b2d7e	-2.312328e-06
51	0x361a42be	2.2986637e-06
52	0x36165a4a	2.2404297e-06
53	0x346da1c0	2.213119e-07
54	0x36207821	2.3911782e-06
55	0x36d8cd3c	6.461194e-06
56	0xb68cdbec	-4.1979274e-06
57	0x34217a7c	1.5038853e-07
58	0x36ddf1d1	6.6144644e-06
59	0x36409da8	2.8701998e-06

exp_avg_sq f4 [60]
0	0x2e9a47ee	7.0158865e-11
1	0x311acf9c	2.2527962e-09
2	0x3113dfb1	2.151847e-09
3	0x2fb6a32f	3.3221556e-10
4	0x322b1d36	9.960152e-09
5	0x2cb69659	5.189443e-12
6	0x31c5e303	5.759263e-09
7	0x2fb1a0b7	3.2310307e-10
8	0x31aa72a9	4.9606865e-09
9	0x31146602	2.159482e-09
10	0x30c4ef00	1.4328805e-09
11	0x315e541f	3.235307e-09
12	0x2bc48fd8	1.3966562e-12
13	0x30e67c39	1.6770009e-09
14	0x2cd8ae50	6.158442e-12
15	0x30822d8e	9.471692e-10
16	0x2c193309	2.1770938e-12
17	0x319614ec	4.367953e-09
18	0x310a38c6	2.0113915e-09
19	0x31d0174c	6.0562453e-09
20	0x303d9ae4	6.897791e-10
21	0x307be145	9.1633395e-10
22	0x30a8aa35	1.2271985e-09
23	0x2fe1a595	4.1044915e-10
24	0x2e3cc2ef	4.2919387e-11
25	0x3124a4ac	2.3958746e-09
26	0x31e48422	6.650695e-09
27	0x2e81291b	5.8735426e-11
28	0x30aa41d9	1.2387843e-09
29	0x2fcd674f	3.7362688e-10
30	0x330c1976	3.2619447e-08
31	0x303485ae	6.567359e-10
32	0x2fac43f2	3.1334896e-10
33	0x30533391	7.6834633e-10
34	0x3287e913	1.5822058e-08
35	0x3143a29d	2.846867e-09
36	0x31ebc324	6.861585e-09
37	0x320e1758	8.270796e-09
38	0x315663c3	3.1197807e-09
39	0x323b5719	1.0904636e-08
40	0x30839ac8	9.575496e-10
41	0x3252bdfc	1.2266806e-08
42	0x3195a84f	4.355605e-09
43	0x2fcbea95	3.7092165e-10
44	0x2fd2b906	3.8330245e-10
45	0x3214e984	8.667829e-09
46	0x311e81ac	2.3065736e-09
47	0x327a2011	1.4559206e-08
48	0x31176e7d	2.2036197e-09
49	0x31907fd8	4.2054857e-09
50	0x2fb9b9c3	3.3783296e-10
51	0x31667b5d	3.353953e-09
52	0x2ed60cbe	9.733857e-11
53	0x308cc882	1.0243328e-09
54	0x2f11b672	1.3252491e-10
55	0x32944f1b	1.726544e-08
56	0x30cf0e16	1.5065236e-09
57	0x2aeb76e0	4.1826872e-13
58	0x328cde1d	1.639915e-08
59	0x328132fe	1.5040765e-08

exp_avg f4 [60, 60]
0	0xb30dd545	-3.302309e-08
1	0xb3cc3fe1	-9.51111e-08
2	0xb4808310	-2.3937218e-07
3	0xb4ff037e	-4.7499992e-07
4	0xb5096382	-5.118128e-07
5	0x32faed88	2.9211847e-08
6	0x34bc760e	3.5103625e-07
7	0x347e7803	2.3699253e-07
8	0xb460ca8e	-2.0935315e-07
9	0x3514fc93	5.550184e-07
10	0xb366835b	-5.3670515e-08
11	0xb5306555	-6.5712567e-07
12	0x3252f114	1.2278424e-08
13	0xb35ae2c8	-5.0963337e-08
14	0xb186599f	-3.910102e-09
15	0x34faea76	4.6736722e-07
16	0x318a1993	4.019236e-09
17	0xb50ec608	-5.3187296e-07
18	0x34faa979	4.6689436e-07
19	0x3548eeee	7.4853494e-07
20	0xb29e4e9f	-1.8429374e-08
21	0xb3e36d53	-1.0590397e-07
22	0xb320741d	-3.7358507e-08
23	0xb40856a7	-1.2697511e-07
24	0x33458deb	4.599671e-08
25	0xb49d7824	-2.9330943e-07
26	0xb39c45ef	-7.277037e-08
27	0xb4738b8a	-2.2681903e-07
28	0x34d0f2b4	3.891961e-07
29	0x32b06718	2.0535978e-08
30	0x3512da50	5.4706925e-07
31	0xb4de7d6f	-4.1441987e-07
32	0xb3543bed	-4.94146e-08
33	0x343f4ca0	1.7816137e-07
34	0x34fd045a	4.7128088e-07
35	0x34846338	2.4659107e-07
36	0x347ada6b	2.3362524e-07
37	0x350771b2	5.045687e-07
38	0x350456ae	4.929997e-07
39	0x34f68d12	4.5923713e-07
40	0xb49333bc	-2.7418525e-07
41	0x34f49ee3	4.5564147e-07
42	0x33227c75	3.7831757e-08
43	0xb5184ba5	-5.673449e-07
44	0xb411c1cf	-1.3574684e-07
45	0xb4171309	-1.4069896e-07
46	0xb4039028	-1.225277e-07
47	0x34c120c7	3.59729e-07
48	0x354cc8b5	7.628799e-07
49	0xb5307300	-6.5732456e-07
50	0xb4bdf939	-3.5385327e-07
51	0x354354b5	7.2766426e-07
52	0xb47a1cfb	-2.3293607e-07
53	0xb436ef35	-1.7037094e-07
54	0xb3e79073	-1.0783051e-07
55	0x33e10366	1.0477997e-07
56	0x34c07b3b	3.585245e-07
57	0xb149a051	-2.934048e-09
58	0x341ec8bd	1.4787925e-07
59	0xb3421a40	-4.519302e-08
60	0x300333b4	4.7730997e-10
61	0x32232b00	9.497626e-09
62	0x2fcb007f	3.6925837e-10
63	0x30f80a0c	1.804723e-09
64	0x31b0b69f	5.1430358e-09
65	0xb117b835	-2.2078102e-09
66	0xb233cc55	-1.0465631e-08
67	0x317fc67d	3.7220211e-09
68	0xb10af8c7	-2.0223057e-09
69	0xb28aa1ca	-1.6138888e-08
70	0x327f3873	1.4855789e-08
71	0x328a639d	1.6110613e-08
72	0x305c3a8d	8.011874e-10
73	0xb1b1d0f7	-5.1751345e-09
74	0xb043b6f6	-7.120059e-10
75	0xb275f1cb	-1.4315854e-08
76	0xb05a3f48	-7.9397866e-10
77	0x32215832	9.391487e-09
78	0xb237b2c7	-1.0692651e-08
79	0xb2e54178	-2.668888e-08
80	0xb17e1d5d	-3.6978556e-09
81	0x30c859a3	1.4577392e-09
82	0xb1fabf19	-7.297683e-09
83	0x30043b93	4.810598e-10
84	0x3155358b	3.1026015e-09
85	0x319c4174	4.5476387e-09
86	0xb041e909	-7.0544154e-10
87	0x31c55cdd	5.744012e-09
88	0xb1a1dc4f	-4.710763e-09
89	0x309d3a1d	1.143977e-09
90	0xb186395b	-3.906434e-09
91	0x2f256bd0	1.5044965e-10
92	0xb1f737b8	-7.1949806e-09
93	0xb1c3be78	-5.6969007e-09
94	0xb1e5f96c	-6.693133e-09
95	0xb283367e	-1.5275187e-08
96	0x300708b8	4.9125104e-10
97	0xb21e5617	-9.216385e-09
98	0xb0524775	-7.64991e-10
99	0xb26daaf1	-1.3834083e-08
100	0x3162b15f	3.2988152e-09
101	0xb1974d12	-4.4034403e-09
102	0xafecc2c5	-4.3066542e-10
103	0x30b6ca7a	1.329979e-09
104	0x31a11047	4.6875672e-09
105	0x32050a03	7.743895e-09
106	0x3187888d	3.944541e-09
107	0xb1ac9607	-5.022915e-09
108	0xb2904db4	-1.6799142e-08
109	0x31c4981a	5.7216427e-09
110	0x31e62e11	6.699118e-09
111	0xb27478fe	-1.423018e-08
112	0xb20795d1	-7.8920985e-09
113	0x324e5b91	1.2011598e-08
114	0x3280ee77	1.5009602e-08
115	0xb0ec7bd2	-1.7206452e-09
116	0xb0978420	-1.1024248e-09
117	0xae1bc109	-3.541437e-11
118	0xb189c0cf	-4.0091446e-09
119	0xb12e6ddc	-2.538278e-09
120	0x33219785	3.762354e-08
121	0x34cb51ff	3.7871357e-07
122	0x3483d195	2.4553142e-07
123	0xb3eebfeb	-1.1117648e-07
124	0xb42b9dc1	-1.5983007e-07
125	0x30374762	6.6676453e-10
126	0x355824e4	8.0519953e-07
127	0x343e45be	1.7720501e-07
128	0x3489eee4	2.5692054e-07
129	0x35262356	6.189124e-07
130	0xb5b9abf4	-1.3833619e-06
131	0xb5fe0792	-1.8926678e-06
132	0xb3af29a7	-8.156649e-08
133	0xb49b9abe	-2.898359e-07
134	0x3387dcce	6.3265915e-08
135	0x3563b4ea	8.4827354e-07
136	0x337ea4fc	5.9289036e-08
137	0xb5450865	-7.3400435e-07
138	0x34edae1f	4.427138e-07
139	0x35a56d2b	1.232523e-06
140	0xb2f0ca60	-2.8031707e-08
141	0xb2c824b3	-2.3299753e-08
142	0x346c588e	2.2011429e-07
143	0x35099557	5.1253795e-07
144	0x3400f2ea	1.20093e-07
145	0x34b385e6	3.3438772e-07
146	0xb51fc180	-5.9513695e-07
147	0xb39b1b18	-7.222678e-08
148	0x3475c77e	2.2889978e-07
149	0xb3c65cdb	-9.236984e-08
150	0x32f62a1e	2.8657322e-08
151	0x357e9116	9.48335e-07
152	0x35226301	6.049377e-07
153	0x3546f9da	7.412433e-07
154	0xb35b8dc0	-5.1118832e-08
155	0xb3b8b2f3	-8.6007184e-08
156	0x3570ec84	8.975114e-07
157	0xb4211b0a	-1.500413e-07
158	0x31ba5b4d	5.423692e-09
159	0x35267906	6.201593e-07
160	0x34dfa2ed	4.165553e-07
161	0xb033e375	-6.5443057e-10
162	0x351f3c1d	5.931959e-07
163	0x34a81e3f	3.1314445e-07
164	0xb4a64e7c	-3.0977014e-07
165	0xb3f86579	-1.1566858e-07
166	0xb5852cfd	-9.922366e-07
167	0xb40d6445	-1.3168126e-07
168	0x3592368c	1.0893723e-06
169	0xb57287ae	-9.0349465e-07
170	0xb44daa6d	-1.9154113e-07
171	0x332c77f9	4.0155985e-08
172	0x34c1f3b1	3.612636e-07
173	0xb40d8e87	-1.31835e-07
174	0xb3019408	-3.0169787e-08
175	0x3479ea96	2.3275274e-07
176	0xb5912eb0	-1.081693e-06
177	0x3252fec4	1.2281536e-08
178	0x34a3e5a4	3.0528201e-07
179	0x34c18350	3.6044594e-07
180	0x3379028c	5.7977147e-08
181	0x34a8b4f8	3.142411e-07
182	0x35114887	5.412225e-07
183	0xb3051fbe	-3.0995345e-08
184	0xb38be0f7	-6.513613e-08
185	0xb2c64a62	-2.3084059e-08
186	0x351470fb	5.5298705e-07
187	0x33885f0e	6.350284e-08
188	0x33bfb701	8.927419e-08
189	0x35498ce9	7.5083386e-07
190	0xb5b46480	-1.3440294e-06
191	0xb5a5cf65	-1.2353818e-06
192	0xb3732b5d	-5.6617285e-08
193	0x346e1af7	2.2175287e-07
194	0x33358206	4.2260602e-08
195	0x353d76ad	7.058068e-07
196	0x331bb2e1	3.625144e-08
197	0xb5433e0a	-7.273344e-07
198	0x348ba718	2.6012344e-07
199	0x350fc7d9	5.356247e-07
200	0xb348c249	-4.674283e-08
201	0xb417eca3	-1.4149059e-07
202	0x351c0ace	5.813025e-07
203	0xb3740f21	-5.6824437e-08
204	0x33e9ec68	1.089291e-07
205	0x35369b4b	6.8026264e-07
206	0xb4cc24a0	-3.802461e-07
207	0x33fe1080	1.1830798e-07
208	0x34709e7b	2.2409397e-07
209	0x328eb141	1.6611581e-08
210	0x347993ec	2.3243746e-07
211	0x34e08920	4.1823023e-07
212	0x352865a1	6.2732767e-07
213	0x34499dc7	1.8776983e-07
214	0xafa0fccf	-2.9283462e-10
215	0x3538f5f6	6.890326e-07
216	0x34e3084b	4.228808e-07
217	0xb4607549	-2.0904294e-07
218	0xb3e6784b	-1.0732091e-07
219	0x34c1ed29	3.6121608e-07
220	0x34bb5ca3	3.4898866e-07
221	0x341305cd	1.3692552e-07
222	0x34b5b05c	3.3842196e-07
223	0x35123a3f	5.4474e-07
224	0xb4bde717	-3.5372133e-07
225	0xb4978b00	-2.8227078e-07
226	0xb3957d6e	-6.961169e-08
227	0x3327eb9f	3.9097014e-08
228	0x350cd815	5.2468505e-07
229	0xb4ca94c8	-3.7733685e-07
230	0xb4dd3fe2	-4.121094e-07
231	0x33c926af	9.3668284e-08
232	0x3513debf	5.5085906e-07
233	0xb5036a57	-4.895605e-07
234	0xb4f8df12	-4.6355905e-07
235	0xb397a4f4	-7.06149e-08
236	0xb50f514d	-5.338996e-07
237	0x31fbf618	7.333039e-09
238	0xb36db66e	-5.534678e-08
239	0xb3e8e44f	-1.0844871e-07
240	0xb1969de5	-4.383525e-09
241	0xb4d7ccfb	-4.0196014e-07
242	0xb46995bc	-2.1754289e-07
243	0xb42265eb	-1.5124503e-07
244	0xb2bbff1b	-2.1885674e-08
245	0x336b3ab8	5.4768606e-08
246	0x33e77602	1.0778241e-07
247	0xb40cfe7a	-1.3131094e-07
248	0x3363a884	5.300582e-08
249	0x33b2c5af	8.324729e-08
250	0x33177af0	3.5269238e-08
251	0xb4126a3f	-1.3635962e-07
252	0xb2a53ef6	-1.923716e-08
253	0x33f88cc4	1.1574005e-07
254	0x32fec53f	2.9659189e-08
255	0xb2a0cf73	-1.8720788e-08
