mnc_ml_test/output/train/20221128-1134-model.pth (torch, 41101 bytes, 14 tensors)

module.0.weight f4 [60, 6]
0.037945427 -0.015143827 -0.13603833 -0.13988797 -0.05521156 -0.21453595 0.36168924 -0.1525323
0.09897573 0.067126 0.25174728 -0.31743726 0.35494727 0.16496629 0.4579535 -0.24439701
0.12307177 0.082851954 0.2150515 -0.2736273 0.13849854 -0.19284005 -0.30882052 0.19967099
0.24324241 -0.22515354 -0.032970734 0.22463551 -0.16475824 0.22671431 -0.131676 -0.09647147
0.04041216 -0.14802648 -0.31204283 0.14382233 0.30900547 -0.097229384 0.29408926 -0.0008868558
0.22858402 -0.03910837 0.38409948 -0.2639191 0.43578583 -0.019602858 -0.33935487 -0.08967836
0.27241942 -0.11978975 -0.30979604 0.38316268 -0.08814071 0.28730646 0.13791992 0.0624847
-0.2826266 0.13135348 -0.03082268 0.16142857 0.29192963 0.5214257 -0.6775984 0.25502685
0.09608793 -0.25326687 -0.34952873 -0.052101582 0.19215441 -0.17440748 0.30055246 -0.27817255
-0.0062487535 -0.061455633 0.17326291 -0.46257502 0.31157577 0.03184623 0.007839049 0.17202348
0.15828228 0.33534145 -0.038351737 -0.098830864 -0.46318766 -0.46663356 0.38702792 0.14882186
0.14646581 0.3775558 0.1943133 -0.091004014 0.30315873 -0.22534195 0.3242229 0.31450665
-0.27625558 0.31572142 0.27224973 0.014580318 -0.13319393 -0.2346593 0.22968364 -0.01682078
0.34894374 -0.026181312 -0.12597264 0.3485835 -0.094997495 -0.10875912 0.21961686 -0.04314845
-0.4898001 0.14736503 -0.049894173 0.15824217 0.14355217 0.10769929 0.107816674 0.10922778
-0.59023595 -0.267905 0.3511872 0.11742789 0.20406513 -0.11410956 -0.059359297 0.15344235
-0.14526793 0.1760538 -0.05176753 0.17330122 0.3012571 -0.04216912 -0.23889542 0.04841091
0.40978065 -0.101442724 -0.29088676 0.35377103 -0.41299862 0.3851895 0.0419936 -0.07544905
0.43091816 -0.54404134 -0.30717072 0.2931307 0.40269578 0.07817357 -0.21593907 -0.31448957
-0.3359195 0.08677092 0.14395879 -0.09614756 0.108527415 -0.0054546823 -0.5417291 -0.12330868
-0.13217953 -0.3872496 -0.23904513 -0.010827363 -0.38449344 -0.303205 0.06705788 -0.35590616
0.031483654 0.055060748 -0.646654 0.16571076 0.0066055525 -0.20222779 0.02011645 0.1141448
0.278534 0.11802368 -0.22011642 -0.12649886 -0.24714679 0.10941748 -0.39166033 0.20663528
-0.12806965 -0.08657419 -0.56961024 0.37644356 -0.13282265 -0.36087307 0.14628603 -0.01950712
-0.22154042 -0.23791374 -0.15121825 -0.21692012 0.105740555 0.22343193 0.23677473 -0.103455335
0.26898777 -0.31279564 0.081392415 -0.14653777 -0.08274746 0.14218113 -0.29937887 0.032837052
0.35442707 0.048100848 0.13717704 0.32202962 0.055533186 -0.29837438 0.42647472 0.4098253
-0.2499647 0.36883613 -0.3432056 -0.24242671 0.19754772 -0.34579226 -0.16039525 0.31669432
0.009390709 0.22320938 0.09016298 -0.092646405 0.23315392 -0.13950157 0.27810735 -0.1675729
0.3790248 -0.30377427 0.19683772 0.031452995 0.12521967 0.14196353 -0.25442111 -0.03043187
-0.2098285 -0.30103892 -0.59088516 0.026936537 0.1282046 -0.06476144 -0.20886336 -0.23167585
-0.102549635 0.078291096 0.21527477 0.145937 -0.24109256 -0.14738649 0.32928464 -0.27181625
00000000: aa6c 1b3d d01d 78bc a24d 0bbe cb3e 0fbe
00000010: 8425 62bd 50af 5bbe 552f b93e 6d31 1cbe
00000020: cab3 ca3d 5b79 893d 05e5 803e 2387 a2be
00000030: a6bb b53e ecec 283e e278 ea3e 3643 7abe
00000040: 0d0d fc3d 49ae a93d 7636 5c3e e118 8cbe
00000050: 90d2 0d3e dd77 45be b91d 9ebe 8d76 4c3e
00000060: 8a14 793e a68e 66be 520c 07bd da06 663e
00000070: 62b6 28be cc27 683e 13d6 06be d692 c5bd
00000080: 3987 253d 4194 17be 14c4 9fbe 2946 133e
00000090: f735 9e3e 3320 c7bd de92 963e e37b 68ba
000000a0: ee11 6a3e 1930 20bd b0a8 c43e 6720 87be
000000b0: 521f df3e 2c96 a0bc ecbf adbe 4aa9 b7bd
000000c0: 8f7a 8b3e 5454 f5bd 969d 9ebe e62d c43e
000000d0: 1e83 b4bd d519 933e e13a 0d3e f5ef 7f3d
000000e0: 6fb4 90be 8781 063e d87f fcbc 884d 253e
000000f0: cd77 953e 287c 053f 1777 2dbf e192 823e
00000100: c0c9 c43d 32ac 81be 6ef5 b2be 7868 55bd
00000110: 20c4 443e e097 32be 03e2 993e a26c 8ebe
00000120: 58c2 ccbb e7b8 7bbd d56b 313e a2d6 ecbe
00000130: dc86 9f3e 3171 023d 5b6f 003c ec26 303e
00000140: c014 223e e0b1 ab3e b616 1dbd d667 cabd
00000150: ef26 edbe 98ea eebe 8628 c63e c264 183e
00000160: 22fb 153e fe4e c13e 11fa 463e 5060 babd
00000170: 9f37 9b3e 0ac0 66be 8b00 a63e 0407 a13e
00000180: 5f71 8dbe 3da6 a13e 5164 8b3e 49e2 6e3c
00000190: fd63 08be 874a 70be 3032 6b3e bbcb 89bc
000001a0: c1a8 b23e 317a d6bc f9fe 00be 8979 b23e
000001b0: 0c8e c2bd 1abd debd 3ee3 603e 6ebc 30bd
000001c0: 14c7 fabe dce6 163e d55d 4cbd 3c0a 223e
000001d0: 57ff 123e 7291 dc3d fdce dc3d d0b2 df3d
000001e0: b419 17bf d82a 89be cfce b33e 097e f03d
000001f0: 73f6 503e 46b2 e9bd bc22 73bd fe1f 1d3e
00000200: 1ec1 14be 7347 343e 310a 54bd e075 313e
00000210: 5f3e 9a3e 87b9 2cbd 00a1 74be 854a 463d
00000220: c5ce d13e 34c1 cfbd 1cef 94be 7a21 b53e
00000230: 8e74 d3be 8f37 c53e 7b01 2c3d 0885 9abd
00000240: 4ea1 dc3e 4b46 0bbf 7b45 9dbe 3a15 963e
00000250: 242e ce3e 7719 a03d 221f 5dbe c704 a1be
00000260: a4fd abbe f4b4 b13d ef69 133e 03e9 c4bd
00000270: 9f43 de3d 31bd b2bb c2ae 0abf 4389 fcbd
00000280: 125a 07be 9445 c6be 3fc8 74be 4065 31bc
00000290: 53dc c4be b03d 9bbe a455 893d 5539 b6be
000002a0: 01f5 003d 6187 613d 1e8b 25bf 15b0 293e
000002b0: 6473 d83b cd14 4fbe 41cb a43c c0c4 e93d
000002c0: 029c 8e3e 66b6 f13d 3366 61be eb88 01be
000002d0: 0c14 7dbe 4616 e03d b487 c8be 3398 533e
000002e0: b124 03be cf4d b1bd fad1 11bf 36bd c03e
000002f0: a902 08be 5bc4 b8be 01cc 153e 65cd 9fbc
00000300: 7edb 62be a99f 73be f5d8 1abe 4f20 5ebe
00000310: 818e d83d 57cb 643e 1375 723e 64e0 d3bd
00000320: c4b8 893e c026 a0be 11b1 a63d ff0d 16be
00000330: 8077 a9bd ee97 113e 3048 99be 2580 063d
00000340: 7777 b53e 6505 453d 2378 0c3e 11e1 a43e
00000350: c476 633d 87c4 98be e55a da3e 9fd4 d13e
00000360: bff6 7fbe 17d8 bc3e a5b8 afbe b53e 78be
00000370: f349 4a3e af0b b1be a73e 24be c225 a23e
00000380: 7ddb 193c 0091 643e 5ea7 b83d 66bd bdbd
00000390: e7bf 6e3e 80d9 0ebe 1664 8e3e 3b98 2bbe
000003a0: 8a0f c23e 4d88 9bbe d48f 493e dbd4 003d
000003b0: 9639 003e e35e 113e 7c43 82be 424c f9bc
000003c0: 48dd 56be c621 9abe 4044 17bf 03aa dc3c
000003d0: 1148 033e a5a1 84bd 47e0 55be 6f3c 6dbe
000003e0: 8b05 d2bd 1557 a03d fd70 5c3e 8270 153e
000003f0: f8e0 76be 7cec 16be ff97 a83e 802b 8bbe

module.0.bias f4 [60]
-0.028398301 -0.23930436 -0.23650207 -0.29578757 0.24310945 0.34217936 0.17711389 -0.1833415
-0.092917256 -0.2291372 -0.07840225 0.36087942 -0.20501669 0.27971587 -0.1442788 -0.08184426
0.058592334 -0.35722226 -0.10920221 0.37770215 -0.064184785 0.36112806 0.1344178 0.3388618
0.17976779 0.37309852 -0.08275456 0.15562394 -0.1709685 0.1783252 -0.0046671815 -0.21065773
0.31678233 0.038017426 -0.016298149 0.120540425 0.12356589 0.10632605 0.17671542 -0.3914502
-0.02815292 0.25032666 -0.021322716 0.21150592 0.3153804 -0.117260024 -0.20985875 -0.03225196
-0.43410638 -0.26899227 -0.18450175 0.36926523 0.22866793 -0.15894924 -0.12353469 -0.08154234
0.1331443 0.17648119 0.046779215 -0.37726364
00000000: 8ea3 e8bc 340c 75be 992d 72be 7871 97be
00000010: aff1 783e 2232 af3e 585d 353e e0bd 3bbe
00000020: 674b bebd f1a2 6abe 5c91 a0bd 30c5 b83e
00000030: e5ef 51be eb36 8f3e d2bd 13be f79d a7bd
00000040: 84fe 6f3d d6e5 b6be 69a5 dfbd 2d62 c13e
00000050: 5073 83bd c7e5 b83e d2a4 093e 4b7f ad3e
00000060: 0c15 383e c506 bf3e 397b a9bd e25b 1f3e
00000070: 5e12 2fbe e29a 363e 28ef 98bb a9b6 57be
00000080: 4b31 a23e 29b8 1b3d b283 85bc e6dd f63d
00000090: 1d10 fd3d 79c1 d93d e3f4 343e 296c c8be
000000a0: f4a0 e6bc d12a 803e faac aebc 0295 583e
000000b0: 8a79 a13e 0626 f0bd 36e5 56be a21a 04bd
000000c0: 3143 debe 5bb9 89be 07ee 3cbe 5510 bd3e
000000d0: ed27 6a3e 97c3 22be c1ff fcbd acff a6bd
000000e0: fb56 083e 7cb7 343e 909b 3f3d b328 c1be

module.2.weight f4 [60, 60]
-0.018248882 -0.008553565 0.0007298045 -0.16012104 0.075669885 0.08517099 -0.083422616 -0.00595742
0.0263154 0.035280135 0.20078905 -0.10082769 -0.12698601 0.063998036 0.13299972 -0.04440613
-0.007938706 0.0836167 -0.050467897 0.026500463 0.16743737 0.05621494 -0.046006706 0.13541336
-0.02127508 0.00916029 0.12884845 0.17418179 0.106062695 -0.06340244 0.25781128 0.21637009
0.0032109092 -0.19805062 -0.08695338 -0.003619306 0.002003843 0.16791138 -0.10798434 -0.021216674
0.17176811 -0.048812516 -0.11980628 -0.059943408 -0.18451728 0.33173442 -0.111348376 -0.036565047
0.099180505 0.25121745 0.21221934 -0.06765389 0.06332668 0.20816226 0.2209892 0.09075957
0.10533559 -0.10563859 0.23996419 0.01326146 0.01349973 -0.006792709 0.03187188 -0.105702855
-0.0105774645 0.15498213 0.09363569 0.08343559 -0.08911954 -0.08532268 -0.22105473 -0.003317335
-0.026890488 0.040004946 -0.08504196 0.047969364 -0.022955455 -0.001839714 -0.06670287 -0.096545026
-0.13114944 0.10044642 0.11514063 -0.004588763 -0.08688259 -0.07475229 -0.005195827 -0.09248761
0.03237044 -0.03842574 -0.17112054 -0.23688263 0.038666803 0.012112786 0.13277425 -0.06443893
0.04230237 -0.09562347 0.034782767 -0.06694193 -0.019567193 0.08904365 0.06499915 4.3624656e-05
0.15332691 -0.110674344 0.10442047 0.0028351077 -0.05631665 -0.12719825 -0.012892345 -0.08865423
-0.09165668 -0.04858903 -0.1342753 -0.20088989 0.029262202 0.04833864 -0.05823667 0.0628404
-0.07096337 -0.088059455 -0.1425554 -0.0227241 0.12264784 0.09408523 0.04484242 0.05120021
0.09842952 -0.10937052 0.042928945 0.04203321 0.108553074 0.018993594 0.13964722 -0.018647697
-0.0734431 0.011101014 0.14987095 0.14917462 0.1805022 0.04500657 -0.054233126 0.18117885
0.044441197 0.20173465 0.08830461 0.023174236 0.036739666 -0.04340495 -0.016564269 0.15507881
0.115245864 -0.11485336 0.067242466 0.10904057 0.052841265 0.18334156 -0.10688313 -0.13048387
0.11598446 0.18416071 0.118961275 -0.119074926 0.07415288 -0.0059259348 0.02791858 -0.011293219
-0.028999975 0.037388608 -0.016397547 0.11241274 0.020736082 -0.14874883 0.0072997436 0.11730026
0.1502233 0.10779273 0.23129793 -0.115877956 -0.058750596 0.02963572 0.030955201 -0.23809174
-0.0073683406 0.043676775 -0.2930783 -0.17177683 0.04705522 0.21706513 0.38842395 0.09640873
-0.1301354 0.051617876 -0.010974126 -0.26391476 0.040738247 -0.016520394 -0.11613864 -0.0065623964
0.17444368 -0.017657122 -0.0032685958 0.15219001 -0.073924236 0.060167346 0.15334402 -0.035463735
0.2922797 -0.09458095 0.54619575 0.30802828 -0.12844989 -0.34123453 0.082405105 -0.11994351
0.15244131 0.24936822 -0.13293368 0.06726753 0.15198001 -0.04331821 -0.10371499 -0.11186449
-0.5634221 0.09160837 -0.14951506 0.13284168 0.038764037 0.31981793 0.297987 -0.18864378
0.07996172 0.10234711 0.41895333 0.29506338 -0.025809756 0.024462927 0.20367633 -0.017927267
-0.008455703 -0.05980176 0.118911795 0.1611031 0.14667405 0.11281587 0.29829282 0.11894003
0.09493234 -0.17752016 -0.2518015 0.049898166 0.13166888 -0.14384879 -0.13993686 0.44472265
00000000: ae7e 95bc 4024 0cbc 5a50 3f3a c5f6 23be
00000010: d0f8 9a3d 216e ae3d 7ad9 aabd 7636 c3bb
00000020: 6593 d73c e781 103d a59b 4d3e bf7e cebd
00000030: 9f08 02be 6711 833d 1431 083e 34e3 35bd
00000040: 5911 02bc 3b3f ab3d 6db7 4ebd 8017 d93c
00000050: b474 2b3e a341 663d 8771 3cbd cda9 0a3e
00000060: 1449 aebc 0a15 163c d9f0 033e b65c 323e
00000070: 6637 d93d 23d9 81bd d7ff 833e 1f90 5d3e
00000080: 1e6e 523b c8cd 4abe 9d14 b2bd e131 6dbb
00000090: e852 033b f6f0 2b3e e526 ddbd 97ce adbc
000000a0: fbe3 2f3e a2ef 47bd ff5c f5bd 3887 75bd
000000b0: 19f2 3cbe 18d9 a93e 9e0a e4bd 3bc5 15bd
000000c0: 261f cb3d 939f 803e 0750 593e 1f8e 8abd
000000d0: 6bb1 813d 7d28 553e fe4a 623e 27e0 b93d
000000e0: 30ba d73d 0c59 d8bd 2cb9 753e 9846 593c
000000f0: f92d 5d3c 6095 debb 178c 023d bd7a d8bd
00000100: 1a4d 2dbc a3b3 1e3e 12c4 bf3d 47e0 aa3d
00000110: 4e84 b6bd a8bd aebd 2c5c 62be a567 59bb
00000120: 7149 dcbc 3adc 233d 7b2a aebd 867b 443d
00000130: 140d bcbc 8f22 f1ba 849b 88bd 66b9 c5bd
00000140: 0a4c 06be dab6 cd3d dace eb3d 565d 96bb
00000150: 80ef b1bd bb17 99bd c241 aabb 256a bdbd
00000160: de96 043d 4f64 1dbd 393a 2fbe 5c91 72be
00000170: 1561 1e3d b574 463c f9f5 073e 8ff8 83bd
00000180: 4045 2d3d 3dd6 c3bd 6078 0e3d da18 89bd
00000190: 614b a0bc 845c b63d 461e 853d 9ef9 3638
000001a0: bb01 1d3e 3ba9 e2bd 66da d53d 37cd 393b
000001b0: 4aac 66bd 4240 02be 6a3a 53bc 5990 b5bd
000001c0: 7fb6 bbbd 4a05 47bd 777f 09be 14b6 4dbe
000001d0: 49b7 ef3c bdfe 453d 9389 6ebd 78b2 803d
000001e0: 3e55 91bd 8458 b4bd 0bfa 11be e427 babc
000001f0: ca2e fb3d c2af c03d afac 373d 50b7 513d
00000200: 6b95 c93d a7fd dfbd 43d6 2f3d 042b 2c3d
00000210: 1351 de3d 7498 9b3c aeff 0e3e 0ec3 98bc
00000220: 5669 96bd 07e1 353c c577 193e 3bc1 183e
00000230: 92d5 383e cf58 383d 8e23 5ebd f386 393e
00000240: f907 363d 8793 4e3e 0cd9 b43d e5d7 bd3c
00000250: 557c 163d 64c9 31bd cab1 87bc fbcc 1e3e
00000260: 0606 ec3d 3d38 ebbd 6bb6 893d aa50 df3d
00000270: 1570 583d e4bd 3b3e 8be5 dabd 909d 05be
00000280: 4389 ed3d a094 3c3e f8a1 f33d 8edd f3bd
00000290: 77dd 973d 582e c2bb 82b5 e43c 3207 39bc
000002a0: 5b91 edbc cc24 193d 2654 86bc a738 e63d
000002b0: b7de a93c 9d51 18be b032 ef3b 1e3b f03d
000002c0: 23d4 193e 6fc2 dc3d 5dd9 6c3e 6c51 edbd
000002d0: 77a4 70bd 9cc6 f23c c395 fd3c 52ce 73be
000002e0: 1f72 f1bb 6be6 323d 5c0e 96be 44e6 2fbe
000002f0: f9bc 403d 5246 5e3e 81df c63e f171 c53d
00000300: 3742 05be 446d 533d d2cc 33bc d61f 87be
00000310: 26dd 263d c755 87bc 18da edbd 5f09 d7bb
00000320: 5da1 323e aba5 90bc f035 56bb b3d7 1b3e
00000330: 9765 97bd 0972 763d 3706 1d3e 6c42 11bd
00000340: afa5 953e a8b3 c1bd 7cd3 0b3f e2b5 9d3e
00000350: 5e88 03be 4bb6 aebe 02c4 a83d f1a4 f5bd
00000360: 9319 1c3e 625a 7f3e c41f 08be 8fc3 893d
00000370: a6a0 1b3e 6f6e 31bd 8668 d4bd 3619 e5bd
00000380: 6e3c 10bf 2b9d bb3d 7a1a 19be a607 083e
00000390: 0ac7 1e3d 2dbf a33e c191 983e d62b 41be
000003a0: f8c2 a33d 5d9b d13d 0d81 d63e 8c12 973e
000003b0: fb6e d3bc 7a66 c83c 8790 503e 34dc 92bc
000003c0: ca89 0abc b1f2 74bd 0788 f33d 36f8 243e
000003d0: b931 163e 020c e73d d6b9 983e d596 f33d
000003e0: e36b c23d d8c7 35be 20ec 80be 0562 4c3d
000003f0: 35d4 063e 194d 13be 9c4b 0fbe b0b2 e33e

module.2.bias f4 [60]
-0.13829269 -0.048088077 -0.036399208 -0.089590564 0.08156911 0.13483734 -0.12843102 -0.048821468
-0.09742995 -0.057627082 0.098640144 -0.06241005 -0.007452343 -0.09050722 -0.19483182 -0.06753498
0.08627652 -0.019766036 -0.03767621 -0.14670621 -0.12127098 0.016433395 0.12032944 -0.05471772
-0.12510915 0.113111496 -0.058983676 0.089824274 0.03943819 0.06084709 -0.094563246 -0.01906583
0.015347186 -0.14206442 -0.13114691 0.14171036 0.028443793 -0.13275026 -0.21491441 -0.062159218
-0.049045745 0.059159696 -0.081599124 0.083857276 -0.13853596 -0.18755534 0.111680485 0.053433374
0.0066529154 -0.1727683 -0.0798398 0.08205153 -0.13813174 -0.005348959 0.05307605 0.057369187
-0.11342871 0.17467964 -0.10959842 -0.12643318
00000000: 999c 0dbe 01f8 44bd 5617 15bd 427b b7bd
00000010: b50d a73d cd12 0a3e 6c83 03be 05f9 47bd
00000020: 5b89 c7bd 600a 6cbd d803 ca3d aea1 7fbd
00000030: c932 f4bb d95b b9bd fe81 47be c84f 8abd
00000040: beb1 b03d 62ec a1bc 5f52 1abd 273a 16be
00000050: eb5c f8bd 549f 863c 486f f63d b01f 60bd
00000060: 9d1c 00be 00a7 e73d de98 71bd caf5 b73d
00000070: f189 213d cc3a 793d 60aa c1bd f22f 9cbc
00000080: c372 7b3c 5679 11be 604b 06be 851c 113e
00000090: f502 e93c afef 07be 8612 5cbe aa9a 7ebd
000000a0: 31e4 48bd 7051 723d 711d a7bd 5dbd ab3d
000000b0: 5fdc 0dbe 820e 40be bdb8 e43d f4dc 5a3d
000000c0: b300 da3b 2cea 30be 0d83 a3bd a20a a83d
000000d0: 6872 0dbe 5246 afbb 4666 593d f4fb 6a3d
000000e0: 504d e8bd 38df 323e 2375 e0bd b377 01be

module.4.weight f4 [6, 60]
0.05965182 -0.03172756 0.09689389 0.043045763 -0.07000841 -0.06309605 0.0917925 -0.016599495
0.03927046 -0.010915554 -0.030488815 -0.04291217 0.097947076 -0.011810199 -0.043412127 -0.031218661
0.06952449 -0.048670307 0.049102604 -0.09791003 -0.112688266 -0.07907721 -0.0014167812 0.07307571
-0.02791174 -0.047423914 0.03277092 -0.09018717 0.08049461 0.04888683 0.052722998 0.08237502
0.09748696 0.13171677 0.04796427 0.11171994 -0.072343975 -0.113113455 0.027201034 0.009499773
0.12388446 0.06477401 0.17143962 0.0132521335 0.14854936 -0.06092674 0.03591944 -0.12461156
-0.016459765 -0.12660433 0.060164433 -0.041126244 -0.041194856 -0.06408437 0.03040871 0.109793626
-0.034134515 -0.05825884 0.03416478 0.028304415 -0.0535313 0.058392983 0.028737482 -0.060136437
-0.023948625 -0.00683257 -0.042166274 -0.08802904 0.075914554 0.22815003 -2.8361417e-05 -0.014303792
0.0704914 -0.015398864 0.0489662 -0.08530225 -0.037218392 0.03417756 -0.011061262 -0.14383294
-0.07909137 -0.057981864 0.06406946 0.007918489 -0.17304043 -0.015926426 -0.04304046 0.0066556963
-0.0022499687 -0.06421872 0.08324998 -0.033257093 -0.0499458 -0.03704414 0.12042475 -0.018473241
-0.029247867 0.0046497304 -0.07856054 0.011986679 0.0033404331 0.055053342 0.018510215 -0.014649057
0.06269526 0.08394521 -0.073956944 0.08423666 -0.018870136 0.08269495 0.060390245 -0.07093136
0.033279214 0.14118388 -0.030610869 -0.089917436 -0.05453324 0.03199364 -0.10920782 0.17296605
0.44355085 -0.2816743 0.027687503 0.6642275 -0.35335243 -0.43621033 0.24943052 -0.38930014
0.19079454 0.05601884 0.14625825 0.08387304 0.5641387 0.444335 -0.0029692764 -0.4283928
0.041731905 0.010103475 -0.31800175 -0.10157171 0.11676762 -0.3077921 -0.24775429 0.071965665
0.054536425 -0.24854253 -0.021293182 -0.4204261 0.56236565 0.04632675 0.123058386 0.07908512
0.6047016 0.10981537 -0.088583246 -0.018804274 -0.29583207 0.1180354 0.14395788 -0.35364875
-0.0047087 0.32583725 -0.06737042 -0.49879485 0.23481855 0.0744175 -0.37058753 -0.093299426
0.5129096 -0.10041662 0.14566207 -0.33566546 0.12791938 -0.24641107 -0.030750733 0.1859887
-0.033296414 -0.5363795 -0.113571934 0.45777443 -0.064281486 0.025490489 -0.15360256 -0.18389499
-0.15031205 0.059502777 -0.018120307 -0.01181125 -0.087709814 0.056817103 -0.19851284 0.12152738
-0.15890537 -0.22623967 0.16096222 0.11902698 -0.059997167 -0.113682255 0.08907007 -0.16549796
-0.018469892 -0.020683669 -0.011796641 -0.020405436 -0.051747486 -0.15697502 0.12834834 -0.022106618
-0.12126879 -0.028858926 0.073077604 -0.10956123 -0.29217142 0.12904175 0.094542675 -0.04600618
-0.087331384 0.10125696 0.17437491 0.11438112 -0.1400454 -0.01813087 0.1638617 0.050976742
0.0998513 0.016528843 0.03711743 -0.13691321 -0.22895792 -0.08750121 -0.09906152 -0.009506078
0.13432232 -0.055967152 0.12776205 0.10919166 0.044433743 -0.042670116 -0.16068769 -0.06475578
0.14010057 -0.11244865 -0.14662802 0.1833607 0.08909851 -0.20130265 0.11263327 0.04604259
0.23653546 -0.08034346 -0.051770054 0.07198777 0.17383309 0.22559536 0.044111785 -0.1684355
00000000: 7855 743d c2f4 01bd 4e70 c63d c150 303d
00000010: 9260 8fbd 8038 81bd b5fd bb3d aafb 87bc
00000020: 10da 203d 27d7 32bc aec3 f9bc acc4 2fbd
00000030: 7a98 c83d 917f 41bc ead0 31bd 47be ffbc
00000040: db62 8e3d 845a 47bd d01f 493d 0e85 c8bd
00000050: 1bc9 e6bd 3bf3 a1bd 4ab3 b9ba b8a8 953d
00000060: 29a7 e4bc 943f 42bd cd3a 063d 0db4 b8bd
00000070: 5cda a43d 8f3d 483d 12f4 573d 3cb4 a83d
00000080: 3ea7 c73d c3e0 063e 2f76 443d 6dcd e43d
00000090: 1429 94bd 07a8 e7bd b4d4 de3c f0a4 1b3c
000000a0: 23b7 fd3d 3ca8 843d de8d 2f3e 7a1f 593c
000000b0: 531d 183e 518e 79bd 4320 133d 5834 ffbd
000000c0: a1d6 86bc 91a4 01be fb6e 763d fe73 28bd
000000d0: f0bb 28bd ab3e 83bd b01b f93c 7bdb e03d
000000e0: a2d0 0bbd d2a0 6ebd 5ef0 0b3d a9de e73c
000000f0: a343 5bbd 7b2d 6f3d de6a eb3c a051 76bd
00000100: e82f c4bc c0e3 dfbb 8bb6 2cbd 9248 b4bd
00000110: 1779 9b3d 29a0 693e aee9 edb7 745a 6abc
00000120: cc5d 903d 844b 7cbc c890 483d f2b2 aebd
00000130: 5072 18bd c5fd 0b3d 4c3a 35bc f148 13be
00000140: a8fa a1bd 647e 6dbd d936 833d 8dbc 013c
00000150: 8331 31be 2378 82bc 324b 30bd 0718 da3b
00000160: 3674 13bb 1b85 83bd f77e aa3d 9738 08bd
00000170: f893 4cbd 99bb 17bd 40a1 f63d 3255 97bc
00000180: 3999 efbc c45c 983b 59e4 a0bd c763 443c
00000190: 2beb 5a3b 9d7f 613d bca2 973c 9902 70bc
000001a0: 5f66 803d 77eb ab3d bd76 97bd 4584 ac3d
000001b0: 8b95 9abc f85b a93d c35b 773d 7644 91bd
000001c0: c94f 083d 8292 103e a5c3 fabc a226 b8bd
000001d0: 3f5e 5fbd c30b 033d 59a8 dfbd 031e 313e
000001e0: 1919 e33e 9d37 90be e7d0 e23c d00a 2a3f
000001f0: 9cea b4be f656 dfbe b76a 7f3e 5952 c7be
00000200: a55f 433e 0374 653d b9c4 153e a1c5 ab3d
00000210: 656b 103f e17f e33e 3198 42bb 4d56 dbbe
00000220: 13ef 2a3d 0c89 253c 20d1 a2be d404 d0bd
00000230: dd23 ef3d ed96 9dbe 4db3 7dbe bc62 933d
00000240: 9661 5f3d ef81 7ebe 0a6f aebc 1742 d7be
00000250: 32f7 0f3f 1ec1 3d3d 0906 fc3d 61f7 a13d
00000260: b9cd 1a3f e1e6 e03d 226b b5bd 6c0b 9abc
00000270: 4d77 97be 8bbc f13d b269 133e 7311 b5be
00000280: 704b 9abb 24d4 a63e 81f9 89bd 0a62 ffbe
00000290: 4674 703e 3468 983d a6bd bdbe c513 bfbd
000002a0: 0b4e 033f 3ba7 cdbd 7028 153e 58dc abbe
000002b0: 4cfd 023e 2f53 7cbe f6e8 fbbc d273 3e3e
000002c0: d261 08bd 2b50 09bf 6798 e8bd 6961 ea3e
000002d0: 03a6 83bd 6ed1 d03c fd49 1dbe f84e 3cbe
000002e0: 67eb 19be 2fb9 733d 0a71 94bc f983 41bc
000002f0: 34a1 b3bd 0db9 683d f346 4bbe 59e3 f83d
00000300: 17b8 22be 5fab 67be 48d3 243e 6bc4 f33d
00000310: 97bf 75bd 3ed2 e8bd 5e6a b63d 4c78 29be
00000320: 2c4e 97bc cc70 a9bc b346 41bc 4d29 a7bc
00000330: 2cf5 53bd 0fbe 20be bf6d 033e f018 b5bc
00000340: c55b f8bd 8e69 ecbc b6a9 953d a361 e0bd
00000350: 7e97 95be 8523 043e 979f c13d fa70 3cbd
00000360: ccda b2bd cf5f cf3d 568f 323e a640 ea3d
00000370: 1068 0fbe 3187 94bc 5dcb 273e fdcc 503d
00000380: d77e cc3d 7f67 873c 7208 183d fa32 0cbe
00000390: f273 6abe d633 b3bd c4e0 cabd 62bf 1bbc
000003a0: ca8b 093e d03d 65bd 0ed4 023e e19f df3d
000003b0: 2800 363d dcc6 2ebd 508b 24be ae9e 84bd
000003c0: 8676 0f3e 7a4b e6bd a825 16be e8c2 3b3e
000003d0: 4879 b63d 4822 4ebe 46ac e63d 2897 3c3d
000003e0: 5a36 723e 1d8b a4bd d60c 54bd 536e 933d
000003f0: 4d01 323e 7802 673e 8fae 343d 5b7a 2cbe

module.4.bias f4 [6]
0.09502543 0.007614139 -0.20537555 -0.21627833 -0.102788605 -0.031661257
00000000: b19c c23d 0780 f93b f84d 52be 1178 5dbe
00000010: d582 d2bd 3caf 01bd

module.6.weight f4 [1, 6]
0.28374755 -0.056419354 -0.16446854 -0.3635024 -0.244333 0.041011423
00000000: 5c47 913e fb17 67bd 716a 28be fd1c babe
00000010: 6e32 7abe 98fb 273d

square_avg f4 [60, 6]
5.246187e-06 2.3568414e-06 1.5959739e-06 3.2932758e-06 2.3748794e-06 2.4223757e-06 1.10032e-05 7.4302625e-06
3.0757335e-06 7.24071e-06 5.5523274e-06 3.3488247e-06 9.729583e-05 6.928672e-05 2.9045546e-05 6.763399e-05
4.4720335e-05 3.6040434e-05 9.826246e-05 5.8951115e-05 2.8648466e-05 6.517252e-05 4.334482e-05 4.1885818e-05
3.76424e-05 2.5147583e-05 1.9755202e-05 3.7812406e-05 2.2225271e-05 2.2796401e-05 4.983747e-05 3.86594e-05
2.0747015e-05 4.8437498e-05 2.8395641e-05 2.5546327e-05 6.916936e-05 4.4377615e-05 4.1014962e-05 7.802394e-05
3.7125315e-05 5.2026815e-05 3.4320437e-05 2.152746e-05 1.0695431e-05 2.2995288e-05 1.5931622e-05 1.4332719e-05
1.1849677e-05 6.025747e-06 6.0962025e-06 9.694499e-06 5.007026e-06 7.585943e-06 7.019481e-05 4.215453e-05
4.2582837e-05 7.486039e-05 3.3958757e-05 5.0930666e-05 0.00042440486 0.00023950684 0.0002125846 0.00039503566
0.00018032968 0.00027092447 2.3204517e-05 1.8709352e-05 6.870213e-06 2.0833393e-05 1.2375951e-05 9.488785e-06
1.0970806e-05 6.130556e-06 4.2521046e-06 1.04853125e-05 3.7953007e-06 6.149349e-06 2.0137425e-06 1.424622e-06
7.569833e-07 1.6838975e-06 1.3878337e-06 8.9558836e-07 9.21932e-06 4.9048313e-06 3.0125536e-06 8.797445e-06
5.3196536e-06 9.115264e-06 9.724726e-05 5.6980152e-05 5.5817585e-05 0.00010602906 3.9432434e-05 7.4746684e-05
2.3792136e-05 1.541105e-05 8.819174e-06 2.2517554e-05 1.09410985e-05 1.3511337e-05 1.0043302e-05 6.9423427e-06
2.803332e-06 5.7795646e-06 4.4625617e-06 3.9757706e-06 4.486979e-05 2.7589958e-05 2.4552346e-05 4.9852624e-05
2.2627353e-05 3.3118118e-05 3.910818e-05 3.0499194e-05 1.4468094e-05 3.592415e-05 2.244551e-05 1.8417335e-05
2.2776367e-05 1.2130391e-05 6.7571627e-06 2.3047774e-05 1.1949543e-05 1.7111011e-05 3.84802e-05 2.7186881e-05
1.2364262e-05 2.8197757e-05 2.1091126e-05 1.4997392e-05 8.627488e-06 5.926945e-06 2.784193e-06 5.9787026e-06
6.0158427e-06 3.0380995e-06 0.00011004708 6.136055e-05 4.6120647e-05 9.569998e-05 4.575369e-05 6.826142e-05
2.0629126e-05 9.625015e-06 8.9981595e-06 1.562685e-05 7.633011e-06 1.2409875e-05 2.8734303e-05 1.7097733e-05
8.693141e-06 1.9605768e-05 1.3273246e-05 1.2636855e-05 1.6422666e-05 1.1178797e-05 4.630712e-06 1.0310169e-05
6.9013777e-06 6.6337457e-06 6.435066e-05 4.2033535e-05 1.8193297e-05 4.466858e-05 2.9320989e-05 2.5122017e-05
0.00014854298 8.699241e-05 9.009275e-05 0.00016372235 7.557731e-05 0.000102957056 1.3824178e-05 7.5668654e-06
7.686345e-06 1.3806575e-05 6.3492494e-06 9.194866e-06 0.0004633588 0.0002799423 0.00025509726 0.0005166362
0.00023639016 0.0003473012 0.00015688779 9.97807e-05 7.231776e-05 0.00017768431 6.725241e-05 0.00011227006
2.4934561e-05 1.6607288e-05 1.2341126e-05 2.3768594e-05 1.5165911e-05 1.4728171e-05 0.00016809539 9.712009e-05
8.892595e-05 0.00017998743 7.547682e-05 0.00011597829 1.9272173e-05 1.3242683e-05 7.9288575e-06 1.871563e-05
7.98057e-06 1.0656816e-05 2.839607e-05 1.9720848e-05 1.073997e-05 2.2685332e-05 1.647818e-05 1.3335835e-05
3.4911493e-05 2.0750811e-05 1.557731e-05 3.2701384e-05 1.5015677e-05 2.2492557e-05 6.895581e-05 4.4005134e-05
2.2922968e-05 5.189012e-05 2.8440421e-05 3.7452428e-05 6.1971085e-05 3.5738176e-05 2.9614523e-05 6.359393e-05
2.4921956e-05 3.7256756e-05 4.73173e-05 3.4428227e-05 1.8659699e-05 3.5654324e-05 3.0876086e-05 2.1727656e-05
0.00014135899 6.6245106e-05 6.0049373e-05 0.00012535442 5.712199e-05 8.5870306e-05 8.508275e-05 6.0782426e-05
3.1991698e-05 7.378794e-05 4.6665038e-05 4.5136796e-05 2.7736585e-06 2.0287466e-06 1.2895428e-06 3.6094114e-06
00000000: 6708 b036 3a2a 1e36 3f35 d635 0c02 5d36
00000010: 1e60 1f36 1990 2236 629a 3837 7851 f936
00000020: b368 4e36 3af5 f236 214e ba36 5fbc 6036
00000030: 4d0b cc38 064e 9138 d6a6 f337 b9d6 8d38
00000040: 1892 3b38 1f2a 1738 4212 ce38 4742 7738
00000050: 1d52 f037 3bad 8838 25cd 3538 8eae 2f38
00000060: 38e2 1d38 06f4 d237 f9b7 a537 c398 1e38
00000070: 6870 ba37 e63a bf37 9308 5138 3726 2238
00000080: e009 ae37 5e29 4b38 2d33 ee37 524c d637
00000090: 040f 9138 1a22 3a38 7b07 2c38 c9a0 a338
000000a0: 01b7 1b38 5e37 5a38 4af3 0f38 de95 b437
000000b0: 8770 3337 01e6 c037 e6a4 8537 8f76 7037
000000c0: facd 4637 c630 ca36 fb8d cc36 8ea5 2237
000000d0: 0702 a836 c18a fe36 8d35 9338 15cf 3038
000000e0: f99a 3238 5efe 9c38 f06e 0e38 639e 5538
000000f0: a882 de39 2124 7b39 3ee9 5e39 ca1c cf39
00000100: e116 3d39 de0a 8e39 52a7 c237 07f2 9c37
00000110: ae86 e636 5fc3 ae37 4ea2 4f37 0532 1f37
00000120: 410f 3837 13b5 cd36 4dad 8e36 13ea 2f37
00000130: c5b2 7e36 8156 ce36 d523 0736 a435 bf35
00000140: 7f33 4b35 4702 e235 9a45 ba35 5d68 7035
00000150: aeac 1a37 2e94 a436 472b 4a36 bd98 1337
00000160: 7a7f b236 c3ed 1837 3af1 cb38 f9fd 6e38
00000170: ad1d 6a38 eb5b de38 4164 2538 52c1 9c38
00000180: 3995 c737 fa46 8137 10f6 1337 14e4 bc37
00000190: a98f 3737 c0ae 6237 a77f 2837 45f2 e836
000001a0: e120 3c36 15ee c136 1dbd 9536 9c67 8536
000001b0: 9232 3c38 fc70 e737 c3f5 cd37 d918 5138
000001c0: dfcf bd37 4fe8 0a38 1708 2438 85d8 ff37
000001d0: febb 7237 43ad 1638 5e49 bc37 ed7e 9a37
000001e0: e00f bf37 a283 4b37 96bb e236 b856 c137
000001f0: e57a 4837 9e89 8f37 cd65 2138 620f e437
00000200: 1a70 4f37 398a ec37 d9ec b037 4f9d 7b37
00000210: c7be 1037 12e0 c636 12d8 3a36 aa9c c836
00000220: b2db c936 27e2 4b36 14c9 e638 b2ae 8038
00000230: ab71 4138 89b2 c838 a7e7 3f38 9227 8f38
00000240: b60c ad37 207b 2137 cdf6 1637 6816 8337
00000250: 880f 0037 0234 5037 720a f137 1a6d 8f37
00000260: c2d8 1137 1177 a437 28b0 5e37 e102 5437
00000270: 68c3 8937 918c 3b37 8361 9b36 d7f9 2c37
00000280: 6292 e736 7197 de36 fff3 8638 2a4d 3038
00000290: cf9d 9837 865a 3b38 58f6 f537 1fbd d237
000002a0: 34c2 1b39 b26f b638 2df0 bc38 e2ac 2b39
000002b0: 427f 9e38 a6ea d738 64ee 6737 e1e6 fd36
000002c0: 9af4 0037 caa2 6737 a30b d536 a643 1a37
000002d0: f7ee f239 38c5 9239 93be 8539 de6e 073a
000002e0: 80df 7739 fa15 b639 3f82 2439 5b41 d138
000002f0: 4da9 9738 c550 3a39 dd09 8d38 8872 eb38
00000300: 902a d137 e14f 8b37 bc0c 4f37 ab62 c737
00000310: 1771 7e37 0319 7737 c342 3039 f4ac cb38
00000320: c27d ba38 02bb 3c39 4f49 9e38 5f39 f338
00000330: adaa a137 e42c 5e37 2f06 0537 82ff 9c37
00000340: 4ae4 0537 adca 3237 1934 ee37 336e a537
00000350: d22f 3437 614c be37 9f3a 8a37 fabc 5f37
00000360: ee6d 1238 0712 ae37 05ac 8237 d828 0938
00000370: d7eb 7b37 66ae bc37 5e9c 9038 2792 3838
00000380: b34a c037 98a4 5938 5793 ee37 3d16 1d38
00000390: 79f6 8138 93e5 1538 b46c f837 bb5d 8538
000003a0: 7e0f d137 2344 1c38 9076 4638 0767 1038
000003b0: 6687 9c37 8a8b 1538 f280 0138 c943 b637
000003c0: c439 1439 12ed 8a38 86dd 7b38 9271 0339
000003d0: 4596 6f38 4515 b438 746e b238 a2f0 7e38
000003e0: d32e 0638 99be 9a38 34ba 4338 4451 3d38
000003f0: 1723 3a36 9a25 0836 5a14 ad35 3739 7236

square_avg f4 [60]
5.448778e-06 1.3277698e-05 0.00012077428 0.000104281986 6.726443e-05 8.627264e-05 0.00012827228 3.939778e-05
1.7751596e-05 0.00012719678 0.0006541984 3.629715e-05 1.5089977e-05 3.0229835e-06 1.485761e-05 0.00017074565
3.6170564e-05 1.0937071e-05 8.491464e-05 6.407851e-05 3.8777274e-05 5.0360744e-05 1.0685424e-05 0.0001554386
3.1991432e-05 3.4056215e-05 1.948023e-05 7.382467e-05 0.00026372197 2.278902e-05 0.0008722352 0.0002627242
4.3166754e-05 0.0002830588 2.8822156e-05 4.133318e-05 5.1375257e-05 8.9441535e-05 9.788319e-05 7.346584e-05
0.00018989769 0.00013864857 5.550929e-06 9.442422e-05 0.0009051488 0.00016046385 1.3295862e-05 5.0611827e-05
4.2107844e-05 0.00016075012 0.0001396806 0.00024136159 5.226597e-05 0.00013580752 0.0004694535 0.00012892403
2.5019799e-05 1.4617282e-05 0.00012736309 1.2780739e-05
00000000: a6d4 b636 47c3 5e37 3348 fd38 f7b1 da38
00000010: 5110 8d38 45ed b438 d480 0639 0b3f 2538
00000020: 43e9 9437 2060 0539 837e 2b3a c53d 1838
00000030: f52a 7d37 76de 4a36 f344 7937 300a 3339
00000040: d9b5 1738 5d7e 3737 3314 b238 e361 8638
00000050: c8a4 2238 703a 5338 8c45 3337 3bfd 2239
00000060: 8a2e 0638 95d7 0e38 7a69 a337 51d2 9a38
00000070: 2a44 8a39 0c2b bf37 b7a6 643a 3fbe 8939
00000080: f30d 3538 8267 9439 1cc7 f137 2a5d 2d38
00000090: c37b 5738 8f92 bb38 a346 cd38 ac11 9a38
000000a0: 461f 4739 3162 1139 1e42 ba36 9e05 c638
000000b0: 8247 6d3a 3042 2839 4b11 5f37 0948 5438
000000c0: f49c 3038 088f 2839 3a77 1239 0216 7d39
000000d0: 2838 5b38 8e67 0e39 fb20 f639 c82f 0739
000000e0: 9ce1 d137 c03c 7537 c58c 0539 db6c 5637

square_avg f4 [60, 60]
2.0868647e-07 1.7269285e-06 5.419486e-07 3.7169795e-07 1.8911567e-06 3.180318e-06 2.3722109e-07 6.2864603e-07
1.2736249e-06 4.7241454e-07 3.0984995e-06 1.7217723e-06 6.048989e-07 4.7078217e-07 3.885442e-06 3.5857167e-07
8.0323923e-07 5.6576073e-07 3.583562e-07 1.1541993e-06 4.6875784e-06 2.7315261e-06 7.895672e-07 9.697912e-07
8.564256e-07 8.6548897e-07 1.0238389e-06 1.398307e-06 2.5127318e-07 3.0524436e-07 1.285016e-07 1.1987611e-06
2.288298e-06 3.3456007e-07 1.9194015e-07 4.7707836e-06 1.2225363e-06 3.1176953e-07 5.070865e-07 1.0560702e-06
5.926626e-07 5.7206745e-07 8.9940147e-07 1.9759045e-06 2.0151657e-07 4.9548015e-07 6.988897e-07 2.9739945e-06
2.6420068e-06 6.785749e-07 1.2811802e-07 3.97826e-07 1.2768329e-06 8.9276364e-07 2.6887744e-06 2.995727e-06
3.8909477e-07 2.8075146e-06 4.8728447e-07 1.0151698e-06 1.1363843e-07 9.495527e-07 2.6111587e-07 2.246222e-07
8.1934724e-07 1.6804195e-06 1.07177364e-07 3.9913414e-07 6.3092915e-07 2.5811948e-07 1.4230869e-06 9.645998e-07
3.08897e-07 2.6721708e-07 1.8070559e-06 1.926917e-07 4.3972182e-07 3.6082054e-07 1.8933272e-07 6.585418e-07
2.1332767e-06 1.3862369e-06 3.7044936e-07 6.3172456e-07 4.8506797e-07 4.623239e-07 5.447623e-07 8.438377e-07
1.5970303e-07 1.8756495e-07 6.062075e-08 6.276247e-07 1.224421e-06 1.5090464e-07 1.08271486e-07 2.220955e-06
7.827982e-07 1.8083422e-07 2.661957e-07 6.2005205e-07 2.84403e-07 2.843952e-07 4.394476e-07 8.085555e-07
9.1481205e-08 3.0517776e-07 3.9569412e-07 1.414283e-06 1.1482678e-06 3.871751e-07 6.336809e-08 1.9525247e-07
7.1318703e-07 4.3183726e-07 1.2159733e-06 1.3165138e-06 1.9154479e-07 1.3467419e-06 2.633744e-07 5.50493e-07
2.1079165e-06 1.3949667e-05 3.4413795e-06 5.1891057e-06 1.5009449e-05 2.6749167e-05 1.9413924e-06 4.598333e-06
9.052314e-06 3.652482e-06 2.6554006e-05 1.4456517e-05 5.8682513e-06 6.5319236e-06 3.8087754e-05 3.2719306e-06
7.165289e-06 5.442709e-06 3.2339778e-06 1.2305754e-05 3.9354632e-05 2.3862465e-05 5.6622553e-06 1.1952487e-05
7.660336e-06 5.784399e-06 9.920167e-06 1.0020986e-05 2.160017e-06 4.836877e-06 9.1229776e-07 8.7808985e-06
1.4126872e-05 3.3727824e-06 1.6561536e-06 3.3490553e-05 1.2286293e-05 3.914838e-06 4.573534e-06 8.066559e-06
5.610062e-06 4.959237e-06 5.8569285e-06 1.6194992e-05 1.9484164e-06 6.9858343e-06 5.150608e-06 2.1972539e-05
2.4630597e-05 1.11434365e-05 1.2378958e-06 4.1094277e-06 1.4716368e-05 6.3487073e-06 2.6462323e-05 2.5720903e-05
4.0073173e-06 1.8589833e-05 5.3901863e-06 7.607795e-06 5.6890457e-07 4.770606e-06 1.4919337e-06 1.1353994e-06
4.048068e-06 8.391698e-06 5.6920067e-07 2.0846346e-06 3.2065677e-06 1.2935768e-06 7.350298e-06 4.893343e-06
1.5443825e-06 1.3547494e-06 9.155992e-06 8.7641615e-07 2.065677e-06 1.905537e-06 9.778391e-07 3.3779693e-06
1.0694292e-05 7.043738e-06 1.9105985e-06 3.3236429e-06 2.3148673e-06 2.5203672e-06 2.590245e-06 4.4436238e-06
7.2658463e-07 9.1501255e-07 3.2635944e-07 3.1799714e-06 6.240488e-06 8.5665016e-07 5.3482273e-07 1.1281533e-05
4.164855e-06 8.663793e-07 1.327939e-06 3.2016299e-06 1.5627681e-06 1.525473e-06 2.266898e-06 4.345315e-06
3.8060693e-07 1.4900332e-06 1.9809502e-06 7.1292316e-06 6.154522e-06 1.978461e-06 3.004323e-07 9.60901e-07
3.6947151e-06 2.1926649e-06 6.595477e-06 6.997189e-06 9.437083e-07 6.6882626e-06 1.3616498e-06 2.8745885e-06
7.1576704e-07 4.4500744e-06 8.659932e-07 1.2867143e-06 3.5911232e-06 8.246504e-06 5.094449e-07 1.7532524e-06
2.0832965e-06 8.5146905e-07 8.379004e-06 3.3936547e-06 1.3706033e-06 1.5150208e-06 1.1859062e-05 8.343102e-07
00000000: 4d13 6034 d0c8 e735 6d7a 1135 c78d c734
00000010: a6d3 fd35 726d 5536 d6b6 7e34 3ac0 2835
00000020: 6bf1 aa35 29a0 fd34 d1ef 4f36 a517 e735
00000030: 5660 2235 cfbf fc34 b15f 8236 b781 c034
00000040: 2e9e 5735 c8de 1735 1a64 c034 fce9 9a35
00000050: fe49 9d36 434f 3736 a5f2 5335 c629 8235
00000060: 1ee5 6535 f353 6835 d66a 8935 76ad bb35
00000070: b9e6 8634 77e0 a334 40fa 0934 1ee5 a035
00000080: a990 1936 969d b334 1b18 4e34 b814 a036
00000090: 0716 a435 4761 a734 b81e 0835 4cbe 8d35
000000a0: 7717 1f35 2d90 1935 666e 7135 c899 0436
000000b0: 7460 5834 2301 0535 569b 3b35 d694 4736
000000c0: 554d 3136 5027 3635 d090 0934 ca94 d534
000000d0: a55f ab35 40a6 6f35 cb70 3436 330a 4936
000000e0: c7e4 d034 bc68 3c36 efcd 0235 f840 8835
000000f0: 6309 f433 c4e4 7e35 7e2f 8c34 ae2f 7134
00000100: 1df1 5b35 c68a e135 6129 e633 9448 d634
00000110: 1f5d 2935 ac93 8a34 e500 bf35 6677 8135
00000120: 7bd6 a534 0976 8f34 f889 f235 b1e6 4e34
00000130: e812 ec34 ccb6 c134 624b 4b34 a6c6 3035
00000140: 6a29 0f36 bd0e ba35 2ce2 c634 c893 2935
00000150: 9e35 0235 5035 f834 c83b 1235 1684 6235
00000160: d67a 2b34 7665 4934 9c2e 8233 0a7a 2835
00000170: c956 a435 5a08 2234 e182 e833 b70b 1536
00000180: 7c21 5235 552b 4234 a9e9 8e34 a771 2635
00000190: 0db0 9834 fbae 9834 38ed eb34 830b 5935
000001a0: 5374 c433 50d7 a334 c96f d434 65d2 bd35
000001b0: 2e1e 9a35 f1dc cf34 fa14 8833 97a6 5134
000001c0: d771 3f35 43d7 e734 8634 a335 12b3 b035
000001d0: 6eab 4d34 b3c1 b435 e765 8d34 97c5 1335
000001e0: bb75 0d36 5d09 6a37 73f2 6636 141e ae36
000001f0: 18d1 7b37 6663 e037 de48 0236 614b 9a36
00000200: 65df 1737 2a1d 7536 4bc0 de37 458a 7237
00000210: e5e7 c436 cc2c db36 6ac0 1f38 5793 5b36
00000220: 5d6d f036 84a0 b636 5107 5936 d074 4e37
00000230: b710 2538 412c c837 67fe bd36 8a87 4837
00000240: e584 0037 9c17 c236 cb6e 2637 cf1f 2837
00000250: cff4 1036 754c a236 a0e4 7435 ac51 1337
00000260: 7402 6d37 f657 6236 0149 de35 3578 0c38
00000270: 3a21 4e37 345c 8336 5c76 9936 9b55 0737
00000280: 113e bc36 8567 a636 a286 c436 7bda 8737
00000290: 8ac1 0236 dc67 ea36 63d3 ac36 ab51 b837
000002a0: ce9d ce37 b2f4 3a37 c725 a635 b7e3 8936
000002b0: 52e6 7637 fb06 d536 68fb dd37 38c3 d737
000002c0: 9876 8636 5df1 9b37 59dd b436 7646 ff36
000002d0: d3b6 1835 3213 a036 743e c835 0764 9835
000002e0: a4d4 8736 12ca 0c37 2ccb 1835 c0e5 0b36
000002f0: 6a30 5736 f69e ad35 94a2 f636 7f31 a436
00000300: 9448 cf35 d6d4 b535 b09c 1937 dc42 6b35
00000310: 10a0 0a36 c1c1 ff35 4c3e 8335 12b1 6236
00000320: a26b 3337 4059 ec36 d537 0036 c00b 5f36
00000330: 1e59 1b36 9423 2936 12d4 2d36 701a 9536
00000340: 840a 4335 2f9f 7535 8036 af34 7e67 5536
00000350: 6265 d136 8df4 6535 bd90 0f35 d145 3d37
00000360: d5bf 8b36 2291 6835 a33b b235 95db 5636
00000370: 4ec0 d135 dabe cc35 0321 1836 f9cd 9136
00000380: 3856 cc34 27fd c735 77f0 0436 a237 ef36
00000390: f182 ce36 b3c5 0436 1a4b a134 4ff8 8035
000003a0: b9f2 7736 b225 1336 b74e dd36 65c9 ea36
000003b0: 2453 7d35 bd6b e036 eec1 b635 0ee9 4036
000003c0: 2323 4035 d951 9536 9976 6835 2bb3 ac35
000003d0: 07ff 7036 775a 0a37 c9c0 0835 4b51 eb35
000003e0: c3ce 0b36 8290 6435 8c93 0c37 8bbe 6336
000003f0: 92f5 b735 b857 cb35 49f6 4637 5cf5 5f35

square_avg f4 [60]
1.1437081e-05 6.0485477e-06 0.00010904033 3.0837717e-05 3.476334e-05 2.1929065e-05 4.739693e-06 1.9712683e-05
2.9013454e-06 1.9359357e-05 3.105007e-05 2.4736542e-05 2.0034651e-05 1.5138786e-05 2.1663072e-05 1.980283e-05
1.605652e-05 1.8639443e-05 1.4074208e-05 6.7283704e-06 2.425016e-05 1.2105583e-05 1.2531682e-05 1.0109949e-06
3.1432266e-06 3.419214e-05 9.64492e-06 1.4619546e-05 1.9854862e-05 3.5583503e-06 6.117783e-06 7.470484e-05
7.6684686e-05 1.3530425e-06 9.203781e-06 6.134206e-05 1.3797498e-05 4.908457e-05 2.5137724e-05 1.5983282e-05
0.00014258719 6.2309737e-06 3.4900843e-06 5.5135333e-05 1.6306699e-06 1.364586e-05 2.3857812e-05 3.514155e-06
2.0488507e-05 7.798308e-06 2.1423073e-05 2.2623646e-05 3.885301e-05 4.8690335e-06 3.8877733e-06 1.0539745e-06
1.2461332e-05 4.535537e-05 3.418694e-05 2.3053912e-05
00000000: e4e1 3f37 a1f4 ca36 95ac e438 bf57 0138
00000010: dace 1138 4ff4 b737 a709 9f36 aa5c a537
00000020: bcb4 4236 e765 a237 c23b 0238 5281 cf37
00000030: 1610 a837 97fc 7d37 18b9 b537 411e a637
00000040: 1db1 8637 e65b 9c37 4320 6c37 43c4 e136
00000050: d26c cb37 1519 4b37 2a3f 5237 85b1 8735
00000060: 39f0 5236 8869 0f38 9ed0 2137 7946 7537
00000070: fe8d a637 fecb 6e36 5b47 cd36 dbaa 9c38
00000080: c7d1 a038 309a b535 f069 1a37 c5a4 8038
00000090: cd7b 6737 28e0 4d38 dade d237 d613 8637
000000a0: 7583 1539 a813 d136 3137 6a36 1d41 6738
000000b0: 64dd da35 86f0 6437 4322 c837 b9d4 6b36
000000c0: bcde ab37 7ad5 0237 b3b5 b337 e9c7 bd37
000000d0: 1af6 2238 ae60 a336 b873 8236 4a76 8d35
000000e0: 0311 5137 f53b 3e38 f363 0f38 e663 c137

square_avg f4 [6, 60]
6.064684e-05 2.5449175e-05 0.00044677625 6.371811e-05 0.00018464058 8.274629e-05 0.0002475338 2.9534405e-05
0.0004495548 7.927464e-05 0.002076458 0.00041531437 6.984511e-05 0.0001328614 0.0004439756 8.5109954e-05
0.0002524932 0.00013676051 3.9561717e-05 0.00025122112 0.00023519313 2.1915233e-05 2.450772e-05 0.00039591113
6.895831e-05 0.00013512015 0.00028303222 7.462668e-05 5.0604824e-05 0.000103935 0.00016665927 0.0003100344
0.0001069965 0.00022657096 0.00015179544 0.00030548856 5.974262e-05 0.00045450055 0.0004958717 4.078075e-05
0.00090069004 1.1409837e-05 0.0007441012 3.7219208e-05 0.00065944064 0.0003724333 2.4740995e-05 0.00032094686
7.8203804e-05 0.00042169166 0.00024249741 1.8389017e-05 0.0002557328 1.7292521e-05 3.795861e-05 0.0005850743
0.00038357772 7.1470036e-05 0.00016849242 6.942711e-05 2.955859e-06 1.4384646e-06 1.6335904e-05 3.9535357e-06
1.2754705e-05 4.839337e-06 1.1040947e-05 1.8832991e-06 2.2323056e-05 3.2342998e-06 0.00010065797 1.8988769e-05
3.7724428e-06 6.753517e-06 2.03716e-05 5.0312838e-06 1.142591e-05 5.501344e-06 2.2343108e-06 1.04987585e-05
9.329409e-06 1.4072218e-06 1.3384526e-06 1.8942992e-05 2.8258733e-06 8.467565e-06 1.3514175e-05 5.0180674e-06
2.9326538e-06 4.700333e-06 7.940122e-06 1.1569547e-05 5.713857e-06 9.86296e-06 7.287897e-06 1.1437033e-05
4.277974e-06 1.9468287e-05 2.1993743e-05 1.9171193e-06 3.7102265e-05 5.975907e-07 3.1618125e-05 2.0284192e-06
2.6882348e-05 1.6500977e-05 1.4238252e-06 1.8001918e-05 4.460024e-06 2.0944042e-05 9.894896e-06 9.89685e-07
1.0778804e-05 1.0257411e-06 1.5493954e-06 2.413663e-05 1.792154e-05 4.591059e-06 6.758854e-06 3.2813823e-06
3.2185817e-06 1.002426e-06 3.3428892e-05 1.8104081e-06 4.7551966e-06 3.0375911e-06 3.2007785e-05 8.880421e-07
3.8542257e-05 7.3165816e-06 0.00015278562 4.005123e-05 2.6143966e-06 5.518031e-06 3.9767903e-05 3.1477512e-06
2.4601213e-05 1.2522082e-05 1.6863921e-06 3.4998964e-05 2.7790253e-05 5.988552e-07 9.1499055e-07 2.5177987e-05
5.8117635e-06 7.170412e-06 2.6018291e-05 2.854269e-06 1.1004806e-06 6.7141877e-06 1.1686408e-05 2.8812794e-05
7.2566204e-06 1.5743268e-05 1.3743258e-05 2.8700651e-05 2.751788e-06 4.5602326e-05 4.4748645e-05 3.018228e-06
9.63775e-05 5.2582004e-07 4.7689267e-05 1.8936992e-06 6.494025e-05 3.813217e-05 9.234096e-07 2.007242e-05
1.8330497e-06 3.7443202e-05 1.8064122e-05 8.29051e-07 2.5994463e-05 7.631813e-07 4.2095635e-06 5.0150476e-05
3.8516562e-05 1.2492909e-06 1.9071469e-05 4.0819464e-06 5.6210472e-05 2.965776e-05 0.00016730108 6.6605455e-05
0.00023272383 9.1457085e-05 0.00019326022 3.7203306e-05 0.00034402948 5.6076708e-05 0.0018085493 0.00027425785
6.213164e-05 0.00012787324 0.00031134888 9.433219e-05 0.00014687113 5.4277694e-05 4.412423e-05 0.00014301707
0.00010435746 2.6993786e-05 2.9302577e-05 0.00035786652 5.5168046e-05 0.00015496051 0.00019148222 8.942582e-05
4.8091857e-05 8.051522e-05 0.00013265091 9.769858e-05 8.893614e-05 0.00016076106 9.084877e-05 0.00010142378
7.5886506e-05 0.00028706578 0.00032229166 3.202149e-05 0.0004942866 1.1299788e-05 0.0006645625 3.70296e-05
0.00046685126 0.00022051197 2.8687038e-05 0.00031088473 7.868919e-05 0.00031137938 0.000114804505 1.9781282e-05
0.000119938515 1.9538666e-05 2.7515965e-05 0.0004350698 0.00023937128 8.765825e-05 0.000113485534 6.123996e-05
4.4359795e-06 2.9420828e-06 2.5196532e-05 6.2212434e-06 2.1957298e-05 8.971742e-06 2.1998025e-05 4.02176e-06
4.6700192e-05 5.7695224e-06 0.00025572817 2.9594194e-05 5.444173e-06 1.0822833e-05 3.8467497e-05 9.068911e-06
00000000: 0c5f 7e38 b07b d537 4b3d ea39 66a0 8538
00000010: 149c 4139 1488 ad38 6dc7 8139 a7c0 f737
00000020: 39b2 eb39 4040 a638 2f15 083b 8dbe d939
00000030: cf79 9238 b650 0b39 65c5 e839 0f7d b238
00000040: 1061 8439 5f67 0f39 12ef 2538 54b6 8339
00000050: 2d9e 7639 9bd6 b737 ee95 cd37 4b92 cf39
00000060: b69d 9038 0aaf 0d39 f163 9439 e580 9c38
00000070: 8440 5438 aef7 d938 42c1 2e39 1d8c a239
00000080: 4f63 e038 ae93 6d39 472b 1f39 fb29 a039
00000090: 2694 7a38 084a ee39 63fd 013a ff0b 2b38
000000a0: 491c 6c3a e06c 3f37 c90f 433a d21b 1c38
000000b0: 50de 2c3a 2743 c339 e28a cf37 c244 a839
000000c0: 5901 a438 7f16 dd39 e746 7e39 1d42 9a37
000000d0: e013 8639 680f 9137 bf35 1f38 ac5f 193a
000000e0: ee1a c939 2fe2 9538 57ad 3039 6599 9138
000000f0: 455d 4636 4411 c135 1609 8937 9da8 8436
00000100: 0afd 5537 9761 a236 823c 3937 aac5 fc35
00000110: 6642 bb37 d90c 5936 5618 d338 124a 9f37
00000120: 132a 7d36 459c e236 aee3 aa37 66d2 a836
00000130: e9b1 3f37 2f98 b836 2bf1 1536 d323 3037
00000140: 8285 1c37 c6df bc35 e2a4 b335 c4e7 9e37
00000150: 22a4 3d36 ea0f 0e37 f1ba 6237 df60 a836
00000160: 9cce 4436 8eb7 9d36 9036 0537 d31a 4237
00000170: a8b9 bf36 1779 2537 8f8a f436 afe1 3f37
00000180: 848b 8f36 d44f a337 347f b837 dca7 0036
00000190: 419e 1b38 1f6a 2035 b49d 0438 fa1f 0836
000001a0: 6781 e137 946b 8a37 431a bf35 d302 9737
000001b0: 50a7 9536 fdb0 af37 4102 2637 51d5 8435
000001c0: 9cd6 3437 32ac 8935 d2f4 cf35 0579 ca37
000001d0: 3756 9637 e60c 9a36 1dca e236 b835 5c36
000001e0: d0fe 5736 188b 8635 0036 0c38 26fd f235
000001f0: d48e 9f36 6bd9 4b36 1940 0638 ca61 6e35
00000200: 6fa8 2138 f580 f536 1435 2039 aefc 2738
00000210: fe72 2f36 8627 b936 76cc 2638 f43d 5336
00000220: b45e ce37 ef15 5237 fe57 e235 dacb 1238
00000230: 1d1f e937 04c1 2035 ac9d 7535 5135 d337
00000240: ab02 c336 5f99 f036 db41 da37 f88b 3f36
00000250: 3ab4 9335 6f4a e136 bd10 4437 01b3 f137
00000260: e57d f336 6910 8437 d892 6637 2ec2 f037
00000270: 5cab 3836 2045 3f38 7eb0 3b38 c38c 4a36
00000280: 471e ca38 1426 0d35 f605 4838 022b fe35
00000290: 8830 8838 1bf0 1f38 39e0 7735 3261 a837
000002a0: 1c07 f635 550c 1d38 6888 9737 f38b 5e35
000002b0: af0e da37 6bdd 4c35 e03f 8d36 aa58 5238
000002c0: d88c 2138 4fad a735 abfb 9f37 a7f7 8836
000002d0: 89c3 6b38 8ec9 f837 8b6d 2f39 88ae 8b38
000002e0: 5407 7439 a6cc bf38 e5a5 4a39 bf0a 1c38
000002f0: db5e b439 e833 6b38 d80c ed3a 44ca 8f39
00000300: ac4c 8238 b615 0639 8a3c a339 35d4 c538
00000310: 6b01 1a39 3ba8 6338 0812 3938 daf6 1539
00000320: 7cda da38 b770 e237 cece f537 08a0 bb39
00000330: 3d64 6738 e57c 2239 9ec8 4839 1f8a bb38
00000340: 3db6 4938 48da a838 3518 0b39 87e3 cc38
00000350: 3a83 ba38 f891 2839 1086 be38 7ab3 d438
00000360: 4225 9f38 5181 9639 41f9 a839 d04e 0638
00000370: 0393 013a 3894 3d37 0936 2e3a 3b50 1b38
00000380: b7c3 f439 3b39 6739 f2a4 f037 3efe a239
00000390: f005 a538 a240 a339 33c3 f038 fbef a537
000003a0: 8087 fb38 f7e6 a337 16d2 e637 141a e439
000003b0: bdff 7a39 2ad5 b738 15ff ed38 f46d 8038
000003c0: c6d8 9436 9970 4536 245d d337 13c0 d036
000003d0: f030 b837 5785 1637 6688 b837 a8f2 8636
000003e0: f3df 4338 d297 c136 4113 8639 0c41 f837
000003f0: 17ad b636 b793 3537 2958 2138 ad26 1837

square_avg f4 [6]
0.0019891378 9.332567e-05 0.0001665442 0.0015781398 0.00019369407 4.366421e-05
00000000: 325c 023b d6b7 c338 5ea2 2e39 96d9 ce3a
00000010: 5b1a 4b39 1724 3738

square_avg f4 [1, 6]
0.006130696 0.00023839828 0.015406103 0.004984575 0.014222515 0.0004088016
00000000: 01e4 c83b 8dfa 7939 e169 7c3c a555 a33b
00000010: 8d05 693c 6c54 d639
