mnc_ml_test/output/train/20221128-1146-model.pth (torch, 43533 bytes, 14 tensors)

module.0.weight f4 [60, 11]
0	0x3f6122a1	0.87943465
1	0xbf175600	-0.591156
2	0x3f7fe0f1	0.9995261
3	0xbe91b11f	-0.28455445
4	0xbd8c8134	-0.06860581
5	0x3ee540fe	0.44776148
6	0x3eb8bb9d	0.36080638
7	0x3ec63992	0.38715798
8	0xbe90b78d	-0.28265038
9	0x3e9a16ac	0.30095422
10	0xbeef9d7d	-0.46799842
11	0xbe594ce5	-0.21220739
12	0x3d7c99c9	0.0616701
13	0x3e5a28b8	0.21304595
14	0x3d7b6f11	0.061385218
15	0x3e081fc3	0.13293366
16	0xbddaa571	-0.10676087
17	0xbe297b37	-0.16550909
18	0xbecd900b	-0.4014896
19	0xbd9acb9d	-0.075583674
20	0xbe7370c3	-0.23773484
21	0x3e1eb9ef	0.15500616
22	0xbf01dbbf	-0.5072593
23	0xbd77fd9e	-0.060544603
24	0x3ef375bc	0.47550762
25	0xbe9e3fbe	-0.30908006
26	0x3e3ac909	0.18240751
27	0xbdb5e7cd	-0.08882103
28	0x3e71c0f4	0.23608762
29	0xbf3a543b	-0.72784775
30	0x3ede3cdb	0.43405804
31	0xbec30778	-0.38091636
32	0x3e54eb9b	0.20793001
33	0xbb8d364e	-0.004309452
34	0x3b95e991	0.0045749624
35	0x3d2d4580	0.04230261
36	0xbcf2f975	-0.029659966
37	0xbbcfd5b8	-0.006342616
38	0x3cb82b32	0.022481535
39	0xbbce1860	-0.006289527
40	0xbd95d418	-0.07315844
41	0x3d270496	0.040775858
42	0x3c601c3f	0.013678609
43	0xbd0cc907	-0.034371402
44	0x3f6f46af	0.9346723
45	0xbf202aca	-0.6256529
46	0x3f090e39	0.5353733
47	0x3c03fdfa	0.008056158
48	0x3cf7a510	0.030230075
49	0x3ea50dde	0.32237142
50	0x3e44b8e8	0.19211161
51	0x3ecf2029	0.40454224
52	0xbd7884ad	-0.060673404
53	0xbd7244f6	-0.059147798
54	0xbe46693f	-0.19376086
55	0x3ebb6bbf	0.3660564
56	0xbea32387	-0.31863043
57	0xbf9c74ea	-1.2223179
58	0x3e0763ac	0.13221616
59	0xbe018f86	-0.12652406
60	0x3f0546bf	0.52061075
61	0x3e472d49	0.19450869
62	0xbef88e48	-0.48546052
63	0x3e5ffb8e	0.21873304
64	0x3d4cacae	0.049969368
65	0xbe93f9a9	-0.28901413
66	0x3d5a3d54	0.053281143
67	0xbf498420	-0.7871723
68	0xbbefbf98	-0.007316541
69	0x3ee9742c	0.45596445
70	0x3e4954bf	0.19661234
71	0x3f5cb5ea	0.8621508
72	0xbf2bdfe8	-0.6713853
73	0x3f06d0d6	0.5266241
74	0xbd95504c	-0.07290706
75	0x3e86d9f5	0.26338163
76	0xbea81d40	-0.32834816
77	0x3e0bb803	0.13644414
78	0x3d975d9c	0.073909014
79	0xbeadc610	-0.33940172
80	0x3be5db88	0.0070146956
81	0x3e08cecf	0.13360141
82	0xbe1de9e9	-0.15421261
83	0xbe25f972	-0.16208437
84	0x3f1a8b5d	0.603689
85	0xbcc5f5f7	-0.024165137
86	0xbe86de7d	-0.2634162
87	0x3e7f8771	0.2495401
88	0xbd1d2b33	-0.038371276
89	0x3ec360c6	0.3815977
90	0xbf3b2628	-0.73105097
91	0x3eb5a168	0.35474706
92	0x3d814ed4	0.063138634
93	0xbe9026be	-0.28154558
94	0x3c4fe830	0.012689635
95	0xbf2b27f8	-0.6685786
96	0x3d493cf2	0.049130388
97	0x3e4ded28	0.20109999
98	0x3debda79	0.1151628
99	0x3f2b06ad	0.6680706
100	0xbf327467	-0.69708866
101	0x3f26f77e	0.65221393
102	0x3c1cd501	0.009572268
103	0xbddbc740	-0.10731363
104	0x3e9bd2ff	0.30434415
105	0x3df15561	0.11783863
106	0x3f3d7d06	0.74018896
107	0xbe786513	-0.24257307
108	0xbd64a9ea	-0.055826105
109	0xbe826ee1	-0.2547522
110	0xbe5786c3	-0.21047501
111	0xbdf82576	-0.1211652
112	0xbf5dca71	-0.86637026
113	0xbd40a358	-0.047030777
114	0xbd6a1c06	-0.05715563
115	0xbe3cfd31	-0.1845596
116	0x3cfedc49	0.0311109
117	0xbf1c7e20	-0.6112995
118	0x3f0af1fb	0.5427548
119	0x3d3b5240	0.045732737
120	0x3eaf0ac0	0.3418789
121	0x3dbc5b57	0.09197109
122	0x3eea639e	0.45779127
123	0xbf81320a	-1.0093396
124	0x3ee8b0c1	0.45447353
125	0x3e77cc61	0.24199058
126	0xbeaa23c4	-0.33230412
127	0x3e35afb7	0.17742811
128	0xbf7d2e47	-0.9889874
129	0x3dfab3d5	0.122413315
130	0x3d3672b2	0.044542976
131	0x3dba4e44	0.09096959
132	0xbf2c5c12	-0.6732799
133	0x3e40bdfc	0.18822473
134	0xbef92b11	-0.4866567
135	0xbe0c7450	-0.13716245
136	0xbccfa949	-0.025349276
137	0x3ebc67eb	0.36798033
138	0xbf3f6188	-0.74758196
139	0x3f779787	0.9671559
140	0x3e8c6f5b	0.27428707
141	0x3ed50b70	0.4161029
142	0xbdbf07ef	-0.09327685
143	0xbf0ba83a	-0.5455357
144	0x3f272f98	0.65307
145	0xbf0f1d11	-0.55903727
146	0x3e6b68b7	0.22989164
147	0x3dac0e5f	0.084011786
148	0xbdfcdb1c	-0.12346479
149	0x3ee05bcd	0.43820038
150	0xbf1936fe	-0.59849536
151	0xbe2ce287	-0.16883288
152	0xbe8f4155	-0.27979532
153	0xbe99c17f	-0.30030438
154	0xbd16a06e	-0.03677409
155	0x3d9c78de	0.07640241
156	0xbe011a6f	-0.1260774
157	0xbe3200ba	-0.1738309
158	0x3eae987c	0.3410071
159	0xbea2689e	-0.31720442
160	0xbeac4e27	-0.33653376
161	0x3e8eb95d	0.27875796
162	0x3e75c71a	0.24001732
163	0xbf2164d4	-0.63044477
164	0x3f057d6f	0.5214452
165	0xbf06ba28	-0.526278
166	0x3f8adb30	1.0848141
167	0xbf949052	-1.1606543
168	0x3e2c9830	0.1685493
169	0xbcd9a76d	-0.026569093
170	0xbf2a1f03	-0.6645357
171	0x3d68c70e	0.05683046
172	0xbed0623f	-0.40699956
173	0x3d0fb3d8	0.03508362
174	0x3e7aac77	0.24479853
175	0x3da2fdc7	0.079585604
176	0x3dd269f0	0.10274112
177	0x3ed33dd7	0.41258118
178	0x3e6eb041	0.23309423
179	0x3e1a6609	0.15077986
180	0xbe2876b5	-0.16451533
181	0xbecaa5aa	-0.39579517
182	0x3e71a1cb	0.23596875
183	0xbe575dea	-0.21031919
184	0x3b1da821	0.0024056511
185	0xbeb386ac	-0.35063684
186	0x3e496c33	0.19670181
187	0xbdc9049c	-0.09815332
188	0xbe85f003	-0.26159677
189	0x3edcc5e2	0.43119723
190	0x3de7ece8	0.11324483
191	0xbf3de7db	-0.7418191
192	0xbceb0752	-0.028690014
193	0xbe6dde93	-0.23229437
194	0x3ed13983	0.4086419
195	0xbe3645e8	-0.17800105
196	0xbe84e3f9	-0.2595518
197	0xbcdebfad	-0.027191008
198	0x3daa2c8b	0.08309277
199	0x3dd09b67	0.10185891
200	0xbe461e9f	-0.19347619
201	0xbe83b2b4	-0.25722277
202	0x3eb6aab5	0.35677114
203	0xbeeedb7c	-0.46651828
204	0xbe322202	-0.17395785
205	0xbdaa32c6	-0.083104655
206	0x3e59e7af	0.21279787
207	0x3e2a4e98	0.16631544
208	0xbd6ac38d	-0.057315398
209	0xbeaae925	-0.33381
210	0xbd64e894	-0.055885866
211	0x3f30e06f	0.6909246
212	0xbd997852	-0.074936524
213	0xbe72af54	-0.23699695
214	0x3da930bf	0.08261251
215	0x3e6eee89	0.23333181
216	0xbf7d0dbb	-0.98849076
217	0x3e02b90b	0.12765901
218	0x3ebf5849	0.37372044
219	0xbdb43f8e	-0.088011846
220	0x3ec02805	0.37530532
221	0xbdd11589	-0.10209186
222	0x3dda1493	0.106484555
223	0x3e3e23f0	0.18568397
224	0xbdab1eb6	-0.08355467
225	0x3e8fc163	0.2807723
226	0xbe81bac4	-0.25337803
227	0x3f1eb7c8	0.6199918
228	0xbf177127	-0.5915703
229	0x3dd2197f	0.10258769
230	0xbea4f1f7	-0.32215855
231	0xbc779622	-0.015111478
232	0x3df2307a	0.118256524
233	0xbe2085db	-0.15676062
234	0x3db112cd	0.08646164
235	0x3e5f80c7	0.21826468
236	0xbe47c4fc	-0.19508737
237	0xbe913260	-0.28358746
238	0x3e92c06f	0.2866244
239	0xbe054193	-0.13013296
240	0xbecfff3c	-0.40624416
241	0x3e9d7955	0.30756631
242	0xba5d0394	-0.0008431014
243	0x3b21f88f	0.0024714803
244	0xbaa652d9	-0.0012689485
245	0xbb4fdb0c	-0.0031716255
246	0x3a2e3b76	0.00066464336
247	0xbaca2956	-0.0015423696
248	0xbbd945c7	-0.0066306326
249	0xb9d37389	-0.00040331137
250	0x3ae15976	0.0017192799
251	0xbae82e9d	-0.0017714087
252	0xbb192826	-0.0023369878
253	0xbe42137f	-0.1895275
254	0xbae3e5bd	-0.0017387193
255	0x3e706b8a	0.23478523

module.0.bias f4 [60]
0	0xbdb1e57d	-0.086863495
1	0xbe40a349	-0.18812288
2	0xbea277d0	-0.31732035
3	0x3bb972d3	0.00565944
4	0xbefe9de2	-0.4972983
5	0xbe94312f	-0.28943774
6	0xbeaa2afe	-0.33235925
7	0x3d20c971	0.03925461
8	0x3cd05012	0.025428806
9	0x3d961d80	0.073298454
10	0x3d84c7df	0.06483435
11	0xbe071357	-0.13190971
12	0xbe2c8275	-0.1684664
13	0xbe954637	-0.29155132
14	0xbdbdf964	-0.09276083
15	0x3e58b966	0.21164474
16	0xbf04d10e	-0.5188149
17	0xbea9ab67	-0.33138582
18	0xbe1ec74b	-0.15505712
19	0xbe49105a	-0.19635144
20	0x3d9aa476	0.075509
21	0xbdc238ce	-0.09483491
22	0xb9cab222	-0.00038661162
23	0xbe111fc7	-0.14172278
24	0xbf0f281e	-0.5592059
25	0xbcfc7c48	-0.03082098
26	0xbe308e3a	-0.17241755
27	0xbee4a8cb	-0.4466003
28	0xbcc05203	-0.023476606
29	0xbe821d88	-0.25413156
30	0x3d19ffe8	0.037597567
31	0x3d03d583	0.032186043
32	0xbb228a8c	-0.0024801819
33	0xbdf168a7	-0.11787539
34	0x3c89ca36	0.016820055
35	0xbde6240e	-0.11237346
36	0xbe118938	-0.14212501
37	0x3dd0811f	0.10180878
38	0x3d926b95	0.07149426
39	0x3e9abae5	0.30220714
40	0xbb87dcd2	-0.004146197
41	0xbeea6c74	-0.45785868
42	0x3de61880	0.11235142
43	0xbc7bfbf7	-0.015379897
44	0x3e39726e	0.18110058
45	0x3d108990	0.03528744
46	0x3e81ebfd	0.25375357
47	0x3da0f47c	0.07859132
48	0x3c87c60d	0.01657393
49	0x3db8e44e	0.09027921
50	0xbf06a3ab	-0.5259349
51	0xbf4c1f1a	-0.7973496
52	0xbe420d04	-0.18950278
53	0xbda073a5	-0.078345574
54	0xbcc402f5	-0.023927191
55	0x3e3d65b7	0.18495832
56	0x3da33520	0.07969117
57	0x3a6a9bc2	0.00089496013
58	0x3e59a318	0.21253622
59	0x3e2f21c4	0.17102724

module.2.weight f4 [60, 60]
0	0xbd77b9a8	-0.06047979
1	0xbc845c22	-0.016157214
2	0x3d1ec010	0.038757384
3	0x3cd1a222	0.025590006
4	0x3bc133a9	0.005896051
5	0xbb031be7	-0.0020005645
6	0x3d57dc32	0.05270023
7	0xbdfaa489	-0.12238414
8	0x3da83b02	0.0821438
9	0x3e0a8c21	0.13530017
10	0x3dd4360b	0.103618704
11	0x3dcc3840	0.09971666
12	0xbdf74988	-0.12074572
13	0xbe08deb6	-0.13366207
14	0xbcda6c3c	-0.026662938
15	0x3e15fe04	0.1464768
16	0xbca971d9	-0.02068417
17	0xbd3e5f6c	-0.04647772
18	0xbc112847	-0.0088597005
19	0xbdaadba9	-0.08342678
20	0xbd76ab58	-0.060222
21	0xbd839fc1	-0.06426955
22	0x3c4a0371	0.012329922
23	0x3d4deb7b	0.0502734
24	0xbc03cbe3	-0.008044216
25	0x3d27c13a	0.04095576
26	0xbdc147f7	-0.09437554
27	0x3d16e81f	0.03684246
28	0x3dffb025	0.12484769
29	0x3e09f3c3	0.13471894
30	0x3d04444d	0.0322917
31	0x3daefbcb	0.085441194
32	0xbd1325a8	-0.035924584
33	0xbd1a98dc	-0.037743434
34	0x3d4dc863	0.05023993
35	0xbe673f06	-0.22582635
36	0x3d183606	0.037160896
37	0xbc43e73e	-0.011956988
38	0xbd3008ab	-0.042977016
39	0xbddfcda0	-0.10927892
40	0x3d8ff8d5	0.07029883
41	0xbd4f1a3b	-0.050562125
42	0xbdf4cd9e	-0.11953281
43	0x3c48623e	0.012230454
44	0x3d623a0f	0.05523115
45	0xbd547f86	-0.05187943
46	0x3bc85e22	0.006114737
47	0x3dc121c7	0.09430271
48	0x3d93c35f	0.072149985
49	0xbcd9d4fd	-0.026590819
50	0xbc927da2	-0.017882172
51	0x3c81c076	0.015838843
52	0xbd36d41a	-0.04463587
53	0xbd2f986f	-0.04286998
54	0xbd41c2a7	-0.047304776
55	0xbc5c44e7	-0.013444162
56	0xbd75aed0	-0.059981167
57	0xbd15b855	-0.036552746
58	0x3d99981f	0.07499718
59	0xbc01a38d	-0.007912529
60	0xbc9a3f82	-0.018829111
61	0x3c87154f	0.016489653
62	0xbcc87c12	-0.024473224
63	0x3ba39bb2	0.0049929256
64	0xbc7b3ac4	-0.015333835
65	0xbda6a164	-0.081362516
66	0x3d035b86	0.032069705
67	0xbd6be3d9	-0.05759034
68	0x3d6fa03a	0.058502413
69	0xbda98785	-0.082778014
70	0xbd6353a8	-0.055499703
71	0x3d5828c8	0.052773267
72	0x3cd8cc63	0.026464647
73	0xbd446c2a	-0.047954716
74	0xbc14ceb3	-0.009082484
75	0x3df572e3	0.119848035
76	0x3e144144	0.14478022
77	0x3c772535	0.015084554
78	0xbb8e8d4f	-0.0043503414
79	0xbdc5278f	-0.09626686
80	0xbd48d513	-0.04903133
81	0xbd4c1054	-0.04982026
82	0x3c5837e0	0.013196915
83	0x3aafb782	0.001340613
84	0x3d11e436	0.03561803
85	0xbd175f63	-0.036956202
86	0x3da6873a	0.08131261
87	0x3cb496d1	0.022044571
88	0x39d9f6ea	0.0004157343
89	0xbd3a2fe8	-0.045455843
90	0xba283826	-0.0006417058
91	0x3b5e4f99	0.0033921956
92	0x3cdb390b	0.026760599
93	0x3cd50c40	0.026006818
94	0xbd7a881d	-0.061164964
95	0xbd1efc9a	-0.03881512
96	0x3e7036a0	0.23458338
97	0x3d0249c4	0.03180863
98	0xbd0519b1	-0.032495204
99	0x3e10ae47	0.14128982
100	0xbd22bc81	-0.039730553
101	0xbddbce94	-0.10732761
102	0xbcf5a439	-0.029985534
103	0x3afc0dc2	0.0019230174
104	0xbd091fc2	-0.033477552
105	0x3c7ff518	0.0156224
106	0xbce41285	-0.027840862
107	0x3da0437e	0.07825373
108	0xbb88d415	-0.004175673
109	0xbce98624	-0.028506346
110	0xbd992250	-0.07477248
111	0xbd6012e9	-0.054705534
112	0x3c2d618c	0.010582339
113	0x3c144276	0.009049049
114	0xbc9a202d	-0.01881417
115	0x3dddd8b0	0.108323455
116	0xbd1c49dd	-0.03815638
117	0xbcce0eea	-0.025153596
118	0x3db011a1	0.085971124
119	0x3b568630	0.003273379
120	0x3d46e06a	0.04855386
121	0x3c79a034	0.015235949
122	0xbcdd70f7	-0.027031405
123	0x3d289566	0.041158102
124	0xbbbfb7dc	-0.005850775
125	0xbd2dbf13	-0.04241855
126	0x3d9e2295	0.0772144
127	0xbbe50789	-0.0069894237
128	0x3e49a2ef	0.1969106
129	0x3d618600	0.055059433
130	0x3d1faed9	0.038985107
131	0x3c2a28ba	0.0103856865
132	0xbce1edca	-0.027579207
133	0xbcf51850	-0.02991882
134	0x3d400fa9	0.046889935
135	0x3d2450ce	0.040116124
136	0x3c0db42b	0.008648912
137	0x3ad3d8ac	0.0016162596
138	0x3bcb3c36	0.006202246
139	0x3ccbdb0f	0.024884729
140	0xbe0c8693	-0.13723211
141	0x3cc5509d	0.024086291
142	0xbbb732f1	-0.0055907895
143	0x3aa17909	0.0012319396
144	0x3db5eab7	0.08882659
145	0xbcee374c	-0.029079102
146	0x3dac7a1e	0.084217295
147	0x3d7cb488	0.061695606
148	0x3d48cad4	0.049021557
149	0xbdae5939	-0.085131116
150	0x3e008ae9	0.1255299
151	0x3d2c2963	0.042031657
152	0x3d1a30b1	0.037644092
153	0x3cc54a92	0.02408341
154	0xbc9212ab	-0.017831167
155	0xbe288b73	-0.16459446
156	0x3dc18e55	0.09450976
157	0x3c922e76	0.01784442
158	0xbd31a5cb	-0.043371003
159	0x3cb83968	0.022488311
160	0xbdeb102e	-0.114776954
161	0xbdba661f	-0.09101509
162	0xbe05c227	-0.13062344
163	0xbc50cac7	-0.012743658
164	0xbdcc474a	-0.09974535
165	0x3c565107	0.013080842
166	0x3d5167af	0.05112427
167	0x3e421dd2	0.18956688
168	0x3c5c0dae	0.013430996
169	0xbd87ba5e	-0.066273436
170	0xbcc2825c	-0.0237438
171	0xbd9a4b01	-0.07533837
172	0xbd3b115c	-0.045670852
173	0xbccff86b	-0.02538701
174	0xbccbc2b5	-0.024873117
175	0xbddb1a3b	-0.106983624
176	0xbbc20fa1	-0.0059222733
177	0x3e2574ff	0.16157912
178	0x3a9e7da7	0.0012091891
179	0x3cf5f35e	0.030023273
180	0xbe0cd600	-0.1375351
181	0xbd36b683	-0.04460765
182	0x3e1d3df7	0.15355669
183	0xbca19a31	-0.019726845
184	0x3dd3226f	0.10309302
185	0x3c9d9e52	0.019240532
186	0xbc171164	-0.009220455
187	0x3daf15a6	0.08549051
188	0x3df73a82	0.12071706
189	0x3cf005ed	0.0292997
190	0xbddd58e4	-0.1080797
191	0xbcb82338	-0.022477731
192	0x3d3d683a	0.046241976
193	0x3d4b2c8f	0.04960304
194	0xbc712cdb	-0.014720167
195	0xbe22182e	-0.15829536
196	0xbd0d03c4	-0.03442742
197	0xbda2133c	-0.07913825
198	0x3d7acd25	0.061230797
199	0x3cd4a660	0.02595824
200	0x3d52e3a4	0.051486626
201	0xbd874977	-0.06605809
202	0xbc8eb7ef	-0.01742169
203	0x3cfbf2ea	0.030755479
204	0x3d8eb93f	0.06968927
205	0xbde8b3ca	-0.11362417
206	0x3da35922	0.07975985
207	0x3dabfd4e	0.083979234
208	0x3d199722	0.037497647
209	0xbdf561cd	-0.11981545
210	0xbcc1fe9f	-0.023680983
211	0xbd544d1e	-0.051831357
212	0x3cf6990e	0.030102279
213	0x3dddfcb7	0.10839217
214	0xbd0abd97	-0.033872213
215	0x3d255cb7	0.040371623
216	0xbcee82ba	-0.02911507
217	0xbc785e5d	-0.015159217
218	0xbce60b03	-0.028081423
219	0xb862ef80	-5.410565e-05
220	0xbd66577e	-0.056235783
221	0x3c5bb693	0.013410228
222	0x3d28cf1b	0.041213136
223	0xbb8f207b	-0.0043678856
224	0x3bae4978	0.0053188168
225	0xbc9a8f07	-0.018867029
226	0x3e07f378	0.1327647
227	0x3d13dd04	0.03609945
228	0xbd87ddc0	-0.06634092
229	0xbe322149	-0.1739551
230	0x3d7fd277	0.062456574
231	0xbcbf4698	-0.023349091
232	0xbd50e085	-0.05099537
233	0xbc0377ca	-0.008024165
234	0xbddbc4c2	-0.10730888
235	0x3d0dd27f	0.034624573
236	0x3d4bd0f0	0.049759805
237	0x3cede29d	0.029038722
238	0xbda02708	-0.078199446
239	0x3ccc0a44	0.024907239
240	0x3b5d0d1f	0.0033729745
241	0xbc9861e2	-0.018601362
242	0x3d9d574f	0.076826684
243	0xbb873166	-0.004125762
244	0x3b9dcb74	0.0048155133
245	0x3cad2bdb	0.021139076
246	0xbd218fad	-0.03944366
247	0x3c32377e	0.010877488
248	0xbdcfbb7d	-0.101431824
249	0xbd6ca541	-0.057774786
250	0xbd74280b	-0.0596085
251	0xbdd2e97e	-0.10298441
252	0x3d04f339	0.032458518
253	0xbc278242	-0.010223927
254	0xbe2321ca	-0.15930858
255	0xbe089744	-0.13338953

module.2.bias f4 [60]
0	0xbcef09e8	-0.029179528
1	0xbdaff4d2	-0.08591618
2	0xbd155878	-0.036461323
3	0x3db4b310	0.08823216
4	0x3d935e36	0.07195704
5	0xbd6e3bbf	-0.058162447
6	0x3e27ab21	0.16373874
7	0xbe8bdb62	-0.27315813
8	0xbc03df54	-0.008048851
9	0xbd4aef3a	-0.04954455
10	0x3e815a3e	0.25264162
11	0xbcef7e03	-0.029234892
12	0x3c915fea	0.01774593
13	0x3da418ba	0.08012529
14	0xbc95e38e	-0.018296983
15	0x3e0f3196	0.1398376
16	0xbe7ac069	-0.24487461
17	0x3e0a920b	0.13532273
18	0xbc3aede4	-0.011409257
19	0x3d9648d1	0.073381074
20	0xbcd0b308	-0.025475994
21	0xbd9aaa0e	-0.075519666
22	0xbd6f97bf	-0.058494326
23	0xbdd33fdd	-0.10314915
24	0xbe63ed2a	-0.2225844
25	0x3b0cca2c	0.0021482809
26	0xbf79fa17	-0.9764723
27	0x3d9a9173	0.075472735
28	0xbe679316	-0.22614703
29	0xbda15bcd	-0.07878838
30	0xbd4070db	-0.046982627
31	0xbcc2b8c1	-0.023769738
32	0x3c9ca4b3	0.019121503
33	0x3d3ec923	0.046578538
34	0x3d14fcad	0.036373783
35	0x3ced3763	0.028957075
36	0xbd846311	-0.06464208
37	0xbd151595	-0.036397535
38	0xbd9b0a37	-0.07570308
39	0xbca0c8a1	-0.019626917
40	0x3cf6382d	0.030056084
41	0x3eb09aa8	0.34492993
42	0xbe65d57c	-0.22444719
43	0x3c018fa4	0.007907782
44	0xbc8e2cc8	-0.017355338
45	0x3d4b5df7	0.04965016
46	0x3d8e03ff	0.06934356
47	0xbcdecf1f	-0.027198372
48	0xbd1bff58	-0.03808531
49	0x3df215ee	0.11820589
50	0xbca6c207	-0.020356191
51	0x3d46505c	0.04841648
52	0xbd05d0f0	-0.03266996
53	0x3d56f066	0.052475356
54	0x3d8cd288	0.06876093
55	0xbdad0c44	-0.08449605
56	0x3e45bbfa	0.19309989
57	0x3c8b616e	0.017014232
58	0x3ce1a39a	0.027543832
59	0xbbcb5c0c	-0.006206041

module.4.weight f4 [6, 60]
0	0xb943f952	-0.00018689528
1	0x3b276fe7	0.0025548877
2	0x39ed4ae4	0.0004525996
3	0xbb3c2b5e	-0.0028712372
4	0xba2283ca	-0.00061994477
5	0x3a30585e	0.0006727035
6	0x3bc95c8c	0.0061450657
7	0xbdea4cc1	-0.11440421
8	0xb938d5d8	-0.0001762727
9	0x3a3f74ce	0.0007303477
10	0x3e5b1b8a	0.21397224
11	0xbae234a2	-0.0017258117
12	0x3ad20191	0.0016022195
13	0xb9f710d8	-0.0004712406
14	0x378221c0	1.5512924e-05
15	0x3c09baa2	0.008406313
16	0xbd90fc8a	-0.07079418
17	0xbdf33623	-0.1187556
18	0x3aec8e12	0.0018047711
19	0xb7011a60	-7.69514e-06
20	0x3af34939	0.0018561251
21	0xbb2f44b7	-0.0026743838
22	0x3a8766f2	0.0010330363
23	0xbdb5c703	-0.08875849
24	0x3e139d27	0.14415418
25	0x3acdd796	0.0015704508
26	0xbe686173	-0.22693424
27	0xba5913fa	-0.000828087
28	0x3cbcccbc	0.023046844
29	0xbbbbfb9a	-0.0057367804
30	0xbbbad16f	-0.005701236
31	0xba17dca2	-0.000579307
32	0x3aa64303	0.0012684766
33	0xba0691e0	-0.00051334314
34	0x393ea760	0.00018182164
35	0x3ba4f1d6	0.005033712
36	0xba862d36	-0.0010236863
37	0xb9bd0df3	-0.00036059282
38	0xbac9f3ec	-0.0015407777
39	0x3abdfa22	0.0014494101
40	0xbaac8bde	-0.0013164242
41	0xbd71dd4b	-0.059048932
42	0xbe041234	-0.12897569
43	0x3b5657e0	0.0032706186
44	0x3b3ccfcf	0.0028810387
45	0xbe124bb5	-0.14286692
46	0x3a695ad0	0.0008901777
47	0x3aec0ad5	0.0018008599
48	0xbb11b08b	-0.0022230472
49	0xbb8796fe	-0.0041378727
50	0xbaf57a5e	-0.0018728485
51	0x3afc9f02	0.0019273462
52	0x3a15bfa7	0.00057124574
53	0x3aa1197c	0.001229092
54	0x39a2c952	0.00031049043
55	0x3b84e417	0.0040555107
56	0x3d92bc82	0.07164861
57	0x3d0e9e52	0.034818955
58	0xbb04fe92	-0.0020293337
59	0xbb370361	-0.0027925598
60	0x3acb9ad9	0.0015533819
61	0x3b628778	0.003456561
62	0x3a1dea68	0.0006024004
63	0xba40b2b2	-0.00073508464
64	0x39a4a3a4	0.0003140244
65	0xbad52471	-0.0016261471
66	0xbc8423a7	-0.016130282
67	0xbe92cdb3	-0.2867256
68	0xbb08ccf6	-0.002087412
69	0xbb44a332	-0.0030004499
70	0x3cae456d	0.02127334
71	0xbb775efc	-0.0037745824
72	0x3b228621	0.0024799185
73	0xbb3e5325	-0.0029041257
74	0x3b83b9fb	0.0040199733
75	0x3bbb7630	0.005720876
76	0xbdcfaadb	-0.1014001
77	0xbf2b0295	-0.66800815
78	0x3b502022	0.0031757434
79	0xbaaf3f68	-0.0013370337
80	0x3be59c32	0.0070071453
81	0xbaa44ab6	-0.0012534473
82	0x3abf57ae	0.0014598274
83	0xbdc2a821	-0.09504724
84	0xbcc5a0c0	-0.024124503
85	0x3b9e9c13	0.004840383
86	0x3e806923	0.25080213
87	0x3a8e18ee	0.001084117
88	0x3e1c40a5	0.15259035
89	0xba3f4f9e	-0.00072979357
90	0xbb5764f6	-0.0032866574
91	0xbb478048	-0.0030441452
92	0xbb120eea	-0.0022286722
93	0xbb7ab155	-0.003825267
94	0xbadd51af	-0.0016885306
95	0x3aa7798a	0.001277731
96	0xbcb5c195	-0.022187034
97	0x3a9edc37	0.0012120072
98	0xbae79b79	-0.0017670236
99	0x3aa93990	0.0012910832
100	0xba85b1b8	-0.0010200059
101	0x3c9eb3cf	0.019372849
102	0x3e29e816	0.1659244
103	0x3c335482	0.010945441
104	0x3b38ed0d	0.0028217465
105	0xbf05349f	-0.5203342
106	0xbbf95294	-0.007608721
107	0x3b7e9366	0.003884518
108	0xbb6fffd0	-0.0036620982
109	0xbc2ccc04	-0.010546688
110	0xbb2a0b9f	-0.0025946868
111	0xba862d2f	-0.0010236854
112	0x3ada54fa	0.0016657405
113	0x3b61375c	0.0034365272
114	0x3b57a860	0.0032906756
115	0xbab82bfa	-0.0014051192
116	0x3df45605	0.119304694
117	0x3f039c91	0.51410776
118	0xbb75f320	-0.0037528947
119	0xbbd02964	-0.0063525904
120	0x3bdcc835	0.0067377337
121	0x3bb2609a	0.0054436447
122	0x3bebfa4a	0.0072014676
123	0x3bcd0a9f	0.0062573696
124	0x3bf15e89	0.007366006
125	0xbc755028	-0.014972724
126	0x3c4cc40d	0.012497914
127	0xbb978929	-0.004624505
128	0xbca76a26	-0.020436358
129	0xbc0792c1	-0.008274735
130	0xbc091dca	-0.008368919
131	0xbcf55106	-0.029945862
132	0x3bf42839	0.007451084
133	0x3c0369e3	0.008020851
134	0x3acac042	0.0015468674
135	0xba577a9a	-0.0008219868
136	0x390d55f8	0.00013478834
137	0x3c70323f	0.014660417
138	0xbb3180dd	-0.0027084865
139	0xbae320f6	-0.0017328549
140	0x3c702416	0.014657041
141	0xbc516d5e	-0.012782423
142	0xbbe4ed2f	-0.0069862823
143	0xbafa156e	-0.0019079873
144	0xbc1400f3	-0.009033429
145	0x3c3e4672	0.011613475
146	0x3c10ab6e	0.0088299345
147	0x3bd4ebc1	0.0064978306
148	0xbdc299f4	-0.095020205
149	0x3c3ef95c	0.011656132
150	0x3ba179d0	0.0049278513
151	0xbc20a996	-0.009806057
152	0x3c976c47	0.018484248
153	0x3c323197	0.010876081
154	0x3b1997ab	0.0023436348
155	0xbc3b9059	-0.011447989
156	0x3db29d36	0.08721392
157	0xbb37f0ef	-0.0028067192
158	0x3b8fbcec	0.004386535
159	0xb9bd6d8c	-0.00036130508
160	0xbc62b595	-0.013837238
161	0xba4626ab	-0.00075588626
162	0xbbfd4c86	-0.0077300696
163	0x3aa2c778	0.0012419065
164	0x3c77bbb2	0.015120434
165	0xbc7c092b	-0.015383045
166	0x3b576b3f	0.003287032
167	0x3b89530e	0.004190809
168	0xbcad4528	-0.02115114
169	0xbbed934c	-0.007250225
170	0xbb130d5b	-0.002243838
171	0x3c48a03d	0.012245235
172	0xbb24dc53	-0.0025155738
173	0x3c89f487	0.016840233
174	0x3c8c7f4d	0.017150545
175	0xbc168670	-0.009187326
176	0xbd1e2ab9	-0.038614962
177	0xbb96713b	-0.004591135
178	0x3c9b6338	0.01896821
179	0xbc0f3e98	-0.008742951
180	0xbb01c377	-0.0019800344
181	0xbbabffe2	-0.0052490095
182	0xba90dcc7	-0.0011052125
183	0x3ac81aee	0.0015266815
184	0x3a8404f7	0.001007228
185	0xbb0d2bea	-0.0021541067
186	0xbb7d3cc4	-0.0038640955
187	0xbd93ec9d	-0.07222865
188	0x394ed5b0	0.00019725296
189	0xbae9e86e	-0.0017845759
190	0xbe3e2e54	-0.1857236
191	0x3a08f741	0.0005224832
192	0x3a48cd18	0.0007659956
193	0x3b293356	0.0025817952
194	0x3b6da49a	0.003626144
195	0x3cc8f7e4	0.024532266
196	0x3d2e4731	0.042548362
197	0xbe80d3da	-0.2516163
198	0xbb6f66cc	-0.0036529778
199	0x3aab76ff	0.0013081728
200	0x3997eda4	0.0002897802
201	0xbb1bc8df	-0.0023770852
202	0xba2d7143	-0.00066163036
203	0xbe9ff67d	-0.31242743
204	0x3f14ebb7	0.5817217
205	0x3a1358d2	0.000562084
206	0xbf207c22	-0.6268941
207	0x3b8bcbad	0.0042662234
208	0xbe09486c	-0.13406533
209	0x3ba7c075	0.005119378
210	0x3af902cf	0.0018998029
211	0xbb8a568f	-0.0042217444
212	0x3bff1737	0.00778475
213	0x39b3b020	0.00034272764
214	0x3b3e0365	0.0028993723
215	0xbab2b1b1	-0.0013633278
216	0xbd86f947	-0.06590515
217	0x39e7601c	0.0004413136
218	0xb9aa6110	-0.00032497244
219	0xbb406eea	-0.0029362985
220	0x3b00a6b1	0.0019630606
221	0xbee347ed	-0.44390813
222	0xbd070cd6	-0.032971226
223	0xbb64cad7	-0.003491094
224	0x3b28f7be	0.0025782431
225	0xbd082d68	-0.033246428
226	0x3bb08fd9	0.0053882417
227	0xba065cd6	-0.0005125528
228	0x3a6a5505	0.00089390605
229	0x3b0c5bbd	0.0021416985
230	0x3a66344f	0.00087815983
231	0xbb680cce	-0.0035408023
232	0x3b27b09c	0.0025587445
233	0x3bdea28a	0.0067942785
234	0xb9a89f6c	-0.00032162236
235	0xbb834c52	-0.004006901
236	0x3db7c651	0.08973373
237	0xbe945610	-0.2897191
238	0x3b40fa2f	0.0029445996
239	0xb9ccd980	-0.00039071962
240	0xb987bc83	-0.0002588966
241	0xbb6a23b4	-0.0035726847
242	0x3bc3ca82	0.0059750685
243	0x3bafe71c	0.0053681266
244	0x3aaa9741	0.0013015048
245	0x3c8b6947	0.017017974
246	0xbda86807	-0.08222967
247	0x3ddf6957	0.10908764
248	0xbb7499ea	-0.0037323185
249	0xbbea1aea	-0.0071443217
250	0x3d12b97a	0.035821415
251	0xbad910a2	-0.0016560743
252	0xbc964ffe	-0.01834869
253	0x3aee96b2	0.001820287
254	0xbb004500	-0.0019572377
255	0xbd14fd74	-0.036374524

module.4.bias f4 [6]
0	0x3eb982dd	0.36232653
1	0xbc2b2e18	-0.010448001
2	0x3c363689	0.011121401
3	0xbe511b96	-0.2042068
4	0x3d63868c	0.055548236
5	0xbf0906b9	-0.5352588

module.6.weight f4 [1, 6]
0	0x3e3809c7	0.1797248
1	0xbccfe4cc	-0.025377654
2	0x3a09669c	0.0005241425
3	0xbd222107	-0.03958228
4	0x3c965b81	0.01835418
5	0xbe00c4f9	-0.12575139

square_avg f4 [60, 11]
0	0x37b8c4be	2.2026124e-05
1	0x376a8005	1.3977294e-05
2	0x3728b879	1.0056531e-05
3	0x37df9885	2.6654694e-05
4	0x379e21b0	1.8850755e-05
5	0x377f40ce	1.5214273e-05
6	0x37975249	1.803892e-05
7	0x371f1252	9.481404e-06
8	0x381a98b3	3.6858673e-05
9	0x37a34672	1.9463918e-05
10	0x37850e94	1.5861624e-05
11	0x33675d79	5.386889e-08
12	0x3355c71c	4.9774016e-08
13	0x325f3ab9	1.299366e-08
14	0x33467a14	4.6211497e-08
15	0x33323bbd	4.1498186e-08
16	0x32fc316f	2.9359141e-08
17	0x330ac323	3.2308105e-08
18	0x32a213af	1.8868233e-08
19	0x3340b0d7	4.486432e-08
20	0x3319b271	3.578538e-08
21	0x3303c630	3.0681065e-08
22	0x3593a043	1.0998996e-06
23	0x34f04b06	4.475807e-07
24	0x342bd3e4	1.6002701e-07
25	0x3533d74b	6.699599e-07
26	0x351f1c08	5.9272907e-07
27	0x3521a9de	6.0224363e-07
28	0x34a15366	3.0049267e-07
29	0x34791f65	2.3201353e-07
30	0x35296572	6.310503e-07
31	0x34f17d74	4.4981027e-07
32	0x3510e165	5.397217e-07
33	0x30f046a3	1.7482374e-09
34	0x2fdf50be	4.0620834e-10
35	0x2f9ea944	2.8860303e-10
36	0x3033075a	6.513027e-10
37	0x302fdd6d	6.3979294e-10
38	0x2ff2fd9e	4.419975e-10
39	0x3052cd96	7.668971e-10
40	0x2fc9bd42	3.6696163e-10
41	0x309449bd	1.0789375e-09
42	0x302a8fba	6.204989e-10
43	0x30442eae	7.137072e-10
44	0x3738350c	1.0979606e-05
45	0x365b903c	3.2717498e-06
46	0x361bfb34	2.324302e-06
47	0x3692e57a	4.3778537e-06
48	0x369a0b7e	4.5908955e-06
49	0x36893f59	4.090293e-06
50	0x36ed8a82	7.079275e-06
51	0x3669e183	3.485097e-06
52	0x3705a089	7.964795e-06
53	0x36c99410	6.0075035e-06
54	0x3682a558	3.8935505e-06
55	0x375b93b2	1.3087805e-05
56	0x36953b38	4.44744e-06
57	0x35fe1a4d	1.8932129e-06
58	0x3723fbdd	9.774199e-06
59	0x36d5c9f8	6.371407e-06
60	0x3693db28	4.4064545e-06
61	0x36be1783	5.6651784e-06
62	0x36c5e1bb	5.897336e-06
63	0x373d5c9a	1.1286838e-05
64	0x36db0973	6.5278086e-06
65	0x36e7d127	6.908685e-06
66	0x363026a9	2.6248547e-06
67	0x35a1ea8b	1.2063696e-06
68	0x3451691e	1.9502883e-07
69	0x355bc7c0	8.187453e-07
70	0x3566c777	8.5971936e-07
71	0x355c5afb	8.208878e-07
72	0x3532d4ec	6.662001e-07
73	0x356bcee5	8.7845393e-07
74	0x35736712	9.067454e-07
75	0x358d7eb1	1.0542191e-06
76	0x35b68930	1.3599984e-06
77	0x33a8ea84	7.865768e-08
78	0x337b3b99	5.8494695e-08
79	0x326c2bd8	1.3746977e-08
80	0x338aa395	6.455881e-08
81	0x3386029a	6.2403345e-08
82	0x333d453f	4.406797e-08
83	0x3306c6b9	3.1380043e-08
84	0x32a8e70c	1.9662842e-08
85	0x338026da	5.9675315e-08
86	0x33359d6d	4.2285524e-08
87	0x331b52ac	3.616394e-08
88	0x362db540	2.588451e-06
89	0x3610c3d0	2.157165e-06
90	0x357cdc7f	9.419818e-07
91	0x368e8ac8	4.248086e-06
92	0x36403411	2.8640536e-06
93	0x361117b8	2.162049e-06
94	0x3600fa93	1.921934e-06
95	0x35c48a9d	1.464348e-06
96	0x369c9756	4.66678e-06
97	0x360ab6e9	2.067007e-06
98	0x361965db	2.2858064e-06
99	0x37895b02	1.6374051e-05
100	0x373b3edb	1.1160703e-05
101	0x36f8403d	7.3984543e-06
102	0x37ab6734	2.0432846e-05
103	0x376be17c	1.4059591e-05
104	0x37414cd3	1.15215835e-05
105	0x3742bf40	1.160783e-05
106	0x36e74fbc	6.893619e-06
107	0x37c85754	2.3882523e-05
108	0x3764a804	1.3628978e-05
109	0x37476ba5	1.1886387e-05
110	0x36651645	3.4136622e-06
111	0x35eacf26	1.7494647e-06
112	0x35812fd4	9.625169e-07
113	0x36871ad5	4.026437e-06
114	0x362e091e	2.5933327e-06
115	0x360c21f6	2.0881394e-06
116	0x35dc39ed	1.6408136e-06
117	0x35c9b661	1.5028746e-06
118	0x368a5926	4.1230987e-06
119	0x3603ea40	1.9656873e-06
120	0x36203e8c	2.3878265e-06
121	0x3816ce57	3.5954956e-05
122	0x37b3ce6f	2.1434591e-05
123	0x37152a30	8.890915e-06
124	0x383f96a2	4.5678236e-05
125	0x37f904ac	2.9685289e-05
126	0x37b7b26c	2.1898384e-05
127	0x37accdb1	2.059978e-05
128	0x3777f1d8	1.4778656e-05
129	0x384b7cbf	4.851515e-05
130	0x37aea881	2.0820882e-05
131	0x37bbf790	2.2407417e-05
132	0x38d76600	0.00010270998
133	0x36fcf79a	7.53901e-06
134	0x36a405c5	4.8882525e-06
135	0x378c9981	1.6760781e-05
136	0x374a88eb	1.2072017e-05
137	0x37182d3a	9.070436e-06
138	0x36ff2825	7.6042656e-06
139	0x36885908	4.0634804e-06
140	0x37aa939a	2.0334312e-05
141	0x36fa0066	7.450627e-06
142	0x374126f7	1.1512769e-05
143	0x36438b1b	2.9138234e-06
144	0x35f207a0	1.8032624e-06
145	0x3532362f	6.6389015e-07
146	0x363d3778	2.8195482e-06
147	0x35e4f72b	1.7059259e-06
148	0x35cfd5a7	1.5484883e-06
149	0x35fd816c	1.8887636e-06
150	0x35870d90	1.0062231e-06
151	0x3642efbf	2.9047803e-06
152	0x35b31488	1.3342515e-06
153	0x35c10762	1.4381769e-06
154	0x354e97f1	7.6962084e-07
155	0x35026d28	4.8587617e-07
156	0x33c00071	8.940777e-08
157	0x34e6b2c4	4.2970908e-07
158	0x34ee9de9	4.444585e-07
159	0x34e2e500	4.22624e-07
160	0x3482f463	2.4392202e-07
161	0x3485de55	2.4934948e-07
162	0x35009d4d	4.791262e-07
163	0x34a75fc2	3.1175847e-07
164	0x34ed5b2d	4.421103e-07
165	0x3788d3db	1.6311116e-05
166	0x369a4bbd	4.5983747e-06
167	0x36728953	3.6140743e-06
168	0x36ce48e3	6.1477635e-06
169	0x368f4e0a	4.270817e-06
170	0x3668903e	3.4654654e-06
171	0x36d3da16	6.3136786e-06
172	0x3640e8c5	2.874572e-06
173	0x3721b282	9.63791e-06
174	0x369e5b01	4.719361e-06
175	0x36a85b51	5.017421e-06
176	0x378cc446	1.6780697e-05
177	0x3712c5a3	8.748294e-06
178	0x36712c64	3.5937637e-06
179	0x372d87f2	1.0343256e-05
180	0x3715f0cb	8.937156e-06
181	0x36d870a6	6.4504156e-06
182	0x370cbebf	8.389062e-06
183	0x367bff1c	3.7550408e-06
184	0x373d7ce7	1.1294359e-05
185	0x36f63942	7.338037e-06
186	0x36a749a1	4.9855594e-06
187	0x358281b6	9.723506e-07
188	0x34fc091e	4.694529e-07
189	0x3477be53	2.3072907e-07
190	0x35421898	7.230642e-07
191	0x358119ae	9.618723e-07
192	0x34fc5e15	4.7007111e-07
193	0x3516e1cf	5.620795e-07
194	0x34a4684b	3.0623264e-07
195	0x35770562	9.2022503e-07
196	0x358c953c	1.0474246e-06
197	0x34e9e4eb	4.3566192e-07
198	0x360a3074	2.0591806e-06
199	0x35839d97	9.806125e-07
200	0x34c873ee	3.7337253e-07
201	0x35fc6a6a	1.8806434e-06
202	0x358afc21	1.035518e-06
203	0x3575daba	9.15879e-07
204	0x35b2ce67	1.3322104e-06
205	0x3528ddd0	6.2907657e-07
206	0x360dd089	2.113202e-06
207	0x355bc551	8.187099e-07
208	0x3517f1a4	5.6603517e-07
209	0x3507e067	5.061797e-07
210	0x34e7ef0a	4.3201027e-07
211	0x33eefcf4	1.11287505e-07
212	0x350dce5e	5.2826897e-07
213	0x350778b0	5.046704e-07
214	0x34c384df	3.6418257e-07
215	0x344b0d08	1.8910589e-07
216	0x33e5e5bd	1.07054326e-07
217	0x3507c8ff	5.0583907e-07
218	0x349be480	2.9037255e-07
219	0x34a9f030	3.1653462e-07
220	0x357186ea	8.997582e-07
221	0x34d56cb4	3.9753434e-07
222	0x34595a17	2.0242474e-07
223	0x354f44ca	7.721361e-07
224	0x35271d10	6.225464e-07
225	0x3502ad84	4.868127e-07
226	0x348d39db	2.6305392e-07
227	0x345710f1	2.0029599e-07
228	0x35449393	7.323044e-07
229	0x34ecaeec	4.4085698e-07
230	0x34ef06e0	4.452222e-07
231	0x339409e9	6.89359e-08
232	0x3307b1f5	3.1593988e-08
233	0x3234709b	1.05029825e-08
234	0x3320a653	3.7404174e-08
235	0x33275fc3	3.8969812e-08
236	0x3309a9c3	3.2052196e-08
237	0x32e92b30	2.714441e-08
238	0x32a2a507	1.8934328e-08
239	0x33250244	3.8419117e-08
240	0x32b6bfaf	2.1274756e-08
241	0x32efe4e5	2.7927351e-08
242	0x30d58b19	1.5537324e-09
243	0x2fc855b2	3.6440678e-10
244	0x2f73c46e	2.2170507e-10
245	0x300180fa	4.7113213e-10
246	0x2fe571dc	4.173576e-10
247	0x2fa16ea5	2.9364347e-10
248	0x30347feb	6.56654e-10
249	0x2fb93f40	3.3696246e-10
250	0x30563da8	7.7940365e-10
251	0x3011d2aa	5.3050064e-10
252	0x30157566	5.437272e-10
253	0x32ca8801	2.3577742e-08
254	0x32ca0705	2.3519087e-08
255	0x31cf9ffa	6.04268e-09

square_avg f4 [60]
0	0x38df04d2	0.000106343665
1	0x33f7c1e4	1.1537102e-07
2	0x35b58f31	1.3527225e-06
3	0x31aabcd4	4.9691185e-09
4	0x37da7d12	2.6045866e-05
5	0x37f8fed9	2.9682576e-05
6	0x364520c2	2.9374355e-06
7	0x341d8f10	1.467381e-07
8	0x372a94c1	1.0167424e-05
9	0x389305d5	7.0105925e-05
10	0x37005f7c	7.651626e-06
11	0x38fc8c48	0.00012042426
12	0x3936aea8	0.00017421937
13	0x36d712cb	6.409687e-06
14	0x35936543	1.0981825e-06
15	0x383a0dc3	4.4358672e-05
16	0x3864537d	5.443719e-05
17	0x3609abaa	2.0514512e-06
18	0x368bda79	4.1679564e-06
19	0x359d1809	1.1704407e-06
20	0x359ee25f	1.18378e-06
21	0x33d62251	9.971394e-08
22	0x31761da7	3.5814567e-09
23	0x33966dca	7.00489e-08
24	0x38b3c7bf	8.572591e-05
25	0x38a47c69	7.8433026e-05
26	0x35c8356c	1.4916709e-06
27	0x3898dccf	7.2890536e-05
28	0x390893f9	0.00013025095
29	0x358dc7ff	1.0563525e-06
30	0x3428ae85	1.5709709e-07
31	0x36a36f53	4.8707384e-06
32	0x31d2f3a7	6.1395045e-09
33	0x36466024	2.956026e-06
34	0x3435194d	1.6866143e-07
35	0x385d79a4	5.2803793e-05
36	0x35b6ac24	1.3610156e-06
37	0x3896fcde	7.1996576e-05
38	0x36cb88a9	6.065781e-06
39	0x37c75887	2.3763872e-05
40	0x33688a83	5.4142685e-08
41	0x3897c606	7.237126e-05
42	0x349caea0	2.918432e-07
43	0x37fdc5ec	3.0252115e-05
44	0x340368d0	1.2238456e-07
45	0x37db6f2b	2.6158601e-05
46	0x3928617d	0.00016058046
47	0x37bcc870	2.2504682e-05
48	0x3862e803	5.4098677e-05
49	0x37291e7e	1.00802845e-05
50	0x370718ba	8.052384e-06
51	0x3812816f	3.4929657e-05
52	0x38c01e97	9.160971e-05
53	0x38382cf2	4.3910877e-05
54	0x3723d379	9.764794e-06
55	0x37012994	7.69868e-06
56	0x385735dc	5.1310155e-05
57	0x35541283	7.900309e-07
58	0x35780129	9.238889e-07
59	0x38a142c9	7.689518e-05

square_avg f4 [60, 60]
0	0x3146ad36	2.8911251e-09
1	0x2d50c6b7	1.1867555e-11
2	0x2e497099	4.5802116e-11
3	0x2aa283a2	2.886832e-13
4	0x31b7110a	5.327938e-09
5	0x31951c0b	4.339659e-09
6	0x315cb76d	3.211848e-09
7	0x2cedd0e3	6.7591362e-12
8	0x2fe52742	4.1682752e-10
9	0x308a21a9	1.0050388e-09
10	0x3004a3eb	4.825426e-10
11	0x3120de01	2.340926e-09
12	0x31a702a5	4.8606403e-09
13	0x30175c9a	5.5065075e-10
14	0x2e4ce608	4.658854e-11
15	0x31357937	2.640787e-09
16	0x310c08e6	2.037774e-09
17	0x30939085	1.0736733e-09
18	0x3096d607	1.0974767e-09
19	0x2e511b81	4.7545527e-11
20	0x2e5e20c7	5.0506068e-11
21	0x2d524e00	1.19544374e-11
22	0x2a60cfac	1.9967247e-13
23	0x2cc33424	5.548022e-12
24	0x31b99fba	5.4023674e-09
25	0x3150ff92	3.0413259e-09
26	0x2ee5e38b	1.0454134e-10
27	0x315d550c	3.2208076e-09
28	0x31152ec1	2.170893e-09
29	0x2fa3d19f	2.9798472e-10
30	0x2cd6cc98	6.1049603e-12
31	0x303c5c87	6.852549e-10
32	0x2b41e632	6.8886834e-13
33	0x2e2739aa	3.802262e-11
34	0x2d2b2e4d	9.7305055e-12
35	0x301bef47	5.6728705e-10
36	0x2e924f8a	6.65344e-11
37	0x308218ea	9.465826e-10
38	0x30010afe	4.694555e-10
39	0x313ec5ea	2.776114e-09
40	0x2d107934	8.212365e-12
41	0x316c1b16	3.4357917e-09
42	0x2d2c07f4	9.778834e-12
43	0x30f66d7c	1.7929973e-09
44	0x2d4c98d0	1.1629989e-11
45	0x30d07fbf	1.51703e-09
46	0x3218e41a	8.899429e-09
47	0x2f81f576	2.3639374e-10
48	0x306c0c2a	8.5873586e-10
49	0x306f5ba2	8.707791e-10
50	0x3111a5fb	2.1194626e-09
51	0x31aa90e9	4.9641256e-09
52	0x3149f6ab	2.9389564e-09
53	0x2fccb6b0	3.723719e-10
54	0x2f9281ea	2.6649555e-10
55	0x2f616e90	2.050291e-10
56	0x3084094c	9.606906e-10
57	0x2e0837b9	3.097231e-11
58	0x2e020d44	2.957036e-11
59	0x320f9352	8.357192e-09
60	0x31554b26	3.1038296e-09
61	0x2d2a7bbd	9.690857e-12
62	0x2e474905	4.5312216e-11
63	0x2abffb86	3.4102945e-13
64	0x31b00585	5.1229017e-09
65	0x31843527	3.8477483e-09
66	0x31556ef4	3.105865e-09
67	0x2cd8ba4f	6.1597736e-12
68	0x2fe03615	4.078379e-10
69	0x309fd89b	1.1630336e-09
70	0x3000f103	4.6908627e-10
71	0x311b0d0d	2.2562887e-09
72	0x31a88537	4.9045883e-09
73	0x2fd62e98	3.895948e-10
74	0x2e19f621	3.500678e-11
75	0x31205bbc	2.333521e-09
76	0x31111549	2.1112376e-09
77	0x30afdc40	1.2795525e-09
78	0x309a9e54	1.1249974e-09
79	0x2e35e362	4.1356592e-11
80	0x2e3fce00	4.3611337e-11
81	0x2d27e36e	9.5433505e-12
82	0x2a74419f	2.169432e-13
83	0x2cc524e5	5.603173e-12
84	0x31af723a	5.1061564e-09
85	0x315cd97b	3.2137837e-09
86	0x2f0435bf	1.2024425e-10
87	0x316613b5	3.3480607e-09
88	0x312af403	2.487696e-09
89	0x2fa46f92	2.9910702e-10
90	0x2cced573	5.8785698e-12
91	0x301d99d0	5.733485e-10
92	0x2b16a8d1	5.3524985e-13
93	0x2e2d18ac	3.935756e-11
94	0x2d11f206	8.296036e-12
95	0x304f82d0	7.5492057e-10
96	0x2eb69c7e	8.3042004e-11
97	0x30a33c4e	1.187695e-09
98	0x301ec030	5.775318e-10
99	0x3126b3ff	2.4258495e-09
100	0x2cc92995	5.71738e-12
101	0x316e7e7b	3.4705454e-09
102	0x2d2a1ae7	9.669355e-12
103	0x311207ad	2.125016e-09
104	0x2d4e6d01	1.1733948e-11
105	0x30b8664d	1.3416838e-09
106	0x321536d4	8.685408e-09
107	0x2f98f80c	2.7824887e-10
108	0x308b7a96	1.0148422e-09
109	0x307aeee8	9.1288976e-10
110	0x310629be	1.9523294e-09
111	0x319cd733	4.564663e-09
112	0x3165e6fa	3.345518e-09
113	0x2fda3b26	3.9695996e-10
114	0x2fa43df6	2.9875452e-10
115	0x2f78285e	2.256981e-10
116	0x3064a9eb	8.3187385e-10
117	0x2e0ae500	3.158096e-11
118	0x2e16983e	3.424127e-11
119	0x320e5eb7	8.2870235e-09
120	0x3156ef31	3.1277063e-09
121	0x2d38b49a	1.0499291e-11
122	0x2e4c297c	4.6421075e-11
123	0x2a9b6f9c	2.7610976e-13
124	0x31b59a96	5.2853677e-09
125	0x3187d189	3.9528385e-09
126	0x31352048	2.6357316e-09
127	0x2ce3c1da	6.47325e-12
128	0x2ffe00c3	4.6202872e-10
129	0x308f0ac6	1.0407681e-09
130	0x2ff59c7b	4.4676426e-10
131	0x312a06cd	2.4742122e-09
132	0x31ad9a26	5.0524873e-09
133	0x2fe331e0	4.1326498e-10
134	0x2e1fc530	3.6327552e-11
135	0x31201c8b	2.329929e-09
136	0x3120ad6d	2.3381646e-09
137	0x30ae151f	1.2666169e-09
138	0x30876a72	9.852796e-10
139	0x2e247369	3.7391788e-11
140	0x2e4b7d9e	4.6268427e-11
141	0x2d28e928	9.6014655e-12
142	0x2a139a91	1.3109849e-13
143	0x2cc7fc7e	5.6839524e-12
144	0x31c26751	5.657889e-09
145	0x3166cf55	3.358726e-09
146	0x2ef11858	1.09637355e-10
147	0x316c9a83	3.443035e-09
148	0x3124c394	2.3976314e-09
149	0x2f985305	2.7707628e-10
150	0x2cdb12cf	6.2264425e-12
151	0x30060b79	4.876522e-10
152	0x2b109965	5.1371955e-13
153	0x2e2cf3d4	3.9324835e-11
154	0x2d1c8cc3	8.898829e-12
155	0x3031ebf6	6.4727546e-10
156	0x2ea81916	7.6442117e-11
157	0x3098c4d5	1.1115399e-09
158	0x3017e313	5.525617e-10
159	0x3127aa1f	2.43984e-09
160	0x2d00bb23	7.31751e-12
161	0x3182effb	3.8107806e-09
162	0x2d24039a	9.32312e-12
163	0x31122d6e	2.127162e-09
164	0x2d394cc7	1.05330805e-11
165	0x30d00d15	1.513771e-09
166	0x3221afb5	9.411385e-09
167	0x2f95063f	2.710738e-10
168	0x308598bb	9.720432e-10
169	0x307065bc	8.7456065e-10
170	0x30fbb5b4	1.8314297e-09
171	0x31abd853	5.0013482e-09
172	0x3159ea69	3.1710903e-09
173	0x30029fc6	4.7520776e-10
174	0x2f98bf16	2.7784414e-10
175	0x2f5b3664	1.9937257e-10
176	0x308005e5	9.314901e-10
177	0x2e11458e	3.303096e-11
178	0x2e17c31f	3.4506727e-11
179	0x321e2da7	9.207191e-09
180	0x315234a1	3.0588938e-09
181	0x2d594669	1.2350656e-11
182	0x2e43ca3e	4.4517494e-11
183	0x2acf77d8	3.6853745e-13
184	0x31c45b8f	5.7147598e-09
185	0x318cb19c	4.094728e-09
186	0x31392211	2.6940408e-09
187	0x2cd8f381	6.1661236e-12
188	0x2fe47ed4	4.1563075e-10
189	0x30a34239	1.1878633e-09
190	0x30072236	4.916133e-10
191	0x31267405	2.4222129e-09
192	0x31a4b7a5	4.793906e-09
193	0x2ff1b695	4.3967377e-10
194	0x2e27e69d	3.817623e-11
195	0x313cc40e	2.7469045e-09
196	0x31238427	2.3794742e-09
197	0x30a02abb	1.1653677e-09
198	0x307d167c	9.2072816e-10
199	0x2e325912	4.0551625e-11
200	0x2e3498d4	4.1063e-11
201	0x2d3dbf43	1.0785875e-11
202	0x2a8944d7	2.4383856e-13
203	0x2ce22156	6.4270074e-12
204	0x31be1124	5.5316765e-09
205	0x315d9381	3.224358e-09
206	0x2eda5905	9.929305e-11
207	0x316ed237	3.4753052e-09
208	0x312be0e8	2.501162e-09
209	0x2f8bd197	2.5432875e-10
210	0x2cd84c39	6.1475517e-12
211	0x30135581	5.3599797e-10
212	0x2b09dce6	4.8978736e-13
213	0x2e1bbbf8	3.540987e-11
214	0x2d1313fe	8.360422e-12
215	0x301e9e0d	5.770467e-10
216	0x2e942169	6.7361956e-11
217	0x307c4faf	9.1790303e-10
218	0x303eb4d6	6.937858e-10
219	0x313ba319	2.7304792e-09
220	0x2d070607	7.6752e-12
221	0x3171d6ae	3.5192147e-09
222	0x2d327914	1.0145013e-11
223	0x3105c372	1.9465145e-09
224	0x2d4e1a7f	1.1715628e-11
225	0x30b5afd2	1.3219454e-09
226	0x32276527	9.743679e-09
227	0x2f713216	2.1936616e-10
228	0x306ac6b2	8.5411067e-10
229	0x30887999	9.929862e-10
230	0x30e65048	1.675752e-09
231	0x31a36603	4.7555218e-09
232	0x316cec28	3.447676e-09
233	0x2fdf9605	4.067006e-10
234	0x2fa86167	3.062823e-10
235	0x2f825300	2.3705837e-10
236	0x3058bdd2	7.8850093e-10
237	0x2e0b50e7	3.1676797e-11
238	0x2e09d938	3.1343123e-11
239	0x32247ff3	9.575149e-09
240	0x31268d3d	2.4236464e-09
241	0x2d2910ac	9.61024e-12
242	0x2e443084	4.460833e-11
243	0x2a947699	2.6372375e-13
244	0x31aafd5b	4.9764544e-09
245	0x31800a12	3.726435e-09
246	0x31248561	2.3940958e-09
247	0x2ccfc47f	5.9051093e-12
248	0x2fcb9f7d	3.7038808e-10
249	0x308fc8af	1.0461657e-09
250	0x2fada0fa	3.1582897e-10
251	0x310f7ab6	2.0878992e-09
252	0x3186282c	3.9044803e-09
253	0x2fff392b	4.642485e-10
254	0x2e2ded08	3.9546172e-11
255	0x311afff2	2.2555438e-09

square_avg f4 [60]
0	0x32b63d77	2.121554e-08
1	0x32a70517	1.9443673e-08
2	0x32a955fd	1.9713292e-08
3	0x329ed32b	1.8489649e-08
4	0x32a7bbb8	1.9526723e-08
5	0x32913beb	1.690747e-08
6	0x33171f65	3.518598e-08
7	0x388cc9f7	6.713339e-05
8	0x32a407ea	1.9095712e-08
9	0x32b5dd96	2.1171939e-08
10	0x3a5a1eaf	0.0008320612
11	0x32b7351c	2.1328155e-08
12	0x32af4a8e	2.0406585e-08
13	0x32a2e52a	1.8963494e-08
14	0x32c5fcb1	2.304873e-08
15	0x335ee210	5.1894006e-08
16	0x3731ae18	1.05905565e-05
17	0x356be0ac	8.787126e-07
18	0x32b904b0	2.1538966e-08
19	0x32ba29b0	2.1672207e-08
20	0x328f2bd6	1.6667325e-08
21	0x32be3e88	2.2147347e-08
22	0x329af2d5	1.8038387e-08
23	0x35d4e27d	1.5861148e-06
24	0x37152669	8.890035e-06
25	0x32b5993f	2.1140862e-08
26	0x3827ce61	4.0008108e-05
27	0x32a146a8	1.8774998e-08
28	0x34fcb8a6	4.7073007e-07
29	0x32b718ef	2.1315342e-08
30	0x32bcb04c	2.1966251e-08
31	0x32bf8b5f	2.2298705e-08
32	0x32fd8451	2.9513247e-08
33	0x32a4451b	1.9123538e-08
34	0x32b0e2ad	2.0592177e-08
35	0x32c6ea3c	2.3156751e-08
36	0x33eb7845	1.0964917e-07
37	0x3295baf9	1.7430908e-08
38	0x32ba9f7a	2.1725771e-08
39	0x32a530b2	1.9230672e-08
40	0x32954164	1.737562e-08
41	0x3855ea36	5.1001283e-05
42	0x3938a393	0.00017608544
43	0x32d02944	2.4233152e-08
44	0x32bb401e	2.1798822e-08
45	0x35659202	8.552162e-07
46	0x32d25dfe	2.448996e-08
47	0x329abbff	1.801345e-08
48	0x32adeb7b	2.0246935e-08
49	0x32edf106	2.7700036e-08
50	0x32d0cf40	2.4308633e-08
51	0x328bf132	1.6291413e-08
52	0x32be6738	2.216585e-08
53	0x32c7ed21	2.3274483e-08
54	0x329bfcf1	1.81594e-08
55	0x32a815c2	1.9567668e-08
56	0x34c14167	3.5996638e-07
57	0x369626a3	4.4748463e-06
58	0x32ba8c4c	2.171705e-08
59	0x32bb80f9	2.1828315e-08

square_avg f4 [6, 60]
0	0x35b34d65	1.3359064e-06
1	0x35c0cdea	1.4365044e-06
2	0x35bd5679	1.4106764e-06
3	0x35a8da3f	1.2580493e-06
4	0x35c0c463	1.4362271e-06
5	0x35a75b63	1.2469067e-06
6	0x365df680	3.3075048e-06
7	0x3ac1f855	0.001479874
8	0x35bda009	1.4128174e-06
9	0x35c0e8ab	1.437283e-06
10	0x3cc91f1d	0.024550969
11	0x35ae8738	1.3003364e-06
12	0x35c12b2d	1.4392186e-06
13	0x35aaad9e	1.2716516e-06
14	0x35d63268	1.5958913e-06
15	0x369937c8	4.566249e-06
16	0x3a5ea81d	0.0008493679
17	0x38aa455e	8.119152e-05
18	0x35f4a845	1.822839e-06
19	0x35d85039	1.6116602e-06
20	0x35a58a4e	1.233371e-06
21	0x35ebb23a	1.7560735e-06
22	0x35aab4e0	1.2718629e-06
23	0x3a5ca43e	0.0008416808
24	0x3ae0dffb	0.0017156595
25	0x35c903d8	1.4976786e-06
26	0x3c01c045	0.007919376
27	0x35c5481e	1.4698633e-06
28	0x37ab1439	2.0394205e-05
29	0x35f5b15c	1.8305541e-06
30	0x35cab5e1	1.5103107e-06
31	0x35d6c789	1.6002315e-06
32	0x361a45ec	2.2988488e-06
33	0x359e92af	1.1814608e-06
34	0x35bcd546	1.4069162e-06
35	0x35e2cb26	1.6897436e-06
36	0x370a7c8c	8.254439e-06
37	0x35b70bee	1.3638034e-06
38	0x35bee326	1.4222212e-06
39	0x35b7114a	1.3639594e-06
40	0x35a0c0ce	1.1977043e-06
41	0x3b8dc076	0.0043259216
42	0x3bdc31c7	0.006719801
43	0x3622a7f4	2.4237643e-06
44	0x35fb5f72	1.8728736e-06
45	0x38c2f108	9.2955364e-05
46	0x360e6fcc	2.1224723e-06
47	0x35afa476	1.308638e-06
48	0x35da842a	1.628073e-06
49	0x36103f6f	2.1494595e-06
50	0x35e90435	1.7361077e-06
51	0x35a9ca6e	1.2650396e-06
52	0x35c1d728	1.4442239e-06
53	0x35f1dc2d	1.8019979e-06
54	0x35ac92f2	1.2857765e-06
55	0x35c4556d	1.4628e-06
56	0x370d5818	8.424766e-06
57	0x399ea30a	0.00030257582
58	0x35fbcb73	1.8760169e-06
59	0x35dc7a73	1.6426915e-06
60	0x32c696f3	2.3118877e-08
61	0x32c8aeb8	2.3362517e-08
62	0x32bf569e	2.2274715e-08
63	0x32ab0ab6	1.991189e-08
64	0x32ccfb6e	2.3863063e-08
65	0x32a8c268	1.964618e-08
66	0x33642e4d	5.3127497e-08
67	0x37e39eba	2.7134422e-05
68	0x32c55774	2.2973587e-08
69	0x32d1ba5c	2.4415549e-08
70	0x39e440f1	0.00043535934
71	0x32bfeead	2.2343864e-08
72	0x32c8c6f3	2.3373536e-08
73	0x32aaef13	1.9899323e-08
74	0x32e63610	2.6800109e-08
75	0x33976054	7.0490074e-08
76	0x3769d2f2	1.3936997e-05
77	0x35c59eb9	1.4723838e-06
78	0x32ffd0ab	2.9780798e-08
79	0x32de9e4c	2.5916187e-08
80	0x32a917f0	1.9685075e-08
81	0x32ef83c7	2.7883187e-08
82	0x32a8f69d	1.966992e-08
83	0x376e4ed5	1.420426e-05
84	0x380196a3	3.0896288e-05
85	0x32dc3646	2.5636052e-08
86	0x38dd753e	0.00010559939
87	0x32be5fdd	2.2162505e-08
88	0x34c3e05b	3.648482e-07
89	0x330336c4	3.0550623e-08
90	0x32d155bf	2.4369795e-08
91	0x32dbace6	2.557358e-08
92	0x33216efa	3.7586666e-08
93	0x329f30d3	1.8532239e-08
94	0x32bff701	2.234765e-08
95	0x32eb5ed9	2.7400732e-08
96	0x3411e281	1.3586579e-07
97	0x32ba2906	2.1671905e-08
98	0x32c7d18a	2.3261936e-08
99	0x32b59061	2.113683e-08
100	0x32a66be3	1.9374005e-08
101	0x38cd4e17	9.789707e-05
102	0x390984e0	0.00013114838
103	0x332ba8f2	3.9967695e-08
104	0x3301840e	3.0155256e-08
105	0x35d855a4	1.6118179e-06
106	0x331425d6	3.4493347e-08
107	0x32b28f52	2.0787102e-08
108	0x32ebe7cd	2.7463011e-08
109	0x331b37b5	3.6139415e-08
110	0x32f3cfa5	2.8383349e-08
111	0x32abcd0d	2.0000266e-08
112	0x32c5c0c5	2.302148e-08
113	0x33007fd2	2.9918574e-08
114	0x32abe6d9	2.0011997e-08
115	0x32d044bb	2.4245642e-08
116	0x340e0f7c	1.3230414e-07
117	0x36a1904b	4.814972e-06
118	0x33041b41	3.0758432e-08
119	0x32e8d15c	2.710356e-08
120	0x2e0b3ba2	3.1657905e-11
121	0x2e3a11a8	4.2307186e-11
122	0x2e2fc2f6	3.9963553e-11
123	0x2e05a85e	3.039024e-11
124	0x2e642332	5.1872458e-11
125	0x2e1230e2	3.3239973e-11
126	0x2e999c82	6.985436e-11
127	0x3308f99a	3.189198e-08
128	0x2e3f55dc	4.350463e-11
129	0x2e174a7b	3.4399577e-11
130	0x350f9e91	5.3502396e-07
131	0x2e26bd6b	3.7912267e-11
132	0x2e4c4499	4.6445157e-11
133	0x2e06bae5	3.0634068e-11
134	0x2e803b61	5.831314e-11
135	0x2ec62421	9.010415e-11
136	0x329c1000	1.8168066e-08
137	0x30f10db2	1.753895e-09
138	0x2e7d08af	5.7533252e-11
139	0x2e590b14	4.9349927e-11
140	0x2e073ec3	3.075119e-11
141	0x2e3fca98	4.360831e-11
142	0x2e11cc68	3.3150732e-11
143	0x32b47a54	2.1010386e-08
144	0x33313ce2	4.1266397e-08
145	0x2e14eb58	3.386033e-11
146	0x34413ba2	1.799622e-07
147	0x2e11d840	3.316125e-11
148	0x30125665	5.3237265e-10
149	0x2e552777	4.8465645e-11
150	0x2e247505	3.7393217e-11
151	0x2e18641c	3.4649714e-11
152	0x2e8553a2	6.062996e-11
153	0x2dce359d	2.3443298e-11
154	0x2e1b34e0	3.5289882e-11
155	0x2e25d08b	3.770188e-11
156	0x2f6838dd	2.1120479e-10
157	0x2e054c19	3.0308287e-11
158	0x2e130a01	3.3432816e-11
159	0x2e13c745	3.3600917e-11
160	0x2e0e7297	3.2388838e-11
161	0x3400ae19	1.1984265e-07
162	0x342130c3	1.5012033e-07
163	0x2e863231	6.10253e-11
164	0x2e6da281	5.4031894e-11
165	0x31352f75	2.6365943e-09
166	0x2e70e6d1	5.4774688e-11
167	0x2e04208b	3.004223e-11
168	0x2e51e863	4.77275e-11
169	0x2e8a05f2	6.2765695e-11
170	0x2e191fe8	3.481651e-11
171	0x2dea2762	2.662021e-11
172	0x2e349d23	4.1066827e-11
173	0x2e6c773b	5.3766085e-11
174	0x2e440575	4.4570087e-11
175	0x2e2f8ef9	3.991738e-11
176	0x2f641bc8	2.0746349e-10
177	0x31ba4cb5	5.422033e-09
178	0x2e2dfe2e	3.9561403e-11
179	0x2e6733c3	5.2569293e-11
180	0x33217638	3.7593253e-08
181	0x3331e9aa	4.142354e-08
182	0x333149c6	4.127812e-08
183	0x3314848f	3.4579497e-08
184	0x332d8bf5	4.040699e-08
185	0x33120a0d	3.4002415e-08
186	0x33cbe473	9.494479e-08
187	0x380fc994	3.428159e-05
188	0x332c3fff	4.0105075e-08
189	0x3332c323	4.162133e-08
190	0x3a017fd9	0.000494001
191	0x33111fee	3.3789483e-08
192	0x33327370	4.1548844e-08
193	0x331cf826	3.654727e-08
194	0x3339109f	4.3088786e-08
195	0x340e5b38	1.3257966e-07
196	0x37a328b3	1.9450066e-05
197	0x36316f69	2.6439905e-06
198	0x335af46e	5.0979388e-08
199	0x3343a2d1	4.5550056e-08
200	0x330ede66	3.326422e-08
201	0x335bb101	5.1150895e-08
202	0x3321e4cb	3.769382e-08
203	0x37d51158	2.5399655e-05
204	0x381112ed	3.458832e-05
205	0x332bcbb7	3.9999318e-08
206	0x399996c6	0.0002929477
207	0x33355d0f	4.2226983e-08
208	0x34fe00fc	4.7311903e-07
209	0x334346dd	4.5466425e-08
210	0x33328644	4.156597e-08
211	0x3343d135	4.5592248e-08
212	0x3384ced1	6.184349e-08
213	0x3312e0b1	3.419763e-08
214	0x33207685	3.7360696e-08
215	0x333d6f5e	4.410628e-08
216	0x34663066	2.1438026e-07
217	0x33240c7f	3.819559e-08
218	0x33370bcb	4.2618733e-08
219	0x33348017	4.2026013e-08
220	0x330f8366	3.341429e-08
221	0x385b17ad	5.223572e-05
222	0x393f7c5f	0.00018261511
223	0x3399da35	7.164309e-08
224	0x33598b48	5.0650925e-08
225	0x364c9782	3.0486558e-06
226	0x3385f336	6.237535e-08
227	0x332a3f09	3.963854e-08
228	0x33346fdf	4.2011262e-08
229	0x338146d2	6.019913e-08
230	0x3360f27d	5.2374606e-08
231	0x331423cc	3.4491492e-08
232	0x332bdbbe	4.0013894e-08
233	0x3349fca2	4.7028728e-08
234	0x332a783c	3.9690562e-08
235	0x33295c07	3.9432077e-08
236	0x348d3d57	2.6307927e-07
237	0x37269ff1	9.93161e-06
238	0x334e6865	4.805806e-08
239	0x333d62f0	4.4094975e-08
240	0x323b6d22	1.09096465e-08
241	0x324a37fc	1.1770677e-08
242	0x32528765	1.2254394e-08
243	0x322d6acd	1.0094209e-08
244	0x324d7086	1.1958155e-08
245	0x3236544f	1.0612964e-08
246	0x32eb3ac3	2.7384322e-08
247	0x375128e9	1.2466896e-05
248	0x3240bdad	1.1218998e-08
249	0x32479f2f	1.1619519e-08
250	0x39759083	0.00023418856
251	0x322ace85	9.9422595e-09
252	0x3248f786	1.16978125e-08
253	0x323569b5	1.0559622e-08
254	0x325e1102	1.2925968e-08
255	0x33267639	3.875741e-08

square_avg f4 [6]
0	0x3c3a562e	0.011373086
1	0x392be974	0.00016394799
2	0x348e72b9	2.6533033e-07
3	0x39ac3354	0.0003284464
4	0x38b9e3ec	8.863941e-05
5	0x3a67f14e	0.0008847908

square_avg f4 [1, 6]
0	0x3e7dac29	0.24772705
1	0x3c9f3cef	0.019438235
2	0x3753f191	1.2632824e-05
3	0x3d37ca22	0.044870503
4	0x3c4d6b1a	0.012537742
5	0x3e2ee4fc	0.17079538
