mnc_ml_test/output/train/20221128-1138-model.pth (torch, 66461 bytes, 21 tensors)

module.0.weight f4 [60, 11]
00000000: 4b57 a13e 0327 893e 4e9c 0c3e 0f61 91be
00000010: 9a8b 8fbd 4d4f 22bd ff82 1f3e 27e3 bcbe
00000020: 123c 813e 8547 78be a14b 64be f614 cb3c
00000030: 096f 8fbe dc98 e53e fbf7 63be 87c4 dcbe
00000040: 5062 b33e 2e15 b53e 05d7 e5bd 3ad9 163e
00000050: fcc7 97bd 51be 96be c64e 23bf 9b2e 283e
00000060: f4a2 18bf 1a00 5c3e e013 273e 503e f5bd
00000070: 9b46 edbd 0f9c c83d b672 523d 5515 dbbd
00000080: 027e 2dbe 8f01 8b3d 833c 333f a5cd e1be
00000090: 6890 ae3d f2b0 39bd 6072 e9be 4998 d83e
000000a0: 937a 3fbf d52a 7c3e 4b5e 173e 9b54 c0bd
000000b0: fb7a 7e3e 2739 37be b0cf cc3e b3b3 0d3e
000000c0: 96fc 9abe 454a 1d3e 98a2 c5bb e047 fe3d
000000d0: 10dd a7be 200c ea3e af8a d8bd 4ac6 223f
000000e0: 2035 f6be d0f1 203f 97b3 a73d 92aa 2c3e
000000f0: e694 7e3e 9bb2 9d3e 00cc a03e 0a97 8cbe
00000100: 3bb2 1bbe b3a6 08bf 2e25 8f3d 019d 48be
00000110: 01db 313f 651a 883c dce4 34bd 391a 823e
00000120: 92b0 01be 8c37 33bd ce44 2fbe ec7f b6bd
00000130: e196 2fbe bccb a6bd aa9e 973d 9363 863d
00000140: 43b9 91bd 378f 4b3e 1b9b cbbb ab0a 24be
00000150: 8cd3 b0bd 2ec0 a33d 5209 a5be f2e2 da3c
00000160: 8a38 0a3f 6e02 9fbe 9157 b43e af1f c8bd
00000170: fddd 86bd 6805 743d 533b 5abe 7b3c 9a3e
00000180: c9b1 70bd ff0b c33d 82ed 7b3d c5c6 38bd
00000190: 1f5e 47ba c132 d9bd 8850 503d bee1 063d
000001a0: b071 22be 1eb9 a13c c875 333e 2423 a1bd
000001b0: fbcc 39bd 8b5f 543e 2645 61be 1717 95be
000001c0: 1913 ff3e 5ce8 743c e3b7 50bd 5f4c a3bd
000001d0: f916 48be a28e 293f e8ee 8bbe 235b 23be
000001e0: cbd3 683d a0d3 3d3e ac1f 3c3e 0d0c c63e
000001f0: dc65 73bc e766 19be fd13 b7bd f827 21be
00000200: af53 42be 86a0 c7bd 0e14 673d 1117 c33c
00000210: aa0c 913e fa8a dabe 8c87 773f 52fe d9be
00000220: 811a 313e c79e d83e 02df 073e f8e9 613d
00000230: 27a1 173e 2087 9cbe 5f21 7bbe 38fb ac3e
00000240: c434 833e 60f0 d2bd 56de 99bd 5bd5 c0bd
00000250: 93ba 11be d75a ecbe bfd0 413e aee7 793d
00000260: c9d6 293e 9713 313e e2e1 e7be 6d30 6ebe
00000270: c8d6 76bf 7921 b23e d704 313d dc5f e83b
00000280: 2e12 5e3d da6d 43bf 2932 f93d c287 4f3e
00000290: 5f74 50bd 7650 74bd 63bb 1bbc eb60 293e
000002a0: f644 b2bd 7dc6 81bc 59a1 853d fc89 b13b
000002b0: 3105 9ebe 5cf7 ea3d 8806 8b3c 6659 91bd
000002c0: 25e4 fbbd 014a c3bd 29f8 db3e 27e2 dbbd
000002d0: a869 fbbe 4316 413e 35c8 8bbe 672f 073f
000002e0: 6ea1 40bd 9d68 9bbe ff7d a8bd 533b a13d
000002f0: c427 9cbd cea9 8fbd 2950 82bc 6bb2 32be
00000300: 1526 03be 0814 c7bb 4199 843e b874 2c3d
00000310: c08c 923e d41a 633e 03ec 42be 43a2 26be
00000320: 7c27 0d3f f275 a1be 8bc6 093f 36fa 0b3e
00000330: 3d28 843e 8fe4 d23c 0cba 033e cd91 dabc
00000340: feaf 023e 6276 b13e 5b1a d9be 4907 1f3f
00000350: 1cfd e53c c0af f1bd 96ad 003f 0ecf 8cbd
00000360: b292 293f bd6d aebd e9bd 993e f8ac 1fbe
00000370: 5642 b93d 8ae1 b73e 68fe b9be 4e9c 25be
00000380: b84b 893d c6ce a7bc ea84 95be cca9 92be
00000390: c0ae bb3e 88b6 9c3d e9ae 5abe 865c f0bc
000003a0: f388 d5bc 2ef6 28be cb84 1cbd 7dff 87bc
000003b0: 12e5 313e 6315 ccbd c12b 903e 199b 3bbd
000003c0: a3c2 2b3d 04aa 17be 4db9 043e 0b94 463e
000003d0: d799 3a3d 79f3 573d 2df1 dcbd 95c9 c3bd
000003e0: 8026 abbe de56 3abe a9b1 6cbd 41c0 453e
000003f0: 9108 d43d f056 8a3e 0281 55be 74f2 d93e
0.31511912 0.26787576 0.137315 -0.28394362 -0.07009049 -0.03962641 0.15577315 -0.36892053
0.25241143 -0.24246033 -0.22294475 0.024790268 -0.280144 0.44843185 -0.22262566 -0.43118688
0.35035944 0.3536772 -0.11222652 0.14731303 -0.07411191 -0.29442075 -0.63792074 0.16424029
-0.59623647 0.21484414 0.16316175 -0.11974776 -0.115857325 0.09795391 0.051378928 -0.10697428
-0.169426 0.06787407 0.7001421 -0.44102207 0.08523637 -0.045334764 -0.45595074 0.42303684
-0.7479641 0.24625714 0.14782064 -0.09391137 0.24851601 -0.17892896 0.40002203 0.13838081
-0.30270833 0.15360363 -0.0060313456 0.12416053 -0.32785845 0.45712376 -0.10573327 0.63583815
-0.48087406 0.62868977 0.08188551 0.16861942 0.24861488 0.30800328 0.3140564 -0.27458984
-0.15204708 -0.5337936 0.06989513 -0.19591142 0.694748 0.016614148 -0.04416357 0.2541063
-0.12665012 -0.043754146 -0.1711609 -0.08911118 -0.171474 -0.08144328 0.0740331 0.06561961
-0.07115414 0.19878851 -0.0062135584 -0.16019695 -0.08634099 0.0799564 -0.32233673 0.026719544
0.5399252 -0.3105654 0.35223058 -0.09771668 -0.0658531 0.05957547 -0.21311693 0.30124268
-0.0587633 0.095237724 0.061505802 -0.045111436 -0.00076052727 -0.10605384 0.05085805 0.03293013
-0.15863681 0.019741591 0.17525399 -0.07868031 -0.0453615 0.20739572 -0.21999034 -0.2911918
0.49819258 0.014947977 -0.050956618 -0.07973551 -0.19540013 0.66233265 -0.27330709 -0.15952735
0.056842607 0.1853776 0.18371457 0.3868107 -0.014855828 -0.1498066 -0.08939359 -0.15737903
-0.18977235 -0.09747414 0.05641561 0.02381471 0.28329974 -0.42684156 0.96691203 -0.42576844
0.17295267 0.42308637 0.13268664 0.05515477 0.14807568 -0.30571842 -0.24524449 0.33785415
0.25626194 -0.10299754 -0.0751311 -0.09415694 -0.14231329 -0.46163055 0.18927287 0.061011963
0.1658584 0.17292629 -0.45289522 -0.2326066 -0.9642148 0.34791163 0.043217506 0.0070915055
0.054216556 -0.76339495 0.121677704 0.20266631 -0.05089223 -0.059647046 -0.009505126 0.16540878
-0.087045595 -0.015841717 0.06524915 0.0054180603 -0.30863336 0.11472961 0.016970888 -0.070971295
-0.122993745 -0.095355995 0.4296277 -0.107364945 -0.49104047 0.18856148 -0.27301183 0.52806705
-0.04702895 -0.3035325 -0.08227157 0.07872643 -0.07624772 -0.070148095 -0.015907364 -0.17450874
-0.12807496 -0.006075386 0.25898173 0.0421035 0.2862301 0.22178203 -0.19035344 -0.16272835
0.55138373 -0.31535298 0.5381858 0.13669667 0.2581195 0.02574375 0.1286394 -0.026680851
0.12762448 0.3466063 -0.4240292 0.6212049 0.028074794 -0.118011 0.5026487 -0.0687543
0.66239464 -0.08517025 0.30027702 -0.15593326 0.09045856 0.3591426 -0.3632691 -0.16172907
0.06703895 -0.02048434 -0.29202968 -0.2864517 0.3665676 0.076520026 -0.21355785 -0.029340994
-0.026066279 -0.1650016 -0.03821258 -0.016601318 0.1737254 -0.09965017 0.28158382 -0.04580221
0.041933667 -0.1481095 0.12961312 0.19392411 0.04555687 0.052722428 -0.10788188 -0.09559933
-0.3342781 -0.181972 -0.057786617 0.1931162 0.103531964 0.27019453 -0.20849994 0.4256779

module.0.bias f4 [60]
00000000: 9676 e3be 47b4 ccbe a320 793e a366 cc3d
00000010: 3a00 993d 2db3 6cbd ff85 40be 128d 89bd
00000020: 6b50 d5be 7bbb 7fbd 2e4a 633e f16b e3be
00000030: 1cec d2be 7c8d 213e 5a85 e4be af97 93bc
00000040: 18fe fabe 5f36 903e c378 cfbe 9281 a4be
00000050: f6ba 323e 1fdf ce3e 89ef 303d 572c c1be
00000060: bd1f 953e bc5f 09bf 6b49 4a3e 8e93 4e3e
00000070: 3fe6 e6be 5cd5 c63e eea5 353e 33c5 9dba
00000080: 5792 eebe 4c47 013e 887e 3e3e bd6a b9be
00000090: ab73 e33e a334 9e3d 3b77 403d 763e 713e
000000a0: aa9b d4bd 84c9 13be c458 64bf f02f d73d
000000b0: 2f88 d4be 8600 2c3d 314d 83be 71d7 04be
000000c0: c31e e4be 9998 83be 4d6e 24bb 9679 8abf
000000d0: 08e1 d5be 0325 0f3b 5747 be3e 1bcd 23bf
000000e0: ff03 0abe 752b 88be fb10 b3bb b2db 0b3e
-0.4442641 -0.3998129 0.24328856 0.09980514 0.07470746 -0.057788063 -0.18801115 -0.0671636
-0.41662917 -0.062434655 0.22196266 -0.4441829 -0.41195762 0.15776628 -0.4463299 -0.018016664
-0.49021983 0.28166482 -0.4052182 -0.32130104 0.17454132 0.40404603 0.04319719 -0.3772914
0.29125777 -0.53661704 0.19754569 0.20173475 -0.4509754 0.38834655 0.17739078 -0.0012036919
-0.46596023 0.12624854 0.18602955 -0.36214247 0.44424185 0.077248834 0.046988707 0.23558983
-0.10381253 -0.14432341 -0.89197946 0.1050719 -0.4151015 0.041992687 -0.2564483 -0.1297281
-0.4455472 -0.2570236 -0.0025090158 -1.0818355 -0.41773248 0.002184213 0.37163803 -0.6398484
-0.13478087 -0.26595655 -0.0054646707 0.13658026

module.2.weight f4 [60, 60]
00000000: 00cd 12bd 17aa e7bc b6bd 64bc e351 963d
00000010: e3e6 d73b 12fd 1b3d f29b 93bc b061 c3bd
00000020: 11e9 cfbc 534e c83c aa51 923c 292f af3a
00000030: 449c 123d 9450 e5bc 22e2 babc 159e e33c
00000040: 4500 bb3c 9cf3 debc 2b54 da3d a561 0bbd
00000050: 39b8 903d 552c c6bd 49ef b7bb 9409 513d
00000060: e293 16bd 0d66 c43b 02f5 223d a8c3 8cbc
00000070: 7fdd 9cbd 9df4 923c 1997 e6bc 1de6 e0bc
00000080: 3cd2 223d c40b a5ba c2f5 d1bc 72dc b8bd
00000090: 6815 b93d acd2 573d 9658 613c 6922 9f3c
000000a0: 45c4 bbbd 7e47 2cbd 62db 9cbd c577 1e3c
000000b0: d61e 513d 3485 853b a65c f03c 2c9e 42bb
000000c0: f361 483d 0065 4a3b 15ae 74bd 8075 d63c
000000d0: 5fda 27bc 4bce ffbb dfc5 803b 4892 15b9
000000e0: dba4 1abd b1f1 8b3d 6898 bebc 64fd 4c3d
000000f0: 7d57 51bd 8700 f83c f6a9 5a3d 7796 46bd
00000100: 8dea 1cbd 1398 3fbc d072 35bc 1b07 cabc
00000110: a5c4 5c3c 0059 39bd 99dc 873b 2f0f 563d
00000120: 220b d0bd cb37 393c 3512 2abc 93b5 4e3d
00000130: a933 5a3c c034 a5bd 22af 7d3d cc63 493d
00000140: 56b8 08bd 8969 a4bd 9b18 94bd c8b7 c4bc
00000150: 6faf c1bd 4757 f33c 01d4 a43c 4835 8abd
00000160: 3249 77bd 9fc3 c3bc 4152 37bb 845a 20bd
00000170: 54c8 17bd 4d7a 5c3d f4a6 593d 3fb6 5a3d
00000180: f4f3 a0bc dd32 c0bc bc51 fa3c c97b 863d
00000190: 6bc8 b3bc 9669 edbb 6fd7 f93d 5413 af3c
000001a0: 9b95 87bd 4a4f 68bd 422a e93d 3dfe e33d
000001b0: e277 5abd 0dd4 143c 99e8 cd3d 993f f8bc
000001c0: 4f53 873c ca5f 19bb 23f3 823c 01b9 acbd
000001d0: 5772 e7bc 9544 843d f887 ebbc 0803 2cbb
000001e0: aaec 7a3d 558c fb3d 1f27 b53d c180 fdbd
000001f0: 180c afbb 0372 253d 9342 11be b7ac 07bd
00000200: acd6 efbc d482 003d 08e5 4fbc ed95 3cbd
00000210: de11 943c 3016 82bd 3b68 9abc 530c 05bd
00000220: 1ee4 a83c 489c efbd 1ca1 5abd 446e c23d
00000230: 75f1 3d3d 5160 f73d 09dc 1f3e 8cf1 993d
00000240: 6ad5 c7bd b2f7 123d ac73 1a3d dbf6 9fbd
00000250: 780b 3fbe b859 8ebd b1c8 053d c01e 533c
00000260: b355 1a3e 70ce 973c 3706 63bd 4623 1cbd
00000270: 62a9 483d fdaf 973d 4fee 49bd 5cd5 a73d
00000280: b1ee 2a3d 4858 cdbd c20c a03d 163b 403c
00000290: 973b 24bd ff48 b1bc 4c90 8d3d 88bb 673d
000002a0: 6a29 f73d 2e1b eabc ec86 debc 9aec 02be
000002b0: 9b74 f3bd 3453 8238 3511 c6bd fc19 693d
000002c0: 9da2 65bc 28d3 ba3d b8fa 883b 816e debc
000002d0: be74 7e3d 389a b2bd 441a 923b 79af 97bd
000002e0: 7dc5 02bd de3d 8cbd 9671 bf3d b513 d1bc
000002f0: 8ef2 b63d d400 08bd 35d3 a83d f2be 20bd
00000300: 39bf dc3d abca d13b c9d1 96bc 5be2 61bd
00000310: ff42 05bc 62eb bebd 05cf 013d 1150 26bd
00000320: 40c9 1b3d 7e4d 9dbd 1609 eb3c fce9 27bc
00000330: b6ce 6d3c 6fec e33d 4ccc f2bd 4bb8 153d
00000340: 974e d93c 66e3 92bd 3060 45bc 87d4 abbc
00000350: d406 93bc 9c7f edbb 9673 3a3d dc6e 823d
00000360: 55a4 b53d e430 9a3d fd34 f1bd f09a 4c3d
00000370: fd80 323c 0162 f93c af4a 65bc e058 c03d
00000380: 3305 18be 1bbb a13d a0f3 58bd 10be 1c3c
00000390: 1f09 7fbd 59d0 c63d 71dc d9bb 6e2e 09bd
000003a0: 52b2 d43d 4974 7dbc dfd7 b2bd 07e6 cc3d
000003b0: 7d00 6dbc 1178 16bd e7c4 343d 92b6 cb3c
000003c0: 457e 9c3d 9801 09be 2eff 4c3d 6213 fd3e
000003d0: 8e27 febd 6803 78be 9593 d1bd a78e a23d
000003e0: b811 24bd a9e7 2b3d 37ac 02be fc4c c2bd
000003f0: 8fd7 10be 5d9a 243c ae0a 2c3f aca1 34be
-0.035840034 -0.028279347 -0.013961246 0.073398374 0.006588803 0.038083144 -0.018018696 -0.09540117
-0.02537969 0.02445141 0.017861206 0.0013365495 0.035793558 -0.027992524 -0.022812907 0.02778534
0.022827277 -0.027215771 0.10660585 -0.034028668 0.07066388 -0.096764244 -0.005613242 0.051034525
-0.036762126 0.0059936107 0.03978444 -0.01718314 -0.076594345 0.017938906 -0.02814822 -0.027453477
0.039751276 -0.0012592007 -0.025629882 -0.090264216 0.09037286 0.052691147 0.013754031 0.019425588
-0.09168295 -0.042060368 -0.076590315 0.00967211 0.051054798 0.004074717 0.029341053 -0.0029696329
0.048921537 0.0030882955 -0.05973633 0.026179075 -0.010244935 -0.0078065745 0.003929838 -0.00014264241
-0.037754875 0.06833208 -0.023266032 0.05004634 -0.051108826 0.030273689 0.053384744 -0.04848334
-0.038309623 -0.011693972 -0.011074737 -0.024661591 0.013474618 -0.045250893 0.0041461703 0.052260574
-0.101583734 0.011304806 -0.010380317 0.05046613 0.013317981 -0.08066702 0.061934598 0.04916744
-0.03337892 -0.08027942 -0.072312556 -0.024013415 -0.094572894 0.029704703 0.020120623 -0.06748444
-0.06037254 -0.02389699 -0.002797261 -0.039148822 -0.037056282 0.053827573 0.053137735 0.05339646
-0.019647576 -0.023461754 0.030556552 0.06566579 -0.021946153 -0.007245253 0.12199294 0.021371521
-0.06620332 -0.05671624 0.11385013 0.111324765 -0.053336985 0.00908376 0.1005413 -0.030303763
0.016519217 -0.0023403042 0.015985077 -0.08433724 -0.028252764 0.064583935 -0.028751358 -0.0026246924
0.061260857 0.122826256 0.088453524 -0.123780735 -0.005342018 0.040391933 -0.14185552 -0.033123698
-0.029277168 0.031374767 -0.012688883 -0.046041418 0.018074926 -0.06351888 -0.01884853 -0.032482456
0.020616587 -0.1169973 -0.053376302 0.09493688 0.04637285 0.12078918 0.1561128 0.075167745
-0.097575024 0.035880752 0.03770797 -0.07810756 -0.18656719 -0.06950706 0.032662097 0.012885749
0.15071754 0.018531054 -0.05542585 -0.038119577 0.04898966 0.07406614 -0.049299534 0.08194992
0.04173154 -0.10026604 0.07814933 0.011732837 -0.04009589 -0.021641253 0.06912288 0.056575328
0.12068446 -0.028577413 -0.027163945 -0.12785569 -0.11887475 6.214381e-05 -0.09671251 0.056909546
-0.014015821 0.09122306 0.0041802786 -0.027152302 0.062123053 -0.08720821 0.0044586975 -0.07406516
-0.03192662 -0.06847738 0.09347837 -0.025522092 0.089329824 -0.033203915 0.082434095 -0.0392446
0.1077866 0.0064023337 -0.01841058 -0.05514751 -0.008133649 -0.093222395 0.03169157 -0.0406037
0.038033724 -0.07680796 0.028690856 -0.010248657 0.014514616 0.111290805 -0.11855373 0.03655271
0.026526732 -0.07172279 -0.012046859 -0.020975364 -0.017947592 -0.0072478782 0.045520388 0.06368801
0.088692345 0.075288564 -0.11777685 0.049952447 0.010895011 0.03044224 -0.013994857 0.093919516
-0.14845733 0.07897016 -0.052966714 0.009566799 -0.062264558 0.09707708 -0.006648593 -0.033491544
0.103855744 -0.015469619 -0.087325804 0.10004812 -0.014465448 -0.036735598 0.044133093 0.02486733
0.076412715 -0.13379514 0.050048046 0.4942885 -0.12409888 -0.2422005 -0.10233227 0.07937365
-0.04005596 0.041968975 -0.12761007 -0.0948734 -0.14144729 0.010046569 0.67203796 -0.17639798

module.2.bias f4 [60]
00000000: b576 f7bb 75bb 523d b7fb 823d 4d21 ad3d
00000010: 6118 86be df54 43be fd92 cc3d 3897 b0bd
00000020: d39a 98bc f6ed dc3d aaf0 fabd da5b cebc
00000030: 818d 903d dd0b 8c3e bb3a 883c 2c06 fb3d
00000040: 337e 1e3d 554a 003e 2d3a 50bd 9610 2dbe
00000050: c635 04bf 2f6e 9d3d 1b8c fc3d 962d 83bd
00000060: 0b4f a5bd f292 b7be 92be 8abd eb71 c4bd
00000070: dcb1 7dbd 5a34 1e3e ce75 1b3d 7c85 bebd
00000080: 82c2 5b3d 5cb0 c23c 6d23 983d ae2a 323e
00000090: 6451 1e3e a3ca 3bbe 4ec2 1fbf 003b 813d
000000a0: 50e3 5e3e a789 80be 4a36 a63e 7fae 94bd
000000b0: 29ba f23d 816f b2bd 69b9 c13d cf36 16be
000000c0: ba88 b6bb 93b7 a43d d629 943e e3d5 64bd
000000d0: 7468 cabd da38 603d d1be 893d efb1 853e
000000e0: 7781 12be b2ae 503e 5fad 54bd 8c2a f63d
-0.007551993 0.051448304 0.06395667 0.08453617 -0.26190475 -0.19075345 0.09988973 -0.08622593
-0.018628513 0.10787575 -0.12252934 -0.025190283 0.0705824 0.273528 0.016629567 0.122570366
0.03869457 0.12528355 -0.05083673 -0.16900858 -0.5164455 0.076870315 0.123314105 -0.06405179
-0.08071717 -0.35854298 -0.0677463 -0.09592041 -0.061937198 0.15449658 0.037954144 -0.09302804
0.053652294 0.023765735 0.07428632 0.17399094 0.15460736 -0.18339019 -0.6240586 0.063100815
0.217664 -0.2510502 0.32463294 -0.07259845 0.118519135 -0.08712674 0.09459192 -0.14669345
-0.0055704983 0.080428265 0.28938168 -0.05586804 -0.09883204 0.054741718 0.067258485 0.26112315
-0.143072 0.20379141 -0.051923152 0.12019834

module.4.weight f4 [6, 60]
00000000: 59ac c73b ca37 be3d d1c1 04be c9a1 293e
00000010: 1f23 7b3d b0ea adb9 1792 273d 585b 5e3c
00000020: b1da 49bd e1d2 ab3d 35e7 823d cfb6 8c3c
00000030: eaee 3dbe 730b 273d f11c 02be ab44 33bd
00000040: 0b0b 36bd 7046 e5bc 06bc 953d fbf5 923d
00000050: 2a57 45bc 7b17 9a3d a6c4 5bbd 01c3 ee3c
00000060: 3f52 aa3d 9ad9 22bd 8bc1 e03b 6500 19bd
00000070: 65cb d63d 0bda 943d 92ed 193d b01e e038
00000080: 8bc4 83bd ee47 47bd 59f2 a03d 6ccf e5bd
00000090: 3766 27bd 3863 84bd e9db 3ebd 06da 9cbd
000000a0: c0a6 313d 0905 313d 4117 c53d 6343 d83d
000000b0: 1b56 843d 47d9 323e 2aae d8bd 2559 803c
000000c0: 4312 09be 5169 ff3c 6d3f efbc cba7 73bc
000000d0: edd5 0e3e f78c 0e3e b5d1 e93d 7869 7fbd
000000e0: 6b30 c6bd a7d9 613d b154 833d 5da1 d13d
000000f0: c237 993c e235 78bc e0c2 953c 9c9c b5bc
00000100: 2534 cbbb 7c9a 22bc a90d 4bbd 8cd2 9a3c
00000110: 99d6 a0bb bc86 a9ba 88e9 d6bc eb8c 3a3c
00000120: 2d59 d3bc 5589 85bc 13d5 c6ba 1d4e 8c3c
00000130: 6af3 333c 44d5 bf3c 1814 bb3c 8206 9f3d
00000140: f95e b53d f5db d53b a8c2 493b 5f32 0a3d
00000150: ef74 22bd 5b2b 923c 61c6 ac3a b4ec 093d
00000160: c394 043d c5cf 103d 5938 50bc b5ff 91bc
00000170: 90be 3cbd 6b2d 47bc bc7b a83c b8cf 273c
00000180: 3fc6 39bd 6734 ca3b dbd4 45bd 5b2e 683c
00000190: ec62 063c f1dd c0bc c028 2fbb 156b 9b3c
000001a0: 5a29 793c 97b7 903c e109 fcbc 08ae 3fbc
000001b0: b8ac d03b 2bf7 acbc c4ed b5bc 8a11 dd3a
000001c0: 5918 503d c08f 36bd d90a a7bd 5920 593d
000001d0: 9847 933b b598 fd3c bdb1 843c 7a84 9bbb
000001e0: 2b05 633a e942 aebc 1f04 9c3c 7bbc 0cbd
000001f0: 944c aabd 7c87 d6bd 645c f4bb 3df1 14ba
00000200: ee14 883c f6f5 1fbd f0a0 22bc 32a4 e5ba
00000210: db9e 213d f4e2 bd3c 34f4 56bd 0714 c43b
00000220: 3060 41bd d957 293c dea7 a3bc 5b8d 3dbc
00000230: 288a f5bd 8832 94bc 7a10 183c 86af 91bb
00000240: 7e39 c0bc b713 b3bd df05 fd39 3a17 403c
00000250: cbbf a6bc 494f a13d 99d1 7bbd 6acf 7dbb
00000260: 1537 e73b d086 603c f2a6 e7bb ac91 8e3d
00000270: 36d4 cfbb 790d 013c a4b9 09be add4 99bd
00000280: 8aaf a23d 8f95 7dbd 3210 223e d225 bdbc
00000290: 3f94 23bc 55ca 0cbd d1c0 8e3c b433 04be
000002a0: c966 893d d224 e9bb 9fbb 2a3e a7d9 b43c
000002b0: 4bc8 d5bc 635c 84bb 8807 c7bc e605 40bd
000002c0: 2723 cd3c 5342 46bc e94e 313d e0c4 98bc
000002d0: 08da 1b3b b461 8138 4e8f 09bc 189f d1ba
000002e0: 7a49 48be ba3b efbe 5021 09b9 daf9 d73a
000002f0: 5c28 fb3b 835f 44bd 8912 0b3b 4274 4e3b
00000300: 2351 6c39 4812 58be aba2 2ebe e098 94bb
00000310: 1885 cebe 107d f63b 1d39 e7bb 9808 d83b
00000320: 6b30 bcbc 6a6d 9cba 0529 eab9 4f72 8e3b
00000330: 2e3e 5cbc 7ad5 0a3d 3a04 8b3b 4a42 713b
00000340: a384 83bb bc26 9b3e 7adf 60be 3f2d b7bb
00000350: 6b06 04bc b047 7e3b 25fe 89be fdd7 1c3e
00000360: dc19 f1bc 8942 bebb ad59 0a3e 1c24 4abe
00000370: a08a 7cbd 3adc 8a3d 76e2 81be 28ff ebb9
00000380: d941 cd3b 1f9a 22bb a227 b6bb fdeb 1b3d
00000390: e0c3 82bd 246f 6ebb cbc3 463e 33e4 273d
000003a0: 4ed8 493b 160c 493d ffea 02bc 62b0 07be
000003b0: ab7d f13b a5a2 97ba ef6b fb3d caae 4fba
000003c0: ab52 923a c84b 8439 9550 cdbb 79b4 b9ba
000003d0: e41e 903e 1ae2 0e3f 7c7b 0a3a ccd2 fe39
000003e0: b009 873b dd2d 05bd ce23 94ba 52e4 e339
000003f0: 744b 093b 9c76 efbd 914c f6bd 1a11 9abb
0.0060935435 0.09287985 -0.1296456 0.16565622 0.06131279 -0.00033171987 0.040910807 0.013571583
-0.049280826 0.08389831 0.063917555 0.017177014 -0.1854817 0.040782403 -0.12706353 -0.04376666
-0.044444125 -0.027987689 0.07311253 0.07175823 -0.012044707 0.0752401 -0.053654335 0.02914572
0.083164684 -0.039758302 0.0068590096 -0.037353892 0.10488013 0.07268151 0.03758008 0.00010686868
-0.06433972 -0.048652582 0.07858724 -0.11221203 -0.040868964 -0.06464237 -0.04659644 -0.07658772
0.043371916 0.043217693 0.09623576 0.10559728 0.06461736 0.17465697 -0.10580094 0.015667507
-0.13385873 0.031178148 -0.029205048 -0.014871548 0.13948794 0.13920961 0.114169516 -0.062356442
-0.09677204 0.05513921 0.06412638 0.10235856 0.018703345 -0.015149565 0.0182814 -0.022169404
-0.0062012845 -0.009924527 -0.049573574 0.018899225 -0.0049083945 -0.0012933831 -0.026234403 0.0113861365
-0.025799358 -0.016300837 -0.0015169702 0.017127091 0.010983327 0.023417123 0.02283673 0.07764913
0.08856005 0.006526465 0.003078619 0.033739444 -0.039662298 0.01784294 0.001318168 0.033673003
0.032368433 0.035354394 -0.012708747 -0.017822126 -0.046080172 -0.012156825 0.020566814 0.010242395
-0.045355078 0.0061707976 -0.048298698 0.014171208 0.008202296 -0.02354333 -0.002672717 0.01897196
0.015207613 0.017665667 -0.03076643 -0.011699207 0.006368246 -0.021113953 -0.022208102 0.0016866189
0.05080447 -0.044570684 -0.08156366 0.053009365 0.0044946186 0.030956605 0.016198033 -0.004746017
0.0008660133 -0.02127214 0.019044934 -0.034359436 -0.08315387 -0.1047506 -0.007457303 -0.0005681699
0.016611543 -0.039052926 -0.009926066 -0.0017520247 0.039458137 0.023179509 -0.052478984 0.0059838328
-0.047210872 0.010335886 -0.019977506 -0.011569346 -0.11989242 -0.018090501 0.009281272 -0.004445973
-0.023464914 -0.08743995 0.00048260295 0.011724288 -0.020355126 0.078764506 -0.061479185 -0.0038728365
0.007056127 0.013704017 -0.007069462 0.069613785 -0.006342436 0.007876747 -0.13449723 -0.07511268
0.07943638 -0.06191021 0.1582649 -0.023089323 -0.009984075 -0.034372646 0.017425926 -0.12910348
0.06709058 -0.007114985 0.16673134 0.022076441 -0.026096484 -0.0040393337 -0.024295583 -0.046880625
0.025041176 -0.012100774 0.043288145 -0.018648565 0.002378108 6.169398e-05 -0.008395983 -0.0015992848
-0.19559279 -0.46725255 -0.00013077748 0.001647766 0.0076647233 -0.04794265 0.0021220765 0.00315024
0.0002253694 -0.21100724 -0.1705424 -0.0045348257 -0.40335917 0.007522233 -0.007056369 0.0065928213
-0.022972306 -0.0011934463 -0.0004466252 0.0043471227 -0.013442559 0.033894993 0.004242447 0.0036813193
-0.0040136143 0.3030299 -0.2196025 -0.0055901106 -0.008058171 0.0038800053 -0.2695171 0.15316768
-0.029431276 -0.0058062715 0.13510771 -0.19740337 -0.06165564 0.06780286 -0.25368088 -0.000450128
0.006263953 -0.0024811102 -0.005558924 0.038066853 -0.063850164 -0.0036382163 0.19410627 0.040989112
0.0030799094 0.04908379 -0.007990598 -0.13250878 0.007369717 -0.0011568858 0.12276446 -0.0007922469
0.0011163553 0.00025233463 -0.0062657096 -0.0014168165 0.28148568 0.55813754 0.0005282683 0.0004860371
0.004121028 -0.03251444 -0.0011302175 0.00043466926 0.0020949515 -0.11692545 -0.12026323 -0.0047017457

module.4.bias f4 [6]
00000000: 0fa4 763e aa52 f73c fb05 9f3e fd13 07be
00000010: 06fd 87be 7a4b de3b
0.24086021 0.030190784 0.3105925 -0.13191219 -0.2656023 0.0067839

module.6.weight f4 [1, 6]
00000000: bb55 593d e513 9fba 4a8e 893e 3fee d6bd
00000010: 509a f0bd 7ba9 06ba
0.053060275 -0.0012136666 0.2686637 -0.104946606 -0.11748183 -0.0005136949

exp_avg f4 [60, 11]
00000000: 208f 1cba 4c46 0dbb 8742 20ba fe5c 66ba
00000010: 1add 7d3a 8baf f9b9 630d adba 4768 d8b8
00000020: ef17 ecb9 fb52 803a 87a7 abb9 d260 ccb9
00000030: 341b 2eba 60c6 98b9 1011 0fba aaf7 a839
00000040: ee95 2939 2d47 08ba 6a99 cb37 9a8e 6bb9
00000050: a8e7 ae39 9845 6338 46e0 8d3a 3bad d53a
00000060: 2ebc 3b39 5936 be3a ff86 e9b9 ab3e 2b3a
00000070: 5e0a 673a eac7 c4b6 6fcf 923a 7ef7 39b9
00000080: 0394 9939 2a08 7d3a a46e 0e3a ac63 1a3a
00000090: cc84 043b 966d 60ba 3648 a7b8 1fec 0d3a
000000a0: 00b2 7bb9 eac1 553a 3643 ebb9 c64d ab39
000000b0: a257 a8b7 0639 46b8 5645 f8b8 8c53 beb8
000000c0: 4103 0e39 b3d8 8039 80df 0bb9 aead 7337
000000d0: 987d 9438 7b44 3039 ae5f e838 55a9 41b9
000000e0: d726 103a b875 5fb8 0ca5 4aba 34b9 0039
000000f0: e1d6 c239 a1a0 9739 e6a6 f038 378e a4b9
00000100: e521 c7b8 91cf 3839 baa2 33b9 5cfd 19b9
00000110: 3ac3 aeb8 e00f 6db9 f2aa ff38 b951 f638
00000120: 7d01 3ab9 8207 1938 42d3 a2b8 665a 1839
00000130: 0209 8a38 4861 93b7 f39f e0b7 f196 eb37
00000140: ec81 3d37 3e84 0bb7 1963 03b9 a169 ec36
00000150: 567d f336 dd31 5eb7 0784 ebb7 840a a8b8
00000160: 8585 02ba 39fa fdb9 2263 1eb9 6d09 21ba
00000170: 0ec5 9539 15ba 73b9 7b8c b8b9 2c6a a238
00000180: 38e9 9fb9 37c4 4c39 7344 53b9 2c39 f137
00000190: fa4b 43b6 56ce bb37 ebaa b636 9a4d ed37
000001a0: d02a cb37 a0fb cd37 4697 04b7 8b5e 91b6
000001b0: eb33 f5b6 5991 3438 7631 8fb9 be6d 0b3a
000001c0: 6c5e d637 77e2 7cb9 0274 7bb9 214c 293a
000001d0: 00d4 3d39 df8a 9739 ce88 6139 17d3 75b9
000001e0: ddea 9b39 ebfb 1bb9 073d 22ba 96b4 87b8
000001f0: 4119 e9b8 c8ec 3d39 44b1 5ab9 0ba1 afb9
00000200: de7c 10b8 04c5 01b9 f4cf 3a39 8908 85b8
00000210: 85df c1ba 12b9 09bb 684f d2b9 d895 dfba
00000220: 6726 313a b144 29ba f6b9 a3ba 15c2 e438
00000230: 3a05 8aba 6880 dc39 94f9 d9b9 e0ec 2539
00000240: c1f3 2d39 9320 0839 91a8 6139 46be 4ab9
00000250: 438f aeb8 569f 4b39 59cc 3cb7 3174 c738
00000260: b96c 56b9 a4de ccb5 c38a 14ba 011d 8dba
00000270: 5a0d 80b9 bb51 91b8 2e2c 0539 d002 aeba
00000280: 6019 57ba d032 2fb9 b97d 08ba e108 103a
00000290: d353 a6ba ceed deb7 686c e3b7 a176 0cb7
000002a0: 148d 4f37 f57c dc35 0188 47b8 8462 1fb8
000002b0: 9d10 5737 beb1 8c37 f74e d037 2282 61b8
000002c0: 267e 0bba 2653 a7b9 3ca5 8fb8 cbef 8fb9
000002d0: a763 d7b9 89bd c939 0b60 91b9 6af9 1839
000002e0: 1146 74b8 d58a 88b9 8cf2 8d39 c7b7 9f38
000002f0: 4daa 4739 49da bf36 06cd 3438 b2aa 68b8
00000300: 8ad4 0739 9644 e238 c2f1 6337 aa18 9538
00000310: 1382 3ab8 c4ea 8438 d4af 9eb9 9f9c 7db9
00000320: 3377 b8b7 03fc 47b9 f49d d037 8c06 7ab8
00000330: 1949 51b9 25e1 5638 3824 14b9 bf83 aa38
00000340: 1fc5 dbb7 150e b0b9 5856 88b8 5bf3 58b8
00000350: be64 7fb9 221c 8238 b806 5638 68e7 55b9
00000360: 65b7 c538 bd1e 8cb8 2efd 1639 a07f 13b6
00000370: 6c03 06b8 385e 0439 69bd d238 3ccf c838
00000380: 9ee6 46b9 044c 8fb9 fef4 c738 3c21 e937
00000390: d65f 39b6 965d 1cb9 ec41 5db9 41a2 cc39
000003a0: 5fad 393a 1709 bf38 e23f a639 0f12 68b9
000003b0: 3e7b cc39 725d e839 419d e936 7022 9639
000003c0: 82c0 6cb9 be84 7e39 2399 4f38 35cd 7338
000003d0: 1ebb 5538 8a38 0239 5430 c4b8 aff2 60b8
000003e0: 7194 5738 267b cf36 6340 9438 759d a0b8
000003f0: b2e9 0eb8 f148 a3b9 26df 67b9 20bd 75b9
-0.0005972255 -0.0021556793 -0.0006113429 -0.00087876606 0.0009684131 -0.0004762377 -0.0013202842 -0.00010319106
-0.0004503126 0.0009790355 -0.0003274048 -0.0003898205 -0.0006641627 -0.000291395 -0.00054575596 0.0003222798
0.00016172949 -0.00051985943 2.4270925e-05 -0.0002246447 0.00033360464 5.418583e-05 0.0010824285 0.0016302237
0.00017903812 0.0014512046 -0.00044541803 0.00065324706 0.00088134955 -5.8645282e-06 0.0011200736 -0.00017735173
0.0002929271 0.00096524006 0.0005433357 0.0005889486 0.0020220755 -0.00085612515 -7.976631e-05 0.0005413908
-0.00024003536 0.00081542006 -0.0004487277 0.00032673607 -2.0067968e-05 -4.7259986e-05 -0.00011838476 -9.075468e-05
0.00013543387 0.00024575516 -0.00013339333 1.4524367e-05 7.0805836e-05 0.00016810179 0.00011080444 -0.00018468995
0.00054989517 -5.3276977e-05 -0.00077302824 0.00012276025 0.0003716266 0.00028920642 0.00011475179 -0.00031386476
-9.495373e-05 0.00017624932 -0.0001713139 -0.00014685601 -8.33333e-05 -0.00022607995 0.000121911886 0.00011745416
-0.00017738897 3.6485035e-05 -7.764112e-05 0.00014529526 6.5820306e-05 -1.7569066e-05 -2.6777363e-05 2.808447e-05
1.1295528e-05 -8.315836e-06 -0.0001253005 7.045645e-06 7.2565554e-06 -1.3243841e-05 -2.8075663e-05 -8.012823e-05
-0.00049790024 -0.0004844235 -0.00015104984 -0.0006143067 0.00028566312 -0.00023243607 -0.0003519988 7.744538e-05
-0.00030500605 0.00019528052 -0.00020148027 2.8756062e-05 -2.9101489e-06 2.238822e-05 5.44392e-06 2.8288738e-05
2.4219422e-05 2.4555076e-05 -7.903034e-06 -4.332343e-06 -7.307613e-06 4.305071e-05 -0.00027311937 0.0005318782
2.5554757e-05 -0.00024116958 -0.00023980442 0.00064581825 0.00018103421 0.0002890443 0.00021508636 -0.00023443658
0.0002973889 -0.00014875799 -0.00061889034 -6.4709384e-05 -0.0001111501 0.00018112652 -0.00020856137 -0.00033498587
-3.4448567e-05 -0.00012375793 0.00017815811 -6.343524e-05 -0.0014791345 -0.0021014852 -0.00040113484 -0.0017058207
0.00067577366 -0.0006457074 -0.0012491334 0.00010908038 -0.0010530122 0.0004205734 -0.00041575416 0.00015823869
0.00016589371 0.00012982106 0.00021520468 -0.00019335104 -8.323651e-05 0.00019418946 -1.1253252e-05 9.510702e-05
-0.00020449133 -1.5263981e-06 -0.0005666429 -0.001076609 -0.0002442401 -6.929362e-05 0.00012700327 -0.0013275985
-0.000820538 -0.0001670823 -0.00052067224 0.0005494487 -0.0012689776 -2.6575199e-05 -2.711099e-05 -8.372271e-06
1.2371009e-05 1.6427645e-06 -4.757196e-05 -3.8000304e-05 1.2818867e-05 1.6772068e-05 2.4832303e-05 -5.3765376e-05
-0.0005321227 -0.00031914673 -6.849549e-05 -0.00027453745 -0.00041082242 0.00038478922 -0.00027728113 0.00014588764
-5.8239388e-05 -0.0002604338 0.00027074327 7.615942e-05 0.00019041561 5.7176553e-06 4.3106287e-05 -5.5472083e-05
0.0001295378 0.00010789295 1.3586543e-05 7.109468e-05 -4.4466997e-05 6.337979e-05 -0.0003026711 -0.00024186306
-2.1990016e-05 -0.00019072 2.4869085e-05 -5.9610742e-05 -0.00019959024 5.1231258e-05 -0.00014127872 8.130771e-05
-2.6198626e-05 -0.00033579828 -6.501068e-05 -5.1725056e-05 -0.00024356224 6.204123e-05 5.1027833e-05 -0.00020399468
9.427852e-05 -6.681446e-05 0.00014399432 -2.1978994e-06 -3.1951276e-05 0.000126236 0.00010048861 9.5753436e-05
-0.00018968663 -0.00027331722 9.534693e-05 2.779124e-05 -2.7622932e-06 -0.00014912183 -0.0002110076 0.000390308
0.0007083024 9.109283e-05 0.00031709584 -0.00022131971 0.00039001735 0.0004432011 6.962248e-06 0.00028635887
-0.00022578429 0.00024272778 4.9495266e-05 5.812683e-05 5.0957424e-05 0.00012418829 -9.35501e-05 -5.363178e-05
5.139824e-05 6.183417e-06 7.069183e-05 -7.658723e-05 -3.4073084e-05 -0.00031144128 -0.00022113006 -0.00023435475

exp_avg_sq f4 [60, 11]
00000000: c8a4 2b38 ac9a d637 f6c9 4e37 ae18 0038
00000010: 6128 ea37 3a3b cb37 6703 ef37 3c61 7637
00000020: 7786 3438 5dec e337 55db a737 502f 7a36
00000030: 08b8 f235 c688 8035 8535 2336 1780 5a36
00000040: 7836 f035 79c4 d935 ccca 1735 676f 5536
00000050: 2c43 3436 b7b1 db35 e4bb ab38 789b dd37
00000060: ebd6 7737 4606 0638 e2a1 f137 cd5b ed37
00000070: 9a55 8d37 1caf fd36 96f3 3338 260e 9837
00000080: f5bb 0138 85e5 8238 7d03 3738 d225 ba37
00000090: 0b1e 9838 5d58 5638 bacd 4438 1c95 2b38
000000a0: 63f6 e037 f5c0 a438 0e43 1238 dcb4 2738
000000b0: 28e8 1c35 f866 9e34 3f43 0734 8738 f734
000000c0: fce4 d234 77a4 b734 41cf 5134 8fda 5f34
000000d0: dfee d134 8428 8334 1059 b034 dacb a137
000000e0: e2b6 7a37 8a1b c436 8879 ac37 22fc 8c37
000000f0: d9dc 7c37 2115 6537 269e 2737 38d4 ac37
00000100: 4cf8 4037 2a1c 3437 69b8 cb35 00dd 1a35
00000110: 99d7 7534 d5e0 3d35 5617 6135 c819 1135
00000120: ca0e bf34 6186 8634 dbd8 3d35 f173 fd34
00000130: e2b4 0135 ebe7 9a33 68c7 4033 0d79 7132
00000140: 9177 5a33 a6fd 8f33 3d92 4033 bee6 2d33
00000150: 66a8 9132 8716 5c33 6517 0833 942d 2933
00000160: 6176 ae36 cdc1 1536 1d42 9e35 0c42 4836
00000170: baa9 2736 cffe 2236 ee17 1f36 1cb4 8835
00000180: e752 9236 fa51 0936 65af 1336 e17d 4733
00000190: 2523 f332 b6b3 4e32 6748 3a33 91f9 0833
000001a0: 3ec1 f932 2fc8 b832 356a 4a32 a777 4d33
000001b0: 6c30 a432 51d9 ca32 dcd5 d637 c3e4 a137
000001c0: 5c3e 0837 7c64 0238 3989 b737 5128 a837
000001d0: c852 6737 71f2 1737 9866 0538 b32a 7537
000001e0: 3002 7e37 1e6d 9e36 73f6 3b36 0d93 b835
000001f0: 920b 5736 7aeb 4b36 7765 3636 d017 3136
00000200: b2aa 9135 7f5e 8a36 47b7 3436 570f 0b36
00000210: 3fec 5038 4e5f d537 104a 5b37 25f8 0638
00000220: 037b e337 b537 d737 5db7 cd37 4f4d 2537
00000230: ef56 5238 c576 bd37 b50e 0538 08fd b834
00000240: af15 ac34 9d69 aa33 57dc a634 00f5 a234
00000250: 8a1e 9034 052c 3a34 9099 bd33 f6f5 8a34
00000260: b206 3134 ae4e 8834 b895 bb38 bc2a 6738
00000270: 6c8d f937 56c6 f838 5f90 9538 73ad 8738
00000280: 7868 0c38 5be7 3138 8782 fe38 4d0b 3338
00000290: d0dc 8a38 71ba c632 b666 5832 bdc6 a831
000002a0: 69aa 8232 c872 8932 4708 6032 f351 4032
000002b0: 2248 8731 a558 8832 c520 1e32 803f 3632
000002c0: c04d d236 6376 9636 5ffc 0e36 f496 0037
000002d0: 3fe1 f236 12f8 ab36 c8ec 5436 9939 dc35
000002e0: f0c4 0737 d3e3 c036 a393 a936 a3e9 3835
000002f0: e531 b734 a44f 3834 9ee6 fa34 f6ba c334
00000300: 876d b334 48b6 a434 712b 1334 c5e3 1835
00000310: 8ef3 8234 a015 8934 b93e 9335 da7b 6535
00000320: d52a c034 1e8e 8935 e4d5 1735 eb90 1f35
00000330: 8209 0835 5ddc 4434 ca20 a035 7730 ca34
00000340: 4178 e334 f8d6 2a36 515c 8435 49a6 cd34
00000350: 8b7f 8435 bddf 5b35 04f1 6435 edb9 0c35
00000360: 79fa fe34 2bc8 6335 3073 1435 e324 6a35
00000370: e38a ce34 9b79 9334 655a e633 ecf6 c534
00000380: dfd5 0335 8ccd 9534 c46a 5234 9936 1034
00000390: 9f21 bf34 12a0 7334 1f2a 8634 dd70 0d37
000003a0: 0c26 8136 1635 0136 46ea aa36 18a6 8a36
000003b0: be76 7c36 9668 5236 f00e cc35 41ef df36
000003c0: 24d8 4236 ec32 5a36 8ae1 e033 eecd 1834
000003d0: 7e5e 0c33 3324 ee33 5ee3 b733 b0f9 cd33
000003e0: a5db 9b33 bda2 0333 1cf0 d433 6232 8033
000003f0: 7ee8 ae33 0770 ce35 f79f 8a35 a8d2 d334
4.092304e-05 2.5582813e-05 1.23255795e-05 3.0540563e-05 2.7913777e-05 2.4227065e-05 2.8492605e-05 1.4685382e-05
4.3040574e-05 2.7170574e-05 2.0010086e-05 3.7280442e-06 1.8083965e-06 9.57655e-07 2.4320045e-06 3.255909e-06
1.7897246e-06 1.6224941e-06 5.654699e-07 3.1804318e-06 2.686119e-06 1.6368493e-06 8.188913e-05 2.6417649e-05
1.4772387e-05 3.1953932e-05 2.8804821e-05 2.829535e-05 1.6848371e-05 7.560373e-06 4.2903783e-05 1.81264e-05
3.0931045e-05 6.2416344e-05 4.363385e-05 2.219054e-05 7.253521e-05 5.110387e-05 4.692164e-05 4.0908446e-05
2.6817614e-05 7.8560704e-05 3.4871562e-05 3.998434e-05 5.845236e-07 2.9504713e-07 1.2597319e-07 4.6048464e-07
3.9282156e-07 3.420607e-07 1.954004e-07 2.0848005e-07 3.9103085e-07 2.443013e-07 3.2847356e-07 1.9287621e-05
1.4943742e-05 5.844461e-06 2.056059e-05 1.6806709e-05 1.5071791e-05 1.3654383e-05 9.9907975e-06 2.060282e-05
1.1501903e-05 1.07353935e-05 1.5178349e-06 5.769107e-07 2.2895837e-07 7.073516e-07 8.385299e-07 5.4054226e-07
3.5587283e-07 2.5057219e-07 7.0723553e-07 4.720928e-07 4.8319464e-07 7.2133695e-08 4.4884843e-08 1.405557e-08
5.0865825e-08 6.705095e-08 4.4836487e-08 4.048956e-08 1.69568e-08 5.124323e-08 3.1686245e-08 3.9389832e-08
5.199385e-06 2.2315537e-06 1.1791159e-06 2.9840767e-06 2.4983733e-06 2.42882e-06 2.3706775e-06 1.0185208e-06
4.36079e-06 2.0462307e-06 2.20068e-06 4.6447784e-08 2.8304905e-08 1.203164e-08 4.337235e-08 3.1891947e-08
2.9075292e-08 2.1511452e-08 1.1782096e-08 4.7839105e-08 1.9114132e-08 2.3614719e-08 2.5610374e-05 1.9299221e-05
8.120751e-06 3.1088e-05 2.18792e-05 2.0045934e-05 1.3787947e-05 9.056749e-06 3.180522e-05 1.461308e-05
1.5140089e-05 4.72147e-06 2.8008624e-06 1.3751866e-06 3.2044231e-06 3.0386423e-06 2.7179174e-06 2.6388916e-06
1.0853021e-06 4.1237213e-06 2.6928772e-06 2.0721543e-06 4.9811086e-05 2.5435958e-05 1.3070661e-05 3.2179192e-05
2.711779e-05 2.5655938e-05 2.452329e-05 9.852766e-06 5.0148865e-05 2.2585862e-05 3.1723368e-05 3.4456775e-07
3.2053273e-07 7.935453e-08 3.1080228e-07 3.0353112e-07 2.684431e-07 1.7338614e-07 8.828931e-08 2.5883463e-07
1.6486845e-07 2.538922e-07 8.944742e-05 5.511449e-05 2.9748968e-05 0.000118625045 7.131765e-05 6.469609e-05
3.3475895e-05 4.2415555e-05 0.000121359764 4.268745e-05 6.621482e-05 2.3135017e-08 1.25962085e-08 4.9120374e-09
1.5211485e-08 1.6001096e-08 1.3040398e-08 1.1194504e-08 3.9372177e-09 1.5872795e-08 9.204261e-09 1.06082325e-08
6.267539e-06 4.4841304e-06 2.1306548e-06 7.664541e-06 7.238384e-06 5.1250763e-06 3.1728287e-06 1.640804e-06
8.09248e-06 5.748568e-06 5.0537797e-06 6.888533e-07 3.412271e-07 1.7165308e-07 4.6733925e-07 3.6457612e-07
3.342104e-07 3.0680008e-07 1.3706246e-07 5.695586e-07 2.4391596e-07 2.5533973e-07 1.0970608e-06 8.5489376e-07
3.579395e-07 1.0248657e-06 5.6563135e-07 5.9443e-07 5.0677784e-07 1.833409e-07 1.1930472e-06 3.7660695e-07
4.236954e-07 2.5457102e-06 9.861634e-07 3.8305214e-07 9.871886e-07 8.190944e-07 8.528734e-07 5.242462e-07
4.749343e-07 8.485537e-07 5.5301916e-07 8.722547e-07 3.8471543e-07 2.7469363e-07 1.0726652e-07 3.687377e-07
4.9112526e-07 2.7902968e-07 1.9596615e-07 1.3430908e-07 3.5600985e-07 2.2689372e-07 2.4990092e-07 8.430533e-06
3.848929e-06 1.9253398e-06 5.093668e-06 4.1320563e-06 3.7620043e-06 3.1353316e-06 1.5203532e-06 6.6737707e-06
2.9034063e-06 3.2514172e-06 1.0471838e-07 1.423102e-07 3.268223e-08 1.1089323e-07 8.5629594e-08 9.591474e-08
7.257703e-08 3.0648824e-08 9.915695e-08 5.969629e-08 8.1447965e-08 1.53808e-06 1.0328357e-06 3.9455085e-07

exp_avg f4 [60]
00000000: ae14 ceb9 5528 32b9 c3cf 98ba 1547 a339
00000010: 6fec aeb9 a39f 1db7 3fc9 b8b8 10e0 a138
00000020: fe6f 3039 4423 f937 4296 a1b9 10af b138
00000030: 1441 6f3a de5e cf38 5431 e839 f22c 1cb8
00000040: 8f5f 3539 50cd c5b8 7fe0 2039 9618 9db7
00000050: 8eda 3239 3f47 8ab9 c4b0 c937 e3b4 a4b9
00000060: f63f aeb9 7bff 23b8 fd67 0e39 e7d4 99b5
00000070: 0c2c 13b8 55e2 6fba 0fdb 0cb9 d60a a2b6
00000080: 33a0 d038 d1fa da38 5706 5739 fbc3 d338
00000090: e87a 15ba d561 88b9 3749 d239 617f 84ba
000000a0: 5467 ab38 0ec7 1039 4082 52b8 b12a 0139
000000b0: 8701 9c39 ef9c c637 8484 1f3a 7f60 9939
000000c0: 0065 1837 68d0 ed39 461d 1db9 7cfc 36b9
000000d0: a4db 0bb9 8e29 a437 f855 26b9 80d7 0ab8
000000e0: e89c 85b8 1085 e039 0edd 1739 ac48 6d38
-0.0003930679 -0.00016990428 -0.0011658598 0.00031142743 -0.00033364023 -9.395098e-06 -8.811289e-05 7.718813e-05
0.00016826388 2.9699535e-05 -0.00030820264 8.4726256e-05 0.0009126824 9.8881996e-05 0.0004428724 -3.7235157e-05
0.00017297103 -9.4319344e-05 0.0001534242 -1.8727307e-05 0.00017056821 -0.00026374494 2.404338e-05 -0.0003141529
-0.0003323552 -3.9100163e-05 0.00013580914 -1.1461351e-06 -3.5088553e-05 -0.00091508526 -0.00013433046 -4.8292377e-06
9.948052e-05 0.00010441768 0.0002050636 0.00010097768 -0.00057022134 -0.00026012832 0.0004010887 -0.0010108763
8.173162e-05 0.00013807064 -5.0189206e-05 0.00012318302 0.00029755777 2.3676517e-05 0.0006085115 0.0002925433
9.083422e-06 0.00045359437 -0.00014983592 -0.0001745093 -0.00013337896 1.9569674e-05 -0.0001586302 -3.3102464e-05
-6.37116e-05 0.0004282375 0.00014482831 5.6572884e-05

exp_avg_sq f4 [60]
00000000: 74b3 1d39 61bf 4e37 1109 8939 579d 3539
00000010: 3b09 5635 4d73 3d38 389a 1936 3bb5 0834
00000020: 8e0b 9537 5167 e033 4264 9638 2c83 8b37
00000030: 3b51 5f39 7087 3135 a968 6539 0e86 3b33
00000040: 58f3 a237 9aee fc35 aa03 4336 921a 6636
00000050: af02 3835 8d9b e637 6b78 7734 5d49 4a36
00000060: 4338 9138 3da2 e035 f676 5935 ecdc 9938
00000070: e6c3 3038 7be1 1239 9f13 d837 2510 a132
00000080: a45c 4c37 f31e ea34 3001 3037 fb73 1239
00000090: ac53 d939 a21f bb38 ed57 bc39 1961 8c39
000000a0: 817d 5038 e0c0 6336 f030 8539 38f1 5034
000000b0: bb5e 8338 52a8 1a34 61fb 2539 2943 1335
000000c0: 4c78 1f38 b64e b537 9462 1235 29c9 5c36
000000d0: 1901 6a37 bf5c 8733 a767 1e38 049c 1b39
000000e0: 8cfb 8734 14fc 333a 0f20 d737 d7bb 5136
0.00015039538 1.2323116e-05 0.0002613743 0.00017320119 7.9734644e-07 4.5168494e-05 2.2888544e-06 1.2731918e-07
1.7767565e-05 1.0449606e-07 7.171232e-05 1.6631173e-05 0.00021297198 6.6134726e-07 0.00021878131 4.3661252e-08
1.942522e-05 1.8844905e-06 2.9059397e-06 3.4288137e-06 6.8549247e-07 2.749057e-05 2.3047475e-07 3.0143049e-06
6.924618e-05 1.6736518e-06 8.101191e-07 7.3367584e-05 4.2144115e-05 0.00014007643 2.5758343e-05 1.8750208e-08
1.2180917e-05 4.3608415e-07 1.0490694e-05 0.00013966851 0.00041451806 8.922747e-05 0.00035923664 0.00026775224
4.970795e-05 3.3937904e-06 0.00025404198 1.9459264e-07 6.264212e-05 1.4403602e-07 0.00015829272 5.48595e-07
3.802059e-05 2.1613534e-05 5.453269e-07 3.2899645e-06 1.3947742e-05 6.303298e-08 3.776667e-05 0.00014840072
2.5328734e-07 0.00068658707 2.5644926e-05 3.1252764e-06

exp_avg f4 [60, 60]
00000000: aebb 0d37 c116 ab36 1ea1 90b6 116b 6637
00000010: 0411 a6b5 035d b7b5 f64a 6db5 2baa b2b4
00000020: 5c5d e5b5 fcbc 4bb4 5c60 f2b6 da95 8836
00000030: 783d 11b5 b6b9 4b35 b72c 9bb6 da06 a3b4
00000040: 2cce 9d36 0bea deb5 01d2 2db6 eed3 86b5
00000050: 6f77 c134 88e7 55b6 6579 0534 48c6 3436
00000060: 31a7 bab5 be39 d4b5 01aa fb35 bb90 c836
00000070: f5a7 5936 6951 3ab7 b052 7935 207f ac33
00000080: c268 04b6 5321 a735 ad62 0a35 26ed 8536
00000090: c5b5 fbb5 1b83 bab6 a743 d2b6 f645 c2b6
000000a0: e2ee 0ab7 466e d1b5 e8d5 2a37 a4ee c535
000000b0: 9845 cfb3 e412 1c35 b77d 9f36 b040 1cb4
000000c0: c1e8 9a36 79d2 69b6 084d e8b4 0e4b 0eb4
000000d0: 48be bb36 31f9 5d34 1904 a6b6 4aa7 2537
000000e0: 5b2b 51b5 0d46 9436 995a d334 a9ee 1ab6
000000f0: 4c88 06b8 ae1f 8eb7 80e7 a537 5979 39b8
00000100: ad2f 6736 c29d 9334 043c 1036 824d f735
00000110: 3f79 36b6 866e 2935 db54 1138 e619 9db7
00000120: bcdc 1eb6 f1b4 71b6 4280 9b36 b092 6135
00000130: dee3 2cb7 56c8 0937 52d6 3336 b89d 91b6
00000140: ad99 65b6 6f9f 9337 01b4 e7b5 1af4 14b7
00000150: dd61 1c37 d1d7 dfb6 25cc c5b6 b01a 6db7
00000160: 0798 49b7 64df 2a38 c681 f2b5 1885 7bb4
00000170: 6d24 08b6 ba07 aeb6 d78e a0b6 0fd8 b1b7
00000180: 6dc9 9137 6942 6a37 2789 b737 abf0 f237
00000190: 6bda ad37 1418 9d36 3214 2db8 bb84 a2b6
000001a0: 5041 fab6 7314 25b6 b6e1 99b7 56fb 5835
000001b0: 3d7f aab7 7a2d 3f37 a82f 5d36 2f5a 67b7
000001c0: 694d c1b7 9ec5 14b5 6dff a237 d5ee 2ab8
000001d0: 5601 6036 0ad8 aeb7 6714 14b7 1d38 af36
000001e0: cbbd 8db7 1d3c 35b6 8518 3e37 e09d 1eb8
000001f0: 7f65 b534 e56c 36b7 533e 3436 943c ea35
00000200: 8dca 0436 a9e0 aa34 133e 7537 65cc 04b7
00000210: dd94 1635 d252 e6b4 e92b 6237 6011 2935
00000220: ba4b d436 373d 7036 ad50 b735 85e3 bc36
00000230: d3ae 01b6 70eb 1a37 300f 9930 4f22 d236
00000240: ff52 6e36 cc33 1136 931c 16b6 50ef 40b6
00000250: 532b c334 7ac2 ed37 fc9c 8e36 0b04 f5b3
00000260: 0aaf 2d35 c287 d9b5 2d18 61b6 9517 29b7
00000270: 5eee 3f37 3194 1a37 928d 8b37 d876 9e37
00000280: 861d 9835 131a a5b5 a11a a6b7 ffad b6b5
00000290: 2881 ffb5 0341 4fb4 13df 4ab7 cb3e 9635
000002a0: 9eb2 2cb7 c7af d136 5676 b735 3dce 4036
000002b0: ebb1 b0b6 63af 0fb5 4573 1237 f56f acb7
000002c0: bdf9 0035 c77c ffb6 43ff ebb6 d752 15b5
000002d0: 64cb 14b7 4e4a fcb6 8a1c ca35 194d 0fb7
000002e0: 11c1 1c36 b878 ea36 34a0 7935 65a3 b734
000002f0: 0c7d 9db3 4efb 8934 3df3 2f37 10bc bdb6
00000300: eb4e 9935 f3b2 efb5 9dae 48b6 4e84 b234
00000310: 354c 23b7 fdbd 1236 f907 5936 848c 52b6
00000320: ca71 e7b5 5286 8536 2965 74b5 01db dbb6
00000330: 0042 8835 c790 0cb6 ed8f 38b6 24bc 1ab7
00000340: e924 d6b6 0c9c 0737 e350 26b6 f492 b3b3
00000350: bb55 5235 2af5 33b6 3a91 c2b5 7391 9ab6
00000360: 194a 2436 0345 9136 47d4 af36 89cd 5836
00000370: a1b6 6b37 a848 2336 6dc4 5eb7 f285 21b6
00000380: e76e fcb4 1908 a2b5 a36a 18b6 3227 eab1
00000390: 62eb cbb6 2ebe b736 9897 b735 cf4e c3b6
000003a0: 0cd4 1bb7 89cd 49b4 8a54 b536 3ab5 53b7
000003b0: 3e4e df35 e949 08b7 d178 6cb5 0799 2d36
000003c0: dd77 60b9 2351 3fb9 7b1b 7f39 d172 2cb9
000003d0: 2597 b438 3521 1a38 5d21 80b7 f74d 20b8
000003e0: 7e34 fcb7 6752 c5b6 699d 5639 2289 aeb8
000003f0: e981 1eb9 4a0d 4eb6 6083 5839 9389 6c36
8.4479525e-06 5.098846e-06 -4.310291e-06 1.3733997e-05 -1.2372916e-06 -1.3661632e-06 -8.839846e-07 -3.3278897e-07
-1.7089001e-06 -1.89746e-07 -7.2233797e-06 4.070561e-06 -5.410616e-07 7.589364e-07 -4.6245655e-06 -3.03661e-07
4.702966e-06 -1.6608404e-06 -2.5901247e-06 -1.0045458e-06 3.603595e-07 -3.1874242e-06 1.2430753e-07 2.6937505e-06
-1.3906739e-06 -1.5812036e-06 1.8750435e-06 5.9773133e-06 3.2433284e-06 -1.1105419e-05 9.2880055e-07 8.032498e-08
-1.973051e-06 1.2452168e-06 5.15526e-07 3.9913166e-06 -1.8753859e-06 -5.5584946e-06 -6.2663635e-06 -5.789795e-06
-8.28106e-06 -1.5603807e-06 1.01825935e-05 1.4747097e-06 -9.651848e-08 5.814202e-07 4.7532044e-06 -1.4552165e-07
4.6166538e-06 -3.4842217e-06 -4.3269415e-07 -1.3252085e-07 5.595186e-06 2.0672884e-07 -4.9476625e-06 9.873716e-06
-7.792166e-07 4.4188987e-06 3.936773e-07 -2.3086707e-06 -3.2075026e-05 -1.6942471e-05 1.9777333e-05 -4.422045e-05
3.4449433e-06 2.7495668e-07 2.1492606e-06 1.8425492e-06 -2.7190688e-06 6.311824e-07 3.464972e-05 -1.8727918e-05
-2.367232e-06 -3.601712e-06 4.634291e-06 8.403249e-07 -1.0305053e-05 8.212481e-06 2.679783e-06 -4.3396976e-06
-3.421311e-06 1.7598008e-05 -1.7263229e-06 -8.878322e-06 9.32111e-06 -6.6710422e-06 -5.894823e-06 -1.41325145e-05
-1.201593e-05 4.0739207e-05 -1.8068174e-06 -2.3424616e-07 -2.0286782e-06 -5.1865036e-06 -4.7850003e-06 -2.1200654e-05
1.7379143e-05 1.3962949e-05 2.1879167e-05 2.8960718e-05 2.0724916e-05 4.6817677e-06 -4.1265223e-05 -4.843428e-06
-7.458184e-06 -2.459882e-06 -1.8344126e-05 8.083201e-07 -2.032483e-05 1.13950755e-05 3.2959306e-06 -1.378967e-05
-2.304344e-05 -5.542187e-07 1.9430847e-05 -4.0753588e-05 3.3379379e-06 -2.0843017e-05 -8.826238e-06 5.221939e-06
-1.6896889e-05 -2.7006092e-06 1.1330591e-05 -3.7817168e-05 3.3787725e-07 -1.0873399e-05 2.6858368e-06 1.7451989e-06
1.9787433e-06 3.182843e-07 1.4617591e-05 -7.915402e-06 5.609598e-07 -4.2901098e-07 1.3480873e-05 6.298269e-07
6.326908e-06 3.5798419e-06 1.3658042e-06 5.6293234e-06 -1.932426e-06 9.233932e-06 1.1136532e-09 6.2624817e-06
3.5513074e-06 2.1636833e-06 -2.2368374e-06 -2.8749528e-06 3.6353103e-07 2.8343162e-05 4.250205e-06 -1.1409437e-07
6.470224e-07 -1.6207271e-06 -3.3541685e-06 -1.0078676e-05 1.1439986e-05 9.213619e-06 1.6636015e-05 1.8890409e-05
1.1333475e-06 -1.2301047e-06 -1.9801142e-05 -1.3610696e-06 -1.903657e-06 -1.9302028e-07 -1.2092077e-05 1.1194146e-06
-1.02935865e-05 6.2491486e-06 1.3669003e-06 2.8730276e-06 -5.265921e-06 -5.352687e-07 8.729116e-06 -2.0556132e-05
4.8047133e-07 -7.614118e-06 -7.033262e-06 -5.5627373e-07 -8.868843e-06 -7.5188354e-06 1.5058479e-06 -8.541415e-06
2.335819e-06 6.987797e-06 9.2992855e-07 3.420529e-07 -7.333628e-08 2.5701087e-07 1.0487446e-05 -5.6545323e-06
1.1422356e-06 -1.7858969e-06 -2.990396e-06 3.3251348e-07 -9.7333e-06 2.1866283e-06 3.234016e-06 -3.137423e-06
-1.7243958e-06 3.979346e-06 -9.104429e-07 -6.552204e-06 1.0151998e-06 -2.0945897e-06 -2.7501912e-06 -9.22292e-06
-6.381994e-06 8.0829595e-06 -2.478301e-06 -8.362068e-08 7.835585e-07 -2.6815783e-06 -1.4496393e-06 -4.60649e-06
2.4481035e-06 4.3293708e-06 5.2401188e-06 3.2306145e-06 1.4049613e-05 2.4331184e-06 -1.3277965e-05 -2.4068836e-06
-4.701935e-07 -1.2072297e-06 -2.2711836e-06 -6.8147523e-09 -6.0772736e-06 5.475965e-06 1.3678682e-06 -5.8206274e-06
-9.288091e-06 -1.8794357e-07 5.404062e-06 -1.2618775e-05 1.6637566e-06 -8.12344e-06 -8.809266e-07 2.5868083e-06
-0.00021406957 -0.00018245405 0.00024328932 -0.0001644597 8.611222e-05 3.6747388e-05 -1.5274325e-05 -3.8219583e-05
-3.0065185e-05 -5.8806504e-06 0.0002046727 -8.3225095e-05 -0.0001511645 -3.0704127e-06 0.00020648306 3.524682e-06
