mnc_ml_test/output/train/20221128-0247-model.pth (torch, 62813 bytes, 21 tensors)

module.0.weight f4 [60, 6]
000000 3c 53 ae 3d eb bb 43 3f 91 bd 31 3f 46 66 4d 3e
       0.085119694 0.76458615 0.6942988 0.20058545
000010 d9 8a 51 3e f9 02 5a be 37 2d 8d 3e ea 88 d5 be
       0.20463122 -0.21290196 0.2757356 -0.4170602
000020 19 2f 0c 3f cb 00 9e bd 80 b4 4f bf 88 da 80 bd
       0.54759365 -0.07714995 -0.81134796 -0.062916815
000030 f9 5b 89 3c f1 fe 8c be ec 31 69 3e 6c 31 f5 be
       0.016767489 -0.27538255 0.2277295 -0.47889268
000040 f6 8d 8e be 8c 71 78 3e 47 64 63 3d 95 0a d6 be
       -0.27842683 0.24262065 0.055515554 -0.41804948
000050 37 6f 14 3f 33 e6 07 bf 08 30 f4 3d ea 54 c9 3e
       0.579822 -0.5308563 0.11923224 0.39322597
000060 7b 2b 90 3e f6 8c c0 bc 1a eb ce 3e 49 3d de 3d
       0.28158173 -0.023504715 0.40413743 0.10851533
000070 ed 42 05 bf b2 ac 9f be 5f 20 b4 3e ae 1b 8f bb
       -0.52055246 -0.31186444 0.35180947 -0.0043673133
000080 86 30 f9 bd fc e8 45 3f ae 27 0f be ac 55 ba 3d
       -0.12167458 0.7730863 -0.1397998 0.09098372
000090 ba 8c 05 3f 2d c3 98 be e5 4b 12 3f 7d 74 18 bf
       0.52167857 -0.29836407 0.57147056 -0.59552747
0000a0 10 47 29 3f 65 8d 90 3e 24 95 b9 be 66 f6 d3 be
       0.6612406 0.28232875 -0.36246598 -0.41398925
0000b0 16 8a 1c bc 20 cd 86 be 68 b8 9f 3b d2 96 60 3e
       -0.009554407 -0.26328373 0.004874278 0.21932533
0000c0 ea 4d 70 be 3a a8 de be 23 1f 43 bc f4 30 3b 3e
       -0.23467222 -0.43487722 -0.011909279 0.18280393
0000d0 a1 df 0c be d8 81 af be 2e ad ee be 51 90 b4 3e
       -0.13757183 -0.3427875 -0.466165 0.35266355
0000e0 60 1d 46 bf f8 9b 8c 3e 60 fd 36 3d 3c 16 37 bc
       -0.7738857 0.27462745 0.04467523 -0.011174735
0000f0 0d 6b 17 bf ff 29 88 be 08 39 a4 3e dd fc 21 bd
       -0.5914772 -0.2659454 0.3207476 -0.03954779
000100 77 a6 66 bd cb 17 82 be 9c aa da 3e 38 e9 cc 3d
       -0.056311097 -0.25408778 0.4270829 0.100054204
000110 ab 11 7b 3f 72 db 3a 3e ec 85 a1 3e 9a aa 58 be
       0.98073834 0.18247774 0.31547487 -0.2115883
000120 14 40 21 3e 19 23 4d 3e 6c b8 d7 be 87 6c 2b 3e
       0.157471 0.2003292 -0.4213289 0.16740619
000130 5b bd 28 bf 59 da 56 3c 58 4b 5b 3e dd 19 a1 be
       -0.65913934 0.013113582 0.2141546 -0.31465045
000140 70 02 e8 3e d0 a8 b2 bd 55 c6 51 3e 9e 72 c0 bb
       0.4531436 -0.08723605 0.20485814 -0.0058730384
000150 b1 0b 81 be f4 24 a9 bb f8 05 19 3e 8c 92 9a 3e
       -0.25204232 -0.005161876 0.14943683 0.3018993
000160 f1 67 0f be 2a 67 39 3e b7 37 ab 3e 40 be c1 3e
       -0.14004494 0.1810576 0.33440945 0.37840462
000170 5e d6 8b 3f 3a a3 86 3c 1b cd 88 3e da de 49 be
       1.0924795 0.016435254 0.26718983 -0.19713917
000180 96 ba b3 bc d8 34 28 3d 66 69 13 3f ad ae c2 3d
       -0.021939557 0.04106602 0.575827 0.09505973
000190 e1 cd 35 be 56 4c 39 bd 0a 93 d9 3e ec e5 1e bf
       -0.17754318 -0.045238815 0.42494994 -0.6206958
0001a0 ba 7d 56 3f fd 9c 9f bd 83 b0 9b be 6c 61 cf 3e
       0.83785594 -0.07793615 -0.30408105 0.40504014
0001b0 68 f6 0b 3e 8f 01 cb bd 59 fa 90 3e 33 49 92 bd
       0.13668215 -0.09912407 0.28316 -0.07142868
0001c0 99 74 7a 3b a2 c9 55 3d 82 90 4c be 8c 83 a3 3f
       0.003821647 0.052194245 -0.19977 1.277452
0001d0 c4 4e fc be 6c d1 8e 3e 42 df 36 be 7b 93 0f bf
       -0.49278843 0.2789415 -0.17858604 -0.5608441
0001e0 4b 88 82 3f 03 4a 40 bf 66 35 bd 3d 3c 4c dc be
       1.0197843 -0.7511293 0.092387006 -0.43026912
0001f0 00 20 1e 3f 70 48 b3 3e 8e d7 ad be ba c1 29 3e
       0.6176758 0.35016203 -0.33953518 0.16577807
000200 8d 02 0d bf 31 5e c4 bc 97 ad be 3e a9 45 a4 be
       -0.5508202 -0.023970695 0.37241814 -0.32084396
000210 a3 0b b8 be 95 80 b6 3c b8 98 95 3e bc 19 f7 3d
       -0.35946378 0.02227811 0.29218078 0.12065455
000220 89 d8 17 be 6b 37 05 3e 69 fe 12 3f 3e 5a 42 bf
       -0.14828695 0.13009422 0.5741945 -0.7591895
000230 d2 1a 11 3f 40 23 ce be 43 a6 ea 3d cf 4c aa be
       0.5668155 -0.4026127 0.11457493 -0.33261725
000240 05 f2 2a be 5b 5e f6 3d b4 b2 1f bf 49 ea 82 3e
       -0.16693886 0.120297156 -0.62382054 0.2556937
000250 b9 32 15 be aa 97 6b bd b5 a0 6c 3e a3 55 86 3e
       -0.1457013 -0.057517685 0.2310818 0.2623721
000260 2c 15 a4 be 7f 31 00 3f 97 07 bd 3e 9a bf e7 bd
       -0.32047403 0.50075525 0.36919853 -0.11315842
000270 95 3a 75 be 70 4a 40 3f 4f 51 26 bf 1d 21 d9 3e
       -0.23948129 0.7511358 -0.6496782 0.42408076
000280 fe df 9c bd f3 f6 dd be fb da 23 bf db c3 b4 bd
       -0.076599106 -0.4335247 -0.6400601 -0.08826419
000290 19 fd 87 bf bc 2e 5d 3e 95 1e 1c 3e de 50 2c bd
       -1.0624114 0.21599859 0.15246041 -0.04206931
0002a0 dc f6 e1 3e 09 de 20 3e c0 0d 30 3f 83 18 51 3d
       0.4413365 0.157097 0.6877098 0.051048767
0002b0 4e 27 8e bc 36 1e f9 bd 84 78 05 bf f5 e5 e7 bc
       -0.017352726 -0.121639654 -0.5213702 -0.028307894
0002c0 51 96 97 3d 50 e9 04 bf 4d 66 39 3e 7c e2 25 3c
       0.074017175 -0.51918507 0.18105431 0.010124799
0002d0 40 92 dc be 94 a0 25 3f d2 7a 72 bf d1 b9 04 3f
       -0.4308033 0.6469815 -0.9471866 0.51846033
0002e0 10 39 5c 3d 1e 17 d5 be 88 e2 8b 3e eb 5a 15 be
       0.053765357 -0.416192 0.27321267 -0.14585464
0002f0 2f 29 39 3f 20 a8 27 bc bf 8b 44 be d0 8d d5 3d
       0.72328466 -0.010232955 -0.19193934 0.10427439
000300 39 71 9d 3e bb bc 96 3c ba f3 64 3f d5 f2 03 bd
       0.30750445 0.01840054 0.894344 -0.032214005
000310 50 fd bd bc b8 83 4b 3e 3e 5c ad bc 31 50 a7 3c
       -0.023192078 0.19874465 -0.021162149 0.02042398
000320 ad c2 cc 3c 03 4a ac bc 91 85 9b bc a3 5e 80 3c
       0.024995172 -0.021031385 -0.018984588 0.015670126
000330 2a a1 78 bf 16 27 be be 41 c7 52 3f 2b a0 44 be
       -0.97120917 -0.37139195 0.8233529 -0.19201724
000340 23 bd cb 3e 91 39 30 be ea 80 8a 3e 34 8b a4 be
       0.39792737 -0.1720946 0.2705148 -0.32137454
000350 80 59 79 3f 3f ad 96 be aa e7 09 bf 5c 5e 35 bd
       0.9740219 -0.2942905 -0.53869116 -0.04427944
000360 0e e9 4e be 30 cc 01 3f 19 3c 64 bf cf f2 0a 3f
       -0.20206091 0.5070219 -0.891542 0.54276747
000370 be d7 7c 3e a2 88 9f be 5d 39 a1 bf c7 29 09 bf
       0.24691674 -0.3115893 -1.2595631 -0.5357937
000380 d9 45 14 be 84 1b a4 3e 5f e7 69 3b 82 56 9d 3e
       -0.1447977 0.32052243 0.0035690886 0.30730063
000390 43 30 22 3f 03 e5 96 bf a0 4f ae bf d1 f0 38 bf
       0.6335489 -1.1788639 -1.361805 -0.72242457
0003a0 45 dd 31 be 21 3c bb 3e 15 16 46 3e 9a 60 f2 be
       -0.17369564 0.36569312 0.19344361 -0.47339326
0003b0 5d 2a 43 bf 92 52 02 3f 28 3b 70 3e fa 4a 7c be
       -0.76236516 0.5090724 0.23460066 -0.24637976
0003c0 93 0a 90 3d e9 91 ab bd 57 7f 93 bd ca 8c 3f 3f
       0.07033267 -0.083774395 -0.072020225 0.748242
0003d0 31 57 24 bd ad 1a 20 3e 77 95 f7 be 79 6a 75 3e
       -0.040122215 0.15635176 -0.4835622 0.23966397
0003e0 b3 5f a0 be f5 76 7b 3d bd 50 21 be c4 90 8b be
       -0.31323013 0.061392743 -0.15753455 -0.27258885
0003f0 49 8e 1d bc d1 34 42 bf a5 ea c9 3d 60 c3 13 bf
       -0.009616443 -0.7586184 0.09859208 -0.57719994

module.0.bias f4 [60]
000000 98 7c b7 3e 6f 92 e9 be 9b e9 c9 be d1 ef 51 3e
       0.35837245 -0.45619532 -0.3943604 0.20501639
000010 a7 78 09 bf ed aa ac be b3 7b c8 be 77 cf d0 3e
       -0.53699726 -0.33724156 -0.39156875 0.40783283
000020 91 34 05 3f 35 d3 85 3d 39 76 d4 3e 88 31 96 3e
       0.52033335 0.06534425 0.41496447 0.29334664
000030 f2 ea 04 bf 69 ee f8 3e 22 33 a1 3e 37 0d a8 3e
       -0.51921 0.48619393 0.31484324 0.32822582
000040 6a 58 c0 3e 67 4b 46 3e ff 37 48 3d fc 56 6e be
       0.37567455 0.19364701 0.048881527 -0.2327537
000050 3b 0d cd be ff 50 d1 3e 46 c7 b3 3e 37 37 4d 3e
       -0.40049157 0.40882108 0.3511297 0.20040594
000060 6e b3 f5 be b9 ec 81 3d ed 42 2d bc a1 2c b1 3d
       -0.47988456 0.063439794 -0.010575038 0.086510904
000070 43 8c 26 be e7 8c 54 3e c1 1f 08 3e 26 6a 85 3d
       -0.16264443 0.20756875 0.13293363 0.06514387
000080 c1 d5 88 3d fd e4 91 bc 53 c0 bf be 93 36 3a be
       0.06681395 -0.017809385 -0.3745142 -0.18184881
000090 da 10 99 3e 59 67 89 be 36 7f 16 bf 42 3c b8 3e
       0.2989567 -0.2683666 -0.5878786 0.35983473
0000a0 08 73 92 3e 29 ee 76 3e e4 c1 70 3d 1f 77 ad bd
       0.28603387 0.24114288 0.05877866 -0.08469986
0000b0 e2 7a 9c 3e 4a 8f 16 bf ea 96 b6 be f9 c7 09 3f
       0.30562502 -0.5881239 -0.35662013 0.5382076
0000c0 a7 b9 d2 be c2 42 3f be 04 03 52 3e 2b 24 bb bc
       -0.41157266 -0.1867781 0.20508963 -0.022844395
0000d0 51 bc 20 3e f2 f4 f4 3b 15 54 18 bf e2 7e 47 be
       0.15696837 0.007475489 -0.595033 -0.19481996
0000e0 5f 12 80 bf cc 24 57 3e 8d cf db bd f6 87 2e be
       -1.0005606 0.2101013 -0.107329465 -0.17044052

module.2.weight f4 [60, 60]
000000 f0 c4 f3 3d 4b 27 ae be a8 8a 29 3e 61 9e 07 be
       0.11902797 -0.34014353 0.165568 -0.1324401
000010 3c 64 0f bd 61 ce 7a 3d 38 64 45 bd e2 f7 fc 3d
       -0.0350077 0.061231975 -0.04819128 0.123519674
000020 85 5a ac be 82 ec 81 3e d8 a2 1a be 23 05 cd bd
       -0.3366281 0.25375754 -0.15101182 -0.100107454
000030 c6 39 c2 bc 8c 4c 41 be 31 a5 d8 3c 28 a2 5c be
       -0.02370919 -0.18876857 0.026445957 -0.21546233
000040 d0 2d 0d be 81 ca 94 be 17 eb 89 bc e1 64 ac 3d
       -0.13787007 -0.29060748 -0.016835732 0.084176786
000050 c3 91 c2 bd 2b 48 14 be 2f da 4a 3d 9b c7 91 bd
       -0.09500458 -0.14480655 0.049524482 -0.0711815
000060 96 f0 4c 3e 6d b6 22 be 19 23 04 be b3 f0 82 3d
       0.20013651 -0.15889902 -0.12904014 0.06393566
000070 72 1c 69 be 58 c1 7b 3e a0 4e 48 3e c8 f5 f6 bd
       -0.22764757 0.24585474 0.19561243 -0.12058598
000080 94 e7 57 3e 15 1d 60 be 66 4f 84 bd 49 55 fd 3c
       0.21084434 -0.21886094 -0.064604566 0.030924456
000090 f9 d8 f5 3c a0 97 3e 3e 11 cc a5 bd cc 93 3d bd
       0.030010687 0.18612528 -0.08095563 -0.04628353
0000a0 f2 40 29 3e a6 4d b7 bd 1d a2 1a be 5d 74 ad bc
       0.16528681 -0.08950357 -0.15100904 -0.02117365
0000b0 ae 57 c4 be ce 95 99 bb dd 46 fe 3d 6d 98 f7 bb
       -0.38348144 -0.0046870476 0.1241586 -0.0075560124
0000c0 00 aa 14 3f a2 7c 84 3e e9 8f 92 be 7b 24 8c bd
       0.580719 0.25876337 -0.2862542 -0.068428956
0000d0 39 b0 b2 3e c9 9f f7 bd ce c1 a7 3c 51 4c 0a be
       0.34900072 -0.120910235 0.020478155 -0.13505675
0000e0 31 d3 d7 3d 04 e1 ef be 5c da b0 bd 79 28 9f 3e
       0.105383284 -0.4685136 -0.08635399 0.31085566
0000f0 1b c2 85 3d 07 81 16 be 80 2a cd bc 0b 86 a8 3d
       0.06531163 -0.14697658 -0.02504468 0.08228692
000100 e6 15 91 3d 69 e8 12 be 7a 30 2b be 4f 26 9f 3d
       0.07084255 -0.1434647 -0.16717711 0.07770979
000110 a2 c3 d9 bd 4f 41 8a bd e6 56 d3 bd 54 24 55 3d
       -0.10633017 -0.06750738 -0.10319309 0.0520366
000120 12 14 e1 bc aa 4d 24 3d 05 75 80 bd 2c e0 c5 3d
       -0.02747539 0.04011313 -0.0627232 0.09661898
000130 9e bc 40 bd 1f 7c a1 3d b2 2a c4 3d 6e 91 ab 3b
       -0.04705488 0.07885002 0.09578456 0.0052358424
000140 a3 e0 70 3c 05 b9 5a 3b ea df 2f bd 47 26 96 3d
       0.014701995 0.003337444 -0.04293815 0.073315196
000150 26 16 ad 3d 2b 01 3a bd 1d ed 92 3c 25 3c 8e bd
       0.0845149 -0.04541127 0.01793533 -0.069450654
000160 f6 46 3a bc 8e 09 41 bd e3 eb 89 3d 2f 48 c2 bd
       -0.0113694575 -0.047128253 0.06734445 -0.09486424
000170 13 bf 9f bc 37 37 e2 3d 96 c0 84 3d 6d f5 e5 3d
       -0.019500291 0.11045688 0.06482045 0.11228452
000180 ca a3 a3 bd 98 29 ad bb 99 1b 41 bd ee bb fe 3d
       -0.07990225 -0.0052844994 -0.04714546 0.124381885
000190 26 19 ba bd d7 38 59 3d c9 7b ae bd 8f 48 3c 3e
       -0.09086828 0.053032722 -0.08519704 0.18387054
0001a0 65 cf 7d bd a1 35 1b ba 3e e9 45 bd 9e ae 4a 3d
       -0.061965365 -0.0005920772 -0.04831814 0.049482934
0001b0 ff e3 76 bd e4 ee 01 3c 0c b6 98 3d ce 6d 43 be
       -0.060276028 0.007930491 0.07456598 -0.19084856
0001c0 10 61 53 3c 2d fe a5 3d 4b 5c 54 bc 8a f5 45 bc
       0.0129015595 0.08105121 -0.0129614575 -0.012082467
0001d0 6e da 06 3d ec 06 02 3e 06 90 f5 3d 42 98 85 bd
       0.032923155 0.12697953 0.11990361 -0.065231815
0001e0 32 c5 c8 be f0 b9 4b 3f 6a 81 11 3e 75 06 a7 3c
       -0.39212948 0.79580593 0.14209524 0.020388821
0001f0 08 61 df 3e 4b 84 5c 3e bb 96 85 3f 73 02 8f be
       0.43628716 0.21534841 1.0436624 -0.27931556
000200 7b 3e 08 bf 81 a7 41 bf ab f3 b6 be 91 a2 e8 3d
       -0.5322034 -0.75646216 -0.3573278 0.11359132
000210 36 13 08 3f 4c e6 4b be 31 54 dd be 1d 13 b7 3d
       0.53154314 -0.1991207 -0.43228295 0.089391924
000220 36 ca 1e bf d7 c7 9b 3e 74 91 a3 3d e4 2d c8 be
       -0.620273 0.30425903 0.07986727 -0.39097512
000230 db 4d 12 3f cf e4 35 bf 0f bc c6 be db d7 19 3f
       0.5715005 -0.7105226 -0.38815352 0.60094994
000240 02 59 58 3e 9b 08 05 bf 33 4b 5d bf 28 b9 00 bf
       0.21127704 -0.51966256 -0.8644287 -0.50282526
000250 22 84 f9 3d 6b 27 47 be 22 26 7d bf 31 d3 49 3e
       0.121834055 -0.1944863 -0.9888631 0.1970947
000260 85 59 27 3e e7 e0 9e bc 74 bf 15 3d e9 34 5b 3f
       0.16342743 -0.019394351 0.036559537 0.8562761
000270 94 d1 80 bf 1d 82 07 bf e6 b1 80 3e 9f d2 e8 be
       -1.0063958 -0.5293291 0.25135726 -0.4547319
000280 8f fb 04 bf c4 95 21 bf af 6f d6 bd d8 8f fe be
       -0.5194635 -0.6311915 -0.10470521 -0.4971912
000290 08 6f 88 3d f7 3a c3 be ad 3b 80 3e ec 94 21 be
       0.066618025 -0.38130924 0.2504553 -0.15779465
0002a0 1f d1 31 be 21 d4 6d be de 28 02 bf 83 3f be 3e
       -0.1736493 -0.23225452 -0.5084361 0.3715783
0002b0 ff b0 74 bf 67 33 9d bd 89 fa 43 be 67 5a 99 be
       -0.95582575 -0.0767582 -0.1913854 -0.29951784
0002c0 4a a3 b9 3e 2c 84 b5 3d 52 d9 90 3d 35 52 57 be
       0.36257392 0.088631004 0.070727006 -0.21027453
0002d0 6a c6 14 be 5c f0 29 be 6a e3 a3 bd 72 3e b8 be
       -0.14528814 -0.16595596 -0.0800236 -0.35985142
0002e0 65 91 00 be 5d cd 95 3d 89 35 df bd ff 78 ad bc
       -0.12555464 0.073145606 -0.10898883 -0.02117586
0002f0 15 28 ee 3d 3b 2b 17 3d cb b5 f7 3d 7e 1b 51 be
       0.11628739 0.036906462 0.12095221 -0.20420644
000300 ef f0 d2 bc 99 f1 b1 be 19 8c 07 3e 05 7e 9e be
       -0.025749652 -0.34754637 0.13237037 -0.3095552
000310 98 6a ad 3c f0 12 05 bf af e0 8c 3d 91 be 8a 3e
       0.021168992 -0.5198202 0.068787925 0.27098516
000320 e2 57 42 3e fd a2 2d be af 2e 11 bd 22 79 3a be
       0.18978837 -0.16956706 -0.03544491 -0.18210271
000330 35 08 01 3e 43 2f 48 3e 77 b5 4d 3e 8b 1e cb 3e
       0.12600787 0.19549279 0.20088755 0.3967174
000340 d7 89 d4 bd 39 39 51 bd 53 b2 ae 3e 57 b8 a9 bc
       -0.10377853 -0.051079962 0.34120426 -0.020717783
000350 84 af b2 3d 4d 16 af bd 5f 8a 8c 3d 8f 6c c5 be
       0.08724883 -0.085491754 0.0686233 -0.38559386
000360 f1 fe 82 3e 30 0d f9 3e aa 66 7f 3c eb 80 40 3c
       0.2558513 0.48642874 0.015588442 0.011749486
000370 00 47 a5 3d 81 0a 4c bd 4b de 4f 3d ab 46 7d 3d
       0.08070183 -0.049814705 0.050749104 0.061834972
000380 ba d4 de be 34 af 77 3e c3 bc 08 be 6d 77 1b be
       -0.43521672 0.24187928 -0.13353257 -0.15182276
000390 8d 55 93 3e f2 52 82 3e c5 fc e8 3b 45 b6 6a be
       0.28776208 0.25453907 0.0071102106 -0.22921093
0003a0 49 d4 49 3e d9 9f cf 3d e4 6e 8a 3d 31 45 d6 bd
       0.19709887 0.101379104 0.06759432 -0.10462416
0003b0 4c 0e 39 bc 8a 08 5b bf 65 00 0c bd fc 3d e7 3e
       -0.011294913 -0.85559905 -0.034180064 0.45164478
0003c0 7b 11 16 bf 86 f9 e6 be 8f fe 24 bf 8e d0 e2 be
       -0.58620423 -0.45112246 -0.64450926 -0.4429974
0003d0 1f bc 2e 3e a0 b1 aa 3e 62 bb 6d 3e 7b 6e 90 be
       0.1706395 0.33338642 0.23216012 -0.2820929
0003e0 b2 cf e8 3c ca 74 fd 3d af b3 05 3d ff 4a 6c be
       0.02841935 0.12375791 0.032642063 -0.23075484
0003f0 db 48 d5 be b8 97 7b be 57 28 b0 be 4b 5e b6 be
       -0.41657147 -0.24569595 -0.34405777 -0.35618815

module.2.bias f4 [60]
000000 1f 14 2c be e8 ec 01 be 4e eb eb be ad 45 93 be
       -0.1680455 -0.12688029 -0.4607796 -0.28764096
000010 e3 96 4d be 6b e0 2d 3e 9e 31 d5 be 4c d6 84 3d
       -0.2007709 0.1698014 -0.41639417 0.064861864
000020 82 09 67 3e c5 83 e2 be 77 a5 9f be e8 c8 af be
       0.2256222 -0.44241157 -0.31180927 -0.34332967
000030 5d a0 fa 3c 7f 0b e0 3d 34 20 1e 3e 16 a1 b4 be
       0.030594045 0.10939693 0.15441972 -0.3527915
000040 cf 35 68 bd 66 0e 11 3e 8c 0b b0 3d a1 55 28 3e
       -0.05669194 0.14165649 0.085959524 0.16438915
000050 ec 7d 6e bf 96 90 96 be 20 d1 c6 be 31 0b da bc
       -0.9316089 -0.29407185 -0.38831425 -0.026616665
000060 2d 9e 12 be 9d 3e 5e be b0 07 86 be 39 dc 98 3d
       -0.14318152 -0.21703573 -0.2617774 0.07463879
000070 85 c4 41 be 7c 3e 28 be 9d 69 08 bf 49 1f c9 3e
       -0.18922623 -0.16430086 -0.53286153 0.3928168
000080 78 c0 db 3c 2c f8 d5 bd 89 5f e5 be e0 b3 d1 be
       0.026825175 -0.10447726 -0.4479945 -0.40957546
000090 af af ff bd cb 7f 71 bc 64 3b 4c be bc 4e fd 3d
       -0.12484681 -0.014739941 -0.1994453 0.12368533
0000a0 f4 ff e0 3d b3 4f e3 be bf 0c b2 3d bc 07 d6 bd
       0.10986319 -0.44396743 0.086938374 -0.10450694
0000b0 ee d7 a4 be 47 66 af bd 46 4c 93 3d c9 8b e4 be
       -0.3219599 -0.0856443 0.071922824 -0.44637898
0000c0 00 db ab be 06 dc 9b be 18 0a ac be 81 b7 5e be
       -0.3356552 -0.30441302 -0.3360145 -0.21749689
0000d0 8b 8d de bc 12 04 ed bc c3 a0 9b bb 89 b3 dc be
       -0.027167102 -0.028932605 -0.004749389 -0.43105724
0000e0 e2 44 72 3e 46 d6 20 be 43 40 fd 3d c8 f4 80 bc
       0.23659089 -0.15706739 0.123657726 -0.01574172

module.4.weight f4 [6, 60]
000000 85 57 94 3d 90 22 c2 ba 7b 8f 20 be 40 26 02 3c
       0.072432555 -0.0014811326 -0.15679733 0.00794369
000010 32 03 9c be 35 c0 dc bd 17 1e b1 3e 26 7f c8 bc
       -0.30471188 -0.10778848 0.3459327 -0.024474692
000020 15 81 3c be 62 f3 98 be 44 d0 ee 3d ba 4c 7a 3e
       -0.18408616 -0.29873186 0.11660817 0.24443331
000030 f0 5c 72 b9 66 31 33 bb 6f 73 0c 3e 8d d9 6e bc
       -0.0002311354 -0.0027342676 0.1371591 -0.014578235
000040 f3 09 00 3b d6 19 16 3e c5 06 61 3e 9e 16 55 bd
       0.001953718 0.14658293 0.21975239 -0.052023523
000050 88 dc 8f 3e d2 98 74 bd df dc fb 3d 4e ce cb bd
       0.2809794 -0.059716053 0.12297987 -0.09951459
000060 8f 6d 9b 3e a6 09 ce bd c1 6c 1d 3e 49 95 0e 3e
       0.30357024 -0.10060434 0.15373518 0.13924135
000070 bc 16 8a 3d 2e fc 2d be 8a 8a 9f bd 13 c4 74 be
       0.067426175 -0.1699073 -0.07790096 -0.23902921
000080 93 df 8f ba 53 11 d2 bb b7 82 0d be 9f 09 50 bd
       -0.0010976664 -0.0064107566 -0.13819395 -0.050790425
000090 ef c0 83 3d 34 7a e1 3b e1 ea 58 bd 48 d1 f1 bc
       0.064332835 0.006881023 -0.052958373 -0.029518738
0000a0 ac c5 ba bd df 5e e5 3d 44 20 bf 3c be 0e bf 3d
       -0.09119734 0.11199736 0.023330815 0.09328984
0000b0 18 5a 10 be f7 36 2f bc 9d e9 e8 bd d1 05 c6 bd
       -0.14096868 -0.010694257 -0.11372683 -0.09669078
0000c0 2d a2 21 bf 4e d9 6d 3e f0 a8 af 3d 2f 25 a5 3c
       -0.63138086 0.23227426 0.08577144 0.020159332
0000d0 d1 e3 40 3e fe d5 83 be 59 a2 bc ba ef 9b 08 be
       0.18836905 -0.257492 -0.0014391645 -0.13340734
0000e0 67 f9 ad bc 7c c6 5f bb 3d e0 2b bc 60 b1 b9 3a
       -0.021237088 -0.0034145406 -0.010490474 0.0014167242
0000f0 ce f8 0c 3e 33 29 79 bb 83 d1 08 3e e3 31 24 be
       0.13766786 -0.0038018941 0.13361172 -0.16034655
000100 1e 8a 1b bd ff d3 1b 3d 97 36 48 be b8 a5 b5 bd
       -0.037973516 0.038043972 -0.19552074 -0.08869499
000110 8e 50 59 3d 4d cd 91 bd 5b 16 48 3e 74 5f 8e bd
       0.05305534 -0.07119236 0.19539778 -0.069518
000120 83 e3 8b 3c 74 9b 9e 3b f0 f1 ea bc d9 78 64 3e
       0.01707626 0.004840309 -0.028679818 0.22311725
000130 a1 4a b8 3c d7 2f 8c be 02 04 c6 bc fb 86 84 3d
       0.022496523 -0.2738025 -0.024171833 0.06471058
000140 2a 33 e6 bd c4 91 d6 bd 52 1a e0 bc f8 5f 38 be
       -0.112402275 -0.10477021 -0.0273563 -0.18005359
000150 66 a6 cd 3b 6a 45 46 be 77 00 07 3d ab 29 e7 bd
       0.0062759398 -0.19362417 0.032959428 -0.112872444
000160 86 87 5d bd 3d b3 03 3e 07 2e 42 3c 30 c9 8e 3c
       -0.054084323 0.12861343 0.011851794 0.017429918
000170 77 f3 a1 bb b3 a1 3e bb 7e ed 31 3e 10 5f 68 bd
       -0.0049423533 -0.002908808 0.17375752 -0.056731284
000180 6f c8 70 3d 2a 68 80 bd 94 9c 08 3d db e8 01 3d
       0.0587849 -0.06269868 0.03335245 0.03171621
000190 16 e7 58 bd 7b 35 2c bd 52 0e ba bb a1 0b f1 bb
       -0.052954756 -0.04204319 -0.0056779766 -0.0073561226
0001a0 82 53 86 3c a7 68 0f be bb 1e 3b be 27 90 b6 3c
       0.016397242 -0.14004765 -0.18273441 0.022285534
0001b0 77 6b 58 bd 7d 8f bd bd b8 dc 81 3e 83 c1 85 bd
       -0.05283686 -0.09255884 0.25363708 -0.0653105
0001c0 51 7d 07 bd d9 5a 82 3d a3 47 8d 3c 06 1b 13 3e
       -0.033078495 0.06364984 0.017246073 0.14365777
0001d0 8e 7c b8 bc 41 ae 07 bd d0 46 7a 3c 08 ba eb bc
       -0.02252033 -0.033125166 0.015275672 -0.02877523
0001e0 89 09 74 bc 30 bb 6d ba d6 8b 73 bc 29 04 95 3d
       -0.0148948515 -0.00090687256 -0.014864882 0.07276184
0001f0 21 b1 81 bc b3 92 33 bb fe f0 f3 bd bd 60 03 bf
       -0.015831532 -0.0027400672 -0.119112 -0.51319486
000200 7f a2 bc bd 7e d9 34 3f f8 48 5d 3c b1 05 73 3e
       -0.09210681 0.70644367 0.013506167 0.2373264
000210 3a c5 dc b9 08 2a 54 3b 58 79 03 bf 0e 1f 0e 3e
       -0.00042108615 0.0032373685 -0.5135703 0.13879034
000220 a0 68 50 37 7b 0e 22 bd 88 1f a0 3e f7 bb 2c bf
       1.2422126e-05 -0.03956459 0.31274056 -0.6747431
000230 8c 97 10 3f e9 91 05 3f 14 7c 6a 3e f6 06 de bc
       0.5648124 0.52175766 0.22898895 -0.027102929
000240 e2 8d ad 3e f6 a3 84 bd 01 88 2f 3e d7 11 4e 3c
       0.3389731 -0.064765856 0.17141725 0.012577496
000250 64 97 8c 3e 40 a2 6d be 57 bd 84 3e f6 f0 92 bd
       0.27459252 -0.23206425 0.25925705 -0.07174866
000260 0e 98 9f 3a 0f 5a 61 bb 8a 80 06 3e 59 9c a4 3e
       0.0012176053 -0.0034385954 0.13134971 0.32150534
000270 4b 73 0b be 8b fc ed 3b 58 af 31 3f dd 9b bb bd
       -0.136182 0.0072627715 0.6940818 -0.09160588
000280 85 52 92 bd 45 9f 99 3e 34 72 fd be 3e 5a 3c be
       -0.071446456 0.30004326 -0.49501193 -0.183938
000290 fe cb bc 3d ea c7 0d 3f 03 94 62 be c5 0b 64 3e
       0.09218596 0.5538317 -0.22126774 0.22270115
0002a0 f3 bf a0 be bb e1 81 3e b1 88 76 3f c3 6c e9 3e
       -0.31396446 0.2536753 0.96302325 0.4559079
0002b0 43 c3 fa be 09 a2 fd bd e4 4e 3d b9 5c c8 b1 3d
       -0.48977098 -0.123844214 -0.00018053834 0.08680794
0002c0 48 f1 c9 3d f8 0e 88 bb 9f 34 7e bb f9 02 3e ba
       0.09860474 -0.004152175 -0.0038788689 -0.0007248368
0002d0 b3 49 13 3e 54 df 96 bb ab d1 03 3f 22 1f fa 3d
       0.14383583 -0.0046042595 0.514918 0.12212969
0002e0 d8 05 01 3f d2 7b 14 3c 78 f2 ea 3d 33 8a 58 3d
       0.5039954 0.009062724 0.114720285 0.052866172
0002f0 ca be d9 bb 4a 1b d2 bd 97 93 6f be e9 a0 81 3e
       -0.0066450583 -0.10259111 -0.23396145 0.25318077
000300 9b 34 8b 3b 4d d7 37 3b 7a a5 8b bc e4 37 19 3e
       0.0042482144 0.0028051913 -0.017046679 0.14962727
000310 dd 9e 0a 3c 28 35 66 3d 62 83 64 be a7 7f 90 3d
       0.0084607275 0.056203038 -0.22315744 0.07055598
000320 6f f8 9e 3e 2f 42 0d 3e 70 9e c6 3d 75 71 1e 3d
       0.31048915 0.13794778 0.09698188 0.03868242
000330 71 12 37 bd 5b 3e a4 3e e1 24 0c 3e 62 bb c0 ba
       -0.04469532 0.32078823 0.13685943 -0.0014704282
000340 1f 1d 98 3b dc 37 b3 be 31 e0 21 bd f4 32 84 bf
       0.0046421434 -0.35003555 -0.039520446 -1.032805
000350 6b 0a 67 3b 11 c4 db 39 0a c9 a4 bd c1 af 64 3e
       0.0035254012 0.00041917016 -0.08046158 0.2233267
000360 8e b6 73 3e e8 63 ab 3b 67 18 31 3e f7 b4 1c bc
       0.23800108 0.0052304156 0.17294465 -0.00956463
000370 a9 e6 ab bd dd 12 dc 3d 7f cf 0b bd 27 51 43 bd
       -0.08393604 0.107457854 -0.03413343 -0.047684815
000380 25 47 72 be 34 44 f7 3c 21 49 73 bd 0e 0d 86 3e
       -0.23659952 0.030183889 -0.059395913 0.26181835
000390 8d 46 84 be 06 ac f5 bd 86 94 26 3e af 39 ff 3d
       -0.25835076 -0.119957015 0.16267595 0.12462174
0003a0 da 88 6d bd 2e c4 28 be 67 5b 1e ba a9 16 78 3e
       -0.05799184 -0.16481087 -0.00060408417 0.24227394
0003b0 ec cf 6f be f6 80 b8 ba 37 e8 d2 3b e9 fb f9 bb
       -0.2341916 -0.0014076519 0.0064363736 -0.007628907
0003c0 03 33 4b bd 17 39 98 b9 b2 49 34 be 91 96 ac 3c
       -0.049609195 -0.00029034234 -0.17606238 0.02106789
0003d0 f6 c6 3d bd d0 70 ce bc d0 21 86 be 93 87 74 be
       -0.046332322 -0.025200278 -0.26197672 -0.23879842
0003e0 63 51 74 3e f6 57 1c 3d df a8 72 bc e1 0e 22 3c
       0.23859172 0.038169824 -0.01481077 0.009891243
0003f0 b7 13 1e bb ab db 1e ba 51 4e 9d be 1b e3 86 3d
       -0.0024120638 -0.0006059955 -0.30723813 0.06586286

module.4.bias f4 [6]
000000 1b cf 11 be ac 97 fb 3c d1 3c cd be d6 22 d7 be
       -0.1423916 0.030711971 -0.40085462 -0.42018765
000010 c2 69 3e 3e f2 9e 88 3e
       0.18595031 0.26683766

module.6.weight f4 [1, 6]
000000 e1 cc 2f bc f2 83 3e 3a 1e 43 3c bd b0 1f 80 be
       -0.010729999 0.0007267586 -0.045962445 -0.25024176
000010 be d6 86 3d 29 aa eb 3c
       0.065839276 0.028767662

exp_avg f4 [60, 6]
000000 6d 7b 36 35 45 12 93 34 53 9e ce 32 a9 6b 84 34
       6.797989e-07 2.7394177e-07 2.4053554e-08 2.466525e-07
000010 d3 9d ba b4 ab 3e 61 b4 f9 ca 64 35 12 5c 57 36
       -3.4760032e-07 -2.0977556e-07 8.5231983e-07 3.2091089e-06
000020 88 28 1e 35 b0 07 e7 35 5c 3c d9 b4 55 a7 df 35
       5.891857e-07 1.7213079e-06 -4.0463317e-07 1.6663495e-06
000030 74 70 65 b4 23 84 98 b4 c9 e0 ea b4 92 59 2d b5
       -2.1368197e-07 -2.8408348e-07 -4.374945e-07 -6.4577864e-07
000040 98 98 ea b4 b5 c4 5c 34 f1 8e 1e 37 41 3e 1e 36
       -4.3696923e-07 2.0560658e-07 9.450815e-06 2.3580071e-06
000050 30 98 0d b7 c6 fb 53 b7 39 34 e4 b6 b9 46 a3 b3
       -8.439689e-06 -1.2635201e-05 -6.801009e-06 -7.6031434e-08
000060 aa 17 05 b6 9a 66 73 34 cc 11 c1 35 6f bb 0b 36
       -1.9832319e-06 2.2668465e-07 1.43848e-06 2.0821715e-06
000070 14 d7 66 35 5c 64 a0 35 44 ef e4 b4 19 8b 5e 34
       8.5994657e-07 1.1950137e-06 -4.2642398e-07 2.0725965e-07
000080 53 35 33 35 10 dd 87 35 dd 73 91 35 09 1d 8f 35
       6.6760293e-07 1.0122621e-06 1.0837063e-06 1.0662781e-06
000090 87 02 99 b4 e4 d3 11 34 6b 43 42 b5 66 b4 ae b5
       -2.850031e-07 1.3581263e-07 -7.236874e-07 -1.3016513e-06
0000a0 30 c5 bb 33 a0 02 8b 35 b4 cf 51 36 03 52 39 b5
       8.743734e-08 1.0357071e-06 3.1264326e-06 -6.9037213e-07
0000b0 17 48 3b b6 fa e6 98 b6 c7 9c 08 b6 9d 6e 05 b6
       -2.7907133e-06 -4.556842e-06 -2.0356836e-06 -1.988293e-06
0000c0 21 1f 50 36 4d 0f 56 b5 76 5e 23 b6 62 dd 7b b6
       3.1012535e-06 -7.974348e-07 -2.4343876e-06 -3.7530776e-06
0000d0 06 98 0c b6 ec d6 19 b6 7f c3 04 b6 9a cb 14 b6
       -2.0950115e-06 -2.2923878e-06 -1.9783326e-06 -2.217223e-06
0000e0 7e d2 0c 36 f1 a2 34 36 db 42 11 36 df 07 35 b6
       2.0984148e-06 2.6916935e-06 2.1645599e-06 -2.6975683e-06
0000f0 44 d0 14 36 76 0b 04 b6 e6 c2 01 b6 2b 18 5a b6
       2.2174945e-06 -1.9676204e-06 -1.9335944e-06 -3.24986e-06
000100 ca 7d 93 b5 4a 60 54 b6 86 d5 75 36 14 e0 16 36
       -1.0988963e-06 -3.164651e-06 3.6632132e-06 2.2482172e-06
000110 f9 57 27 b6 cb 55 33 b6 63 93 62 b6 1d 01 24 36
       -2.4936146e-06 -2.6723017e-06 -3.3762415e-06 2.4438552e-06
000120 49 67 9b b6 58 ea 3d b5 d8 3f 60 36 89 4d 9c 36
       -4.631384e-06 -7.0749e-07 3.3415763e-06 4.6581886e-06
000130 36 82 32 36 64 48 2d 35 13 c6 0c 37 36 03 55 36
       2.659986e-06 6.4552864e-07 8.390768e-06 3.1741342e-06
000140 89 85 e6 b6 d6 6a 25 b7 c2 79 d2 b6 33 2c 7f 35
       -6.8700797e-06 -9.859641e-06 -6.272662e-06 9.505922e-07
000150 5f cb ba 35 30 3a ad b4 33 c9 79 b5 fe 96 d1 b5
       1.3917269e-06 -3.2266098e-07 -9.305251e-07 -1.5615658e-06
000160 72 c5 83 b5 dd 9d a5 b5 77 d5 77 36 9c 00 20 36
       -9.817725e-07 -1.2339402e-06 3.693012e-06 2.3842213e-06
000170 85 1e 41 b6 ef de 7a b6 d1 d5 72 b6 51 d5 06 36
       -2.8777006e-06 -3.7382667e-06 -3.6185268e-06 2.0091722e-06
000180 80 89 26 36 ae 70 88 35 c9 7a bd b5 3d d4 02 b6
       2.4815963e-06 1.0165584e-06 -1.4117333e-06 -1.9495048e-06
000190 0a 38 cf b5 e9 3e dc b4 dc 45 65 37 37 8c 04 37
       -1.5439011e-06 -4.1023966e-07 1.3665729e-05 7.900459e-06
0001a0 67 09 2a b7 16 cf 60 b7 63 e8 25 b7 a6 5e 80 36
       -1.0134979e-05 -1.3399656e-05 -9.888873e-06 3.825716e-06
0001b0 71 c7 13 b4 1e c3 ae b3 9b 51 c8 32 6f 77 81 b2
       -1.3762998e-07 -8.137998e-08 2.3320174e-08 -1.5071889e-08
0001c0 cd 7b 71 33 a9 72 a5 32 75 a3 1b b7 5a 8e 94 b6
       5.622478e-08 1.926067e-08 -9.276778e-06 -4.4273156e-06
0001d0 90 72 00 37 2b 1f 38 37 d9 10 07 37 d8 06 2b b6
       7.656068e-06 1.09745115e-05 8.05055e-06 -2.548497e-06
0001e0 51 5e 12 34 2a 0d 34 35 63 81 dc b4 13 4a 92 b4
       1.3631622e-07 6.707438e-07 -4.1072335e-07 -2.7248515e-07
0001f0 f6 6c 9a 31 f2 94 05 36 49 26 a6 b4 e1 4f d0 b5
       4.4943773e-09 1.9905242e-06 -3.0947766e-07 -1.5520455e-06
000200 1f 15 22 34 1c b8 74 b4 c7 b2 cc 34 20 75 27 b6
       1.509511e-07 -2.279125e-07 3.812804e-07 -2.4953115e-06
000210 42 45 10 36 8c 00 90 b5 a9 56 dd b5 18 68 38 b6
       2.1497985e-06 -1.0728995e-06 -1.6491005e-06 -2.7478727e-06
000220 db 00 c8 b5 8a fc 40 b6 12 23 c0 36 92 cd 4f 36
       -1.490141e-06 -2.8757227e-06 5.7261286e-06 3.0965061e-06
000230 31 3f c7 b6 2d 97 15 b7 8b b5 b4 b6 b4 ee 95 35
       -5.9380186e-06 -8.91629e-06 -5.3855524e-06 1.1170837e-06
000240 54 04 bf b6 bb cd 22 b6 98 03 8e 36 2c 03 b8 36
       -5.6927474e-06 -2.4259632e-06 4.232348e-06 5.4839966e-06
000250 15 a0 95 36 0a 45 b4 b4 1f 36 26 34 3a 4c 8c 34
       4.459182e-06 -3.3577845e-07 1.5479644e-07 2.6132494e-07
000260 de 40 80 34 67 0d f6 34 3e c1 96 34 7a 17 eb 34
       2.3889055e-07 4.5830822e-07 2.808028e-07 4.3789242e-07
000270 5f 25 8d b6 13 1c 03 b6 17 ee 92 36 bc 3f d9 36
       -4.206478e-06 -1.9536863e-06 4.3788564e-06 6.4745236e-06
000280 83 1b 8f 36 d8 7e 9d b5 87 45 84 b6 1d 56 b0 b6
       4.264935e-06 -1.1734328e-06 -3.9420006e-06 -5.2552336e-06
000290 7f ba 6e 36 cc 99 90 36 d0 38 90 36 57 69 b6 b6
       3.5573319e-06 4.3094387e-06 4.2981483e-06 -5.436286e-06
0002a0 0d b6 55 34 e7 69 85 35 4c 1c 3a b4 21 81 d7 33
       1.99034e-07 9.940094e-07 -1.7332894e-07 1.0035206e-07
0002b0 7f a9 58 b5 76 01 b4 35 68 e4 3b 36 00 18 c9 b5
       -8.071292e-07 1.341147e-06 2.7998121e-06 -1.4982652e-06
0002c0 81 b4 34 b6 93 de 95 b6 4b 45 e0 b5 58 ff 3f b6
       -2.6927157e-06 -4.466457e-06 -1.6709467e-06 -2.8609848e-06
0002d0 f0 de e8 b6 93 b7 8f b6 20 3e fd 36 fb 84 37 37
       -6.940092e-06 -4.283103e-06 7.54722e-06 1.0938612e-05
0002e0 ef f4 eb 36 cd f3 86 b6 02 bc d3 35 64 ad e8 35
       7.03206e-06 -4.0218933e-06 1.5775443e-06 1.733581e-06
0002f0 33 de 51 b5 ea b4 79 b5 33 bc 8a b5 92 c4 8c 35
       -7.818191e-07 -9.3022993e-07 -1.0336574e-06 1.0488022e-06
000300 3f 19 ed 35 bd 4b fc 35 4c be 7f b5 87 bd 97 b5
       1.7665224e-06 1.8797506e-06 -9.527182e-07 -1.1305536e-06
000310 8e 53 8c b5 57 63 aa 35 c0 41 1a b4 80 91 5e b4
       -1.045513e-06 1.2694899e-06 -1.4366287e-07 -2.0728294e-07
000320 d2 f9 8a 33 01 46 2c 34 e5 aa 7e 2f da 52 0f 33
       6.471568e-08 1.6044216e-07 2.316188e-10 3.3370135e-08
000330 fb 59 2d b5 70 e1 39 b6 47 7c a8 34 3f 7f 9f 34
       -6.457846e-07 -2.769837e-06 3.1382862e-07 2.9708642e-07
000340 be 73 16 35 23 df 86 b6 6f 5d 89 36 9e a4 46 36
       5.604778e-07 -4.0194877e-06 4.0937953e-06 2.960012e-06
000350 96 a8 69 b6 01 f7 96 b6 3d 4f 95 b6 f0 cd 42 35
       -3.4817836e-06 -4.4991034e-06 -4.4497706e-06 7.257031e-07
000360 24 db c8 b5 5e 09 4e b5 f8 82 35 36 43 5e 89 36
       -1.496494e-06 -7.675461e-07 2.7047336e-06 4.0938917e-06
000370 98 f5 21 36 c7 17 8c b5 9e 2e e5 b5 bc 69 a7 b6
       2.4133824e-06 -1.0437733e-06 -1.7075397e-06 -4.989297e-06
000380 48 48 9a 35 1e 31 92 35 54 6b 21 35 b5 af d8 b6
       1.1494931e-06 1.0892143e-06 6.0133357e-07 -6.4577566e-06
000390 f1 3c da b4 7b 8f cf b2 5b 2d 25 35 b7 02 d8 35
       -4.0650005e-07 -2.4163219e-08 6.153329e-07 1.6094044e-06
0003a0 0d e6 8e 34 d8 00 67 35 50 7d 5d 34 73 04 01 35
       2.6616945e-07 8.6055434e-07 2.0627817e-07 4.806272e-07
0003b0 7a b0 76 35 6f 21 cc 35 00 75 f4 34 95 0a 70 34
       9.189895e-07 1.5208915e-06 4.553367e-07 2.2355592e-07
0003c0 ab 41 92 35 35 a8 75 b4 41 29 20 34 ac aa ce 34
       1.089696e-06 -2.2878596e-07 1.4916169e-07 3.849467e-07
0003d0 8f c3 5b 34 cd 7e 80 b5 19 6c a9 b4 20 b8 87 b5
       2.0467108e-07 -9.573647e-07 -3.1557354e-07 -1.0111871e-06
0003e0 e2 d5 fd 34 f1 15 ff 34 da 73 3b 34 04 7d 1a b6
       4.7280543e-07 4.7513416e-07 1.7457879e-07 -2.3020557e-06
0003f0 16 30 54 36 16 d4 de 35 c3 24 51 b6 c2 cd a3 b6
       3.1618451e-06 1.6602014e-06 -3.1164825e-06 -4.881732e-06

exp_avg_sq f4 [60, 6]
000000 26 1e 95 2e 5c 10 3c 2e 7d 4e 80 2d 66 33 4b 2e
       6.781091e-11 4.276078e-11 1.4586771e-11 4.6202507e-11
000010 c1 24 05 2e 11 70 ef 2d 1c 9e 31 30 8e 0e c9 2f
       3.0273343e-11 2.7220922e-11 6.461691e-10 3.657203e-10
000020 2f 5e 57 2f 63 f9 36 30 ab 7e 31 30 f8 9c cb 2f
       1.9587597e-10 6.6565614e-10 6.457223e-10 3.7037018e-10
000030 e7 70 08 2e 11 70 9e 2d 84 f7 44 2d 42 21 10 2e
       3.1023097e-11 1.8012288e-11 1.119627e-11 3.2771348e-11
000040 b8 33 91 2d e5 6c 7e 2d 6f 6e a7 31 d3 04 89 31
       1.650756e-11 1.4462408e-11 4.8728945e-09 3.9877732e-09
000050 93 dd 13 31 c1 d9 92 31 d9 03 3b 31 9c ae fb 30
       2.1517266e-09 4.273915e-09 2.7214269e-09 1.8312281e-09
000060 39 8e ad 2f 2c 1b 82 2f 46 0f aa 2e 8b 56 51 2f
       3.1569572e-10 2.366617e-10 7.733418e-11 1.9039186e-10
000070 9c e2 97 2f 8f d8 93 2e 49 3c 43 2f 9d 39 ce 2e
       2.7627756e-10 6.7232546e-11 1.7756564e-10 9.3780296e-11
000080 09 88 87 2e 9c e2 91 2e a5 41 ad 2e e4 ec 87 2e
       6.163254e-11 6.6340905e-11 7.87879e-11 6.1811695e-11
000090 30 1c e7 2e 2e f7 4b 2e 9a bb 58 2e f5 47 30 2f
       1.0509671e-10 4.6376396e-11 4.9279338e-11 1.6032671e-10
0000a0 07 82 12 2e c1 f3 b6 2e 3e 47 86 30 d0 87 37 30
       3.3312044e-11 8.319701e-11 9.770031e-10 6.6768013e-10
0000b0 87 04 93 2f 32 ec 2e 30 b0 ee 08 30 44 9f 92 2f
       2.674236e-10 6.3636485e-10 4.9815707e-10 2.667041e-10
0000c0 ed 45 4b 30 81 9a 0f 30 cb bf 3e 2f 41 4b e6 2f
       7.395034e-10 5.224266e-10 1.7348538e-10 4.1890227e-10
0000d0 7c 6d e8 2f 6e 7e 3f 2f 6c b6 2d 30 35 fb d2 2f
       4.2278347e-10 1.7416266e-10 6.319627e-10 3.837727e-10
0000e0 cc 2f a4 2f fa bf 5d 30 f0 48 ab 2f 20 6c f8 2f
       2.9865388e-10 8.0672147e-10 3.1156544e-10 4.5187765e-10
0000f0 9f b3 50 30 7a 53 b0 2f 07 85 05 2f 4d 7e e0 2f
       7.5925216e-10 3.2073527e-10 1.214354e-10 4.0835105e-10
000100 4d 47 a1 2f 3a 12 73 2f 38 11 83 30 e3 8f 47 30
       2.9336392e-10 2.2107197e-10 9.536398e-10 7.2600254e-10
000110 1f 30 b6 2f 7c 01 47 30 e3 a9 04 30 bd 1b f3 2f
       3.31398e-10 7.239789e-10 4.8262744e-10 4.4221152e-10
000120 f9 db 82 30 a6 17 6d 30 42 ff b1 2f f8 d0 30 30
       9.521265e-10 8.6253704e-10 3.2377484e-10 6.432539e-10
000130 bd 97 2d 30 4f b7 96 2f 2f 7e 75 31 b2 40 5a 31
       6.3152666e-10 2.741509e-10 3.572392e-09 3.175995e-09
000140 69 d8 c4 30 40 cb 48 31 aa 6d 15 31 90 1a a9 30
       1.4322384e-09 2.9219365e-09 2.174469e-09 1.2303918e-09
000150 2a 63 ab 2f 7a 57 75 2f 06 b9 96 2e 88 e8 44 2f
       3.117518e-10 2.2313698e-10 6.854077e-11 1.7908708e-10
000160 f5 eb 29 2f ca 5f b1 2e 05 fa 99 30 f6 9a 74 30
       1.5454289e-10 8.066044e-11 1.1203275e-09 8.8986896e-10
000170 f4 be e1 2f c2 80 7b 30 33 50 22 30 67 8d 0c 30
       4.1062942e-10 9.1496244e-10 5.9049227e-10 5.113265e-10
000180 0b c2 a8 2f 0e 37 98 2f 46 0b cb 2e 10 e2 49 2f
       3.0696898e-10 2.7687758e-10 9.233374e-11 1.8361157e-10
000190 f7 0e 3f 2f 01 4e a8 2e 2f 63 11 32 5d 06 e9 31
       1.7376665e-10 7.653612e-11 8.462663e-09 6.781916e-09
0001a0 57 fb 84 31 e6 52 06 32 aa 62 a5 31 86 59 8a 31
       3.8702797e-09 7.8186755e-09 4.813349e-09 4.0265062e-09
0001b0 2c 3d 6c 2b 67 2d 5c 2b ae 0b b0 2a f9 c9 94 2b
       8.3928936e-13 7.822271e-13 3.1271985e-13 1.0572091e-12
0001c0 b6 9f 03 2b ba 4e 0e 2b e2 77 85 31 fb 88 62 31
       4.676219e-13 5.055779e-13 3.8844385e-09 3.2965193e-09
0001d0 e4 c1 fa 30 f1 eb 7b 31 41 e0 0e 31 7b 73 df 30
       1.8245001e-09 3.6659424e-09 2.0791193e-09 1.6258207e-09
0001e0 14 4a 38 2f f7 3b ad 2e de 51 7f 2e a1 46 34 2f
       1.676102e-10 7.877781e-11 5.8053e-11 1.6395997e-10
0001f0 0a 49 76 2e 9a d3 de 2e eb 21 af 2f d8 73 39 2f
       5.5998796e-11 1.0132979e-10 3.1856415e-10 1.6866808e-10
000200 62 6a d7 2e 0a f8 92 2f 5b ac 42 2f 64 bc 31 2f
       9.7959654e-11 2.6733488e-10 1.770543e-10 1.6164986e-10
000210 b7 f0 64 30 8e b1 00 30 3d 0f 3a 2f 23 99 d2 2f
       8.3287993e-10 4.681845e-10 1.6922015e-10 3.8307588e-10
000220 ee 16 b9 2f 63 db 59 2f 3d 79 18 31 38 94 ed 30
       3.3667596e-10 1.9813977e-10 2.2187827e-09 1.7286146e-09
000230 b8 0d 8e 30 e8 b1 25 31 5e 8a a1 30 df c1 4d 30
       1.0335759e-09 2.4111788e-09 1.1753618e-09 7.4854073e-10
000240 cc 9d bc 30 de e2 97 30 94 12 1a 30 f1 0d 83 30
       1.3723649e-09 1.1051176e-09 5.6051275e-10 9.535467e-10
000250 d3 11 73 30 2f 86 01 30 ca 3e ff 2d a1 2a 82 2d
       8.8428215e-10 4.7120613e-10 2.9018028e-11 1.479822e-11
000260 2e 9a 72 2d e5 0f ef 2d b5 cb 4e 2d 5f a3 87 2d
       1.3790342e-11 2.7178213e-11 1.1754976e-11 1.5420274e-11
000270 f0 e5 a8 30 bf 3e 86 30 d2 aa 38 30 52 70 c4 30
       1.2288961e-09 9.767617e-10 6.718156e-10 1.42928e-09
000280 40 49 39 30 34 90 2e 30 43 e7 28 31 2e d8 a7 30
       6.74067e-10 6.3505756e-10 2.4578675e-09 1.2212291e-09
000290 81 ff 89 30 53 7c 44 31 c6 61 96 30 10 03 e7 30
       1.004068e-09 2.8592424e-09 1.0941725e-09 1.6808333e-09
0002a0 d5 1a 65 2f 6c 81 12 2f 07 d9 76 2e 47 ba 13 2f
       2.0836961e-10 1.3324603e-10 5.6126683e-11 1.3435751e-10
0002b0 ea f0 e7 2e a4 d3 a1 2e 10 7d 87 30 5d 03 1e 30
       1.0547459e-10 7.359027e-11 9.858088e-10 5.7484845e-10
0002c0 95 0e 84 2f 78 f0 2f 30 4a 1d f5 2f 72 07 99 2f
       2.402102e-10 6.4006356e-10 4.4586052e-10 2.7835828e-10
0002d0 6f 1c 83 31 39 cc 42 31 ec 20 0c 31 6e 35 9b 31
       3.8158343e-09 2.8346803e-09 2.0391395e-09 4.517168e-09
0002e0 e7 8e 08 31 72 42 14 31 13 da 0f 2f 49 48 c7 2e
       1.9871835e-09 2.1574604e-09 1.308325e-10 9.062313e-11
0002f0 c2 54 7c 2e a4 da 09 2f 99 da a9 2e d3 8c b3 2e
       5.7373446e-11 1.2537754e-10 7.724061e-11 8.164993e-11
000300 52 cd 42 2f 09 26 ed 2e 6b b5 b4 2e 6b 5f 48 2f
       1.7717142e-10 1.07842686e-10 8.2176786e-11 1.8223793e-10
000310 fd 02 dd 2e cc d3 13 2f 70 24 c6 2b e9 64 85 2b
       1.0050447e-10 1.3444817e-10 1.407886e-12 9.478227e-13
000320 e5 58 06 2b 60 97 02 2c c1 ba 54 2b e5 83 3c 2b
       4.772973e-13 1.8558141e-12 7.5576703e-13 6.697406e-13
000330 03 0b c9 30 c9 d7 7a 2f 40 3a 0e 2f 9b 81 1e 30
       1.4627805e-09 2.281403e-10 1.293552e-10 5.7664246e-10
000340 9a ab 2b 2f 68 e8 c6 2f 38 11 a8 30 9b 6b 80 30
       1.5613325e-10 3.6181125e-10 1.2228503e-09 9.343809e-10
000350 e9 ce 30 30 67 d3 d7 30 e2 b4 84 30 7a 5c 4a 30
       6.4322464e-10 1.5703393e-09 9.655674e-10 7.361859e-10
000360 bc 3f 3a 30 60 76 f1 2f 87 29 d3 2f eb a2 6a 30
       6.775698e-10 4.3921755e-10 3.8410183e-10 8.5360224e-10
000370 2e 6d bd 2f 2d 49 ee 2f 21 38 83 31 ba 8b 55 30
       3.4456477e-10 4.3343942e-10 3.818983e-09 7.768751e-10
000380 0e 95 e3 2f 58 02 1c 31 51 4a 2f 30 9d 74 da 30
       4.139697e-10 2.270232e-09 6.377024e-10 1.5894731e-09
000390 23 ea 31 2f 61 2e d0 2e 39 c7 fd 2d 72 57 08 2f
       1.6181238e-10 9.4669834e-11 2.8851243e-11 1.2400195e-10
0003a0 73 ac 81 2e 70 d1 8d 2e 7b 90 5e 2f bb a2 cb 2e
       5.896874e-11 6.449141e-11 2.0242112e-10 9.260278e-11
0003b0 5c b2 c8 2e df d9 60 2f d0 4e ce 2e e4 ff e3 2e
       9.12663e-11 2.0450085e-10 9.381795e-11 1.036822e-10
0003c0 b3 a3 ec 2e 0b 9a 6a 2e c9 55 06 2e 09 9b 97 2e
       1.0761116e-10 5.3342258e-11 3.0544265e-11 6.894225e-11
0003d0 76 8d 35 2e 57 ea 30 2e b6 a7 55 2f d4 e7 a2 2e
       4.1280278e-11 4.0225902e-11 1.943182e-10 7.408088e-11
0003e0 c5 bc 6f 2e 47 cb 14 2f e7 24 87 2e e9 58 ca 2e
       5.450997e-11 1.353274e-10 6.1456444e-11 9.20169e-11
0003f0 67 6f 5e 30 e2 74 40 30 5a ac ac 2f be 21 3d 30
       8.092144e-10 7.0015294e-10 3.140908e-10 6.880575e-10

exp_avg f4 [60]
000000 1c c8 69 b5 3c 11 a6 35 13 ff 84 35 23 02 08 37
       -8.709046e-07 1.237298e-06 9.909003e-07 8.106729e-06
000010 c3 1f 3b b5 d5 4b 4a b4 fa c4 06 36 c1 d1 bb 35
       -6.970915e-07 -1.8840304e-07 2.0082211e-06 1.3993632e-06
000020 91 12 12 35 fb 62 88 b6 89 a5 c4 b4 0b 58 5d 36
       5.4416256e-07 -4.0646387e-06 -3.6628288e-07 3.2982814e-06
000030 52 85 19 b6 2c 47 e5 36 bf 85 37 34 b1 cd 64 36
       -2.287638e-06 6.8330173e-06 1.709186e-07 3.4094376e-06
000040 cf 36 4c 35 42 97 5f 37 4f 8e 63 b1 4b a8 1a b7
       7.607568e-07 1.3327053e-05 -3.311374e-09 -9.218299e-06
000050 e8 5f ef 35 1a ad 0f b6 0b d5 4c 32 9d f4 08 37
       1.78348e-06 -2.140942e-06 1.1922803e-08 8.163185e-06
000060 0a 0d 9d b6 36 3c b3 b4 c5 9c c6 b6 88 6b ed b6
       -4.6804826e-06 -3.3385157e-07 -5.91911e-06 -7.0756687e-06
000070 22 51 9d 35 57 c7 2c 35 eb 84 3d b7 91 a9 00 36
       1.1721024e-06 6.436507e-07 -1.1296225e-05 1.9172187e-06
000080 ec 59 1b 36 c7 af 58 b4 43 69 64 b5 7c c8 c3 36
       2.3149141e-06 -2.0180515e-07 -8.5089795e-07 5.8347923e-06
000090 27 56 a3 b6 11 c8 36 b6 49 be 3b b5 23 23 0c b6
       -4.867808e-06 -2.7236567e-06 -6.993983e-07 -2.0882078e-06
0000a0 90 84 b0 b5 20 2f 00 b6 8c 5d 94 36 89 1f 9b b6
       -1.3151603e-06 -1.9100917e-06 4.421634e-06 -4.623031e-06
0000b0 11 0c 2b 37 c8 f8 c2 b6 a2 1c 62 b5 9e 76 25 35
       1.0195204e-05 -5.8106125e-06 -8.4233227e-07 6.16399e-07
0000c0 ca 5b 06 b7 8b 8b 60 b6 df 8d 58 b4 8c 59 0a 36
       -8.008394e-06 -3.3459826e-06 -2.016818e-07 2.0615726e-06
0000d0 56 5a e5 b6 00 f9 d7 b5 dd d1 ed b6 66 e7 6e b5
       -6.8352483e-06 -1.6091217e-06 -7.0875817e-06 -8.899864e-07
0000e0 e0 5c 4a 34 d7 15 ea 37 83 a7 47 b4 d0 32 53 b7
       1.8846504e-07 2.7905144e-05 -1.859426e-07 -1.2588411e-05

exp_avg_sq f4 [60]
000000 30 cb f8 2e 0c 43 13 31 c8 1b 5c 2e 16 3d 1d 32
       1.13138277e-10 2.1429427e-09 5.0046883e-11 9.152492e-09
000010 e5 04 45 30 92 d7 70 2f 68 63 80 2f 60 74 02 31
       7.167514e-10 2.1904459e-10 2.3353697e-10 1.8983641e-09
000020 9a 87 d5 30 52 5b 05 31 08 6b 06 31 11 14 22 31
       1.553633e-09 1.9405957e-09 1.9560407e-09 2.358551e-09
000030 0a 1b f0 30 81 fa e3 31 de a5 1b 30 14 9a 34 31
       1.7469983e-09 6.6350485e-09 5.6624383e-10 2.628103e-09
000040 9c 53 ff 2f 55 8d 95 32 2b e8 0a 2c 61 02 02 32
       4.6443638e-10 1.7410153e-08 1.9739859e-12 7.567537e-09
000050 c9 1f d2 2f f2 9a 58 30 cf 45 d4 30 29 23 9f 31
       3.8221362e-10 7.880053e-10 1.5444871e-09 4.6315063e-09
000060 40 3c 24 31 21 d9 79 2e 18 5c 42 31 11 bf 07 32
       2.389939e-09 5.6808894e-11 2.8283065e-09 7.901478e-09
000070 35 10 0b 30 d7 e0 18 31 c3 21 1c 32 c9 34 b0 2f
       5.0590937e-10 2.2246718e-09 9.088072e-09 3.205172e-10
000080 02 45 08 30 d5 c6 2b 2c 12 8c 36 31 6a 37 6e 31
       4.957458e-10 2.4410936e-12 2.6564106e-09 3.4665057e-09
000090 36 8a e0 30 5b 2b 13 32 a2 8d f2 2f 62 b4 dd 2f
       1.6337427e-09 8.566384e-09 4.412018e-10 4.0327836e-10
0000a0 a2 9e 46 2f a3 d4 cc 2f b1 f3 ad 30 5e 90 19 31
       1.8064353e-10 3.725847e-10 1.2656668e-09 2.2346494e-09
0000b0 c9 a5 82 32 34 87 37 31 71 7a 2b 2f e6 11 4b 30
       1.5209382e-08 2.670686e-09 1.559586e-10 7.3876405e-10
0000c0 eb 39 ea 31 b0 61 55 31 85 f2 2a 2e 01 35 56 30
       6.816881e-09 3.1051108e-09 3.8868925e-11 7.792807e-10
0000d0 da 49 80 31 2c 0f 35 30 ce 25 b9 31 79 ca b6 2d
       3.7336862e-09 6.5868977e-10 5.3885065e-09 2.078092e-11
0000e0 ed f1 d8 2f af fe 9f 33 49 09 43 2e b6 67 69 32
       3.946207e-10 7.450341e-08 4.4346114e-11 1.3585966e-08
