mnc_ml_test/output/train/20221128-1147-model.pth (torch, 101021 bytes, 21 tensors)

module.0.weight f4 [100, 11]
0	0xbecc2906	-0.39875048
1	0xbe4749f6	-0.19461808
2	0x3e8fc7e8	0.28082204
3	0x3e4b4228	0.19849455
4	0xbddfff1e	-0.109373316
5	0x3e66b125	0.22528513
6	0xbde168b6	-0.110063
7	0x3e63a8e8	0.22232401
8	0xbe7292e5	-0.23688848
9	0xbd251755	-0.040305454
10	0x3e56db60	0.20982122
11	0xbecd5281	-0.40102008
12	0xbe132cb3	-0.1437252
13	0xbe85284e	-0.26007313
14	0x3e9860a9	0.29761246
15	0x3e66b345	0.22529323
16	0xbd27c6e3	-0.040961158
17	0x3dd16a70	0.102253795
18	0x3ea3f2b5	0.32021108
19	0xbdf5e3e9	-0.12006361
20	0xbe31e37d	-0.17371936
21	0x3e2fed41	0.17180349
22	0x3f047ffa	0.51757777
23	0xbee92f94	-0.45544112
24	0x3f2d5adc	0.67716765
25	0xbd2238bc	-0.039604887
26	0x3e7e76b7	0.24849974
27	0xbe96cf7b	-0.2945517
28	0xbe2a5c0e	-0.16636679
29	0x3e05da21	0.13071491
30	0xbeab3289	-0.33436993
31	0x3e53ae9d	0.20672078
32	0xbebf992f	-0.37421557
33	0xbe637720	-0.22213411
34	0x3e87aeb6	0.2650048
35	0xbeb0bd85	-0.34519592
36	0xbd00e003	-0.031463634
37	0xbf07f1ae	-0.5310315
38	0xbec9f2bf	-0.39443013
39	0x3e03adf3	0.12859325
40	0xbea2e376	-0.31814164
41	0xbd0a12ca	-0.033709325
42	0x3c08e43c	0.008355197
43	0x3e58a3e6	0.21156272
44	0xbe8602ed	-0.26174107
45	0x3e7d17fa	0.24716178
46	0xbe415ca4	-0.18882996
47	0xbe4aef6c	-0.19817895
48	0xbe63fff0	-0.22265601
49	0xbd0a7ccc	-0.03381042
50	0xbe90ec67	-0.2830536
51	0x3f4ecc97	0.8078093
52	0xbe501600	-0.20320892
53	0x3f0c2f36	0.5475954
54	0xbe49b750	-0.19698834
55	0x3f1b91b6	0.6076921
56	0xbe53d845	-0.20687969
57	0x3f823814	1.0173364
58	0xbe88d4ac	-0.26724756
59	0x3f0b532e	0.544238
60	0x3d971564	0.07377127
61	0xbd19d8ab	-0.037560146
62	0x3e65bf16	0.22436175
63	0xbd3f8d4b	-0.046765607
64	0x3e29de69	0.16588749
65	0x3e55af1f	0.20867585
66	0xbe26b2ea	-0.16279188
67	0x3e9c0035	0.30468908
68	0x3d89627c	0.067082375
69	0xbdcdb215	-0.10043732
70	0x3e0be617	0.13661991
71	0xbe05a6ef	-0.13051961
72	0x3ecab491	0.39590886
73	0xbe41150a	-0.18855682
74	0x3e994471	0.2993503
75	0xbe85742a	-0.2606519
76	0xbd9c84fd	-0.07642553
77	0xbde0b330	-0.10971677
78	0xbe3da7f2	-0.18521097
79	0x3f300cc1	0.6876946
80	0xbf153129	-0.5827814
81	0xbcfaeb81	-0.030629875
82	0x3cb6761b	0.022273114
83	0xbe740ecf	-0.23833774
84	0x3e09c973	0.13455753
85	0xbea0a489	-0.3137553
86	0xbe414ffc	-0.18878168
87	0xbe4c7bfa	-0.19969168
88	0xbd830fef	-0.063995235
89	0x3f08439b	0.5322816
90	0x3f0f5935	0.55995494
91	0xbe408ced	-0.18803759
92	0xbdb0ff05	-0.08642391
93	0xbe91f98e	-0.28510708
94	0xbd08e57d	-0.033421982
95	0x3e576973	0.2103632
96	0x3d876274	0.06610575
97	0xbd77e40f	-0.060520228
98	0xbe270ec7	-0.16314231
99	0x3de6e1d6	0.112735435
100	0xbe78c28a	-0.24292961
101	0x3e662991	0.22476794
102	0xbe25fbb8	-0.16209304
103	0xbdd7db38	-0.105398595
104	0x3ea75996	0.32685536
105	0x3e816235	0.2527024
106	0x3dd27906	0.1027699
107	0x3de3c8c5	0.11122278
108	0x3e2f285b	0.17105238
109	0xbece72bd	-0.40321913
110	0xbf122aa0	-0.5709629
111	0x3ec94ca8	0.39316297
112	0xbf2cfb48	-0.67570925
113	0x3d37e1d4	0.0448931
114	0x3cfec675	0.031100491
115	0xbeb2688a	-0.34845382
116	0xbda46d10	-0.080286145
117	0xbe1c051a	-0.15236321
118	0x3e88a2f9	0.26686838
119	0x3e8be7a8	0.27325177
120	0x3e89ca8a	0.26912338
121	0x3eceb7f5	0.40374723
122	0x3f20d542	0.62825406
123	0xbe94dfda	-0.29077035
124	0xbe5e57b9	-0.21713151
125	0x3dba817d	0.09106729
126	0xbefb381e	-0.49066252
127	0x3ea28077	0.31738636
128	0xbee693ba	-0.4503458
129	0xbe123d62	-0.14281228
130	0xbeb29e87	-0.34886572
131	0xbe94854d	-0.2900795
132	0x3e52f6af	0.20601915
133	0xbec1646e	-0.37771934
134	0x3f2e0566	0.6797699
135	0xbebe9d88	-0.37229562
136	0x3ec2f072	0.3807407
137	0x3ebd604c	0.3698753
138	0x3d87436f	0.06604659
139	0x3f49f191	0.78884226
140	0xbeaac522	-0.33353525
141	0x3e92a289	0.2863963
142	0xbde4cc8c	-0.11171827
143	0x3ea7f911	0.3280721
144	0xbd723284	-0.059130207
145	0x3e322ec7	0.17400657
146	0xbe3b7c3f	-0.18309115
147	0xbf164d41	-0.5871163
148	0x3e973410	0.29531908
149	0x3ab3078c	0.0013658865
150	0xbdf25662	-0.118328825
151	0x3e1efcc5	0.15526111
152	0xbed1478d	-0.408749
153	0xbea5dabe	-0.3239345
154	0xbd444c2b	-0.047924202
155	0xbe8068bc	-0.25079906
156	0x3eb0b4a6	0.34512824
157	0x3ca2771b	0.019832185
158	0xbe2426e3	-0.16030459
159	0xbe45e2b6	-0.19324765
160	0x3e38fd76	0.18065438
161	0x3e62217b	0.22083084
162	0xbe73828c	-0.23780268
163	0x3e7b530b	0.24543397
164	0x3ec13b52	0.3774057
165	0x3d03b8b6	0.032158576
166	0x3d64aa7e	0.055826657
167	0xbd78c84e	-0.0607379
168	0x3b192b1c	0.0023371642
169	0x3d6fce42	0.058546312
170	0x3b77a06f	0.0037784835
171	0xbdd62644	-0.10456517
172	0x3d92e131	0.07171858
173	0xbc3a018a	-0.011352906
174	0xbdc67ddd	-0.09691975
175	0x3bfa69e7	0.007642019
176	0xbe036720	-0.12832308
177	0xbdcaeeed	-0.09908853
178	0x3f57ddfb	0.8432309
179	0xbe6aa1f4	-0.22913343
180	0xbe10f8dd	-0.14157434
181	0x3ee96793	0.45586833
182	0x3dc348ec	0.09535393
183	0x3f2c8c9f	0.6740207
184	0xbea6cb5d	-0.3257703
185	0x3c3f8fa2	0.01169196
186	0x3d78e860	0.060768485
187	0xbe02d992	-0.12778309
188	0x3e0f377a	0.13986006
189	0xbf0757d2	-0.5286838
190	0xbd9935bf	-0.074809544
191	0x3c36e135	0.011162092
192	0xbea3e2e1	-0.32009032
193	0x3d3c2dbf	0.045942064
194	0xbe08b489	-0.13350119
195	0x3ed7ff2c	0.42186868
196	0x3bbe8b7e	0.0058149686
197	0x3e7fc4f5	0.24977477
198	0xbede3f0c	-0.43407476
199	0x3e182f64	0.14861828
200	0xbf531c5c	-0.8246515
201	0x3e37cb3a	0.17948619
202	0x3d0350fc	0.032059655
203	0xbdf0e541	-0.11762477
204	0x3ea80a5b	0.328204
205	0xbf2ef0a1	-0.6833592
206	0x3d0f15c3	0.034932863
207	0x3e64e483	0.22352795
208	0xbd40237f	-0.04690885
209	0x3daf94ac	0.08573279
210	0x3f5d802b	0.86523694
211	0xbf6cd9ec	-0.9252002
212	0x3dd0523c	0.10171935
213	0xbcb7c090	-0.022430688
214	0xbea64435	-0.32473913
215	0x3e8d5467	0.27603456
216	0xbf1fe5c9	-0.6246
217	0x3e72f090	0.2372458
218	0x3e0609d6	0.1308969
219	0xbea4a023	-0.32153425
220	0x3ebb4663	0.36577138
221	0xbc549f17	-0.012977383
222	0x3e93c3f9	0.28860453
223	0xbe6ebba5	-0.23313768
224	0xbf40b524	-0.752764
225	0x3c61f3c2	0.013791027
226	0xbe8ee183	-0.27906427
227	0x3ee215c9	0.44157246
228	0x3e870f56	0.26378888
229	0xbe68906f	-0.22711347
230	0x3d403b42	0.046931513
231	0x3e916090	0.28393984
232	0xbf1816df	-0.594099
233	0x3f9106b2	1.1330168
234	0xbe8542d8	-0.2602756
235	0x3ed2ee0b	0.41197237
236	0x3ed5011f	0.41602418
237	0x3dd4e556	0.10395305
238	0x3f2dfa7a	0.6796032
239	0xbd920df4	-0.071315676
240	0x3ecee09e	0.40405744
241	0xbd64f53d	-0.05589794
242	0xbe00b1d7	-0.1256784
243	0x3f474fa3	0.7785589
244	0xbf25708d	-0.64624864
245	0x3e95493c	0.29157436
246	0xbdb77f70	-0.08959854
247	0xbe8c213c	-0.27369106
248	0x3ec3b654	0.38225043
249	0xbf33dbf9	-0.70257527
250	0x3dce3811	0.100692876
251	0x3e014fdd	0.12628122
252	0xbe78f918	-0.24313772
253	0xbdec2297	-0.11530035
254	0xbeb225b4	-0.3479439
255	0xbf6f386f	-0.93445486

module.0.bias f4 [100]
0	0x3ee9d2b6	0.45668572
1	0x3ead7222	0.3387614
2	0xbeb0778c	-0.34466207
3	0xbf078404	-0.52935815
4	0x3c2c1ecf	0.010505392
5	0x3dd681df	0.1047399
6	0xbf102fa2	-0.5632268
7	0xbee05a4c	-0.4381889
8	0xbece5c60	-0.40304852
9	0x3e3523bf	0.17689417
10	0x3e9ffc0a	0.31246978
11	0xbe581956	-0.21103415
12	0xbd5b07ed	-0.053474355
13	0xbf0bc0ec	-0.5459125
14	0xbe400053	-0.18750124
15	0x3c49ad7a	0.012309426
16	0xbdb4902b	-0.0881656
17	0x3e0d124a	0.13776508
18	0xbcc0cb18	-0.023534343
19	0xbe6992d8	-0.22809923
20	0xbf03536c	-0.51299167
21	0xbc3e19b2	-0.011602806
22	0xbf08986a	-0.53357565
23	0xbed1d188	-0.40980172
24	0x3c4d1b90	0.012518778
25	0xbd4aa7e9	-0.049476538
26	0xbf0660aa	-0.5249125
27	0xbe55dfde	-0.2088618
28	0x3e3ab559	0.18233241
29	0x3dfb685b	0.122757636
30	0xbde4d804	-0.11174014
31	0xbe6f4780	-0.23367119
32	0xbc1cd0bf	-0.009571253
33	0xbe0f7ad4	-0.14011699
34	0x3dc0417a	0.09387489
35	0x3d97a47e	0.07404421
36	0x3ea821bf	0.32838246
37	0x3d2b4ed7	0.041823234
38	0xbef99530	-0.48746634
39	0x3dc1b47d	0.094582535
40	0x3e6bb0bc	0.23016638
41	0xbe88cdba	-0.26719457
42	0x3ebbe9e3	0.3670188
43	0x3e1e21f1	0.15442635
44	0xbee88e45	-0.45421043
45	0x3e08256e	0.13295528
46	0x3c9678cc	0.018368147
47	0xbea2f00e	-0.31823772
48	0x3d52e153	0.051484417
49	0xbe05f2cf	-0.13080905
50	0x3e0e7fd7	0.13915955
51	0x3eb98922	0.36237437
52	0xbdcb0c18	-0.09914416
53	0x3e5a8269	0.2133881
54	0xbe700ca9	-0.2344233
55	0xbe65589e	-0.22397086
56	0x3ee88008	0.4541018
57	0xbe85af78	-0.26110435
58	0x3df29a9b	0.11845895
59	0x3d6a1457	0.057148304
60	0xbb82f051	-0.003995933
61	0x3e541a2a	0.20713106
62	0xbf0cfd09	-0.550736
63	0x3e37c184	0.17944914
64	0xbebf8455	-0.3740565
65	0xbde506b2	-0.11182918
66	0x3e8eb29f	0.27870652
67	0x3ebf3ac7	0.3734953
68	0xbf0f98dc	-0.5609262
69	0xbf016953	-0.50551337
70	0x3ed6ebb3	0.419767
71	0xbe97ad82	-0.29624563
72	0xbbcf3bd2	-0.00632427
73	0xbd36f612	-0.044668265
74	0xbf143f21	-0.5790883
75	0xbe9e578f	-0.30926177
76	0xbe97b9c0	-0.29633904
77	0xbd70b489	-0.05876592
78	0x3da7bbf1	0.08190144
79	0x3e5213e5	0.20515402
80	0xbee29b6f	-0.4425921
81	0x3dcc690e	0.09980975
82	0x3ef385d6	0.47563046
83	0xbd850b28	-0.064962685
84	0x3e2fde9f	0.17174767
85	0x3e58a83b	0.21157925
86	0xbd43c3e6	-0.047794245
87	0xbeab9ddf	-0.33518884
88	0xbe71f7df	-0.23629712
89	0xbed02d9e	-0.40659803
90	0x3dd118b8	0.10209793
91	0xbc943a5a	-0.01809423
92	0xbe872e5a	-0.2640255
93	0x3e3b0ed4	0.18267375
94	0x3ee7a31b	0.45241627
95	0x3e96c4b6	0.29446954
96	0xbe8cc367	-0.2749283
97	0x3ed32b60	0.4124403
98	0xbe91c700	-0.28472137
99	0xbe18fae6	-0.1493946

module.2.weight f4 [60, 100]
0	0xbdd94a81	-0.106099136
1	0x3d7330f3	0.059372853
2	0xbad6677a	-0.0016357743
3	0xbd499b7c	-0.049220547
4	0xbcb1e17f	-0.02171397
5	0xbd48818b	-0.048951667
6	0x3dba741e	0.09104179
7	0x3c5bd9f0	0.01341866
8	0xbd3db431	-0.046314422
9	0x3df555be	0.11979245
10	0x3d6f52b2	0.058428474
11	0x3d236ab1	0.03989667
12	0x3a361996	0.00069465616
13	0x3d2e9d03	0.042630207
14	0x3daf0227	0.085453324
15	0x3ce4b837	0.027919872
16	0x3d02fbcb	0.03197841
17	0xbd898e6a	-0.067166165
18	0xbd4f3066	-0.050583266
19	0x3db39b0f	0.087698095
20	0xbd005c07	-0.031337764
21	0xbd0d9c49	-0.034572873
22	0x3c00d42c	0.007863086
23	0x3d603d47	0.05474594
24	0xbc491ef4	-0.012275446
25	0xbccadb82	-0.024762873
26	0x3bca64ca	0.006176566
27	0x3d5f040b	0.054447215
28	0x3c83f3bf	0.016107438
29	0x3c8249f7	0.01590441
30	0xbda8d65f	-0.08244013
31	0x3c1e8d91	0.009677307
32	0x3d863aa3	0.06554153
33	0x3ddd42c8	0.10803753
34	0x3d2af1f3	0.041734647
35	0x3dba1812	0.09086622
36	0x3d496596	0.049169146
37	0xbdbb2030	-0.09136999
38	0x3c5fc86b	0.013658623
39	0xbaef8b90	-0.0018275846
40	0xbbccaf93	-0.006246516
41	0x3e0b9a3d	0.13633056
42	0xbdcc6a21	-0.0998118
43	0x3d7262b6	0.05917617
44	0x3c57babd	0.0131670805
45	0xbd83c1cb	-0.064334475
46	0xbcaaddef	-0.02085778
47	0x3d3a9d69	0.045560274
48	0xbd810f33	-0.06301727
49	0xbdd82600	-0.10554123
50	0x3c9030a9	0.017601328
51	0xbd93ffb8	-0.07226509
52	0x3cef76ae	0.029231396
53	0x3d65bf96	0.056090914
54	0x3d3db17b	0.046311837
55	0xbd5a5624	-0.053304806
56	0xbc10b4fe	-0.008832214
57	0xbccb3244	-0.024804242
58	0xbd7b32af	-0.061327633
59	0x3c3b7cda	0.011443341
60	0x3c57ecd2	0.013179021
61	0x3d058c74	0.03260465
62	0xbd887832	-0.066635504
63	0x3d871b1f	0.0659697
64	0xbd1b81d5	-0.037965614
65	0xbcc5d548	-0.024149552
66	0xbd282f25	-0.041060586
67	0xbaace6bd	-0.0013191324
68	0xbc88c431	-0.016695114
69	0x3958839b	0.00020648392
70	0x3de13eca	0.10998304
71	0xbdf49950	-0.119433045
72	0x3d90d9fc	0.07072827
73	0x3dbf3ae8	0.09337407
74	0x3d1b03e2	0.0378455
75	0xbcacb540	-0.02108252
76	0xbd2c1339	-0.04201052
77	0x3baab602	0.0052096853
78	0xbda444cf	-0.08020937
79	0x3d0deec8	0.034651548
80	0xbcfb9fb3	-0.030715799
81	0x3d83608c	0.06414899
82	0x3d4434e9	0.04790202
83	0x3d0a6546	0.033787988
84	0xbd768df6	-0.06019398
85	0x3d7d8e9a	0.061903574
86	0x3cf691d5	0.030098835
87	0xbbfa9b7c	-0.0076479297
88	0x3d9b5680	0.07584858
89	0x3d15e206	0.036592506
90	0xbdc50541	-0.09620143
91	0xbd0162b6	-0.03158828
92	0xbd8fc9ce	-0.07020913
93	0xbdaeafca	-0.08529623
94	0xbceffe0c	-0.029295944
95	0xbcc42e6e	-0.02394792
96	0xbe0b0ff8	-0.1358031
97	0x3d6ece54	0.05830224
98	0xbca84579	-0.02054094
99	0x3b14c22c	0.0022698743
100	0xbf55dd91	-0.8354121
101	0xbe4b155b	-0.19832365
102	0x3e62e8f8	0.22159183
103	0x3e10993f	0.14120959
104	0x3e6ffb74	0.23435766
105	0x3dc00564	0.09376028
106	0x3f5e9af3	0.86955184
107	0x3d87e0e5	0.06634692
108	0x3eb6a3c6	0.35671824
109	0xbd57c54b	-0.052678388
110	0x3bb692a1	0.0055716787
111	0x3df4e025	0.11956815
112	0xbdddf341	-0.108374126
113	0xbdac71f2	-0.08420171
114	0xbe0f81d4	-0.14014369
115	0x3d9342aa	0.071904495
116	0xbda4bdd0	-0.08044016
117	0x3d624a51	0.055246655
118	0x3dd0ba4e	0.10191785
119	0x3f31872e	0.6934689
120	0x3ded4e51	0.11587203
121	0xbe2510da	-0.1611971
122	0x3fa4aba1	1.2864877
123	0x3e250453	0.16114931
124	0xbe9b706c	-0.3035921
125	0x3cd6848a	0.026186246
126	0x3f273ebb	0.65330094
127	0x3e0cc3ed	0.13746615
128	0xbe61d1f6	-0.2205275
129	0x3c44048e	0.011963977
130	0x3e38b62b	0.18038242
131	0x3e64f21b	0.22357981
132	0x3dfa4203	0.12219622
133	0xbe254453	-0.16139345
134	0xbe298133	-0.16553192
135	0x3e9e5328	0.30922818
136	0xbe877d80	-0.26462936
137	0xbdb81773	-0.089888476
138	0x3eda5a28	0.4264691
139	0xbe5cf208	-0.21576703
140	0xbd668372	-0.0562777
141	0x3dfc8d19	0.123316
142	0xbf41684d	-0.75549775
143	0xbf220434	-0.63287663
144	0x3e98fd76	0.29880875
145	0xbe545200	-0.20734406
146	0x3ea9ef5a	0.33190423
147	0x3c7287cc	0.014802884
148	0x3dd69f46	0.10479598
149	0x3e950cf3	0.29111442
150	0x3e06e93d	0.13174911
151	0x3c7607d2	0.015016513
152	0x3e2aadd6	0.16667876
153	0xbd9c93db	-0.07645389
154	0xbcce0905	-0.025150785
155	0xbdfabd45	-0.122431315
156	0xbde6e904	-0.11274913
157	0x3e0453b0	0.12922549
158	0x3d34fa22	0.044183858
159	0xbe44978a	-0.19198433
160	0xbcf8da01	-0.03037739
161	0xbf0676d1	-0.5252505
162	0x3e1dd741	0.15414144
163	0xbe238b71	-0.15971161
164	0x3f271be9	0.6527696
165	0xbe97b6a9	-0.29631546
166	0xbd839562	-0.06424977
167	0xbef5b3a5	-0.4798862
168	0x3e2f076e	0.17092678
169	0x3e802e4c	0.25035322
170	0xbed991ac	-0.4249395
171	0x3e5417ac	0.20712155
172	0xbba0b960	-0.004904911
173	0x3e1baade	0.152019
174	0x3ecf35fd	0.40470877
175	0xbdf057da	-0.11735506
176	0x3e3b4e3c	0.18291563
177	0xbdaf1fca	-0.08550985
178	0x3d946c06	0.07247166
179	0xbe5b32c5	-0.21406086
180	0x3e7c5578	0.24641979
181	0x3e18b5c2	0.14913085
182	0xbf3822e6	-0.7192825
183	0xbdadf943	-0.084948085
184	0xbdfaf42a	-0.12253602
185	0xbcf8da5d	-0.030377561
186	0xbdc995dd	-0.09843037
187	0x3e6df25f	0.23236988
188	0x3ecc0622	0.3984843
189	0x3d2da7f4	0.0423965
190	0xbdf8adcd	-0.12142525
191	0x3e798017	0.24365269
192	0x3e444ab4	0.19169122
193	0x3cf082fc	0.029359333
194	0xbe913e95	-0.2836806
195	0xbd5aacd7	-0.05338749
196	0x3f49730a	0.7869116
197	0x3d1aa7cb	0.037757676
198	0x3deb1a51	0.11479629
199	0x3dcdcd0c	0.10048875
200	0xbeb713ea	-0.3575738
201	0xbee4d880	-0.44696426
202	0x3ea49036	0.32141274
203	0x3d9dc9ed	0.0770453
204	0x3c4b9d3e	0.012427626
205	0x3e603184	0.21893889
206	0x3ea57e17	0.3232276
207	0x3ed424a1	0.41434196
208	0x3d62b6eb	0.055350225
209	0xbdb132d6	-0.08652274
210	0xbdd825cc	-0.10554084
211	0x3e12f749	0.14352144
212	0x3eac1145	0.33606926
213	0x3e91ddae	0.2848944
214	0xbd1ed9e8	-0.03878203
215	0xbcd44560	-0.025911987
216	0x3e48c444	0.1960612
217	0xbd12f09e	-0.035874
218	0xbe9bda8e	-0.30440181
219	0xbe1f5674	-0.15560323
220	0x3f0c9e54	0.5492909
221	0x3e8dfe97	0.277333
222	0x3e565303	0.20930104
223	0x3d01182b	0.03151719
224	0xbc861831	-0.016368957
225	0xbdd913c4	-0.10599473
226	0x3e6adcf1	0.22935845
227	0x3e6ef606	0.23336038
228	0xbe2cc8d6	-0.16873488
229	0xbe42cced	-0.19023485
230	0x3e685119	0.22687186
231	0xbd7e038c	-0.0620151
232	0x3c84f525	0.016230175
233	0xbde114d2	-0.10990299
234	0x3b4277d1	0.0029673467
235	0xbe09ca64	-0.13456112
236	0xbed2339f	-0.4105501
237	0xbde2876b	-0.11060985
238	0x3f0ce8fc	0.55043006
239	0x3d2e6c58	0.042583793
240	0xbc81d697	-0.015849395
241	0x3e936214	0.28785765
242	0xbeb0208b	-0.34399828
243	0xbe2d4ef9	-0.16924657
244	0x3d9d3afe	0.076772675
245	0xbdb23f01	-0.08703423
246	0xbeca2d4c	-0.39487684
247	0x3e04dfbf	0.12975977
248	0xbd3db056	-0.046310745
249	0x3df4f2b0	0.119603515
250	0x3d247228	0.04014793
251	0xbd22d4f2	-0.03975386
252	0xbe059964	-0.13046795
253	0xbea26117	-0.317147
254	0x3df35e0f	0.11883175
255	0xbdcceb34	-0.10005799

module.2.bias f4 [60]
0	0x3c15e96e	0.009149892
1	0xbf053885	-0.52039367
2	0xbef6a2d7	-0.48171112
3	0xbba327d5	-0.0049791136
4	0xbecafa12	-0.39643914
5	0xbeddc3a7	-0.43313333
6	0xbc671b5e	-0.014105646
7	0x3dd7cb21	0.10536791
8	0x3c148af8	0.009066336
9	0x3ef432ce	0.4769501
10	0xbe236ee4	-0.1596027
11	0xbcea3739	-0.028590785
12	0x3da134a7	0.07871371
13	0x3db39329	0.08768303
14	0x3d8522b2	0.06500758
15	0xbc079952	-0.0082763005
16	0x3d4e2b7a	0.05033443
17	0xbe8a0c94	-0.2696272
18	0xbe2fd066	-0.17169341
19	0xbeaf6a8c	-0.34260976
20	0xbd9c77ec	-0.07640061
21	0xbd9fdd9d	-0.07805941
22	0xbcfe9c90	-0.031080514
23	0xbeb23723	-0.3480769
24	0xbea3af9d	-0.3196992
25	0xbd8fa1e4	-0.070133
26	0xbe874a0c	-0.2642368
27	0x3d3259ea	0.04354278
28	0x3a6a4ed6	0.0008938139
29	0x3c95e4d9	0.0182976
30	0xbe963eae	-0.29344696
31	0xbd4aed69	-0.04954282
32	0xbe1333f3	-0.14375286
33	0xbe056ee0	-0.13030577
34	0xbbdd692d	-0.0067569227
35	0x3d97bb23	0.0740874
36	0xbd8fa1ec	-0.07013306
37	0xbf0a8d19	-0.5412155
38	0x3d9cf522	0.07663943
39	0xbe21ef5a	-0.15813962
40	0xbd13c3bb	-0.036075335
41	0xbcebc284	-0.028779276
42	0x3d931cef	0.07183253
43	0xbe989666	-0.29802245
44	0xbe9bfdde	-0.30467123
45	0x3dbd00b6	0.09228651
46	0x3daa292e	0.08308636
47	0xbf244d1a	-0.6418015
48	0x3e177b48	0.14793122
49	0xbf03a842	-0.51428616
50	0xbf07608a	-0.5288168
51	0xbec5cae1	-0.38631347
52	0xbd4b21b7	-0.0495927
53	0xbe3ea3db	-0.18617193
54	0x3dd13d3d	0.102167584
55	0xbed7866d	-0.42094746
56	0xbd9394a7	-0.072060876
57	0xbd13d547	-0.03609207
58	0x3e07268f	0.13198303
59	0x3d9d97c2	0.07694961

module.4.weight f4 [6, 60]
0	0x396dec80	0.00022690184
1	0x3eb6f692	0.35734993
2	0x3dcc780c	0.099838346
3	0xbb1bee06	-0.0023792996
4	0x3e6507dd	0.22366281
5	0xbd018dd9	-0.031629417
6	0x3b061f44	0.0020465413
7	0xb9953783	-0.00028460854
8	0xba0a4828	-0.00052750343
9	0x3d381ff0	0.044952333
10	0xbe6f97de	-0.23397776
11	0xbbc01bde	-0.005862697
12	0xbbb48ad7	-0.005509715
13	0x3aaf5fcf	0.0013379994
14	0x3dd05dee	0.10174166
15	0xba43e897	-0.0007473318
16	0xbe3f374f	-0.18673442
17	0x3e2edf15	0.17077287
18	0x3ecefa75	0.4042546
19	0x3d9a1f2c	0.07525477
20	0xbd786362	-0.060641654
21	0x3b5ed92a	0.0034003952
22	0x3c3a2f31	0.01136379
23	0x3e19ee30	0.15032268
24	0x3dc5a7a1	0.09651113
25	0xb926fe18	-0.00015925651
26	0x3c9797ad	0.018504942
27	0xba800507	-0.0009767123
28	0xbb406131	-0.0029354806
29	0xbb107b70	-0.002204623
30	0x3d9416d2	0.07230915
31	0x3dc999e0	0.098438025
32	0x3d15d05f	0.03657567
33	0x3b86cd2b	0.0041138134
34	0xbe6e0fda	-0.23248234
35	0x3ac1a33f	0.0014773383
36	0xbeb3d2f1	-0.35121873
37	0x3e8d8102	0.27637488
38	0xbb0ad657	-0.0021184885
39	0x3d951196	0.07278745
40	0x3aa385ae	0.0012475753
41	0xbcfedb65	-0.031110475
42	0x3b00f46a	0.0019676932
43	0x3e89137b	0.26772675
44	0x3f121d3c	0.5707586
45	0x39276a6a	0.00015966003
46	0xbda40d15	-0.08010308
47	0x3e75b4ce	0.23994753
48	0xbb5f5b26	-0.0034081428
49	0xbda35a36	-0.07976191
50	0x3daa8839	0.08326764
51	0x3d90d93c	0.07072684
52	0xbefe2f5d	-0.4964551
53	0x3ec096ea	0.37615138
54	0xbb64161d	-0.003480322
55	0xbdebe1f9	-0.1151771
56	0x3ecad8ca	0.39618522
57	0x3d61ec81	0.05515719
58	0xbc231a26	-0.009954965
59	0xbb3fa485	-0.0029242348
60	0x3c851af8	0.016248211
61	0x3d1701dc	0.036867008
62	0xbbd0276f	-0.006352357
63	0x3c069b96	0.0082158055
64	0x3d240dea	0.040052332
65	0xbc5c2228	-0.013435878
66	0xbc3cd81e	-0.011526136
67	0x3c125df8	0.008933537
68	0x3a8029ee	0.0009778121
69	0x3c9d8d9d	0.019232566
70	0x3c353d73	0.011062014
71	0x3cf1d7fa	0.029521931
72	0x3cf6cda8	0.030127361
73	0x3c2bb550	0.01048024
74	0x3bd71e17	0.0065648663
75	0xbbe5a18d	-0.0070077837
76	0xbc0e1efe	-0.008674381
77	0xbc57a9d9	-0.013163053
78	0xbc5d92f2	-0.013523804
79	0x3cc88345	0.024476657
80	0x3beddfdd	0.0072593526
81	0xbcd705b0	-0.02624783
82	0x3cd8d330	0.02646789
83	0xbbbc58a5	-0.005747872
84	0x3caa8310	0.020814449
85	0x3c7660a3	0.015037688
86	0xbc3a710a	-0.01137949
87	0xbb4f39d8	-0.003162017
88	0x3c598496	0.01327624
89	0x3cb0e595	0.021593848
90	0xbb4e2844	-0.0031457106
91	0x3a87aed8	0.001035179
92	0xbc951086	-0.018196356
93	0xbbce79d3	-0.0063011437
94	0x3cbd3291	0.023095401
95	0xbc47dda8	-0.012198843
96	0x3c45ca5e	0.012072174
97	0xbdace3cd	-0.08441887
98	0x3be4a919	0.006978166
99	0x3ce2cad4	0.027684607
100	0x3b0c25dd	0.0021384873
101	0xbc1daf43	-0.009624305
102	0xbb64fa93	-0.0034939393
103	0xbba57c63	-0.0050502284
104	0xbbfed058	-0.0077763014
105	0x3c422bad	0.011851233
106	0x3a9a696a	0.0011780683
107	0x3dda3aa7	0.10655718
108	0x3c9996c9	0.018748658
109	0x3bf93c8b	0.0076060942
110	0xbcc1e5dd	-0.023669178
111	0x3c446794	0.011987586
112	0xbc9ca0f2	-0.019119713
113	0xbc8b0dd1	-0.016974362
114	0xbb85d16d	-0.0040838034
115	0x3b618b4b	0.00344153
116	0xbb3988fb	-0.0028310406
117	0x3c0b08a0	0.008485943
118	0xbcfb9a9d	-0.030713374
119	0x3c49b436	0.012311032
120	0x3a448232	0.0007496207
121	0xbe030b16	-0.12797198
122	0xbe09afeb	-0.13446014
123	0x37af0ef0	2.0868581e-05
124	0x3dc2571a	0.094892696
125	0xbc891c17	-0.016737027
126	0x3a82b513	0.0009972177
127	0xba757e8b	-0.00093648647
128	0x3a4efebf	0.00078962365
129	0x3e345633	0.17611007
130	0xbdff5a19	-0.12468357
131	0x3a1fdb6e	0.0006098066
132	0x390881c0	0.00013018306
133	0xb9c747aa	-0.00038009632
134	0xbe26cb0c	-0.16288394
135	0x3a9f654a	0.0012160924
136	0x3d297064	0.04136695
137	0x3c49f4a8	0.012326397
138	0xbe8fe5bd	-0.28104964
139	0xbcda78d0	-0.026668936
140	0x3dd8dd0a	0.10589035
141	0xbaa91446	-0.0012899719
142	0xbbd8fdbe	-0.0066220453
143	0x3ddee21a	0.10882969
144	0x3d7bef45	0.061507482
145	0xb8761cd0	-5.8677804e-05
146	0xbca0e1e6	-0.019638967
147	0xb9372166	-0.00017464682
148	0xba2d6838	-0.0006614956
149	0x39190060	0.00014591357
150	0xbeddc0e6	-0.43311232
151	0xbca611a7	-0.02027209
152	0xbd91f505	-0.07126812
153	0xb96c5d25	-0.00022541413
154	0x3deb9756	0.115034744
155	0xba2de849	-0.00066340395
156	0xbcc5fa53	-0.024167215
157	0xbdc824ec	-0.09772667
158	0x3abfb396	0.0014625664
159	0xbd69290d	-0.056923915
160	0xba566545	-0.00081785425
161	0xbd98cee0	-0.07461333
162	0xbabe5441	-0.0014520959
163	0x3d4f6172	0.05063004
164	0x3c9a453e	0.018831845
165	0x391c3427	0.00014896748
166	0x3d98b69f	0.07456707
167	0xbdbf4dc3	-0.09341004
168	0x3ac2e799	0.0014870047
169	0xbcc466c3	-0.023974782
170	0xbae1670c	-0.0017196848
171	0xbd7a8ae9	-0.06116763
172	0x3b2618c0	0.0025344342
173	0xbce70776	-0.0282018
174	0xba51ce1b	-0.00080034294
175	0x3d2483b7	0.040164676
176	0x3cd8d891	0.026470454
177	0xbc4790cf	-0.012180521
178	0x3de21682	0.11039449
179	0x3aab0504	0.001304776
180	0x3a969a37	0.0011490051
181	0x3da615a8	0.08109599
182	0xbced0fd0	-0.028938204
183	0x3a93402e	0.0011234337
184	0xbe00955f	-0.1255698
185	0x3e054c5d	0.13017412
186	0xba93bc1b	-0.001127127
187	0xba4f6e5d	-0.0007912869
188	0x3a6f49d6	0.0009128129
189	0xbe0081f0	-0.12549567
190	0xbe820a91	-0.25398687
191	0x39ec474c	0.00045066548
192	0x39ff07fd	0.00048643342
193	0xba0dcc15	-0.0005409134
194	0xbafd7500	-0.0019337237
195	0x3ab8bb55	0.0014093915
196	0xbdbd3b98	-0.09239882
197	0x3da2bd85	0.07946304
198	0xbeb42989	-0.3518794
199	0x3ddabb56	0.10680263
200	0xbe60595c	-0.21909088
201	0xbb710841	-0.0036778601
202	0x3c9f270f	0.019427804
203	0xbe2c20f6	-0.16809449
204	0xbe45d063	-0.19317774
205	0xbb187f93	-0.00232694
206	0xbe1b07a9	-0.15139641
207	0x3a856813	0.0010178111
208	0xba65f757	-0.0008772513
209	0xbb0398cb	-0.0020080085
210	0x3e3efc08	0.1865083
211	0x3e1e677e	0.15469167
212	0xbdc2f3f7	-0.09519189
213	0x3a637243	0.0008676389
214	0x3d9018e9	0.07036001
215	0xbb4ec89a	-0.0031552673
216	0xbe5ab838	-0.21359336
217	0xbe16f9c8	-0.14743721
218	0x3a6d0fd8	0.00090431934
219	0xbe2fb402	-0.17158511
220	0xbad03f3d	-0.0015887987
221	0xbdc6977e	-0.096968636
222	0xb8e7edfa	-0.00011059265
223	0xbc491790	-0.012273684
224	0x3d05caeb	0.03266422
225	0xbab2688c	-0.001361148
226	0xbd5ddb91	-0.054164473
227	0x3ce0f7e9	0.027461963
228	0x39e28a00	0.00043208897
229	0x3db8b2c5	0.090184726
230	0x3d4bbeb1	0.049742404
231	0xbe3405f3	-0.17580394
232	0xbc91497d	-0.017735237
233	0x3dc160c6	0.09442286
234	0x3a84d474	0.0010134117
235	0xbd0a7fd9	-0.03381333
236	0x3d873f08	0.06603819
237	0x3d9af6bb	0.07566591
238	0x3cafa68b	0.021441719
239	0x3a28a786	0.00064336543
240	0x3cd0d79d	0.025493437
241	0x3ec7cadb	0.39021954
242	0x3e857790	0.2606778
243	0xbc74347d	-0.014905092
244	0x3edf3d23	0.4360133
245	0x3ed8db39	0.42354754
246	0x3d6224f9	0.05521104
247	0xbcbfbb2c	-0.02340468
248	0x3bcea26b	0.006305983
249	0xbefa30c7	-0.4886534
250	0xbe88c028	-0.26709104
251	0x3d34b776	0.044120274
252	0xbd7e0929	-0.062020455
253	0xbcc04296	-0.02346925
254	0xbf045bf6	-0.5170282
255	0xbb3ccaaf	-0.0028807332

module.4.bias f4 [6]
0	0xbeba6d9d	-0.36411753
1	0xbc06d6e6	-0.008229947
2	0x3d9386a2	0.072034135
3	0x3e0aa96d	0.13541193
4	0xbf2bc18a	-0.6709219
5	0xbe3d13c6	-0.18464574

module.6.weight f4 [1, 6]
0	0xbce6a95c	-0.028156929
1	0xba4a578d	-0.00077187346
2	0x3d958f46	0.07302718
3	0x3ccf02c8	0.02526988
4	0xbec9e7dd	-0.3943471
5	0xbe20993f	-0.15683459

exp_avg f4 [100, 11]
0	0x37be439a	2.2681244e-05
1	0xb921d254	-0.0001543251
2	0xb81f293d	-3.794696e-05
3	0xb8c00062	-9.155345e-05
4	0xba2847a0	-0.00064193644
5	0xb9e87950	-0.00044340873
6	0xb8def615	-0.00010631621
7	0xb385cfc5	-6.231088e-08
8	0xb8d052de	-9.933648e-05
9	0xb99377ee	-0.0002812738
10	0xb9b2bc67	-0.00034091176
11	0x38267218	3.9683742e-05
12	0x389618d2	7.1571805e-05
13	0x38542888	5.0582486e-05
14	0x383733cc	4.367884e-05
15	0xb983cf63	-0.00025140782
16	0xb94d76ab	-0.00019594531
17	0xb70c19c0	-8.350646e-06
18	0x3816244a	3.5796584e-05
19	0xb74d265c	-1.2227883e-05
20	0xb8c50036	-9.393731e-05
21	0xb9212723	-0.00015368736
22	0x37cb992f	2.4270817e-05
23	0xb972d37d	-0.00023157704
24	0xb90a0f80	-0.0001316648
25	0xb91fd2ed	-0.00015241998
26	0xb9cff4f1	-0.00039664612
27	0xb8743e77	-5.823231e-05
28	0xb8b54b53	-8.644783e-05
29	0xb82c6907	-4.110581e-05
30	0xb85c63b3	-5.254494e-05
31	0xb9632917	-0.00021663714
32	0xb8944a8c	-7.0710754e-05
33	0xb8fc725f	-0.000120376
34	0x38a8c1eb	8.046984e-05
35	0x376075f7	1.3378906e-05
36	0x367e3c15	3.7883922e-06
37	0x389fb368	7.615128e-05
38	0x38ae8ab7	8.322804e-05
39	0xb79ee8e1	-1.894351e-05
40	0x3816b3c3	3.5930203e-05
41	0x364de824	3.0682504e-06
42	0x3895a991	7.136458e-05
43	0x386d72ce	5.6612123e-05
44	0x3824d1b5	3.9295952e-05
45	0xb969a0b8	-0.00022280484
46	0xb8eb23cc	-0.00011212341
47	0xb9233695	-0.00015565225
48	0xba1c572f	-0.0005963919
49	0xb9864673	-0.0002561096
50	0xb941feea	-0.00018500877
51	0x37eaac0f	2.7975095e-05
52	0xb89e7b6c	-7.557016e-05
53	0xb99104ee	-0.00027660228
54	0xb99532ae	-0.00028457254
55	0x3983f341	0.00025167505
56	0xba288c81	-0.0006429628
57	0xb9a97606	-0.00032322126
58	0xb9e50cc5	-0.00043687798
59	0xba80a86b	-0.0009815817
60	0xb93cbbc9	-0.00017999033
61	0xb917bfe5	-0.00014471968
62	0xb95f286e	-0.00021281998
63	0xb970c07f	-0.00022959894
64	0xba2654b4	-0.0006345019
65	0xb9134fa6	-0.00014048684
66	0x3886058d	6.390652e-05
67	0x3988697c	0.00026018533
68	0x38e190f5	0.000107558364
69	0x39b7d877	0.0003506576
70	0x39e43280	0.00043525174
71	0x39d1754f	0.00039950988
72	0x3942a0f3	0.0001856124
73	0xb7735b10	-1.4505131e-05
74	0x3951a5c3	0.00019993544
75	0x391af4cf	0.00014777783
76	0x39c0783c	0.00036710675
77	0x383b2ad7	4.4624172e-05
78	0xb95cb5a6	-0.00021048504
79	0xb82ce680	-4.1222665e-05
80	0xb8857841	-6.364333e-05
81	0xb9dc40d8	-0.00042009982
82	0xb987a016	-0.0002586848
83	0xb7ae3252	-2.0765849e-05
84	0xb8110e7d	-3.4584187e-05
85	0xb7bcab8d	-2.2491231e-05
86	0xb9a8252f	-0.0003207116
87	0xb944a3e5	-0.00018753072
88	0x384691cc	4.7342663e-05
89	0xb6eabaa8	-6.995473e-06
90	0xb750f278	-1.245422e-05
91	0x37fdf79c	3.0275252e-05
92	0xb8867efe	-6.413272e-05
93	0x38f7a634	0.000118088356
94	0x38000130	3.0518684e-05
95	0xb82dd6c5	-4.1446434e-05
96	0xb75a4e48	-1.3012039e-05
97	0xb8b770ec	-8.747153e-05
98	0x38d5d921	0.00010197075
99	0x36883a4b	4.059902e-06
100	0x352a5a5d	6.346143e-07
101	0x3617dc4c	2.2628983e-06
102	0x3793039d	1.7525448e-05
103	0x3824a9c7	3.9258764e-05
104	0xb6c63a45	-5.9076433e-06
105	0x3783b159	1.5699e-05
106	0xb76ef194	-1.4242152e-05
107	0xb4cc677b	-3.8073253e-07
108	0x37404122	1.1459257e-05
109	0x3741592c	1.1524458e-05
110	0xb994dc56	-0.00028392923
111	0x39ea2b7d	0.0004466436
112	0x39162e21	0.00014322299
113	0x39874f5c	0.00025808334
114	0x39c0f763	0.0003680541
115	0x38814cd9	6.165513e-05
116	0xb8dfee61	-0.0001067787
117	0x396c2977	0.0002252216
118	0x38d29636	0.00010041559
119	0x39e336a5	0.00043337527
120	0xb7be5e0d	-2.269356e-05
121	0xb73e3c70	-1.1338954e-05
122	0x39d88219	0.0004129566
123	0x394449fa	0.00018719575
124	0x3977024f	0.00023556616
125	0x3a774b3d	0.00094335136
126	0x399a7b26	0.00029464922
127	0x39488c55	0.00019125764
128	0x388ac429	6.6168905e-05
129	0x391e0b28	0.0001507221
130	0x39ef48f2	0.0004563998
131	0x3982817f	0.00024892014
132	0x390affbf	0.00013255978
133	0xba0f9ed4	-0.00054786843
134	0xb972c2ee	-0.00023151535
135	0xb9bdaae4	-0.00036176213
136	0xba9bd330	-0.00118885
137	0xba21545d	-0.00061542337
138	0xb9908ae8	-0.00027569314
139	0x34fc0ee5	4.6949495e-07
140	0xb8a5d824	-7.9080724e-05
141	0xba1004ed	-0.0005493898
142	0xba154439	-0.0005694065
143	0xb83d4410	-4.51245e-05
144	0x38c5640c	9.412327e-05
145	0x39066e61	0.00012820355
146	0x3875dd8d	5.8618887e-05
147	0x39938c09	0.0002814236
148	0xb801601c	-3.0845506e-05
149	0x389313d8	7.0132024e-05
150	0x38b43119	8.592214e-05
151	0x38f16e7e	0.00011512356
152	0x392de5e8	0.00016584212
153	0xb82e79bb	-4.1598203e-05
154	0x37d5673e	2.5439655e-05
155	0xb873cddd	-5.812744e-05
156	0xb7823457	-1.552158e-05
157	0x36eba823	7.0231195e-06
158	0xb8ca7f94	-9.655874e-05
159	0xb8069a26	-3.209165e-05
160	0xb7832e5b	-1.5638003e-05
161	0xb76c5cd1	-1.4088307e-05
162	0x370b6009	8.307406e-06
163	0xb89285b9	-6.98673e-05
164	0xb7889b5b	-1.6284806e-05
165	0xb5cb2c97	-1.5137656e-06
166	0xb71de7d7	-9.411909e-06
167	0xb6508d26	-3.1076574e-06
168	0xb6cb20e5	-6.053701e-06
169	0xb75f4e61	-1.3310085e-05
170	0xb715a038	-8.918396e-06
171	0xb6d27b19	-6.272818e-06
172	0xb5799b4f	-9.298573e-07
173	0xb6b21c9b	-5.3081435e-06
174	0xb6dd6668	-6.598235e-06
175	0xb6ef2147	-7.126629e-06
176	0x39272e01	0.00015943499
177	0xb9bb3eb5	-0.0003571414
178	0xb8ba50bf	-8.884211e-05
179	0xb8ce17cf	-9.82728e-05
180	0xba7f372f	-0.0009735701
181	0xba114600	-0.0005541742
182	0xb914f112	-0.00014204186
183	0xb805d19a	-3.1904878e-05
184	0xb827cd3b	-4.000704e-05
185	0xba11df6d	-0.0005564604
186	0xb9f3a05a	-0.00046468043
187	0xb8485f83	-4.7772668e-05
188	0x392c7014	0.0001644495
189	0x3884f99b	6.340743e-05
190	0x3860c9b5	5.3593616e-05
191	0x3940adbf	0.00018375272
192	0x37f40af4	2.9092167e-05
193	0x3852ee2c	5.0289716e-05
194	0x380ee5f0	3.4069584e-05
195	0x37468d34	1.1834596e-05
196	0x38d200f0	0.00010013755
197	0x37d71d25	2.5643569e-05
198	0xb9c43719	-0.00037425084
199	0x3a394156	0.0007066926
200	0x398eb75b	0.0002722096
201	0x3971bcf8	0.00023053947
202	0x3a726351	0.00092463667
203	0x39c9a923	0.00038463724
204	0x38bff0f6	9.152472e-05
205	0x396470d9	0.00021785813
206	0x38c15449	9.2186565e-05
207	0x3a2c0f28	0.0006563538
208	0x39a440c8	0.00031328783
209	0xb7aad6a5	-2.036553e-05
210	0x3ae32f53	0.0017332829
211	0x3a5162e6	0.00079874543
212	0x3a9c6c53	0.0011934139
213	0x3b177001	0.002310753
214	0x3a9c5d36	0.0011929634
215	0x3a738b98	0.00092905154
216	0x39249691	0.00015696349
217	0x3a0cb30f	0.0005367258
218	0x3a8a4ddc	0.0010551768
219	0x3a9ef2a4	0.0012126756
220	0xb9006b26	-0.00012246947
221	0xb927158d	-0.0001593439
222	0x37ce0350	2.4558656e-05
223	0xb8218912	-3.8513048e-05
224	0xb8d3f917	-0.00010107661
225	0xb96d088c	-0.00022605265
226	0xb877a9e2	-5.9047605e-05
227	0x37b10802	2.1103773e-05
228	0x34fc321e	4.6975123e-07
229	0xb8a74246	-7.975525e-05
230	0xb935797a	-0.00017306759
231	0x38c628fb	9.449009e-05
232	0xba03f11f	-0.0005033183
233	0xb9867b33	-0.00025650262
234	0xb9f239dd	-0.00046200948
235	0xba9f271d	-0.0012142394
236	0xb9ff6708	-0.00048714154
237	0xb95338c4	-0.00020143675
238	0xb87ad4c8	-5.9802813e-05
239	0xb9201e99	-0.00015270188
240	0xba218090	-0.000616082
241	0xb9dc439a	-0.00042012037
242	0x39a97455	0.00032320866
243	0x3ab1f749	0.0013577725
244	0x3a23b0f5	0.0006244325
245	0x3a9d3d4c	0.0011996417
246	0x3aee8b46	0.0018199466
247	0x3a96961f	0.0011488831
248	0x3a70f64a	0.00091919734
249	0xb81887d5	-3.6366127e-05
250	0x3a04bab6	0.00050632225
251	0x3a24879f	0.00062763126
252	0x3aa05b28	0.0012234198
253	0xb9a0ae84	-0.00030647602
254	0x3a1ba1c9	0.00059368886
255	0x396617ce	0.00021943377

exp_avg_sq f4 [100, 11]
0	0x365262f4	3.1350037e-06
1	0x36439d0b	2.9148675e-06
2	0x358c2028	1.0440172e-06
3	0x36474314	2.9692355e-06
4	0x362f1e6c	2.609474e-06
5	0x36336c29	2.6736036e-06
6	0x35ff78a1	1.9034088e-06
7	0x35738961	9.0724467e-07
8	0x3663b43d	3.3930548e-06
9	0x35fbdea1	1.8765751e-06
10	0x3613a2cd	2.199947e-06
11	0x3617f469	2.2643019e-06
12	0x35ac876d	1.2854413e-06
13	0x350a1ea6	5.1453605e-07
14	0x35b4aa1b	1.3460552e-06
15	0x35b7c2d4	1.3691265e-06
16	0x35add564	1.2951609e-06
17	0x357d5875	9.4378566e-07
18	0x350354b6	4.8924574e-07
19	0x35e9c070	1.741586e-06
20	0x35ae51da	1.2987832e-06
21	0x35c16916	1.4410205e-06
22	0x34ecd923	4.4116413e-07
23	0x3494624f	2.7638677e-07
24	0x33d8a72a	1.0088691e-07
25	0x34bf35b2	3.561559e-07
26	0x348e6258	2.6521116e-07
27	0x347ee5f5	2.3739251e-07
28	0x3487b325	2.5276054e-07
29	0x34397c23	1.7274628e-07
30	0x34d8a3ab	4.035222e-07
31	0x3454da2d	1.982341e-07
32	0x3433f510	1.6759827e-07
33	0x34ceec35	3.8542353e-07
34	0x3461a2a5	2.1013928e-07
35	0x33b5b02e	8.460516e-08
36	0x34673231	2.1531811e-07
37	0x34a091f0	2.9908506e-07
38	0x342eb35b	1.6270262e-07
39	0x348ef33c	2.6626537e-07
40	0x33d40cc5	9.874342e-08
41	0x34722837	2.2552636e-07
42	0x34b25436	3.3216355e-07
43	0x33f62deb	1.146362e-07
44	0x36e1f1ab	6.7336564e-06
45	0x36077286	2.018323e-06
46	0x3565644f	8.5455116e-07
47	0x36567dbf	3.1961679e-06
48	0x361661b6	2.2408617e-06
49	0x360a334a	2.0593457e-06
50	0x3599b039	1.1450676e-06
51	0x35121439	5.4418666e-07
52	0x367d465a	3.7740888e-06
53	0x35b2b15c	1.3313652e-06
54	0x35faec57	1.8695235e-06
55	0x36aa67f1	5.078495e-06
56	0x3656516e	3.1935883e-06
57	0x35d05bbc	1.5523906e-06
58	0x3687fbc9	4.052625e-06
59	0x3647f109	2.9793612e-06
60	0x365e2661	3.3102917e-06
61	0x36184869	2.2691913e-06
62	0x35b9f337	1.3854359e-06
63	0x36995f7e	4.570872e-06
64	0x36065eb7	2.0022687e-06
65	0x365ea4e6	3.3176561e-06
66	0x35ce6f02	1.5380504e-06
67	0x362452d8	2.4486126e-06
68	0x3580a344	9.58426e-07
69	0x36089cc9	2.035684e-06
70	0x35f7e4ac	1.8469486e-06
71	0x35f0a464	1.7929237e-06
72	0x360311f7	1.9530978e-06
73	0x34ea36d4	4.362579e-07
74	0x3603ce77	1.96407e-06
75	0x3591540b	1.0827802e-06
76	0x355223dd	7.8283284e-07
77	0x35ab67c2	1.277069e-06
78	0x356711b6	8.607998e-07
79	0x34c7d7ec	3.7223742e-07
80	0x35d344ab	1.574071e-06
81	0x35816ffb	9.64384e-07
82	0x3584f18d	9.905067e-07
83	0x353e46f1	7.088375e-07
84	0x34fb4c2a	4.680781e-07
85	0x36006f33	1.9138213e-06
86	0x356dbeb0	8.8566867e-07
87	0x35816d3d	9.643041e-07
88	0x34c04726	3.5814554e-07
89	0x34ce512a	3.8429545e-07
90	0x343469aa	1.6802247e-07
91	0x34b30868	3.3347465e-07
92	0x34977838	2.8213412e-07
93	0x349c02fd	2.905944e-07
94	0x34dd80a9	4.125807e-07
95	0x33b372a0	8.356187e-08
96	0x34b29ba7	3.3268336e-07
97	0x34663c62	2.1442386e-07
98	0x33e5c678	1.0699745e-07
99	0x33a0c6fe	7.486777e-08
100	0x33639e98	5.2996796e-08
101	0x329f7f1b	1.8567837e-08
102	0x33646dd8	5.318529e-08
103	0x338cfce5	6.565259e-08
104	0x334bf7a4	4.748985e-08
105	0x3328abb4	3.927171e-08
106	0x32726e60	1.411135e-08
107	0x33513809	4.8712568e-08
108	0x332f43ab	4.0806906e-08
109	0x32f3c662	2.8379137e-08
110	0x37dae641	2.6094845e-05
111	0x3725cf59	9.883043e-06
112	0x36ad07d7	5.1567145e-06
113	0x374b135e	1.2104252e-05
114	0x37308e52	1.0523554e-05
115	0x3733718c	1.0695669e-05
116	0x36d0f15b	6.2269805e-06
117	0x364170ff	2.8825013e-06
118	0x37828e15	1.556337e-05
119	0x3708dd7b	8.157799e-06
120	0x37466cf5	1.1827088e-05
121	0x3620c456	2.395614e-06
122	0x361161fc	2.1663718e-06
123	0x35423e4b	7.236128e-07
124	0x36286a1f	2.5095721e-06
125	0x36070b41	2.0123118e-06
126	0x3602857e	1.9449212e-06
127	0x35bd0c8b	1.4085248e-06
128	0x356e4057	8.8755536e-07
129	0x364265bc	2.896747e-06
130	0x35a72164	1.2452188e-06
131	0x35d0e7a7	1.5564627e-06
132	0x36453e54	2.9391567e-06
133	0x36562a45	3.191309e-06
134	0x359827c1	1.1336452e-06
135	0x3681ab5b	3.864448e-06
136	0x363ede77	2.8441698e-06
137	0x363ccf60	2.8134891e-06
138	0x3619907a	2.2882873e-06
139	0x35a97573	1.2625663e-06
140	0x36877f3f	4.038127e-06
141	0x35ab22e9	1.2750653e-06
142	0x361c6911	2.3306968e-06
143	0x36b9870b	5.5291507e-06
144	0x364a616f	3.015706e-06
145	0x35acd554	1.2877085e-06
146	0x3663cde5	3.3945482e-06
147	0x36e88e6e	6.93072e-06
148	0x364ec1bc	3.080916e-06
149	0x362dbe85	2.5889906e-06
150	0x3591e1f6	1.0869105e-06
151	0x3694d6da	4.4357557e-06
152	0x36d12aff	6.233691e-06
153	0x3666361b	3.4304164e-06
154	0x330d1a4b	3.2853034e-08
155	0x331800c0	3.539094e-08
156	0x32906fd7	1.6814665e-08
157	0x331bc761	3.6270084e-08
158	0x32c70e91	2.3173273e-08
159	0x32d6bab8	2.4997789e-08
160	0x328b0aac	1.6186583e-08
161	0x3273f671	1.4200496e-08
162	0x331a36f8	3.5905913e-08
163	0x3283c31f	1.5339138e-08
164	0x32c42f14	2.2838812e-08
165	0x30a291e0	1.1828512e-09
166	0x3073a46c	8.863654e-10
167	0x2fb8f76a	3.3645203e-10
168	0x30882817	9.906697e-10
169	0x309c7180	1.1382753e-09
170	0x308cbf76	1.0240757e-09
171	0x301be1f0	5.670975e-10
172	0x2fade9f1	3.1634742e-10
173	0x307457a4	8.889123e-10
174	0x303fb25e	6.973887e-10
175	0x3067f2d2	8.438238e-10
176	0x360b3efe	2.074928e-06
177	0x35f2cf14	1.8090673e-06
178	0x354c1c17	7.60368e-07
179	0x362f1320	2.6088164e-06
180	0x36076bb3	2.0179257e-06
181	0x360b9eed	2.080512e-06
182	0x358d081e	1.0507681e-06
183	0x3539cf0c	6.9219163e-07
184	0x3630e4d3	2.6359237e-06
185	0x35ab2238	1.2750452e-06
186	0x35fc58e5	1.8801335e-06
187	0x341f2b02	1.4823675e-07
188	0x33700fa1	5.589357e-08
189	0x32b51bd7	2.1083833e-08
190	0x33a5dcf4	7.7236024e-08
191	0x338e5e4b	6.629542e-08
192	0x337b1b5e	5.8465382e-08
193	0x3368583f	5.409697e-08
194	0x3317069b	3.5163435e-08
195	0x33ad960a	8.083232e-08
196	0x33266fde	3.875163e-08
197	0x33675056	5.3856944e-08
198	0x36d2ce0b	6.2824743e-06
199	0x36734207	3.6248255e-06
200	0x35d82232	1.6103206e-06
201	0x36a8275f	5.0113736e-06
202	0x3672be2f	3.6171512e-06
203	0x3685c9e1	3.9872107e-06
204	0x361ffae0	2.3838875e-06
205	0x35dfedd8	1.6684016e-06
206	0x36c4f5c5	5.8698665e-06
207	0x36371ecf	2.7287058e-06
208	0x36889eb9	4.0715936e-06
209	0x3781a9cd	1.5457068e-05
210	0x3795c0bb	1.7851931e-05
211	0x36e26588	6.7471447e-06
212	0x37b0c328	2.1071712e-05
213	0x37928af9	1.746927e-05
214	0x3783765a	1.5671529e-05
215	0x3778b028	1.48229665e-05
216	0x36f0dc0e	7.178175e-06
217	0x37b43b02	2.148515e-05
218	0x372ce75a	1.0305865e-05
219	0x3733ef56	1.0724956e-05
220	0x365b7b3b	3.2705273e-06
221	0x36122b9b	2.1781077e-06
222	0x35901f68	1.0737976e-06
223	0x36165dc0	2.2406311e-06
224	0x36a9bb2b	5.0583817e-06
225	0x361151f9	2.1654398e-06
226	0x360fe749	2.1443286e-06
227	0x35554420	7.944782e-07
228	0x363b5883	2.7916692e-06
229	0x36a03b4d	4.775275e-06
230	0x360843eb	2.0305113e-06
231	0x36d42841	6.3227785e-06
232	0x36965129	4.4797966e-06
233	0x35f39e28	1.815094e-06
234	0x36a3bc28	4.879683e-06
235	0x368166c8	3.856465e-06
236	0x368a1a49	4.1157805e-06
237	0x3659a636	3.2432267e-06
238	0x35dd0976	1.6468537e-06
239	0x36ad0b5f	5.1571255e-06
240	0x36005cc9	1.9127494e-06
241	0x36745f70	3.6414385e-06
242	0x37461099	1.1805584e-05
243	0x3789314f	1.6354634e-05
244	0x36be8788	5.678219e-06
245	0x3782c97b	1.559103e-05
246	0x37666937	1.37335655e-05
247	0x374f6f1f	1.2364034e-05
248	0x37686529	1.3851831e-05
249	0x36996ac9	4.5721868e-06
250	0x37797c70	1.4870529e-05
251	0x36fc0eec	7.5119224e-06
252	0x36ea91a8	6.9907e-06
253	0x36321503	2.6536297e-06
254	0x360def0d	2.1149783e-06
255	0x3579ff31	9.313108e-07

exp_avg f4 [100]
0	0xb8cfc37c	-9.906941e-05
1	0xb8218729	-3.851127e-05
2	0xb90dcc1d	-0.00013522846
3	0x384856da	4.7764603e-05
4	0xb98a7983	-0.00026411944
5	0xb9ad0abb	-0.00033005126
6	0x394a4d35	0.00019292983
7	0xb81cc2c9	-3.7374706e-05
8	0x38b4b7a7	8.617277e-05
9	0x3816f065	3.598667e-05
10	0x38fdf016	0.000121086996
11	0x38c98eda	9.611035e-05
12	0xba3073a2	-0.0006731098
13	0xb8791670	-5.9387123e-05
14	0xb7e0dc3c	-2.6805435e-05
15	0x36e1351d	6.7117057e-06
16	0xb9ab71fa	-0.0003270058
17	0x3891f6c0	6.9600996e-05
18	0x39ca7517	0.0003861568
19	0x3a8805c8	0.00103777
20	0x38521f43	5.0097016e-05
21	0xba1beb37	-0.00059478305
22	0x3a82076f	0.0009920428
23	0x38694e51	5.5624467e-05
24	0xb8bf1ff9	-9.113545e-05
25	0x394b2c58	0.00019376108
26	0x37f0e6ca	2.8717699e-05
27	0x39560466	0.00020410269
28	0xb6611ca4	-3.3544284e-06
29	0x38a1db4a	7.717924e-05
30	0xba185e71	-0.0005812413
31	0xb8b22ab7	-8.495658e-05
32	0x3718fbca	9.11853e-06
33	0xb8588775	-5.1624567e-05
34	0xb65adec8	-3.2614207e-06
35	0x3a078401	0.00051695114
36	0xb5fd4923	-1.8871254e-06
37	0xb7128408	-8.733019e-06
38	0xb882abdc	-6.230894e-05
39	0xb8df2028	-0.00010639458
40	0x39178e63	0.00014453525
41	0xb916abfb	-0.00014369182
42	0xb868d435	-5.5510744e-05
43	0xb8e477c5	-0.00010894196
44	0xb69de4a0	-4.70558e-06
45	0x396383e3	0.00021697539
46	0x3a583470	0.000824756
47	0x38b1890d	8.4655454e-05
48	0x39b4cd1d	0.00034485097
49	0x39ca0955	0.00038535395
50	0x36ff21bd	7.60352e-06
51	0xb997fcfd	-0.00028989455
52	0x3a803226	0.000978057
53	0x3a08d9af	0.00052204257
54	0xb70973da	-8.19281e-06
55	0xb76ef635	-1.424323e-05
56	0xb920158e	-0.00015266819
57	0xb8594260	-5.179865e-05
58	0xb87334ce	-5.7984893e-05
59	0xb7b4b732	-2.1542979e-05
60	0xb6f9b877	-7.442253e-06
61	0xb87d1f9a	-6.034933e-05
62	0x379a4ec7	1.8394914e-05
63	0x37d8d828	2.5849862e-05
64	0x3a155089	0.00056958996
65	0x398fdce9	0.00027439676
66	0x37d0eb3d	2.4905074e-05
67	0xb8c997ed	-9.612725e-05
68	0x38a4ada0	7.8524696e-05
69	0x3853e82e	5.0522554e-05
70	0x37fc4aed	3.0075631e-05
71	0xb761b180	-1.34523725e-05
72	0x369bd13e	4.643719e-06
73	0x3a239c45	0.00062412425
74	0xb8c799e9	-9.5177274e-05
75	0x390c1b67	0.00013361649
76	0xb77cc584	-1.5066358e-05
77	0x36167bcf	2.2423808e-06
78	0x39f04dd6	0.0004583436
79	0xb81ad85d	-3.6917965e-05
80	0x38b8f4a4	8.8193716e-05
81	0xb789f93e	-1.6447735e-05
82	0xb9fd7ab1	-0.00048347333
83	0x3a0afff0	0.000530242
84	0xb8588431	-5.1621526e-05
85	0xb9a50c1c	-0.00031480275
86	0x37539e33	1.2613414e-05
87	0x38282a65	4.0093804e-05
88	0x3a71b687	0.0009220619
89	0x38e8a0ad	0.0001109255
90	0x398ba152	0.0002663234
91	0xb881e7e1	-6.19439e-05
92	0xb8b81c1e	-8.779041e-05
93	0x3878566f	5.9208305e-05
94	0xb90e1b2e	-0.000135523
95	0xb968f259	-0.00022215526
96	0x39c85d28	0.0003821638
97	0xb971a3dc	-0.00023044593
98	0xb88e908a	-6.79801e-05
99	0x39ac3476	0.00032845483

exp_avg_sq f4 [100]
0	0x373f93dd	1.1418914e-05
1	0x3706c06f	8.031827e-06
2	0x3558ed7b	8.081185e-07
3	0x3512f11a	5.474009e-07
4	0x377fe68c	1.5252863e-05
5	0x3783ebe6	1.5726266e-05
6	0x36b8493e	5.492154e-06
7	0x36723009	3.608877e-06
8	0x354d9e53	7.6598843e-07
9	0x34208811	1.4950662e-07
10	0x38aea634	8.327924e-05
11	0x36e95fa3	6.9550747e-06
12	0x36f4430f	7.2795733e-06
13	0x37ab6ea1	2.0436304e-05
14	0x33810b0b	6.009039e-08
15	0x312d1335	2.5185731e-09
16	0x36b065fd	5.2570817e-06
17	0x3481a56d	2.4148486e-07
18	0x37930485	1.752587e-05
19	0x382c50a3	4.1083094e-05
20	0x373e00dd	1.13250835e-05
21	0x3782e514	1.560388e-05
22	0x380256be	3.10752e-05
23	0x36cfda8a	6.194522e-06
24	0x37632fc4	1.3541376e-05
25	0x3582c247	9.742297e-07
26	0x351ccfef	5.841711e-07
27	0x371700c4	9.00048e-06
28	0x351f60d8	5.937304e-07
29	0x350100c6	4.805737e-07
30	0x383201c5	4.2440155e-05
31	0x33462c27	4.6140624e-08
32	0x31b704c7	5.326544e-09
33	0x338de1b0	6.6068765e-08
34	0x31fec56f	7.4148185e-09
35	0x37f4f1b8	2.9199626e-05
36	0x36d4a781	6.3375924e-06
37	0x322c4121	1.0026526e-08
38	0x3617bdcd	2.2611232e-06
39	0x35bf64db	1.4259962e-06
40	0x36b81870	5.486472e-06
41	0x35cdb622	1.5326698e-06
42	0x3664a28e	3.4069267e-06
43	0x3623b81f	2.4396065e-06
44	0x34c9e9d4	3.76093e-07
45	0x36820e5a	3.8759727e-06
46	0x38105a31	3.4416273e-05
47	0x3661df41	3.3657564e-06
48	0x36fcae5f	7.5304847e-06
49	0x3760bf7e	1.3396026e-05
50	0x3388b573	6.365999e-08
51	0x37a8fcc7	2.014487e-05
52	0x383a49dd	4.4414646e-05
53	0x381cb16c	3.7358535e-05
54	0x33e05a70	1.0447263e-07
55	0x331b9b57	3.623003e-08
56	0x37b2109c	2.1226988e-05
57	0x3414d6b1	1.3861678e-07
58	0x33481dec	4.6593343e-08
59	0x325ffbf1	1.3037593e-08
60	0x3102351b	1.8947677e-09
61	0x364e786d	3.076649e-06
62	0x36295a1e	2.5235418e-06
63	0x35c5d006	1.4738187e-06
64	0x37d64ad1	2.5545627e-05
65	0x37fd7e95	3.0218895e-05
66	0x35c81975	1.490857e-06
67	0x382f414f	4.1784075e-05
68	0x360b1eb3	2.0730483e-06
69	0x356136ba	8.389867e-07
70	0x382ee64a	4.1699306e-05
71	0x34bdef8d	3.537829e-07
72	0x30bdf724	1.3821801e-09
73	0x38000e40	3.053085e-05
74	0x373c2539	1.121434e-05
75	0x378dc2d1	1.6899228e-05
76	0x35c4e824	1.46707e-06
77	0x31cb405e	5.9153953e-09
78	0x37ae5cd6	2.0785646e-05
79	0x356a2754	8.7229023e-07
80	0x368a58eb	4.123072e-06
81	0x3314e0cb	3.4663383e-08
82	0x37e4eaac	2.7288996e-05
83	0x37707d40	1.4334277e-05
84	0x337b3901	5.8492336e-08
85	0x37c9d023	2.4057988e-05
86	0x3667a3c5	3.4517009e-06
87	0x3705bf8f	7.9720185e-06
88	0x382469d0	3.9199193e-05
89	0x355d6dc4	8.2488646e-07
90	0x36b2da32	5.3302147e-06
91	0x37690a2a	1.3890249e-05
92	0x3310d342	3.371975e-08
93	0x32915827	1.6920309e-08
94	0x3691edfd	4.3490422e-06
95	0x37bcff70	2.2530294e-05
96	0x36b97caa	5.5279424e-06
97	0x379ecbd6	1.8929986e-05
98	0x35a3ff83	1.221881e-06
99	0x37fd512c	3.0197749e-05
