mnc_ml_test/output/train/20221128-1139-model.pth (torch, 66461 bytes, 21 tensors)

module.0.weight f4 [60, 11]
000000 8b de 32 3e 20 67 dd be 5b 31 96 3f 99 bf b6 be
       0.17467706 -0.4324274 1.1733812 -0.35693052
000010 cc 47 a5 bd f3 1e a5 3e 06 18 68 be 3c c5 bb 3e
       -0.08070335 0.32250175 -0.22665414 0.36673915
000020 c4 6c 3d be cb bf 86 be a3 c8 b0 bc f4 f0 29 3e
       -0.18498522 -0.263182 -0.021580046 0.16595823
000030 16 c3 59 3d 13 c7 1f bf 6e a4 2a 3e c5 7c 52 bf
       0.053164564 -0.6241314 0.16664287 -0.82221633
000040 cd fa 21 3e 2f e6 56 be df a0 1d 3f e2 e0 d6 bd
       0.15818329 -0.20986246 0.61573595 -0.10492112
000050 d6 d6 17 3e d5 25 32 be 2a 38 c7 3d f5 e7 9d 3e
       0.14828047 -0.17397244 0.09727509 0.30841032
000060 a8 4b 3e 3e a8 04 64 3d 5e 13 91 bb 57 96 b9 bd
       0.18583548 0.055668503 -0.0044273576 -0.09061878
000070 59 42 e5 be 7a c9 ac be fc 7e c8 bd 61 a1 c7 3d
       -0.44777182 -0.33747464 -0.09789845 0.097475775
000080 f4 bc c5 3d 59 b1 1a bd 5c 93 0d 3e f7 83 2d be
       0.096551806 -0.03776679 0.13825744 -0.16944872
000090 ba 0a 74 bc cf ac bf 3d f5 31 e1 bc 94 3c 23 3e
       -0.014895136 0.093591325 -0.027489642 0.15941077
0000a0 70 ba 53 bd af 25 02 3e 05 81 06 be 72 ac b7 bd
       -0.051691473 0.12709688 -0.13135155 -0.08968438
0000b0 fe ba f0 3c 9f 2a ca bb bd e9 73 bd 40 56 a8 3c
       0.02938604 -0.0061696316 -0.059549082 0.02054894
0000c0 b5 34 55 bb 96 3e 2b 3b f8 ad 90 39 a0 80 b1 3d
       -0.0032532637 0.0026129833 0.00027595437 0.086671114
0000d0 25 5a 75 bc e6 53 68 39 f9 77 35 3c 72 25 0c be
       -0.014975105 0.00022156499 0.011075967 -0.13686159
0000e0 af 90 2c bf 69 12 28 bf 67 d3 7b 3e 49 84 bc 3c
       -0.6740827 -0.6565309 0.24592362 0.023012297
0000f0 dd 05 10 bd 7e 6e 87 bd 5b 71 e2 bd d4 3a d3 bd
       -0.03516184 -0.066128716 -0.11056777 -0.10313955
000100 69 5c c2 3d dc 17 20 3e c7 f7 f9 3d d6 f3 f8 be
       0.09490282 0.15634102 0.12205463 -0.48623532
000110 8f b2 84 3f da 26 3b be 9e 3f 49 3f 42 e1 62 3e
       1.0366992 -0.1827654 0.786127 0.22156242
000120 0a 1a 1e 3e bc 07 fa 3e ee 26 5d be 0e 65 8d 3e
       0.1543962 0.48834026 -0.21596882 0.2761616
000130 de 63 aa 3c 05 ce a0 be c1 16 ea 3e 93 8c a3 be
       0.020799574 -0.3140718 0.45720485 -0.31943187
000140 5d da 10 be 0f 04 2a be c7 01 a4 bd ec 94 b6 3e
       -0.14145799 -0.1660311 -0.080081515 0.35660493
000150 d8 a1 8a 3e 77 22 3f 3e c8 61 33 bc 25 bd 79 be
       0.27076602 0.18665491 -0.010948606 -0.24388559
000160 1f 18 9c 3e 40 a8 a5 be 0c dd 5b 3f de 76 60 be
       0.30487153 -0.32354927 0.85884166 -0.21920344
000170 6a e8 91 bd c1 6d 39 3e ba 9a 3b 3e dc 81 d0 3d
       -0.071244076 0.18108274 0.18320742 0.10181019
000180 96 25 6f bd d4 64 b1 be 64 8f 0a 3a 43 9b 73 3e
       -0.058385454 -0.34647238 0.0005285649 0.23789696
000190 71 0b 5c 3f e9 ec 08 be a8 9b 59 3d a2 9b 1e be
       0.8595496 -0.13371624 0.05312696 -0.15489057
0001a0 be 05 91 be b2 1b 6b 3e 8e 56 e5 be 5f f1 91 bc
       -0.28324693 0.22959784 -0.44792598 -0.01781529
0001b0 d0 c7 e8 3d 50 45 4d be c6 58 16 be 76 86 9d 3e
       0.11366236 -0.20045972 -0.14682302 0.30766648
0001c0 c9 40 74 be 0a 07 53 3e 0e f8 56 bd a4 e5 7c be
       -0.23852839 0.20608154 -0.052482657 -0.24696976
0001d0 2b b6 7c 3e 90 b7 c5 be f1 68 fa 3d 1f 80 35 bd
       0.24678867 -0.3861661 0.12227047 -0.04431164
0001e0 35 df 08 bc 22 34 1f bf d8 da 18 3e 3a 92 63 be
       -0.008353998 -0.62188923 0.14927232 -0.2222375
0001f0 43 de 0f 3e 5a 07 fe 3d 62 93 53 3e 8d 7b 14 bf
       0.1404963 0.12403746 0.20661691 -0.58001024
000200 24 b7 ec 3e da 12 24 be 44 ca 53 bd ee 7f 98 be
       0.46233475 -0.16022816 -0.051706567 -0.29785103
000210 99 63 ab be 5e 3e e1 bd fb 2b 10 bf 41 0b 92 3d
       -0.33474424 -0.10998224 -0.5631711 0.07131053
000220 40 9d f9 3c 28 13 a3 3c 30 19 24 be 79 e5 a5 be
       0.03047049 0.019906595 -0.16025233 -0.32401636
000230 61 1c 51 3e 50 e7 88 3d c1 54 b2 bb 62 7d c6 be
       0.20420982 0.06684744 -0.0054422324 -0.38767534
000240 7c c2 34 3e b4 f3 d7 be 1c d7 0b 3d ca 1b 5a 3e
       0.17652315 -0.42178118 0.03414069 0.21299663
000250 de df 7d be 14 40 e5 bc ef 9b 59 bf 63 f0 9b 3e
       -0.2479243 -0.027984656 -0.8500356 0.30456838
000260 b5 85 9c be 06 93 ab 3d f6 08 9b 3d f4 a1 67 3b
       -0.3057076 0.08377652 0.075700685 0.0035344334
000270 5a be 4a be d1 da b1 3d 02 e5 51 bb 89 58 9d bd
       -0.19799176 0.08684314 -0.0032027368 -0.07682902
000280 5c 0f 08 bc f3 8d 97 3e ac 22 ee bd be 1f cf bb
       -0.008304443 0.29600486 -0.11627707 -0.0063209226
000290 87 e7 e1 3d 9e 52 66 3e fa 11 33 bd 67 42 09 3f
       0.110304885 0.22492453 -0.043718316 0.53616947
0002a0 dd f6 d6 be 67 ba 04 be 71 43 37 be b0 c8 d2 bd
       -0.41985217 -0.12961732 -0.1789682 -0.10292184
0002b0 cc 66 6c 3d 2a 3e 4e 3e a4 05 f8 bd cc b2 61 3e
       0.057715222 0.20140901 -0.12110451 0.22040862
0002c0 1e 43 56 be d9 b3 6e 3e 7b 69 9c 3d 64 6a 4d 3e
       -0.2092404 0.23310794 0.07637306 0.20060116
0002d0 89 c1 ea 3c 34 4c 4e be 8c 3f ce 3d 62 99 8c 3d
       0.028656738 -0.20146257 0.10070714 0.06865193
0002e0 ab cb 7d 3d 20 88 fa 3d ad 15 56 3d 25 aa 06 3f
       0.06196181 0.12232995 0.052266765 0.5260337
0002f0 64 8f d0 3e c8 67 65 be 63 c5 da 3d cb f6 0b 3e
       0.40734398 -0.2240287 0.1068218 0.13668363
000300 9a 13 bb be cd bc bc be 4b 11 9d bc 23 86 25 be
       -0.36538392 -0.36862794 -0.019173285 -0.1616445
000310 e2 15 8e bd 3e c1 13 3e 01 8e a7 3e 37 5f 3e bf
       -0.069377676 0.14429185 0.32725528 -0.74364036
000320 bb 05 31 3f 79 3a 9e 3b 31 ae e5 bd dd 51 35 3f
       0.6914937 0.004828748 -0.11214865 0.7082804
000330 74 bf 8b 3e 35 e0 3d 3f 67 dc da be dc 1e 34 3e
       0.27294505 0.7417024 -0.4274628 0.17589897
000340 61 25 14 bf 95 77 91 3c 3f 76 0b 3f 7a 9a 20 3e
       -0.57869536 0.017757216 0.54477304 0.15683928
000350 33 57 54 3c 22 e1 6f 3a f9 9a 3f be 16 47 47 be
       0.012960243 0.0009150674 -0.18711461 -0.19460711
000360 a9 2b ae be 6d 00 73 3e b8 86 2e be b2 6b c5 3d
       -0.34017685 0.23730631 -0.17043579 0.09639682
000370 44 4d 9d be bc 03 9b 3e f3 25 2c bf 98 e6 38 3e
       -0.30723011 0.30276287 -0.67245406 0.18056715
000380 76 5b 93 3e ce f8 c1 be 52 77 d4 be 58 59 32 bf
       0.28780717 -0.37885135 -0.41497284 -0.6966758
000390 c1 20 0d 3e 46 0a c8 be 01 75 94 3e a5 af 9c 3e
       0.13782026 -0.39070338 0.28995517 0.30602756
0003a0 91 cb 83 3d f4 09 9a bd 05 07 15 be ba 70 34 be
       0.064353116 -0.0752143 -0.14553459 -0.17621127
0003b0 2c 90 02 3d ee 3c 18 be 54 25 75 3d 32 32 6f 3e
       0.031875774 -0.14866993 0.059850052 0.23358992
0003c0 aa 22 97 3e 94 c1 e4 bc 2b 00 9a bd 37 1e 90 be
       0.29518634 -0.027924336 -0.07519563 -0.28148052
0003d0 e3 9a dc 3e d2 d5 5c be 85 7e 2f ba fa 96 a7 bd
       0.4308692 -0.21565941 -0.0006694573 -0.08183093
0003e0 16 24 28 3d 5b af dd 3e 5c ba 23 be 1f b8 1a be
       0.04105004 0.43297848 -0.15989059 -0.15109299
0003f0 ee 4b 84 3e ab ab 83 be 28 33 54 3e b1 ba 82 3e
       0.2583918 -0.2571691 0.2072264 0.2553306

module.0.bias f4 [60]
000000 9a df 49 3e 32 f4 e6 3b 35 3e 8b bd cb 0b 1d bf
       0.19714203 0.0070481533 -0.067989744 -0.6134612
000010 b5 f6 8b 3c 54 e2 e2 be cc 70 b9 3c 44 85 0a 3e
       0.017085413 -0.443133 0.022636794 0.135274
000020 70 e4 ac be 1c 38 16 bf 9c 80 ff be ac 7e ed 3d
       -0.33768034 -0.58679366 -0.4990281 0.11596426
000030 71 d2 46 3e 81 56 38 bd 07 b9 d5 3c 0f 8c e0 be
       0.19416215 -0.04500437 0.026089204 -0.43856856
000040 75 97 65 3e b9 46 d3 bd 77 8a 0e bf 05 dc b2 be
       0.22421058 -0.10316224 -0.5568003 -0.34933487
000050 70 e5 fc bc ff 02 71 3e f5 d3 b7 be 94 be b1 3e
       -0.030871123 0.23536299 -0.35903898 0.34715712
000060 2b 46 58 3e c8 94 a9 3e b8 54 f1 be da 5b 8c be
       0.21120517 0.33121324 -0.47134948 -0.27413827
000070 0e 04 73 3e 93 a9 02 bf 25 6f 74 be a2 77 00 bf
       0.23732015 -0.5104 -0.23870523 -0.50182545
000080 68 7f 9a be 45 8b a4 be 9e 4e 56 3d 5c 1d a8 bd
       -0.30175328 -0.32137504 0.05232107 -0.08208725
000090 d3 8a ee be a9 2a f0 be 96 8c b5 be 14 bc ae 3e
       -0.4659029 -0.46907547 -0.3545882 0.34127867
0000a0 65 53 0c 3c 13 14 53 be a9 bb 76 be ae e0 b4 be
       0.008564805 -0.20613126 -0.24095024 -0.35327667
0000b0 32 34 b3 3e 9d a9 0e 3c e5 85 b5 be 8f 9c 46 be
       0.3500076 0.008707431 -0.35453716 -0.1939566
0000c0 ed ce e8 3e 60 41 6c 3e c7 15 23 be 9f 0a 41 bf
       0.45470372 0.23071814 -0.15926276 -0.7540683
0000d0 da 2e c8 be e5 ed f9 3e 6e 83 41 3e c7 f4 0e 3d
       -0.39098245 0.48814312 0.18897793 0.034901407
0000e0 14 d2 b6 3d 04 f0 95 3e dd 66 8a 3e 81 62 24 3e
       0.08926788 0.2928468 0.27031603 0.16053201

module.2.weight f4 [60, 60]
000000 40 b3 57 be 7e 04 81 3e d3 db 86 bd 7f 67 30 3e
       -0.21064472 0.2519874 -0.06584897 0.1722698
000010 b3 65 7a ba 53 43 d8 3c 8f e7 c0 3d 5f 6e 76 3e
       -0.00095518975 0.02639929 0.09419166 0.2406554
000020 b7 e4 81 bd cc bf 84 be 49 56 9a 3b 19 18 0c 3e
       -0.06342452 -0.2592758 0.004709993 0.13681068
000030 f9 f2 80 bd 1f 39 cb be a5 65 16 3d 7b b4 3e bd
       -0.06296343 -0.39692017 0.03671803 -0.04655884
000040 31 28 21 3d 27 8d 69 be 99 33 f7 3e a2 f3 37 3d
       0.03934497 -0.22807752 0.48281553 0.04491008
000050 7d f4 b0 be 3a c9 12 be 62 fa 44 3e e1 93 00 3e
       -0.3456153 -0.14334574 0.19236138 0.12556411
000060 01 e4 c2 be 93 88 d7 bd 13 65 4c 3e 09 00 53 bc
       -0.38064578 -0.10524096 0.19960432 -0.012878426
000070 95 61 12 be a4 53 82 3c e8 82 b6 bc 32 89 ce bd
       -0.14295037 0.015909024 -0.022279218 -0.10084762
000080 64 84 ca bd bb fe 09 3f 43 f3 93 3e b5 92 6c bd
       -0.09888533 0.5390431 0.2889653 -0.0577571
000090 1e 64 4d 3d 63 10 ce 3d 89 81 bd 3e aa 81 f5 bc
       0.050144307 0.10061719 0.3701289 -0.029969055
0000a0 62 98 bd bc 99 97 cd 3d 7b 23 67 be 7f af 40 bd
       -0.02314395 0.100386806 -0.22572128 -0.047042366
0000b0 90 4d 21 be 22 78 29 bf 80 55 67 3e f9 5b 31 be
       -0.15752244 -0.66198933 0.2259121 -0.17320241
0000c0 4a 0b 7b bd bb a0 8e 3e e9 97 48 bd 83 91 1c 3f
       -0.061290063 0.27857003 -0.048972998 0.61159533
0000d0 09 dd 3b 3e cd 93 9b bd 25 1f 76 bd 51 77 8a 3e
       0.18346037 -0.0759655 -0.060088295 0.27044156
0000e0 38 4d 92 3d 2d 3d a0 3d 51 29 37 3e 61 06 92 3d
       0.071436346 0.07824168 0.17886855 0.07130123
0000f0 f8 e0 17 bf e1 ab a6 3d 23 76 a8 3e b1 d6 00 3f
       -0.5932765 0.08138252 0.3290263 0.50327593
000100 c8 bc 83 be 81 2b a9 3e d6 be dd bd 9b b5 6b be
       -0.25729966 0.33041003 -0.10827415 -0.23018496
000110 16 06 8d be 7b 85 a9 3e 74 82 b1 3e e3 e5 fb 3c
       -0.27543706 0.3310965 0.3466984 0.030749267
000120 27 3e 98 bd f6 9d 52 3c 82 6a 1e be ad 87 9c 3e
       -0.074337296 0.012855044 -0.15470317 0.30572262
000130 88 4d 89 be d4 c0 0a 3e 70 ec 2a 3e 0e aa 98 3e
       -0.26816964 0.1355012 0.16691756 0.2981724
000140 6b 2a 52 3e 8f b6 f2 be ee 71 bf 3e 46 87 69 be
       0.20523994 -0.47404906 0.3739161 -0.22805509
000150 58 20 93 be b0 6f 08 bf af 80 64 3e b5 bc c8 3e
       -0.28735614 -0.5329542 0.22314714 0.39206472
000160 78 51 bd be 67 cb a1 3d fb 1d 12 3f 6d 25 cf 3e
       -0.36976218 0.07900124 0.57076997 0.4045824
000170 63 cb 8e 3d a3 67 88 3e 66 00 25 be 22 ab 94 bd
       0.06972387 0.2664157 -0.16113433 -0.072592035
000180 71 67 ab 3d dd 1d 09 3f 31 37 ed 3c a4 55 f9 be
       0.08369339 0.5356119 0.028956981 -0.4869815
000190 59 6e 8a bc 6e 0d 44 bd b4 57 c7 3e e7 34 b6 3e
       -0.016898321 -0.04786437 0.389341 0.35587236
0001a0 af e2 e5 be da c4 ff be e3 42 fb 3e 42 59 b3 bd
       -0.44899508 -0.49954873 0.49074468 -0.08757259
0001b0 f5 11 ed be c6 cb 6c 3c 10 e0 91 3e 73 23 d5 3e
       -0.46302763 0.01445288 0.2849126 0.41628608
0001c0 69 50 80 3e 7c 31 f1 be 02 ef 0a 3d a1 5c 49 be
       0.25061348 -0.47108066 0.03391934 -0.19664241
0001d0 cd 68 08 be 8c 24 8e be f9 18 96 be 00 59 95 bd
       -0.13321228 -0.27762258 -0.29315928 -0.07292366
0001e0 bb 2b 28 be 38 a9 42 be 73 10 ef be 9c 7d be 3d
       -0.16422932 -0.19009864 -0.46692237 0.09301302
0001f0 3c 12 dd 3c d0 79 03 3e f2 d6 ee bd 2c f7 77 bc
       0.026986234 0.12839437 -0.11662091 -0.015134614
000200 3a 21 91 bd d7 10 88 3e 29 06 dd 3d e7 5b b1 be
       -0.070864156 0.26575348 0.107921906 -0.34640428
000210 49 16 24 3d f5 2f c1 3d 96 1b 97 bd b3 61 87 be
       0.040060315 0.09432975 -0.073783085 -0.26441726
000220 d7 12 dc bd 99 8d 1d bf 69 1f 63 3d 58 5f 38 be
       -0.10745781 -0.61544186 0.055449877 -0.18005121
000230 f6 82 d9 bc 7e 20 41 be 6b e5 77 bc 43 4c 24 bf
       -0.026551705 -0.18860051 -0.015130381 -0.64178866
000240 f8 2a f5 bc 04 83 75 bc 2e 9d 4b 3e 6e c0 41 3e
       -0.029927716 -0.01498485 0.19884178 0.18921062
000250 95 89 a3 3b e7 d6 58 3e 70 52 aa 3f 73 27 11 3e
       0.0049907663 0.21175729 1.3306408 0.14175205
000260 b7 3d d2 3e 7a 5c 95 be db a6 a2 be 16 3b 7d 3e
       0.4106271 -0.29172117 -0.31767926 0.24729571
000270 6b 5a f5 be 22 03 ba be a3 bf 1f bf 54 12 4d 3c
       -0.47920546 -0.36330515 -0.6240179 0.012516577
000280 d6 ff 07 be f9 8d 64 bf 75 1d 14 3f b6 1c 08 bd
       -0.13281187 -0.89279133 0.5785745 -0.033230506
000290 9c 66 08 3b aa 4f 20 3e 79 c6 e4 be c1 e1 1c 3e
       0.0020813113 0.1565539 -0.44682673 0.15320493
0002a0 22 34 67 3d 94 f3 d1 39 ad 7a 4d 3e ba eb d4 be
       0.056446202 0.00040045066 0.20066328 -0.41586095
0002b0 ed 0b ad 3d 63 38 42 be af 9d b0 be 55 08 52 3e
       0.0844954 -0.18966822 -0.34495303 0.20510991
0002c0 77 d5 43 bd 6e 58 89 bc 62 dd cf 3d 93 70 87 be
       -0.047810998 -0.0167658 0.10149647 -0.26453075
0002d0 09 ce ba 3d d0 4c 1c 3e e7 6d f7 3d dd a2 a8 bd
       0.09121329 0.15263677 0.12081509 -0.08234189
0002e0 36 90 3b bc 8e 80 2d 3e b6 58 1b 3e fc d2 59 3e
       -0.011447957 0.16943571 0.1517056 0.2127189
0002f0 a1 bf 3a 3d 9e fc a6 bc 37 56 20 bd 30 c8 75 3d
       0.045592908 -0.02038413 -0.03914472 0.060005367
000300 95 ec 2a 3d a1 e2 7d be c5 60 cb 3b a8 2d 45 3e
       0.04172953 -0.24793483 0.006206604 0.19255698
000310 36 86 d9 3d 2b 85 0b 3e e8 74 eb 3d 27 f6 7f 3d
       0.10621302 0.13625018 0.114969075 0.06249061
000320 4c 3c 0f be 13 15 dd 3c 78 a3 ce 3e f3 b6 26 be
       -0.13987845 0.026987588 0.40359092 -0.16280727
000330 76 65 60 3e 55 b3 96 3c f3 6b e9 bd d8 0d 5f bd
       0.21913704 0.018396059 -0.11397543 -0.05445656
000340 57 73 08 3e cb 95 1f bb 21 57 07 3f d1 1a 01 be
       0.13325249 -0.0024350758 0.52867323 -0.12607886
000350 76 4d 5f 3d cc 61 28 be 1d ef 11 3e 48 bd 05 3e
       0.054517232 -0.16443557 0.1425137 0.13060486
000360 c7 c8 4d be 29 c7 9e 3d 71 ba 80 3d 08 85 4a 3e
       -0.20096122 0.077528305 0.06285561 0.1977731
000370 aa 81 87 3e e6 3e 13 be 1a 13 02 3e 08 25 23 bd
       0.26466113 -0.14379463 0.12702599 -0.039830238
000380 de af 7c 3b a6 5c ef 3d 9a 22 26 3e 55 47 be be
       0.0038556973 0.11687593 0.16224137 -0.37163797
000390 89 79 11 bd 7a 55 a1 bc 4a 2c bd 3d 5a d0 03 3d
       -0.035516296 -0.019694079 0.09236963 0.03218112
0003a0 f8 60 6a 3d 11 41 0c be c2 c0 3e 3d ab f6 29 3e
       0.057221383 -0.13696696 0.046570547 0.16598003
0003b0 63 b7 4d bd e6 6a e7 bd 58 43 90 3e 91 c5 c0 bd
       -0.05022372 -0.11299686 0.2817638 -0.09412683
0003c0 44 46 3b bf c0 14 c7 be da 13 2d 3a 80 36 68 3c
       -0.7315409 -0.38883018 0.00066023844 0.01417315
0003d0 1e 27 37 bd a8 9e 24 3f e0 e0 29 bf 02 2e e1 bb
       -0.04471504 0.6430459 -0.66358757 -0.0068719396
0003e0 73 6e cd be 8a 43 08 3f 5a ce 9a 3e a0 b7 84 be
       -0.4012333 0.53228056 0.3023556 -0.25921345
0003f0 de bf b0 3e 5b 17 97 3e 64 e0 36 bd a9 97 5b bd
       0.34521383 0.29510006 -0.04464759 -0.05361143

module.2.bias f4 [60]
000000 01 2c ae 3d 31 65 32 bf 7f c0 1d 3c c3 a6 82 3d
       0.08504487 -0.69685656 0.009628414 0.063794635
000010 61 da 96 be a9 b4 f8 3c 92 e6 c1 3d 5d c0 29 3e
       -0.29463485 0.030359583 0.09467806 0.16577287
000020 39 5c 3f bc 5b 4d 9e be 4f 3c 3e bd b9 43 b4 be
       -0.011679702 -0.30918393 -0.046444234 -0.35207918
000030 e2 98 04 be ac 19 88 bb 47 77 2e be 5e 64 34 bd
       -0.12948945 -0.004153451 -0.17037688 -0.04404103
000040 f2 85 54 3e 84 ab 97 bb b4 36 17 3e 6d 5d 10 3e
       0.20754221 -0.0046286006 0.14766961 0.14098139
000050 20 78 d7 be 0b 04 b0 3c 58 6a 9c 3d e2 ad 92 3d
       -0.42083836 0.021486303 0.07637471 0.07162072
000060 88 ec da bd 9c e7 8b bc 63 2b db 3c 13 d2 87 bc
       -0.10689646 -0.017078213 0.026754087 -0.016579663
000070 40 d5 8d 3d 94 90 51 3d a1 51 b2 be c4 0d f1 bd
       0.0692544 0.05116327 -0.34827903 -0.11770204
000080 df fb 3c 3e 6e 84 a4 bd 77 79 dc be 5a 2b 98 be
       0.18455456 -0.080330715 -0.4306142 -0.29720575
000090 1e 4b b9 3d 8c 27 4f 3e 7c c0 dc 3d 2c 22 75 3e
       0.090475306 0.2022993 0.10778901 0.23938817
0000a0 0f 7d 77 3e 53 d1 04 bf b8 72 b8 bd 2c 15 07 be
       0.241688 -0.51881903 -0.09006256 -0.1319167
0000b0 4c 26 8f 3d d5 71 fb be b5 cd ab 3c b2 f7 42 bf
       0.069897264 -0.49110284 0.020972112 -0.76159203
0000c0 2d e3 ca 3c 5d c5 e0 be 91 1b 20 3e 45 6a 14 bd
       0.024766529 -0.43900576 0.15635516 -0.03623416
0000d0 38 59 a4 bd ef ef 26 be e4 5c 86 3e 3e 7a a7 3d
       -0.080248296 -0.16302465 0.26242745 0.08177613
0000e0 15 f9 b7 3d d9 d4 a2 be 51 02 b0 bd c7 99 94 bd
       0.089830555 -0.31803015 -0.08594192 -0.07255893

module.4.weight f4 [6, 60]
000000 04 6d 00 be 2b d0 0e 3e 8e ab c6 be 06 13 cb bd
       -0.12541586 0.13946597 -0.3880276 -0.09915738
000010 07 5c aa be ed a2 c5 39 af af 99 3b 01 9f b9 3c
       -0.33273336 0.00037696157 0.0046901326 0.022658827
000020 82 91 41 3b cb fb a4 be 44 07 ce 39 3a f5 c2 3d
       0.0029536192 -0.32223353 0.00039296795 0.095194295
000030 65 30 4c ba ec 46 33 3b 14 a0 44 b9 55 02 0b bb
       -0.0007789194 0.0027355505 -0.0001875165 -0.0021211107
000040 a8 f2 27 be 3b f9 87 3e fc 03 97 be 92 a6 68 3c
       -0.1640116 0.26557335 -0.29495227 0.01419987
000050 2c e5 32 3d b4 73 c6 3a 0b f1 f6 bb 00 5e 91 bb
       0.043675587 0.0015140683 -0.007536059 -0.0044362545
000060 92 91 85 bc 03 6d 57 bb 5a 3d a3 3b e9 78 7e 3b
       -0.016304765 -0.0032871373 0.004981679 0.0038829392
000070 49 a0 14 3c 59 c2 27 bc 96 01 4d be e9 2d af be
       0.009071418 -0.010239207 -0.20020136 -0.34214714
000080 6d 2e 4d 3b fd f5 76 bb 05 09 84 3d da e9 85 3c
       0.003130819 -0.0037683242 0.06447033 0.01634686
000090 8b 36 e4 bb 86 d5 ad bd 8a 83 06 bf 7e 26 17 3a
       -0.00696451 -0.08487992 -0.5254446 0.00057659287
0000a0 83 36 f1 bd f6 16 34 3e b7 fe d9 bb 3b 25 7b ba
       -0.117779754 0.17586884 -0.006652679 -0.0009580438
0000b0 cd f1 82 bb 57 fd 04 3e 5b 66 1f bc 5c f6 d0 3d
       -0.00399611 0.12987266 -0.009728993 0.10203239
0000c0 4a 23 64 3e 38 7f 25 bc 71 2b b7 3a 1a f8 94 3c
       0.22279087 -0.010101132 0.0013974739 0.01818471
0000d0 f9 14 88 3e ff d8 5d bb dd 85 e1 bd cc 22 07 3c
       0.265785 -0.0033851264 -0.110118605 0.008248042
0000e0 78 b1 80 3b db ed 04 3e 10 63 63 bb a1 b4 97 ba
       0.003927406 0.1298136 -0.0034696497 -0.0011574217
0000f0 20 4c 2c 3c f1 a9 34 3e 36 9f 3e 3e af 0a 97 bd
       0.0105161965 0.17642953 0.18615422 -0.073750846
000100 c3 bd 9a 3d 41 ed 3a ba 37 a1 b4 3b 65 d2 7e 3c
       0.075557254 -0.00071306905 0.0055123824 0.015553092
000110 ec 45 1c bb 7b cc 69 3e b4 fd 60 ba dc 4f c8 3c
       -0.0023845388 0.2283191 -0.00085827266 0.024452142
000120 ec fb 20 3b 6b 08 e7 3a 90 a1 6c b9 1c cd b2 ba
       0.002456422 0.001762641 -0.000225669 -0.001364145
000130 f1 07 93 3e ce aa 47 3e 2a d4 52 be e8 3c 3d 3c
       0.28716996 0.1949875 -0.20588747 0.011550166
000140 7b e7 13 3e 69 74 8b 39 ec 4c ba bb 9d 46 4b bb
       0.14443772 0.00026598878 -0.0056854393 -0.003101743
000150 8d 46 25 bc be a3 82 ba 20 de 8e 3a b5 a3 63 bb
       -0.010087621 -0.0009967012 0.0010899939 -0.0034735028
000160 94 6d df 3b 0e 1c 6a b9 84 43 91 3e 62 44 83 3e
       0.0068184827 -0.0002232643 0.28371823 0.2563811
000170 5c be 43 3b db 14 15 bb ac d3 88 3c a3 42 8f bd
       0.0029868102 -0.0022748027 0.016702496 -0.06995132
000180 d7 bb a5 bb 7a 54 30 3e 68 6e a7 3e c8 10 cf 3d
       -0.0050577926 0.17219725 0.3270142 0.10110623
000190 2b 95 70 3d d6 0b 84 3d 10 63 60 bb 0f 93 79 b9
       0.058736008 0.0644757 -0.0034238733 -0.00023801274
0001a0 7e de c0 ba 1d 0c 45 3e 22 d0 de bb 10 e6 85 3e
       -0.0014714745 0.19242902 -0.0067997137 0.26152086
0001b0 0c 0c 0e be 62 69 0e 3e aa 47 fd 38 be d0 7c 3c
       -0.13871783 0.13907388 0.000120773286 0.015430627
0001c0 c8 16 a4 be 9d 0c 77 bb 31 40 eb bc 4f 4c 8f 3b
       -0.3204863 -0.0037696727 -0.028717132 0.0043731104
0001d0 02 f2 39 bb db 6f 26 bd c8 c3 70 bb ae 50 03 bb
       -0.0028373008 -0.040634017 -0.0036737788 -0.0020037103
0001e0 02 0c 99 3d f9 65 3f be 84 42 2f bd 86 58 22 bd
       0.074729934 -0.18691243 -0.042788044 -0.039635204
0001f0 18 ae 6a be e2 26 32 bc 2d 34 99 3b 04 f1 a3 bc
       -0.22917974 -0.010873528 0.0046754093 -0.020012386
000200 84 e8 27 bc e6 3d 6e bd 4a 50 25 bc f0 8e cc bc
       -0.010248307 -0.0581645 -0.010089943 -0.024970502
000210 b3 b6 9f bc a3 c5 ec bb 2c 2d 30 bd 86 a8 ec bb
       -0.019496297 -0.0072257086 -0.04301183 -0.007222238
000220 c7 7a 37 3e 9a 00 b4 3d 9d 0f d1 bd a0 58 1f bb
       0.1791793 0.08789177 -0.10208056 -0.00243143
000230 93 00 c8 bd f4 ee 80 3b 0b fa 20 bc 3c d1 c1 39
       -0.097657345 0.0039347354 -0.00982524 0.0003696772
000240 30 d1 9b bb bd 4d ad bc fa 0d df bb 7e ed c4 ba
       -0.0047551617 -0.021155233 -0.006807086 -0.0015024391
000250 b0 19 41 3c e5 9b 5f 3c 55 38 5a bc fb 39 51 ba
       0.0117859095 0.013648008 -0.013319095 -0.0007981357
000260 cb c1 b7 3c 9c 23 50 3b 07 46 0d bd b8 1a bf bd
       0.022431275 0.0031759506 -0.03449061 -0.09331268
000270 21 31 25 3c f5 d1 0e 3d 37 f0 da bd 9f fb 52 3d
       0.010082514 0.0348682 -0.106903486 0.051509496
000280 85 de fc 3c 4f 44 30 be 5d df 03 3c 41 0f 06 3c
       0.030867824 -0.17213558 0.008048859 0.008182348
000290 b1 b1 ce 3c e4 46 fe bc c8 2a 81 bc 82 f7 3a be
       0.025231214 -0.031039663 -0.01576747 -0.18258479
0002a0 4b 3c 55 3d 74 f8 3a be 4e ee 97 3c 1a ef e2 bb
       0.052059453 -0.1825884 0.01854625 -0.006925476
0002b0 df f1 4f 3d 69 39 8a bc 16 09 28 3d 26 32 a8 bb
       0.050767776 -0.016873078 0.04102429 -0.0051329313
0002c0 aa 42 30 bc 11 f3 8f bd 2a 4d 04 bd 51 c2 b1 3c
       -0.010758081 -0.07028783 -0.032300152 0.021699103
0002d0 96 8e 4f 3e 77 70 02 be 29 a1 c3 bb e4 7c 27 3d
       0.20269236 -0.12738214 -0.0059701395 0.04089059
0002e0 7b 10 53 bd 50 c0 3f 3d 71 77 ed bc 74 33 f1 3d
       -0.05152939 0.046814263 -0.028987618 0.11777392
0002f0 7e 4d 5e 3d 18 f4 91 3d 07 e1 51 3d cd b5 a6 3c
       0.05427312 0.07126635 0.051239993 0.020350361
000300 a3 b7 b6 3d f3 38 c3 3c 7c cc 45 3e 65 d4 d1 3c
       0.08921745 0.023830866 0.19316286 0.025613973
000310 aa a2 1a 3e 52 13 44 bd f9 21 b5 3d fa 52 fe 3c
       0.15101114 -0.047869988 0.088443704 0.031045426
000320 fa ca 8c bd 76 72 d6 ba 71 c4 2d 3d b2 15 03 bc
       -0.06874652 -0.0016361016 0.04242367 -0.008000778
000330 86 da f7 3a 64 bc d1 3d 7c 54 fa 3c 59 fc 94 3c
       0.001890973 0.10241011 0.030557863 0.018186735
000340 33 6e 3c bd 30 b7 a5 bd a5 e1 d5 bd b7 44 08 be
       -0.04600353 -0.08091581 -0.10443429 -0.13307463
000350 15 da bd bd 2e 4e ac bc 5e c6 61 bd 95 a7 a6 bd
       -0.092701115 -0.021033373 -0.05512082 -0.081374325
000360 f4 60 44 bd 94 1e ce 3d 55 c3 9d 3d 95 e6 7e 3d
       -0.047944024 0.10064426 0.07703272 0.06223162
000370 a7 82 78 3d c0 64 cb 3d 03 b1 2c bd d3 c4 d1 bc
       0.060671475 0.09931326 -0.042161 -0.025606548
000380 a1 5a f8 bd e5 0d ab 3d e0 40 84 3d 74 99 21 be
       -0.12126661 0.083522595 0.064576864 -0.15781194
000390 70 e7 72 bd be 8b af bd 19 28 a4 bd 44 20 4f 3d
       -0.059302747 -0.085715756 -0.080154605 0.05056788
0003a0 2e e1 f0 bd 67 fc 81 3d 9a ee 4e 3d 03 bc e2 3c
       -0.117616996 0.0634697 0.050520517 0.027677542
0003b0 88 6c 84 3d ed ba be bc db 91 22 3e da 1f b8 bd
       0.06466013 -0.023282493 0.15875952 -0.0899045
0003c0 21 69 87 3d 26 5f e1 3c 66 3d 6e 3c 66 27 67 bd
       0.066118486 0.02751119 0.014541006 -0.056434058
0003d0 53 59 3a bc 13 1e 56 bd 01 74 39 bc b1 7d 24 3d
       -0.011373836 -0.052274775 -0.011319161 0.04015893
0003e0 a2 5a 14 bc 8b 15 95 3c bb 7a b4 3c 78 a4 0d bd
       -0.009054812 0.018198749 0.022031179 -0.034580678
0003f0 f7 c6 1b bb 55 3f a5 3c 03 90 02 bd 4f fb cd bc
       -0.0023769715 0.0201718 -0.03187562 -0.025144247

module.4.bias f4 [6]
000000 30 49 6e bd e8 ac 93 be 65 3d 15 3e ed a0 f6 3d
       -0.058175266 -0.28842854 0.14574201 0.12042413
000010 20 fb 1a 3e 02 b5 90 3d
       0.15134859 0.070657745

module.6.weight f4 [1, 6]
000000 fe dd 8e bd 7a 84 b5 bd db 56 94 3e 01 93 78 3d
       -0.069759354 -0.088631585 0.28972515 0.06068707
000010 c6 85 f2 38 e7 4d 94 ba
       0.000115643765 -0.0011314721

exp_avg f4 [60, 11]
000000 7f 05 df 39 c2 f8 a3 b8 88 57 45 39 ae 0a 4c 3a
       0.0004253797 -7.8187804e-05 0.00018819992 0.0007783574
000010 a9 2c 96 b9 2d 5d e4 39 9a 5a af 37 33 33 c4 b8
       -0.00028643504 0.0004355697 2.0903815e-05 -9.355545e-05
000020 63 38 4f 3a 80 41 f2 b9 c7 c1 68 3a 7a 80 e2 b8
       0.00079048256 -0.00046206638 0.0008878973 -0.000108004504
000030 c3 06 5b b9 c8 3f 7e b8 32 75 54 b8 8b 88 29 38
       -0.00020887986 -6.061772e-05 -5.0653885e-05 4.0419905e-05
000040 e7 4e cd 38 62 16 91 b9 7c 83 b6 38 59 24 e0 38
       9.7898584e-05 -0.00027673232 8.702927e-05 0.000106879226
000050 b6 a3 ac 38 70 f8 33 b8 e1 0b 4c b8 a5 0f af b8
       8.232093e-05 -4.29083e-05 -4.8648453e-05 -8.347564e-05
000060 5f d0 3d b8 6c 78 4f 37 52 ae c5 b8 8a e2 6c 38
       -4.5255172e-05 1.2366199e-05 -9.426162e-05 5.6477766e-05
000070 d2 54 dc b7 d0 10 e4 b7 5b ec 40 b7 f5 6d dd b7
       -2.6265541e-05 -2.7187547e-05 -1.1499123e-05 -2.6396456e-05
000080 26 a7 98 38 06 6f a2 b8 f7 49 1b b7 d8 35 a0 b8
       7.2790586e-05 -7.745442e-05 -9.255941e-06 -7.639424e-05
000090 7d 60 81 b8 58 67 3c 39 17 d1 22 39 5c 48 93 36
       -6.169172e-05 0.00017967576 0.00015527416 4.389365e-06
0000a0 07 2b a7 b7 39 c1 d9 b8 25 ce 22 39 92 6e 9d 38
       -1.9927988e-05 -0.00010383357 0.00015526319 7.506939e-05
0000b0 a1 7b 8a 36 86 f1 49 37 b8 99 ab 36 a1 0f 4b b7
       4.127113e-06 1.2036768e-05 5.1140923e-06 -1.2103382e-05
0000c0 19 1c 06 b8 1d d2 f7 b7 53 6f dc 36 d2 fc e7 35
       -3.1974258e-05 -2.9542536e-05 6.5694708e-06 1.7284422e-06
0000d0 63 ed c5 b6 c9 7e 9b b7 c3 cf bc b7 6d ab 20 39
       -5.898693e-06 -1.8536479e-05 -2.2508093e-05 0.0001532265
0000e0 3a f9 15 37 aa fb 7d 36 05 10 da b6 e3 d9 e4 39
       8.93912e-06 3.7846426e-06 -6.498771e-06 0.00043649887
0000f0 06 15 83 b9 4e f5 d0 38 a3 26 81 37 68 52 31 b9
       -0.0002500193 9.9639044e-05 1.539599e-05 -0.00016910734
000100 da f9 66 39 96 8d 00 ba dc 9c 4f 3a 8f 0d 8e 39
       0.00022027586 -0.00049039104 0.0007919797 0.00027094453
000110 6d 40 b1 39 d2 b4 29 3a fe 6a c0 39 2a 9d d0 39
       0.00033808072 0.00064737827 0.0003670081 0.00039789948
000120 c2 14 b3 39 e9 06 1f b9 b3 ae 11 3a 22 29 81 b9
       0.00034157006 -0.00015165996 0.0005557343 -0.00024635444
000130 db 26 55 3a be 35 c0 b8 8c ea f9 b9 b5 d1 22 b9
       0.0008131095 -9.165284e-05 -0.00047667732 -0.00015527646
000140 81 06 19 ba 25 56 47 ba f1 a4 51 ba 11 f5 af b9
       -0.0005837456 -0.0007604084 -0.00079972955 -0.0003356119
000150 ac 30 37 b8 c6 db f6 b9 3f 68 bd b9 21 63 57 ba
       -4.367593e-05 -0.0004708452 -0.0003612656 -0.00082163705
000160 02 c5 fa 38 b2 93 2c 39 ae 35 95 38 5e 3c 2a 3a
       0.000119576245 0.00016458219 7.114872e-05 0.0006493981
000170 54 1c 22 3a 23 b1 81 3a 51 bd f5 38 4a e6 e6 b6
       0.0006184031 0.000989471 0.00011717773 -6.8813433e-06
000180 a5 ac 09 3a a7 ea 5f 39 77 71 96 3a 5f bb 01 bb
       0.00052518613 0.00021354352 0.0011477907 -0.001979552
000190 f7 b6 3b 3a ab fa 00 ba 45 ce 0d bb 68 e6 52 39
       0.0007160748 -0.0004920165 -0.0021637839 0.00020112994
0001a0 c6 e6 84 b9 c6 95 ea b8 cd d7 8f 39 8a 07 d7 ba
       -0.00025348942 -0.00011185887 0.0002743587 -0.0016405445
0001b0 ab 0a 81 3a 2f 6b 26 ba 85 d4 cc b9 45 4c 20 39
       0.0009845098 -0.0006348369 -0.00039068251 0.00015287202
0001c0 21 29 65 b9 1c b2 d8 b9 f7 cc b7 39 6a ab b0 39
       -0.00021854464 -0.00041331432 0.0003505719 0.0003369705
0001d0 00 ec 15 37 b5 02 a4 37 a1 b4 c1 b9 2b cb d6 39
       8.93604e-06 1.9551584e-05 -0.00036946408 0.00040968633
0001e0 ee 76 be 38 b7 cc 84 3a 69 5d bb ba d2 fa a1 b9
       9.0820584e-05 0.001013181 -0.0014294806 -0.0003089519
0001f0 17 b0 0a b8 9c 02 1f bb 1a 0e 80 ba 81 54 30 ba
       -3.306576e-05 -0.002426303 -0.0009769828 -0.0006726459
000200 ca ff b3 b9 12 e5 ab b7 c2 69 d7 ba 6e e9 91 ba
       -0.00034332118 -2.0491458e-05 -0.0016434717 -0.001113219
000210 19 76 35 b8 e4 cb 1c b9 b9 b9 9f b8 25 ad af b9
       -4.326375e-05 -0.00014953275 -7.616304e-05 -0.00033507604
000220 ca fa bb b9 ba dc 05 ba 4d 51 18 b9 a4 86 03 38
       -0.00035854272 -0.0005106438 -0.00014526137 3.1358228e-05
000230 04 a2 89 b9 fd 63 06 b9 aa 0c 2b ba 49 e4 a5 b9
       -0.00026251387 -0.00012816484 -0.00065250194 -0.00031641338
000240 e1 2c a3 39 f4 cc 87 b8 cd 52 74 b9 57 c2 a6 b9
       0.0003112322 -6.475477e-05 -0.00023300499 -0.00031806782
000250 41 b3 90 b9 c2 60 bc 37 50 28 ea 38 b6 fa 21 b9
       -0.00027599375 2.2456403e-05 0.00011165498 -0.00015447554
000260 86 af d6 37 73 d6 d1 b9 32 43 e7 b7 32 9f 9a b6
       2.5592522e-05 -0.00040023364 -2.7568636e-05 -4.6080904e-06
000270 46 f6 14 b7 81 c2 96 b7 ff 21 2d 37 0f 8b c2 b7
       -8.878827e-06 -1.7971966e-05 1.0319519e-05 -2.3191356e-05
000280 1b 55 c8 b7 41 10 84 37 37 cf 04 37 ca 4c ed 37
       -2.3881488e-05 1.5743195e-05 7.916059e-06 2.828836e-05
000290 19 f3 2f b8 fa 5e 0e 39 3c ce 2e 39 fa 7e 10 b8
       -4.1949654e-05 0.00013577557 0.00016670761 -3.445053e-05
0002a0 2e a0 16 3a 81 db 46 3a 9b 50 6c 3a 33 00 28 39
       0.00057459145 0.0007585809 0.00090146967 0.00016021803
0002b0 6a 5a 57 b8 35 7d cc 39 d6 70 c5 39 ca 63 61 3a
       -5.13442e-05 0.000390032 0.00037658837 0.00085979386
0002c0 c6 f4 8e b7 0a f2 68 b9 bf e5 0b b8 7a 6c 85 b9
       -1.70417e-05 -0.0002221541 -3.335415e-05 -0.00025448558
0002d0 fe 47 d1 b9 1a e4 04 ba cd 29 31 b9 a6 2e 96 37
       -0.00039917225 -0.000506939 -0.00016895607 1.7903116e-05
0002e0 9b e2 2b b9 4d 6a 48 b9 21 ad 06 ba 49 34 99 b9
       -0.00016392248 -0.00019113086 -0.00051374926 -0.0002922139
0002f0 a6 99 fd 38 b6 8a 1f b9 df c7 3f b9 55 df 2b 38
       0.00012092599 -0.00015215095 -0.00018289637 4.097757e-05
000300 8a 05 bd 38 e3 78 1a b8 f7 77 e4 37 8d 0b 9a b8
       9.013254e-05 -3.6829046e-05 2.7235581e-05 -7.345444e-05
000310 44 94 5f 39 dc 1e 38 38 d1 88 0b 3a f2 bb 24 b9
       0.0002132217 4.389776e-05 0.00053228164 -0.00015710274
000320 4e 51 41 39 ca 1f f3 39 3f dc 3c 3a dc 85 da 39
       0.00018436203 0.00046372256 0.000720445 0.00041679933
000330 2e f4 86 39 41 3f 52 b9 3b 01 1a 39 d0 e0 86 38
       0.000257404 -0.00020050725 0.00014687043 6.4314925e-05
000340 f6 8b 2c 3a 9e 1d 4f b9 14 ff 09 b9 43 1d 13 b9
       0.0006582135 -0.00019752092 -0.00013160362 -0.00014029913
000350 fa d0 1f b9 3e 7f 1a b9 8d 47 aa 38 ce 4c c9 b8
       -0.00015241271 -0.00014733986 8.119559e-05 -9.598733e-05
000360 b6 e0 da b6 81 9f 26 b9 8a 83 76 38 52 92 67 37
       -6.523066e-06 -0.00015890413 5.8773476e-05 1.3802741e-05
000370 0f 51 de b9 81 f1 83 39 be 60 ca b8 c8 73 90 b9
       -0.00042403533 0.00025166202 -9.65013e-05 -0.00027552084
000380 78 90 b3 b9 29 a8 53 b9 74 1f fa b7 e4 52 e8 38
       -0.00034249178 -0.00020185173 -2.9816969e-05 0.00011078062
000390 f5 4e 30 b9 62 72 5d 38 00 28 9f b9 32 95 01 b9
       -0.00016814082 5.2797033e-05 -0.00030356646 -0.00012357978
0003a0 ad 3a 1c 39 9a 47 9f 37 59 7f 0a b9 d4 c7 3b 38
       0.00014899178 1.898762e-05 -0.00013208146 4.477038e-05
0003b0 e8 31 b5 b8 d4 4a 1e 38 f2 c7 20 38 98 93 52 b8
       -8.640048e-05 3.7739825e-05 3.8333186e-05 -5.020536e-05
0003c0 42 6c 90 38 2f 4e a7 b8 48 b5 5d 39 47 2a 6b b9
       6.88662e-05 -7.9777434e-05 0.00021143735 -0.00022427096
0003d0 23 fd 02 b8 98 fe 36 39 e6 95 a4 38 52 1f 33 39
       -3.1230167e-05 0.00017451716 7.84805e-05 0.00017082438
0003e0 ee a7 33 b8 30 a4 b5 b8 20 86 9e 38 6e 2f 88 b8
       -4.2833322e-05 -8.661335e-05 7.55901e-05 -6.49382e-05
0003f0 38 9e 3e 39 4b 2f 16 3a 3e 14 3a ba 95 91 33 38
       0.00018178753 0.0005729093 -0.0007098353 4.281251e-05

exp_avg_sq f4 [60, 11]
000000 35 ba 2a 38 f9 9b e8 37 25 08 7c 37 a8 b8 35 38
       4.0704577e-05 2.7729186e-05 1.5022267e-05 4.3325737e-05
000010 5e b0 19 38 dc ac 01 38 d9 22 cc 37 b9 c3 a2 37
       3.6642297e-05 3.0916985e-05 2.4334922e-05 1.9403045e-05
000020 b1 cb 44 38 c8 49 e5 37 11 90 e4 37 d8 67 4c 35
       4.6919744e-05 2.7333284e-05 2.7246804e-05 7.6147035e-07
000030 b3 26 12 35 7e 0a 3b 34 4f da 1a 35 cb 29 a0 35
       5.4445553e-07 1.7419549e-07 5.768715e-07 1.1933092e-06
000040 de 89 f6 34 1a e8 bc 34 3c 49 53 34 66 a1 09 35
       4.5921382e-07 3.5186605e-07 1.9677549e-07 5.127134e-07
000050 ee cd 5a 35 b0 c5 e6 34 92 a4 83 34 36 63 79 34
       8.1510996e-07 4.2984675e-07 2.4520392e-07 2.3226025e-07
000060 6e b7 a7 33 12 29 30 34 58 f7 0c 34 4a c0 29 34
       7.809909e-08 1.6406219e-07 1.3128499e-07 1.5809306e-07
000070 7f 8a 45 34 e7 61 30 33 2b 7d 0a 34 25 c0 e9 33
       1.839744e-07 4.1067235e-08 1.2897787e-07 1.0884859e-07
000080 5f 31 b7 33 da de 4e 36 47 8a 1f 36 8c f6 8d 35
       8.530582e-08 3.0826109e-06 2.3773334e-06 1.0577073e-06
000090 d2 32 25 36 39 f6 16 36 b4 80 00 36 e3 ab 46 36
       2.4616497e-06 2.2495062e-06 1.9148401e-06 2.960435e-06
0000a0 15 60 ae 35 ed c8 47 36 d1 96 2d 36 6e df bc 35
       1.2991974e-06 2.9770265e-06 2.5866796e-06 1.4072118e-06
0000b0 4c f7 63 32 f6 a4 1b 32 68 1b 61 31 4f 7b 25 32
       1.3269368e-08 9.059695e-09 3.2757388e-09 9.632301e-09
0000c0 3f 7c 36 32 93 7a 38 32 a5 f6 05 32 cf 22 88 31
       1.0622045e-08 1.073808e-08 7.797699e-09 3.962078e-09
0000d0 bc b0 14 32 75 26 11 32 22 4c 00 32 39 9e 5a 37
       8.654919e-09 8.448855e-09 7.467891e-09 1.3030652e-05
0000e0 1a 34 13 37 0e 90 78 36 50 b9 5d 37 c7 23 31 37
       8.774014e-06 3.703873e-06 1.3215773e-05 1.0558352e-05
0000f0 07 22 1c 37 d4 1a 99 36 6f 66 b5 36 83 97 77 37
       9.306247e-06 4.5628785e-06 5.406145e-06 1.4757624e-05
000100 ef 37 f2 36 a2 47 2a 37 cd 81 d5 37 4f 0d 83 37
       7.2186735e-06 1.0149468e-05 2.5452022e-05 1.5622614e-05
000110 ac 69 20 37 a3 fa de 37 9f 7a ab 37 1f 11 95 37
       9.561347e-06 2.6581174e-05 2.0441888e-05 1.7770157e-05
000120 2d 01 72 37 43 39 14 37 88 71 f4 37 7a 36 25 37
       1.4424598e-05 8.83482e-06 2.9139934e-05 9.84745e-06
000130 9b 31 8f 37 e6 db 96 37 c8 1d ba 36 b4 82 71 36
       1.7070028e-05 1.7983792e-05 5.546699e-06 3.5987878e-06
000140 6b c0 f6 36 b5 e7 dd 36 52 d6 b2 36 67 5d ae 36
       7.3537717e-06 6.6132875e-06 5.3297636e-06 5.1964776e-06
000150 82 c8 19 36 0b a6 2a 37 c6 74 c4 36 01 6a ba 36
       2.2915488e-06 1.01714495e-05 5.8548494e-06 5.5555724e-06
000160 7f fa 12 38 93 a7 9c 37 29 46 3a 37 f5 60 cb 37
       3.5042405e-05 1.8674682e-05 1.1102799e-05 2.4244635e-05
000170 1d 36 d4 37 d7 23 9f 37 a0 76 a3 37 96 6d 01 37
       2.5297568e-05 1.8970966e-05 1.9486353e-05 7.714514e-06
000180 32 d7 14 38 a0 9b df 37 4d 82 ce 37 8d 3f 8c 38
       3.5486366e-05 2.665614e-05 2.461779e-05 6.6875575e-05
000190 f9 0b a0 38 c0 3f f8 37 0b fe 96 38 ef 85 8b 38
       7.6316246e-05 2.959359e-05 7.1998766e-05 6.6529836e-05
0001a0 02 94 75 38 3d a4 96 38 a6 8b d7 37 6c 84 92 38
       5.8550395e-05 7.183149e-05 2.5695026e-05 6.986488e-05
0001b0 bf 4d 61 38 41 ee 0b 38 fd 14 71 37 d6 6d 61 37
       5.3716587e-05 3.3362074e-05 1.4369606e-05 1.3436618e-05
0001c0 41 ab cf 36 08 af 64 37 7e 7f 5a 37 5d e8 3f 37
       6.1890173e-06 1.3630612e-05 1.3023497e-05 1.1438588e-05
0001d0 e0 99 64 37 22 c1 be 36 e0 5e 5b 37 d2 26 57 37
       1.3625686e-05 5.684925e-06 1.3075507e-05 1.2824037e-05
0001e0 1b b2 ea 36 5e b2 14 39 5c 42 3e 38 12 9b b3 37
       6.9944776e-06 0.00014180827 4.5361332e-05 2.1410673e-05
0001f0 c9 29 86 38 3c 66 5c 38 9e 7f 39 38 53 be dc 37
       6.397401e-05 5.25473e-05 4.422629e-05 2.631467e-05
000200 fe 65 7f 37 e6 da a2 38 31 36 10 38 cb 03 4b 38
       1.5222931e-05 7.765535e-05 3.4382745e-05 4.8402504e-05
000210 d1 af 44 37 35 98 9c 36 4e 5a 24 36 ae f6 e6 36
       1.1723446e-05 4.6668815e-06 2.4490469e-06 6.8832514e-06
000220 10 df d6 36 2b 50 aa 36 66 b1 88 36 3b 78 15 36
       6.403665e-06 5.0757276e-06 4.0737677e-06 2.2272714e-06
000230 c9 5b 23 37 2a 26 c1 36 aa de d5 36 16 ee a1 36
       9.7369275e-06 5.756291e-06 6.373816e-06 4.8258908e-06
000240 b9 5c 28 36 87 22 97 35 6c 45 7b 36 4f da 51 36
       2.5087922e-06 1.1260425e-06 3.7442323e-06 3.12705e-06
000250 84 6e 40 36 80 95 e7 35 c7 d7 d3 35 52 31 78 36
       2.8674558e-06 1.7254351e-06 1.5783525e-06 3.6983588e-06
000260 38 bd 03 36 94 d9 32 36 59 3d e7 32 b2 b2 d8 32
       1.963066e-06 2.6650714e-06 2.6919837e-08 2.522697e-08
000270 bf 67 ca 31 8a ba 91 32 76 b6 b4 32 e0 f1 9d 32
       5.8907683e-09 1.696505e-08 2.1037732e-08 1.8387198e-08
000280 84 09 3f 32 35 d7 09 32 a8 04 96 32 40 a6 99 32
       1.1119827e-08 8.023382e-09 1.7464416e-08 1.7887146e-08
000290 67 28 86 32 13 46 e1 37 59 f5 5c 37 08 a0 f7 36
       1.5618026e-08 2.6854721e-05 1.3170146e-05 7.3798037e-06
0002a0 cf 12 96 37 1a b4 92 37 0e 51 52 37 be 86 95 37
       1.7890152e-05 1.7488423e-05 1.2535847e-05 1.7824928e-05
0002b0 6c 2d fa 36 d8 24 ee 37 7d 07 bd 37 de 1a 67 37
       7.4558684e-06 2.8388968e-05 2.2534043e-05 1.3774928e-05
0002c0 a3 a0 f5 36 0f a7 26 36 16 90 b9 35 05 96 4b 36
       7.3202696e-06 2.4833168e-06 1.3825509e-06 3.033668e-06
0002d0 9e 47 44 36 c6 98 1b 36 79 f1 36 36 1f 31 a5 35
       2.9247963e-06 2.3185726e-06 2.726067e-06 1.2307754e-06
0002e0 fa fa 8c 36 52 d8 3a 36 f2 f4 36 36 2b da 81 36
       4.2015427e-06 2.7842075e-06 2.726269e-06 3.8698977e-06
0002f0 35 fa 3a 36 ca cd 97 35 23 67 2e 36 68 70 1d 36
       2.78618e-06 1.1310269e-06 2.5988054e-06 2.3460252e-06
000300 c8 b2 13 36 cb 37 22 36 34 9f 83 35 51 73 5e 36
       2.2008771e-06 2.4172357e-06 9.806595e-07 3.31477e-06
000310 f0 ce f8 35 3c 9f fa 35 ad ac 08 37 90 18 83 36
       1.8537667e-06 1.8672795e-06 8.146436e-06 3.9069637e-06
000320 43 35 02 36 0a 63 ae 36 9a 9e 97 36 3d 8f 82 36
       1.9402512e-06 5.1971338e-06 4.5186143e-06 3.890977e-06
000330 08 38 6c 36 e7 72 ce 35 8a bf e1 36 ee c1 8c 36
       3.5199355e-06 1.5381637e-06 6.7278206e-06 4.1949015e-06
000340 1e 09 85 36 97 e6 2f 36 77 b9 55 36 d7 87 c8 35
       3.9647703e-06 2.6211253e-06 3.1847428e-06 1.4940696e-06
000350 20 c0 30 36 6e f2 1d 36 99 e2 22 36 36 f9 41 36
       2.6337875e-06 2.3535936e-06 2.4271778e-06 2.89043e-06
000360 dd d4 49 35 b7 43 01 36 d8 b1 f4 35 95 1c 72 35
       7.518809e-07 1.9261913e-06 1.8231176e-06 9.019362e-07
000370 7a c2 42 36 85 fa 01 36 94 47 6f 35 6d 0a 3a 36
       2.9021453e-06 1.936832e-06 8.91386e-07 2.7722228e-06
000380 82 88 2a 36 39 81 0e 36 42 7a c8 35 45 4d 89 35
       2.5411432e-06 2.1234866e-06 1.4936743e-06 1.0229784e-06
000390 b5 d3 3b 36 3d b4 d7 35 dd bb f2 35 69 a0 4a 34
       2.7988401e-06 1.6071205e-06 1.808508e-06 1.8871073e-07
0003a0 0a 0e 22 34 c8 19 36 33 70 33 08 34 cf a9 18 34
       1.5092533e-07 4.2398625e-08 1.26847e-07 1.4217879e-07
0003b0 f8 48 ef 33 b2 15 90 33 db 97 42 33 cb 5a ed 33
       1.1142578e-07 6.709469e-08 4.5307257e-08 1.1052688e-07
0003c0 1b 9b c9 33 9d 87 b4 33 e4 77 c0 35 db 0f f9 34
       9.3880054e-08 8.406571e-08 1.4340008e-06 4.63914e-07
0003d0 19 d2 9f 34 d4 7d 80 35 64 16 73 35 29 da 28 35
       2.9768924e-07 9.573364e-07 9.0557137e-07 6.290234e-07
0003e0 c5 06 5d 35 7e 26 c4 34 e1 24 a0 35 7b 2f 8f 35
       8.2338767e-07 3.6535852e-07 1.1931662e-06 1.0668149e-06
0003f0 cd a6 16 35 4b 96 27 38 4b 49 b4 37 6f 33 2c 37
       5.612208e-07 3.9955874e-05 2.1491802e-05 1.0263974e-05

exp_avg f4 [60]
000000 7a 58 43 b8 cb 03 a3 b9 90 df 8f 38 fd be cc 38
       -4.6574023e-05 -0.0003109261 6.860413e-05 9.7630524e-05
000010 39 0b eb b6 32 47 b0 b8 fd 51 3c 37 85 48 63 b9
       -7.0048523e-06 -8.405595e-05 1.1224763e-05 -0.00021675423
000020 24 30 a4 39 65 cf 62 3a ad e0 75 39 ca 56 b2 ba
       0.00031316385 0.000865212 0.00023448719 -0.0013606187
000030 c5 4b 9a b9 13 88 29 b8 3b a6 5f b8 12 15 47 39
       -0.00029429622 -4.041947e-05 -5.3322157e-05 0.00018985968
000040 4c 9f 51 b9 53 65 b2 b7 16 dd f2 39 e4 e9 8e 38
       -0.00019991136 -2.1266436e-05 0.0004632256 6.814653e-05
000050 67 6c f8 36 5e b9 04 38 d8 f5 71 37 d8 d7 b9 b9
       7.4035956e-06 3.164389e-05 1.4421959e-05 -0.00035446766
000060 13 88 ab b9 29 cb f0 b9 34 8b 74 39 0b cf f8 39
       -0.00032717045 -0.00045927733 0.0002332151 0.00047456505
000070 1b f1 83 b9 fb 8b d3 b8 41 63 00 37 4c 56 34 3a
       -0.00025165905 -0.000100873374 7.652504e-06 0.00068793143
000080 39 8f 7a b9 71 de 8d 38 b9 bb fb 38 fc 30 4a b8
       -0.00023895213 6.764837e-05 0.00012003579 -4.8206173e-05
000090 3a aa 24 3a e6 61 7b 39 7e 3d e3 39 47 37 38 b9
       0.0006281469 0.00023973695 0.0004334263 -0.000175682
0000a0 dd 26 e6 37 16 6f 46 3a 45 95 a2 3a 33 12 c8 38
       2.7436234e-05 0.00075696537 0.0012404105 9.540133e-05
0000b0 f4 24 92 b9 d6 7d 72 b8 b4 bd 6d b7 fb a0 57 b8
       -0.00027874822 -5.781449e-05 -1.41704695e-05 -5.140992e-05
0000c0 2b ba 2e ba 04 89 ca 38 61 22 8a 38 ea d1 7f 3a
       -0.00066653144 9.657632e-05 6.586756e-05 0.00097587577
0000d0 6c ef 1b 38 c1 98 4e ba e0 a8 11 ba 92 70 ba 38
       3.717786e-05 -0.00078810385 -0.00055564754 8.890139e-05
0000e0 d8 c8 6e b9 11 bc da b8 14 79 8e b9 46 f3 3a b9
       -0.00022772269 -0.0001043008 -0.0002717456 -0.00017828969

exp_avg_sq f4 [60]
000000 ea 54 e1 38 6a d0 ac 35 f1 c0 c9 34 e2 9e 19 37
       0.000107446525 1.2875655e-06 3.757955e-07 9.156503e-06
000010 a6 68 df 32 fe 79 15 38 39 83 a1 38 9b 61 6a 38
       2.6008205e-08 3.5637982e-05 7.7015204e-05 5.588085e-05
000020 4a 90 2a 39 8b 9b 3c 39 27 9a 32 38 de 06 db 39
       0.00016266215 0.00017987021 4.2582073e-05 0.00041776052
000030 c4 fd 39 38 a7 e2 0b 37 5e b2 7b 33 3b d9 e7 38
       4.4343775e-05 8.337817e-06 5.8602716e-08 0.00011055401
000040 52 5b c7 37 6c 55 58 37 dd 8e f4 37 2b 52 c4 36
       2.3765173e-05 1.2894492e-05 2.9153593e-05 5.850821e-06
000050 f5 55 cd 36 95 1a a7 34 65 27 27 36 77 07 13 39
       6.119483e-06 3.1125515e-07 2.490787e-06 0.00014021793
000060 ab 15 c4 36 2e 77 4c 38 84 24 02 37 91 33 53 38
       5.8437777e-06 4.8748385e-05 7.757106e-06 5.0354345e-05
000070 b1 15 d5 36 c4 b7 a6 38 d0 81 33 3a ef 09 f2 38
       6.35042e-06 7.949726e-05 0.00068476517 0.000115413095
000080 6b d2 25 36 b0 9f d6 36 94 27 90 37 c6 5c 83 34
       2.4709395e-06 6.396287e-06 1.7184568e-05 2.4468153e-07
000090 50 cc 00 3a 93 7a 82 36 e0 94 fe 37 c4 ea 00 37
       0.00049132574 3.8885714e-06 3.0348485e-05 7.684055e-06
0000a0 74 df 39 33 85 b8 8e 39 e6 93 1f 3a e7 35 81 35
       4.32769e-08 0.00027221828 0.0006087407 9.626937e-07
0000b0 1d 57 a2 37 b8 0b 65 36 cd 84 f1 36 56 ab 8a 34
       1.935247e-05 3.413048e-06 7.1978197e-06 2.5829166e-07
0000c0 ef a7 0d 39 b7 cb 91 36 91 b5 83 34 b6 0b 05 38
       0.00013509368 4.3450523e-06 2.4532758e-07 3.1720578e-05
0000d0 00 71 51 36 bf 7f 51 39 30 5e 32 38 25 f3 8f 36
       3.1209202e-06 0.00019979382 4.2526226e-05 4.290038e-06
0000e0 18 e4 c8 37 1c 5c 19 35 03 77 6b 38 35 d6 6a 38
       2.3948072e-05 5.713098e-07 5.6139204e-05 5.5989443e-05
