mnc_ml_test/output/train/20221128-1148-model.pth (torch, 95069 bytes, 21 tensors)

module.0.weight f4 [100, 6]
000000 0b 61 8e be 54 fd 23 3f 3d 9d 39 bf 33 b2 86 3e
       -0.27808413 0.64058423 -0.7250555 0.2630783
000010 e3 66 3b be 1f 50 3b be 63 41 c5 3e 6b 5d 3e bd
       -0.18300967 -0.18292283 0.3852645 -0.04647581
000020 67 a3 00 3f b5 3d ed be 5d ef c2 be ef b1 d6 bd
       0.5024933 -0.4633614 -0.38073245 -0.10483157
000030 30 9c 52 3a e9 9a 2c ba 9c f4 3f 3b 5b 66 25 3a
       0.0008034138 -0.0006584363 0.0029290086 0.00063095026
000040 42 1d ad ba 99 92 91 ba d9 3f a8 bd fb 21 9e 3e
       -0.0013207572 -0.0011106312 -0.08215303 0.308853
000050 2d 9c c6 be 96 03 2f 3e 3e aa c1 bd 87 de 20 be
       -0.38791028 0.17091212 -0.09456299 -0.15709887
000060 16 83 27 3e 62 ff d7 bc 05 ea b6 3e 26 3c 01 be
       0.16358599 -0.026366893 0.35725418 -0.12620601
000070 4f 8b 09 bf 2c f4 c1 3d ed 6c 5b be c9 ee 2a 3f
       -0.53728193 0.094704 -0.2142827 0.6677061
000080 08 03 9a 3d 20 ff 28 3d c6 8a 27 be a2 2f 38 3d
       0.075201094 0.04125893 -0.16361532 0.0449673
000090 70 90 00 bf ad 80 26 be a5 d9 28 bf 35 2c bb 3e
       -0.50220394 -0.16260023 -0.659571 0.36557165
0000a0 91 ec 21 bb 2e bd f9 ba 15 34 22 3e 39 a2 36 3e
       -0.0024707655 -0.0019053572 0.1584018 0.1783532
0000b0 80 b7 40 3e 3e 74 86 bd 36 32 c4 be e2 40 70 be
       0.1882 -0.0656514 -0.38319558 -0.23462251
0000c0 7a 3a 80 3d e2 f0 89 bd 09 07 80 be 07 8c 2f be
       0.062611535 -0.06735398 -0.25005367 -0.1714326
0000d0 63 8a 25 3e c8 a8 85 3e 31 13 6c 3b e1 a4 43 bb
       0.16166072 0.26105332 0.003602218 -0.0029852914
0000e0 e6 d6 e1 3a ec ba 47 3b fc 64 60 3b df d2 48 3b
       0.0017230182 0.0030476404 0.003423988 0.0030643267
0000f0 08 cb 8b 3e f5 97 e1 be 2b 78 12 3f 2f 40 0b be
       0.27303338 -0.44061247 0.5721461 -0.13598703
000100 84 8a 28 be 58 4a de 3d 34 d1 96 be ed 12 80 3e
       -0.1645909 0.10854024 -0.29456484 0.2501444
000110 4d 8f 5c bf 2e 80 79 3e ba f6 cb bc 43 d1 b9 bd
       -0.8615616 0.24365303 -0.024897922 -0.09073117
000120 52 4a 85 3e dc 67 db be f8 f3 26 3f b5 1e c5 bc
       0.26033264 -0.42852676 0.65216017 -0.024062494
000130 c7 a0 9b be 9c 65 a7 3e c9 a7 fe 3d 40 23 52 be
       -0.303961 0.3269471 0.12434346 -0.2052126
000140 24 e3 13 3f 74 57 f2 3b f1 3f ab 3e 51 ce a9 bd
       0.57768464 0.007395679 0.3344722 -0.08291305
000150 7b f6 c4 3e d1 3d 1a bf 01 76 12 bf fe 4d c6 3e
       0.384693 -0.60250574 -0.5721131 0.38731378
000160 55 ff 9c be f9 c1 f1 3e 54 8f 67 3e 70 18 55 be
       -0.30663553 0.47218302 0.22613269 -0.20810103
000170 9d 20 88 bd f2 bb 9a be 09 c5 99 3e 45 b0 3d 3e
       -0.066468455 -0.30221516 0.30033138 0.18524273
000180 f1 b1 7a be 06 33 04 bf 14 c3 1b 3f 40 d3 b6 be
       -0.24481942 -0.51640356 0.6084454 -0.35708046
000190 0e 1c 69 be ef dd 85 3e cd 24 31 3a 72 00 09 3a
       -0.22764608 0.26145884 0.0006757498 0.00052262016
0001a0 b8 55 d1 ba 16 56 ac ba e9 a0 07 bb b2 9d c3 38
       -0.0015970981 -0.0013148214 -0.0020695275 9.3276976e-05
0001b0 ba b0 1c 3f de f0 3b bf ae ca 30 3f 6f 5e e4 bd
       0.61207163 -0.7341441 0.69059265 -0.11150824
0001c0 b1 49 85 be 0b d0 bf 3e d8 77 69 3e 0d 3f 7d be
       -0.26032785 0.37463412 0.22799623 -0.24731083
0001d0 f4 e2 0d 3f 30 c5 a9 bd a5 97 9c be b7 37 89 bd
       0.5542443 -0.08289564 -0.30584446 -0.0670008
0001e0 a8 89 d4 3d e8 17 a9 bd a3 f6 55 3e 28 67 2b bd
       0.10377818 -0.08256513 0.20894866 -0.041846424
0001f0 2a 0f 04 bc 9e 0b da 3c 6a 19 b1 3e ab e5 9f 3d
       -0.008060256 0.026616868 0.34589702 0.078074776
000200 02 60 3d bf 88 fa 8b 3e 42 f1 8f 3e e8 18 b2 be
       -0.7397462 0.27339578 0.28113753 -0.34784627
000210 f6 88 c3 bd 1d c0 65 be f1 8c 1b 3f fd aa 9c be
       -0.095476076 -0.22436567 0.60761935 -0.30599204
000220 e9 14 d6 be 0c 35 20 bd 7c 45 61 3e cf aa 07 be
       -0.41812828 -0.03911309 0.21999162 -0.13248752
000230 46 b8 13 3e 96 44 71 3c 63 ca 22 3e 68 91 3d 3c
       0.14425763 0.014725825 0.15897517 0.011570312
000240 11 5c c6 be c4 0a 4e 3c 1d 7a aa 3e 51 5a b2 3b
       -0.38742116 0.012575809 0.3329629 0.0054428955
000250 43 94 ac bd 23 ae 84 3e 68 e6 2c bf 8e 97 20 be
       -0.08426716 0.25914106 -0.6753907 -0.15682814
000260 dd e3 3a bd 7e 78 ea b9 3e 1f f9 3d 32 61 b0 3d
       -0.045627464 -0.00044721732 0.12164162 0.086122885
000270 16 ca 90 be cc 62 03 3f ce 66 31 bf 26 9f 2e 3e
       -0.2827918 0.5132263 -0.6929749 0.17052898
000280 92 44 51 3e 79 c9 ee bd 52 81 aa 3e d1 80 a1 be
       0.20436314 -0.116595216 0.3330179 -0.31543592
000290 3b e7 49 3f 7b bd d7 be 29 86 e1 3e ac 74 9d 3e
       0.78868455 -0.4213675 0.4404767 0.30753076
0002a0 1b 24 d4 3e 86 83 17 bf 29 03 e4 3e 2a 7f 8b 3c
       0.41433796 -0.59185064 0.4453366 0.01702841
0002b0 ce 67 fb bd 47 bb 43 bd f7 a9 ba 3e d9 a5 ed 3e
       -0.122756585 -0.047786023 0.36457798 0.46415594
0002c0 8a f5 db be 24 12 10 3e c1 7e 06 3f ff b0 be bd
       -0.4296077 0.1406942 0.5253716 -0.09311103
0002d0 42 ea 65 3b 36 ca f9 3a 21 e7 4e 3b a1 db fd 3a
       0.0035082255 0.0019057456 0.003157087 0.0019367823
0002e0 b8 cc de ba 21 21 55 39 8e 07 16 3e d4 e2 1b 3f
       -0.0016998267 0.00020325604 0.1465132 0.6089299
0002f0 27 f2 85 be 90 30 dd 3d c4 76 73 be de 48 a1 be
       -0.2616131 0.10800278 -0.23775774 -0.31500906
000300 a1 1d cb be 19 54 8c 3e b4 a1 07 bf 90 97 81 3e
       -0.39671043 0.2740791 -0.52981114 0.25310946
000310 84 2e 1b 3e ee 5b 7f bd 2f c6 cc 3b 2b fe 5d bb
       0.15154463 -0.06234353 0.0062492113 -0.003387342
000320 d7 6c d8 3b 37 56 74 3a 82 ae 05 bb 52 fc 3e 3a
       0.0066047716 0.00093207083 -0.0020398204 0.00072855235
000330 62 48 27 bf 61 0b 11 3f 4d fd 63 3e 25 c4 a8 be
       -0.6534482 0.5665799 0.22264595 -0.32962146
000340 2b 2b 92 3d 29 e4 a5 be 8b 0e dc 3e 18 ed 0f 3e
       0.0713714 -0.32400635 0.42979845 0.14055288
000350 fe c4 9d be fb 8c 26 3e 23 a9 6d 3d c3 52 4a bd
       -0.30814356 0.16264717 0.05802263 -0.049395334
000360 63 e5 5c be b6 a1 dd 3e 43 87 77 be 29 0a 9a 3d
       -0.21571879 0.43287438 -0.24172692 0.07521469
000370 68 74 1b 3d 70 ad 10 3b 85 ed b9 be 24 99 77 be
       0.03795281 0.0022076033 -0.36314026 -0.24179512
000380 51 60 62 3e 52 e1 85 be 61 49 c2 be fe d7 5a 3e
       0.22107054 -0.26148468 -0.3794661 0.21371457
000390 19 2f c5 3e 2d 2e ba be dc 44 2d 3f 31 d5 39 be
       0.38512495 -0.36363354 0.67683196 -0.18147732
0003a0 2d 9a 96 bd a2 28 e3 3d 13 09 ed bd fe 3f 0b 3e
       -0.073536254 0.110917345 -0.115739964 0.1359863
0003b0 45 37 94 be ad 11 c4 3d fd 21 b4 3d cc 5f 3c bd
       -0.28948417 0.09573684 0.08795545 -0.045989797
0003c0 f7 3f 20 3e bf 57 4b 3d d2 97 23 be 85 9b 29 bb
       0.156494 0.049644228 -0.15975884 -0.002588005
0003d0 06 a7 45 3d ff 8a 8c bd 33 ca 7a 3e 9a e1 3d be
       0.04825499 -0.06862449 0.24491195 -0.18543091
0003e0 aa 5e 17 3f 92 0d 33 3c ef 0b 81 be 3e f0 26 3e
       0.5912882 0.010928528 -0.25204417 0.16302583
0003f0 da f6 a8 3d 90 47 92 be e8 6b f6 be 44 03 87 be
       0.08250208 -0.28570223 -0.481292 -0.2636968

module.0.bias f4 [100]
000000 a7 45 cc be 2a fc f7 be c1 99 35 3a 43 e0 98 be
       -0.3989689 -0.48434573 0.0006927513 -0.29858598
000010 7e 05 c4 be 1d 35 a4 be ce cf 61 3e 89 59 b9 be
       -0.3828544 -0.32071772 0.22051927 -0.36201122
000020 9f 6b ab be 6a 99 08 ba d7 0f 8a 3e e0 17 82 be
       -0.33480546 -0.0005210849 0.2696521 -0.2540884
000030 f8 28 87 3e a6 10 d5 3e d7 d5 b9 3e e6 1a 0a 3e
       0.26398444 0.41614264 0.3629596 0.13486823
000040 55 68 f6 3e 19 27 c3 3a 45 68 28 bd 8e 89 5b 3c
       0.48126474 0.0014888971 -0.041115064 0.013399495
000050 e9 6c de 3c 45 31 75 3d 1e dc 2b bb bf 8a ee 3d
       0.027151542 0.05986144 -0.002622373 0.116475575
000060 49 9d e4 3e 76 a1 30 be 26 7c 79 be 9f 2c 5f bc
       0.4465125 -0.17249092 -0.24363765 -0.013621478
000070 a0 25 aa 3e 38 68 83 be 69 77 f5 3a d1 54 e9 be
       0.3323183 -0.2566545 0.0018727604 -0.45572522
000080 2e 23 37 3e cd b5 fb 38 2d e2 fb 3d 35 72 d0 be
       0.17884514 0.00012002476 0.12298999 -0.40712133
000090 c4 04 3d be 16 54 0b 3e c8 52 83 3e c9 10 15 3c
       -0.18458849 0.13606295 0.25649095 0.00909824
0000a0 d5 93 9a be 9a 14 33 3d d9 b9 33 3e 9b 6b 10 be
       -0.30190912 0.04372082 0.17551364 -0.14103548
0000b0 a6 0a ba be b8 0a 5e 3e e6 1d bb bd 60 a8 63 3e
       -0.3633625 0.21683776 -0.09136562 0.22232199
0000c0 62 fd 6c be 46 fe bc bd 6a e7 02 bd 22 23 14 bf
       -0.23143533 -0.09228186 -0.031958975 -0.5786611
0000d0 32 18 f8 be ad 03 ab be 9e cf 8c 3e 8b 04 45 3e
       -0.4845596 -0.33401242 0.2750215 0.19240014
0000e0 86 e4 ab bd 88 ae 7f 3e 32 3d e8 bd ab b8 39 bd
       -0.08393197 0.24968922 -0.11339797 -0.04534213
0000f0 4d 3f c7 3e 13 21 24 3d 42 22 b8 3e 9b 8b 11 3e
       0.38915482 0.040070605 0.35963637 0.14213412
000100 e5 8c 6b 3e 6b 89 b1 be 65 bf 9e be cf 47 48 be
       0.23002966 -0.34675154 -0.31005397 -0.19558643
000110 04 c4 45 bd 99 e4 dc be 66 3d a1 be a8 a4 d0 be
       -0.04828264 -0.43143156 -0.31492156 -0.40750623
000120 0d 08 7f bc 35 d2 e7 3d b4 89 57 be 5e a5 94 bc
       -0.015565884 0.11319391 -0.21048623 -0.01814526
000130 42 cb 9e 3e 5e a7 21 3e 3e fa 20 3d 03 dd a0 be
       0.31014448 0.15786502 0.03930115 -0.3141862
000140 23 5e ac bd 7e 6e c7 3d 4b 74 33 be ea 0e bc 3e
       -0.08416393 0.097378716 -0.17524831 0.3673013
000150 0f 89 63 3e 5f df 08 3d 5a 15 10 3a bb 85 d6 3d
       0.22220252 0.03341615 0.00054963457 0.10474726
000160 9e 5e 5d 3d c3 83 45 3e 18 99 c4 be 73 5f 77 ba
       0.054045312 0.19288544 -0.3839805 -0.0009436525
000170 0b 22 ef be 11 97 18 be 8f 3b ae be 90 30 28 bf
       -0.4670566 -0.14901377 -0.34029815 -0.656991
000180 6d de 01 3f e1 cf 48 3e e7 34 85 3e ef e6 80 3d
       0.5073002 0.1961055 0.26016924 0.06294047

module.2.weight f4 [60, 100]
000000 4f 10 bf 3d be 5e 1d 3d 4b 1c 7e bb 97 b4 04 be
       0.093292825 0.03842043 -0.0038774188 -0.12959515
000010 06 9e 85 bd 3a ba 94 bc 71 b8 9e 3d 8d a9 e9 bc
       -0.06524281 -0.018155206 0.07750023 -0.02852323
000020 1b 30 49 3c 90 2d dd 3c 01 71 de bc 9e fb 89 3d
       0.012279536 0.026999265 -0.027153494 0.06737445
000030 8c 5e c7 3c 67 5d a2 bb b9 a1 d8 bd e2 8e c5 3c
       0.024337076 -0.004954982 -0.10577721 0.024115983
000040 11 e0 df bd 65 a9 43 bc 23 15 d4 3d d2 22 b5 3c
       -0.10931409 -0.011942242 0.10355594 0.02211133
000050 eb c5 c2 bc 8e c9 e8 3c 17 9a 0b 3d 1b d4 2b bd
       -0.023776015 0.028416421 0.0340825 -0.041950326
000060 dd 24 0f 3d 3f 99 be bd 9e 58 0b 3b 05 50 de 3c
       0.034947265 -0.09306573 0.0021262537 0.027137766
000070 3d 6c 7d bd f0 02 ee 3b a7 af d1 bc 16 b5 ea bd
       -0.061870802 0.007263534 -0.025596453 -0.11460321
000080 8a f8 95 bc 98 0e a3 3c ff 1f 76 3d ac 18 a2 3c
       -0.01830699 0.01990442 0.060089108 0.019787155
000090 ef 19 71 3d 81 b7 ca bd 42 d9 ee 3c 89 25 19 3d
       0.058862623 -0.09898282 0.029156331 0.037389312
0000a0 72 3e ce bc a3 d4 6c 3d 2f 5d 65 bd 1f da 9c 3d
       -0.02517626 0.057819974 -0.05599707 0.07658791
0000b0 64 ca 13 be 5c 77 1c bd cd 6e 9a bd cb 86 46 3d
       -0.14432675 -0.038199767 -0.07540665 0.048468392
0000c0 a8 d7 df bd c7 76 df 3c 37 09 65 bd 22 70 aa 3c
       -0.10929805 0.027278317 -0.05591699 0.020805422
0000d0 ba f2 33 bc 4a 07 17 bd 67 27 cf bd ca b3 c4 bd
       -0.0109831635 -0.036872186 -0.10114937 -0.096046045
0000e0 00 18 c0 3d 76 3b a2 3c c4 a1 e7 bc c4 54 f5 bc
       0.09379578 0.019803744 -0.028275378 -0.029947646
0000f0 c5 13 aa 3d 03 c2 78 3d 18 84 8d bd 59 85 77 bd
       0.08304552 0.0607319 -0.069099605 -0.060429905
000100 6d 3b c5 3d f0 07 71 3d 5b ca 65 3c e8 10 da bd
       0.09630475 0.05884546 0.014025296 -0.10647756
000110 26 7f c4 3c c9 e5 e5 3c d9 28 1f be 5c 00 f1 bd
       0.02398641 0.028063672 -0.15542926 -0.11767647
000120 e6 97 be bd c1 07 b4 bd fa 55 43 bd be 7b 04 bd
       -0.09306316 -0.087905414 -0.047689416 -0.032344572
000130 32 82 d7 3d 1d f6 81 bd 35 ce 3f bd d0 b9 26 bd
       0.1052288 -0.063457705 -0.046827514 -0.04070455
000140 25 bf 80 3c 74 80 ae 3d 58 eb c5 3c 88 10 3a 3c
       0.015716145 0.08520594 0.024160072 0.01135648
000150 2e 0a 0a bd c1 b5 98 3c 64 29 54 bd 05 bb 8a 3c
       -0.033701114 0.018641355 -0.051797286 0.016934881
000160 5c 29 7a bd fb 07 d3 3d 65 5f bf 3c 5a eb d5 3d
       -0.0610746 0.103042565 0.023360917 0.104452804
000170 df 48 03 bd 4c 60 fa 3c 89 0c a4 3c 62 18 6a bc
       -0.032051917 0.030563496 0.020025508 -0.01428804
000180 9f d1 14 bd 4b 4c 68 3b 96 e1 bf 3b fd d3 ba 3d
       -0.036332723 0.0035445865 0.0058557494 0.09122465
000190 d0 4c a8 ba bb 63 b2 3c 70 ff 9a bc 00 91 71 3d
       -0.0012840275 0.02177607 -0.01892063 0.058976173
0001a0 62 85 9d bd 57 23 cd bc 4a a7 db bc a2 b8 bd bd
       -0.076914564 -0.025041265 -0.026813168 -0.092637315
0001b0 1f 76 cf bc 2b 8f 53 3d 6d 22 2a bc d7 f3 62 bd
       -0.02532488 0.051650207 -0.010384184 -0.055408325
0001c0 29 a7 c6 3c 02 c9 65 3d 47 63 26 3d 8a df b8 3c
       0.02424963 0.0560999 0.040622022 0.02256753
0001d0 d2 20 f4 3b a0 9b 17 3c 51 ac 1d bd 5c 84 b3 bd
       0.0074502015 0.0092534125 -0.03849441 -0.0876548
0001e0 e0 27 e7 3c 18 7f 84 bd 79 b0 19 bd 50 89 a2 3d
       0.028217256 -0.06469554 -0.037521813 0.079363465
0001f0 11 46 c2 bd 55 2e 0e 3d a2 97 b3 3d fd 72 58 bd
       -0.0948602 0.034712154 0.08769156 -0.052844036
000200 78 58 06 be a5 c7 bb 3b ad 00 0c bc 1b 1f 53 bd
       -0.13119686 0.0057305866 -0.008545083 -0.051543336
000210 11 04 87 bd 31 67 15 bc a7 f5 73 3c 77 d2 4d bd
       -0.065925725 -0.009118841 0.014890111 -0.050249543
000220 b8 84 09 3e 5f 39 6f bc 71 cb c3 3b ef be 68 bc
       0.13429534 -0.014601081 0.00597518 -0.014205678
000230 90 08 7e 3d ba 0f a5 3c bb fb fc bc 77 de 27 3d
       0.062019885 0.0201491 -0.030881753 0.040983643
000240 2c 60 35 bc 79 d8 63 3b a7 89 36 3d 02 a2 9a 3d
       -0.011070292 0.003476648 0.04456487 0.07550432
000250 d2 58 86 3d f1 e2 1a be 25 dd b7 bd ac a0 41 bd
       0.0655991 -0.15125634 -0.08977727 -0.04727237
000260 f2 0d eb bc 1c 3d eb 3d 3d 6e b7 3c 77 6f a7 bd
       -0.028693173 0.11486265 0.022391433 -0.08175557
000270 6c fb 0b bd 4f 62 5d 3d d5 ca 13 3b 26 eb 58 3c
       -0.03417532 0.054048833 0.0022551317 0.0132396575
000280 a5 c8 01 bd bb ef 84 3c 5e f3 f6 b8 2e c4 39 be
       -0.03168549 0.016227594 -0.00011775525 -0.18141243
000290 16 cc 8c 3d d5 a7 9c bb 08 49 88 bd e0 11 8a bd
       0.06874864 -0.0047807493 -0.066545546 -0.06741691
0002a0 25 76 71 bd 55 58 89 3d ad 8a 80 bd bf 70 0c bd
       -0.058950562 0.06706301 -0.0627645 -0.03428721
0002b0 76 18 b5 bd 53 09 d5 bd 52 af 39 bd 42 5f 50 bd
       -0.08842556 -0.10402169 -0.045333214 -0.050872095
0002c0 2d a3 9e 3d 87 60 8d 3d 59 de a0 3d ac 3e 28 3c
       0.07745967 0.06903177 0.078549094 0.010268848
0002d0 69 e6 b5 bd 48 0f d4 bc 14 58 27 bb 4c 61 57 bd
       -0.08881838 -0.025886193 -0.0025534676 -0.052583024
0002e0 b3 e1 8a bc b2 10 50 bd 91 e5 db bc dc 66 8a 3d
       -0.016953325 -0.050797172 -0.026842864 0.067579
0002f0 0c f5 09 be 6f 49 c7 3d af ec 9a 3d 33 86 9b 3d
       -0.13472384 0.09730803 0.07564675 0.07593956
000300 cc ba c0 bd 92 07 ac bc d5 3b 12 bd cc be e0 3c
       -0.09410629 -0.020999704 -0.03570159 0.027434729
000310 1a 05 98 bd 3b 61 42 3d 50 66 ce 3c 79 fa 88 bd
       -0.07422848 0.047456007 0.02519527 -0.06688399
000320 32 72 84 3e 51 06 56 3e 52 e5 03 3d fa 36 a4 3e
       0.25868374 0.20900847 0.03220112 0.32073194
000330 83 99 25 3e 9b 0a 45 3d 32 fe 4d be 8c 59 24 3e
       0.16171841 0.048105817 -0.20116499 0.16049784
000340 40 e3 8f 3e a2 49 e6 bd 7b 6c be be 89 ef a5 3e
       0.28103065 -0.11244513 -0.3719214 0.32409313
000350 ee 42 7e be db d0 2a be d7 a0 ba be 8d c0 9b be
       -0.24830219 -0.16681235 -0.36450836 -0.30420342
000360 95 dd 88 be ae 7a bf bc d2 17 a2 3d 1e fa 67 3c
       -0.26731554 -0.023373928 0.079146996 0.014158754
000370 b9 88 a3 bc c5 cf bc be a8 aa 12 bc 29 44 17 be
       -0.019962655 -0.36877266 -0.00895182 -0.14772095
000380 1e 6f 9c be 3d b5 8e 3d c4 f8 98 3e 4d ca 46 3e
       -0.30553526 0.06968162 0.29877293 0.19413109
000390 55 41 7f be 6b 36 94 bd 8d 6a cb 3c a6 54 48 3e
       -0.24927266 -0.07236942 0.02483108 0.19563541
0003a0 63 c0 4d be c9 55 91 bd 42 db 3b be 73 c9 dc 3c
       -0.20092921 -0.0709644 -0.18345359 0.026951527
0003b0 99 08 00 3e a1 c1 2c be f7 be 3a be 68 ae 77 be
       0.1250328 -0.16870739 -0.1823691 -0.24187624
0003c0 07 ee 73 3e da c0 99 bd 08 f8 9d be 1f d1 16 3e
       0.23821269 -0.07507487 -0.30853295 0.14728211
0003d0 a6 48 0b be 64 8f 5b be b4 40 00 3e 3e e4 0f be
       -0.13601932 -0.21441418 0.12524682 -0.14051911
0003e0 1f 74 bb 3d 25 57 da bc 37 3b a6 be 13 bb 8b 3e
       0.09153008 -0.026652882 -0.32467052 0.27291164
0003f0 06 4d 5d 3e 06 6c 87 3e c5 5f 9c bd 0f 22 49 be
       0.21611413 0.26449603 -0.07635454 -0.19641899

module.2.bias f4 [60]
000000 f5 18 e2 bd 5c 6e 10 bc 27 7e 00 bf 07 c0 db 3d
       -0.110399164 -0.008815374 -0.50192493 0.10729986
000010 e4 41 3c bd 5c 61 1f bd 44 df 16 be d6 b7 c1 3d
       -0.045961276 -0.03891121 -0.14733607 0.09458892
000020 61 8d ba 3c 8b 60 71 3e 38 c3 39 be 0d 8a 8f be
       0.022772493 0.23571984 -0.18140876 -0.28035012
000030 84 05 8a bd 7d 04 1f 3d 0c 75 09 bf 3e ce 86 3d
       -0.06739333 0.03882264 -0.53694224 0.06582306
000040 f9 da 80 3d 35 30 11 3d db be 9e bd 9f e0 34 bc
       0.06291766 0.035446364 -0.077512465 -0.011039882
000050 21 b6 6a be f9 55 34 bd d4 a6 70 bd 48 57 cd 3d
       -0.22921039 -0.044027302 -0.05875285 0.10026413
000060 54 03 18 be 08 ee 6c 3d 3b f5 ae bd a5 23 32 3d
       -0.1484502 0.05784419 -0.08542868 0.043491025
000070 77 c8 0b bf 24 80 a1 bc 99 2a 9e 3b db 1c ca bc
       -0.5460276 -0.019714423 0.0048268554 -0.024671962
000080 16 0d 13 3d e2 2a b4 be 28 6d 4e 3d bd 0a 8b bd
       0.03590115 -0.35188967 0.05039707 -0.067891575
000090 d4 db f0 be 6d 2f d9 3c 1f 1e 6f be 75 b5 a9 3d
       -0.47042716 0.026511872 -0.23351334 0.08286563
0000a0 8d ba 3e 3e b9 e2 b2 bd 34 f7 39 be 1d e0 05 3d
       0.18625851 -0.0873465 -0.18160707 0.032684434
0000b0 6e 57 88 3c b0 56 2a bd 87 20 7b bd 2b 74 d8 be
       0.016643252 -0.041586578 -0.061310317 -0.4227613
0000c0 16 70 2b bd df 2f f0 3d 80 df 69 bd d9 0d a3 bb
       -0.04185494 0.11727881 -0.05709791 -0.004976016
0000d0 26 f0 df 3d 8b 31 4a bc b5 75 03 3d 91 e1 68 3d
       0.109344766 -0.0123409135 0.032094676 0.056855742
0000e0 59 18 4e be 96 a1 ea bd 0b 6a a0 bc e7 8f aa bd
       -0.20126475 -0.11456601 -0.019581815 -0.083282284

module.4.weight f4 [6, 60]
000000 ad f4 50 ba 4d 98 01 bc c7 f0 9f bd 5d ae dd 3c
       -0.000797103 -0.0079098465 -0.078095965 0.027060682
000010 d9 13 21 3d cd d1 9e bc f1 57 eb 3c 69 c0 3c bc
       0.03932557 -0.01938715 0.028728457 -0.0115204835
000020 51 19 82 3c 6d f3 59 3a 33 37 39 3d fe 0f eb 3c
       0.015881212 0.00083141663 0.045218658 0.02869415
000030 4a 7a c6 bb ac e4 1e 3d 0f a1 b4 bc 99 ea 49 bc
       -0.0060570585 0.038792297 -0.022049455 -0.012323999
000040 f8 95 d5 bb 0a 03 96 bb bf b3 89 3c 28 97 41 3c
       -0.006518122 -0.004577999 0.016809342 0.011815824
000050 8d 8f 90 3c 06 18 33 bd b9 80 3f 3d a1 d6 87 3c
       0.017646575 -0.043724082 0.04675362 0.016581835
000060 c2 3e 82 bb 0a 9d cf 3c c0 c1 70 bc af 26 87 bc
       -0.0039747665 0.025343437 -0.014694631 -0.016497938
000070 d3 7d 44 3d 26 e5 24 bb 01 7b ba bc c0 7a 78 3c
       0.047971558 -0.0025160997 -0.022763731 0.015165985
000080 7c 84 11 3c f3 4a 98 3d 48 3b d5 bc 46 db fb bc
       0.008881684 0.074361704 -0.026029244 -0.030744206
000090 41 68 86 3c 80 d3 1d bd 73 05 cd bb 9d c6 02 3b
       0.016407134 -0.03853178 -0.006256753 0.0019954809
0000a0 f8 72 95 3c 11 0b 16 bd 81 b0 85 bc d2 3a 4d bc
       0.018243298 -0.036631647 -0.016319515 -0.012526231
0000b0 9d 12 42 bd 1f b3 20 bd 10 3d 5d bb 44 1f a7 3d
       -0.047381032 -0.039233323 -0.003375832 0.0816026
0000c0 92 11 2a bd b6 48 2a bc 0d 03 62 bd 1d 99 2f bd
       -0.041520663 -0.010393312 -0.05517869 -0.04287063
0000d0 4c e1 8f bc 50 6b fa bb de 15 3a bc e1 71 53 bd
       -0.017563485 -0.007642187 -0.011357753 -0.051622275
0000e0 76 39 3e bc 61 5c 72 ba e1 28 2f ba 51 19 86 bb
       -0.011610379 -0.0009245333 -0.00066818116 -0.0040923734
0000f0 aa dd 56 3a c1 8b e6 3b cb 83 21 3e 1d a9 f2 3a
       0.00081964827 0.007035703 0.15772931 0.0018513534
000100 c3 30 af ba 01 86 e1 3d d9 59 1e be 1e f7 11 b9
       -0.0013365973 0.11011887 -0.15463962 -0.00013920336
000110 62 2d 84 3b 04 ad 34 be f4 14 b3 bd 0e 48 c6 be
       0.0040337304 -0.17644125 -0.08744231 -0.38726848
000120 7c a0 00 39 5d 2a 79 ba 3b 4b 01 be 88 94 ea ba
       0.00012266816 -0.0009504909 -0.12626354 -0.0017897049
000130 eb 77 a8 be e0 76 23 bb 52 24 cc bb 56 20 3d 3b
       -0.3290399 -0.0024942681 -0.0062299157 0.0028858385
000140 bf 8c 83 be b3 6b b2 bd bc c7 aa 3a df 9a ad 3e
       -0.25693318 -0.08711948 0.0013029496 0.3390722
000150 d0 19 7f be 7b 1e 9d ba 45 5d 67 bb 9f 68 a0 bd
       -0.2491219 -0.0011987233 -0.0035303396 -0.07832455
000160 07 de 96 3d d9 ab cd 3e 33 93 76 bb 82 b5 b0 bb
       0.07366567 0.40170172 -0.0037624359 -0.005392731
000170 b9 bc 2f bb dc 26 74 3b 11 4c 8a bb 14 b0 01 3b
       -0.0026815368 0.0037254607 -0.0042204936 0.0019788789
000180 3d 66 94 be c8 01 46 3b bd 1e 62 3d 9d 14 d4 3a
       -0.28984252 0.0030213464 0.055205096 0.001618046
000190 eb ab 78 bd ed 23 ad be c7 6f 4c be 32 50 1b ba
       -0.06071083 -0.33816472 -0.19964515 -0.0005924731
0001a0 13 83 e5 3b 23 cb ed ba 2d 7d 83 be 28 1a 2d 3e
       0.0070041507 -0.0018142204 -0.2568144 0.16904509
0001b0 0b de 85 bb d0 62 06 ba 56 4d 54 bb eb f9 1c ba
       -0.0040853075 -0.00051264185 -0.0032394729 -0.00059881684
0001c0 eb 74 b9 ba 91 32 3a b8 16 07 c9 be f9 f1 8f bb
       -0.0014149224 -4.439295e-05 -0.3926322 -0.004392859
0001d0 21 da 58 be c3 1a 94 ba 11 7b 8c 3b a2 1f 3f 3a
       -0.2117696 -0.001129948 0.0042871316 0.00072907854
0001e0 94 df 45 3a 34 f6 c3 ba f0 ec 02 3e e1 8a f5 ba
       0.00075482694 -0.0014950694 0.12785697 -0.0018733406
0001f0 cb 4e 2d 3b ae 45 8f 3e 12 be 10 3e e8 12 2d 39
       0.002644467 0.2798285 0.14135006 0.00016505609
000200 67 6d 39 3a 0c 18 96 be 25 00 0a 3f a6 c0 3a bc
       0.0007073492 -0.2931522 0.5390647 -0.01139847
000210 55 e1 76 b9 72 33 25 3a 26 d1 61 3e ce bb 33 39
       -0.00023544331 0.00063019164 0.2205244 0.00017140733
000220 b3 cc 1d bf 1e 66 13 ba 7f 90 4f 3b 0c 4c 26 3b
       -0.6164047 -0.00056228216 0.003167182 0.0025374917
000230 fc 21 48 3e 53 4c df bd 72 49 68 b8 0e 22 26 be
       0.19544214 -0.109032296 -5.538151e-05 -0.16223928
000240 84 c7 27 bd ea 61 fd 3a 16 40 27 3a 2f c8 bd be
       -0.040961757 0.0019331549 0.0006380094 -0.3706679
000250 85 d1 44 3e 81 60 96 3d 44 28 c5 ba b5 e9 9b 3a
       0.1922055 0.073426254 -0.0015041907 0.0011895212
000260 54 c3 be 3a 53 6c fc 3d 04 1d 45 ba ac af cd 3a
       0.0014554062 0.12325349 -0.0007519277 0.0015692613
000270 ba d4 89 3b 9a 74 5c bb 30 23 61 3d a3 28 ef 3a
       0.004206267 -0.0033638836 0.054965198 0.0018246364
000280 09 a4 1c be a4 7e 60 be 6a 11 2f be 6b 47 01 3a
       -0.1529695 -0.2192331 -0.17096487 0.00049316016
000290 f8 cf 22 bb 35 d8 63 39 13 1b 03 be ed 8b 75 3e
       -0.0024843197 0.0002172895 -0.12803297 0.23979159
0002a0 66 4d 77 ba e8 69 15 bb d1 f9 c9 ba 8c 7e ea 3a
       -0.00094338355 -0.002279872 -0.0015409534 0.0017890497
0002b0 89 a2 81 bb 7f 2e 0a b8 9b ad ed be 1f 47 6d 39
       -0.0039561433 -3.2945067e-05 -0.46421513 0.00022628576
0002c0 15 94 14 3e c6 c5 80 3b f4 3d 89 ba 49 a4 43 b9
       0.14509614 0.0039298264 -0.0010470734 -0.0001865785
0002d0 8a 92 90 bc bc 69 c2 bd dc f4 bd bc de e1 d7 3c
       -0.017648 -0.094928235 -0.023188047 0.026352819
0002e0 ee 92 c3 3b f3 a7 ea 3c 25 a4 4d be 5c 98 ee 3b
       0.005968443 0.028644538 -0.20082147 0.0072813462
0002f0 50 8a 83 bd 87 e5 f5 3d ad 3b bb 3b ad d5 aa bd
       -0.064228654 0.120066695 0.005713901 -0.08341537
000300 ce 6c 8a bb e1 f6 18 3c 6c 28 34 be b1 c3 d8 3b
       -0.0042243963 0.009336204 -0.17593545 0.006615125
000310 f6 bb f8 bd 8f 0f 53 3d e8 90 be 3d a6 5c ef bc
       -0.12145226 0.05152851 0.093049824 -0.029218983
000320 5a 07 44 be 88 eb 5c 3d a2 23 87 bb 27 c4 2c 3e
       -0.1914343 0.053935558 -0.004124121 0.16871701
000330 53 68 6d bc 12 db 82 bc d9 b2 94 3c a8 05 a2 3c
       -0.014490205 -0.015973601 0.018151687 0.019778088
000340 f9 9e 37 be b0 b3 0d 3e 59 cb 34 3d 3b f9 2b 3d
       -0.17931737 0.13838077 0.04413924 0.04198573
000350 0a a7 e1 3b ee af ee bd 73 31 b7 3c d6 9f 95 bb
       0.0068863677 -0.1165465 0.022362446 -0.004566173
000360 85 0e e5 bd f6 72 72 bc 89 a5 ff bc 7e 4c 83 3c
       -0.1118441 -0.014797917 -0.031206863 0.016027685
000370 d8 ea 71 3d 69 26 b5 3d 25 5f 86 bd 95 37 16 bc
       0.059061855 0.08845217 -0.06561116 -0.009168525
000380 0d bd d4 bd 44 2d a3 3c a7 3a 07 3d 40 1f d4 bc
       -0.10387621 0.019919045 0.03301492 -0.025893807
000390 c1 38 0a 3d 5d 7a 77 3b 55 ab 2e 3d 48 c6 8f ba
       0.03374553 0.0037762143 0.042643864 -0.0010969127
0003a0 b7 dd cf 3c 3f 7e 85 bb af e7 c9 bd f9 ba 54 3d
       0.025374277 -0.0040738876 -0.09858643 0.051936124
0003b0 8a 39 ef bc 86 c8 e9 3b cc 77 52 bd 13 6c 6a 3c
       -0.029202241 0.0071345 -0.05138378 0.014307993
0003c0 a3 0f c4 3c 54 d9 ff 3d e0 63 da bd 29 d7 0d bd
       0.023933237 0.12492624 -0.10663581 -0.03462902
0003d0 50 36 15 bc 53 69 83 3d 6a e9 1e be 11 ca ed bb
       -0.009107187 0.064165734 -0.15518728 -0.007256754
0003e0 07 a6 ae 3d f8 8c b0 3c 52 72 f0 3c 26 4d 25 be
       0.08527761 0.021551594 0.029351387 -0.16142711
0003f0 ee 47 cb 3b ba 2b 6a bc 30 f5 ec bc 35 dc f2 bb
       0.006203643 -0.014292652 -0.028925508 -0.0074115046

module.4.bias f4 [6]
000000 eb 98 f3 3d 0f d4 7c be d3 ef aa be b7 9e 8c 3e
       0.11894401 -0.24690269 -0.33386096 0.2746484
000010 b0 be 63 3e 5f 77 76 3d
       0.2224071 0.060172435

module.6.weight f4 [1, 6]
000000 c1 70 a1 39 d2 a8 01 be 47 00 4a be 9d 7f 5d 3e
       0.0003079232 -0.12662056 -0.19726668 0.21630712
000010 a0 df 2d 3e e5 56 96 39
       0.16979837 0.0002867497

exp_avg f4 [100, 6]
000000 fb 6f 89 3b b4 5c 93 b9 a9 36 6e ba 9d 06 40 3a
       0.0041942573 -0.00028107094 -0.00090871245 0.0007325204
000010 35 f7 66 b9 4d 94 07 bb 9f 8a 26 ba 4b 0a 8f b9
       -0.00022026601 -0.002068776 -0.00063530536 -0.00027282754
000020 7a 48 d7 39 7e 37 25 3a 54 42 be b9 0a c7 b0 39
       0.00041061995 0.00063025195 -0.00036289042 0.00033717632
000030 7b 5b 79 b7 e2 31 29 b7 5b f2 ca 36 ac 0b 70 37
       -1.4862856e-05 -1.0084799e-05 6.048283e-06 1.4307832e-05
000040 cf f0 c7 b6 98 dd a3 b6 44 25 82 3a bd a1 e6 b8
       -5.958696e-06 -4.8835755e-06 0.0009929319 -0.00010997381
000050 bc ad 76 b8 e1 47 ee 39 13 55 c9 b8 3e 5e 1d ba
       -5.8812773e-05 0.0004544845 -9.600273e-05 -0.0006003118
000060 9e d2 53 b9 3f f0 2e b9 c2 74 ce 39 cd dc 1e 3a
       -0.00020200989 -0.00016683432 0.00039378373 0.00060601236
000070 f8 17 23 b9 ac 37 00 b9 07 ab 24 3a 27 91 39 b9
       -0.0001555382 -0.0001222777 0.00062815886 -0.00017697048
000080 61 b1 25 b9 db 49 60 39 95 28 8c b8 b3 69 6d b9
       -0.00015801705 0.00021389818 -6.683279e-05 -0.00022641457
000090 f4 e1 8f 3a 42 2e 35 38 da b1 04 ba 09 7e f9 b9
       0.0010977373 4.3196844e-05 -0.00050619023 -0.00047586884
0000a0 cf 67 0d 3a 9e 81 4f ba d0 d4 45 39 82 2b 47 b9
       0.0005394192 -0.0007915738 0.00018866663 -0.00018994327
0000b0 4e 93 41 39 31 a8 01 3a c7 fa cc b8 d7 c3 97 b9
       0.0001846079 0.0004946022 -9.774189e-05 -0.00028946876
0000c0 be c0 14 39 94 20 06 b9 f0 c0 0a 39 57 c6 9f 39
       0.00014186182 -0.00012791372 0.0001323258 0.00030474618
0000d0 7a dc ff 38 34 48 ad b9 78 50 96 b7 bc f7 89 b6
       0.000122004145 -0.00033050927 -1.7918865e-05 -4.1117582e-06
0000e0 a9 a4 08 37 97 b9 1b 35 a9 10 96 b6 bc c7 36 b5
       8.14457e-06 5.801207e-07 -4.472288e-06 -6.8090935e-07
0000f0 d2 8c 6d bb aa 30 a8 b8 40 ec 6d 3a e9 98 60 b9
       -0.0036247266 -8.019929e-05 0.00090760365 -0.00021419268
000100 f4 92 56 39 17 35 d2 3a 0f b5 4c 3b a5 6f b2 b9
       0.00020463375 0.001603755 0.003123585 -0.00034033987
000110 9a be 08 ba 64 7a 33 3a 08 a4 90 39 87 01 14 bb
       -0.000521639 0.0006846546 0.00027588033 -0.0022583918
000120 9d 08 31 bb ee 01 88 b8 93 6b 1e 3a 09 0d 92 b9
       -0.002701319 -6.485345e-05 0.00060432515 -0.00027857002
000130 6f 62 77 39 c4 44 9d 3a fc df c5 ba d9 10 60 b9
       0.00023592425 0.0011998643 -0.001509666 -0.00021368581
000140 cb 9e d0 39 ef b0 13 b8 bf 61 d2 39 3b ae cb 39
       0.00039791162 -3.5212313e-05 0.00040127148 0.0003884899
000150 22 81 62 39 63 51 07 3a 75 d3 b6 b9 8d cc 48 ba
       0.00021601145 0.0005161969 -0.00034871293 -0.0007659875
000160 1d 9e f3 b7 a0 58 13 39 6c c4 c0 b9 f1 f8 51 39
       -2.9041485e-05 0.00014052028 -0.0003676744 0.00020024531
000170 78 ac 43 b8 49 d5 c1 b9 3b 64 b9 37 9d d2 84 39
       -4.6652247e-05 -0.00036970738 2.2100392e-05 0.0002533392
000180 fd ca 17 bb 0b 5c 90 39 8d cc bc 37 ee bb b3 ba
       -0.0023161762 0.00027534398 2.2506598e-05 -0.0013712624
000190 af 3d 14 3a 7c ab 9c 3a c2 df 45 36 05 5c 9c 36
       0.00056549435 0.0011952962 2.9485532e-06 4.659875e-06
0001a0 c9 b6 7f b6 dd 6d f1 b6 4c d8 9e 35 f5 89 1b 37
       -3.8104356e-06 -7.1951495e-06 1.1834868e-06 9.270841e-06
0001b0 47 c7 c4 ba 8e 3f 19 ba e2 38 54 3a aa 13 62 3a
       -0.0015013003 -0.0005845957 0.00080956344 0.0008624146
0001c0 4a cc 2c 39 9b 51 ba 36 8e 2e 71 ba 02 89 89 b9
       0.00016479302 5.552732e-06 -0.00092003576 -0.00026232755
0001d0 24 b5 ae 39 6a 1c 7d 39 fb dc 9c b8 c0 64 b4 39
       0.00033322826 0.00024138545 -7.4798205e-05 0.0003440734
0001e0 17 7d a1 b8 61 e0 18 b7 a5 c9 5e 37 6d e0 93 b7
       -7.700378e-05 -9.112148e-06 1.327918e-05 -1.7628272e-05
0001f0 da 41 96 b7 2d a9 87 37 2f 99 9d 3a 1e af fa 39
       -1.7912058e-05 1.6172033e-05 0.0012023802 0.00047814188
000200 5a dc 0e ba 2b 15 0d ba 4a f8 11 b9 2d c3 7f b9
       -0.0005449705 -0.00053818774 -0.00013920772 -0.00024391404
000210 5c a3 91 ba 90 59 b0 b9 d0 6e bd 38 41 d2 c2 b9
       -0.0011111307 -0.00033636065 9.032863e-05 -0.00037159215
000220 ff 4e d1 39 c8 5f 85 39 b6 50 e1 b8 f9 cb 4f b7
       0.00039922443 0.000254391 -0.0001074387 -1.2385653e-05
000230 7f 82 d4 37 be 23 47 37 77 c7 61 b8 62 e5 0b 38
       2.5333136e-05 1.1869646e-05 -5.3829946e-05 3.3353812e-05
000240 20 b3 6d ba 92 3e c5 b8 94 0c f6 b8 07 bd 3f ba
       -0.0009067524 -9.405347e-05 -0.00011732537 -0.0007314239
000250 d9 b8 20 3a 83 df 6f 39 a7 78 d8 39 26 4f ba b9
       0.000613106 0.00022876081 0.00041288623 -0.00035535655
000260 ad 1b e7 b9 99 37 29 ba 9e bd 88 3a 74 64 40 ba
       -0.00044080373 -0.0006455123 0.0010432487 -0.00073391874
000270 be d0 97 3b 5e ee 66 39 ad 52 95 ba 28 62 49 39
       0.0046330383 0.00022023308 -0.0011392437 0.0001920542
000280 55 ac 09 b9 25 5f 0a bb 60 00 0a bb 49 7e 50 b9
       -0.00013129537 -0.002111384 -0.0021057352 -0.0001988347
000290 97 1c 5c 3a 65 e5 16 3a 61 be 35 b6 fc c2 49 3a
       0.0008396594 0.00057562283 -2.7081917e-06 0.00076965964
0002a0 f1 00 6a ba 30 8b ce 38 c4 d2 da 39 a5 1e 91 39
       -0.0008926532 9.848771e-05 0.00041737233 0.00027679387
0002b0 5a 62 e9 b8 35 c2 ae 39 96 52 14 3a a2 f0 84 39
       -0.00011128625 0.00033332562 0.0005658058 0.00025356287
0002c0 ca 6a ce b9 8e 13 01 ba f3 c2 72 b9 8f f9 dc 38
       -0.00039370946 -0.00049238733 -0.00023151543 0.000105369014
0002d0 9f f6 3e b7 47 a0 4c b3 a3 bd 10 37 8d cd 6a 37
       -1.13823035e-05 -4.7643223e-08 8.627222e-06 1.3995345e-05
0002e0 ee 92 cc b6 98 93 c3 36 17 86 cf 3a 77 7c 28 39
       -6.0967786e-06 5.828635e-06 0.0015832809 0.00016068095
0002f0 bd 6a e8 b9 8f f3 c7 38 a8 58 ce b9 ad b1 a5 b9
       -0.00044330014 9.534426e-05 -0.00039357436 -0.0003160363
000300 8e 19 79 3a 00 a1 c1 38 a1 ae f1 b9 dd 49 dc b9
       0.0009502404 9.232946e-05 -0.0004609721 -0.00042016702
000310 b8 f0 b5 39 69 21 05 ba ea 5d 22 b7 de 17 fb 36
       0.0003470236 -0.0005078526 -9.6778185e-06 7.4831614e-06
000320 55 66 43 36 77 65 b0 b6 a2 ff 4d b7 18 7d de 36
       2.911683e-06 -5.257021e-06 -1.2278471e-05 6.6306784e-06
000330 dc 66 4b 3a af 59 d8 39 88 23 31 ba b6 f1 99 ba
       0.00077591627 0.0004126555 -0.0006757309 -0.0011745009
000340 50 ec 1a 3a 67 bf 9a b9 05 06 0f 3a 26 75 8a b8
       0.0005909847 -0.00029515775 0.0005455914 -6.6021734e-05
000350 f7 86 3c b8 4e 28 4f 39 58 eb 84 b7 9a 47 ef b9
       -4.494839e-05 0.00019756073 -1.5845217e-05 -0.0004563898
000360 c0 65 da 39 f1 b3 fa 37 76 c5 02 b9 9a 32 39 37
       0.0004165601 2.9886114e-05 -0.00012471326 1.1038641e-05
000370 f0 29 72 b8 7d f8 c2 b8 f3 69 7f ba 32 4d 93 b9
       -5.7736353e-05 -9.2969254e-05 -0.00097432657 -0.0002809554
000380 43 18 e4 36 71 50 e2 b9 c5 01 25 3a 03 23 cc 38
       6.797754e-06 -0.00043166013 0.0006294514 9.7339995e-05
000390 65 ca 80 bb ce f4 d9 39 64 01 74 3a ba 3b d4 b9
       -0.0039303773 0.0004157186 0.00093080685 -0.0004048029
0003a0 11 28 c1 b9 d3 91 23 3b 99 a8 7f 38 57 7e c6 b7
       -0.0003684168 0.0024958744 6.0953756e-05 -2.366227e-05
0003b0 a5 e1 a7 b7 b6 c8 13 38 45 fd d8 37 fb 50 a1 b7
       -2.0013025e-05 3.5234458e-05 2.5867144e-05 -1.9230405e-05
0003c0 7a 4b b2 39 9f fe 8a b7 84 b3 55 38 18 20 96 39
       0.0003400704 -1.656945e-05 5.0950344e-05 0.0002863414
0003d0 ac b3 14 b9 78 c9 48 b9 06 98 0c ba 07 20 e5 b8
       -0.00014181313 -0.0001914854 -0.00053632294 -0.000109255365
0003e0 f5 e6 92 39 89 de a2 39 d3 d1 12 b9 59 b9 59 39
       0.00028019366 0.0003106485 -0.0001400181 0.0002076378
0003f0 c4 e1 d6 38 5f de 83 39 14 e5 64 b9 ec 00 03 ba
       0.00010246367 0.00025151946 -0.00021829113 -0.0004997391

exp_avg_sq f4 [100, 6]
000000 e4 71 5a 39 eb c4 1d 39 c8 34 c2 38 6f ca 2a 39
       0.00020832528 0.00015046044 9.260472e-05 0.00016287876
000010 02 fc e3 38 ba de b8 38 44 97 8b 37 0a 73 12 37
       0.000108711436 8.81529e-05 1.664053e-05 8.729063e-06
000020 c3 ff 99 36 57 d4 ae 37 73 fe 5e 37 be 2e 2f 37
       4.58953e-06 2.0841295e-05 1.3291475e-05 1.0441696e-05
000030 71 e4 6c 31 31 28 d5 30 fb 0a 87 30 ed f3 37 31
       3.4472374e-09 1.5509213e-09 9.825664e-10 2.676866e-09
000040 d2 20 e0 30 29 83 04 31 5b ec 6b 37 56 0a 1a 37
       1.6307473e-09 1.9283084e-09 1.4062122e-05 9.181522e-06
000050 64 9b a1 36 29 0f 31 37 be 9c fa 36 92 36 ac 36
       4.8162638e-06 1.0553552e-05 7.468828e-06 5.1323523e-06
000060 b4 f4 46 37 58 7a 6f 36 ab 33 b2 35 68 34 22 37
       1.1858694e-05 3.5684989e-06 1.3277071e-06 9.668154e-06
000070 f1 09 0e 37 21 60 d1 36 85 63 2c 37 98 13 1a 37
       8.466174e-06 6.2398763e-06 1.027517e-05 9.183677e-06
000080 48 f6 6b 36 6c 5e df 36 7b 46 b6 36 75 a8 65 36
       3.5161083e-06 6.65691e-06 5.4322277e-06 3.4221714e-06
000090 6a ed fd 37 00 45 53 37 c0 04 03 37 9f 84 e9 37
       3.0270505e-05 1.2592645e-05 7.809314e-06 2.7837521e-05
0000a0 18 f7 75 37 1f 7f a4 37 81 a9 d4 36 c9 bc 7b 36
       1.4660669e-05 1.9609519e-05 6.337825e-06 3.7511802e-06
0000b0 61 0f 96 35 f7 b2 b9 36 ec 78 c1 36 a2 2f 1a 36
       1.1180347e-06 5.534264e-06 5.7659254e-06 2.2975514e-06
0000c0 85 7d 08 35 34 12 9d 34 7f bd 23 34 c0 f6 68 35
       5.0846603e-07 2.9256773e-07 1.5249496e-07 8.6785803e-07
0000d0 a7 ff b5 34 f0 dc d6 34 30 04 91 31 93 09 11 31
       3.389989e-07 4.002136e-07 4.2205315e-09 2.110572e-09
0000e0 98 d4 9f 30 6c a4 3c 31 4c 7e 08 31 3f ee 1a 31
       1.1629195e-09 2.7451064e-09 1.9862396e-09 2.2545377e-09
0000f0 98 b4 16 39 4a 49 d6 38 d1 12 82 38 9a bc fb 38
       0.00014372391 0.00010217966 6.202388e-05 0.000120037424
000100 22 19 93 38 38 70 84 38 a7 a7 c9 38 1f 43 6c 38
       7.0141876e-05 6.315153e-05 9.6156546e-05 5.6329296e-05
000110 8a 85 46 38 65 20 bc 38 09 b7 59 38 ff 2a 5e 38
       4.7331247e-05 8.9705725e-05 5.1907296e-05 5.2968968e-05
000120 45 eb aa 38 65 29 5e 38 db 32 19 38 4a 1b 8a 38
       8.150054e-05 5.2967476e-05 3.6525405e-05 6.585436e-05
000130 bb 21 26 38 9f c8 1b 38 d7 d3 c1 37 3e 33 71 37
       3.9608898e-05 3.7141723e-05 2.3106038e-05 1.437665e-05
000140 8a 67 1c 37 1f e0 90 37 20 eb 26 37 da 1f 23 37
       9.322432e-06 1.7270502e-05 9.949115e-06 9.722973e-06
000150 cb 0a 40 37 ee 33 02 37 d9 82 42 36 a8 73 17 37
       1.1446605e-05 7.760695e-06 2.8984416e-06 9.02723e-06
000160 d3 6c e6 36 62 60 da 36 1c 78 5a 36 ca 76 13 36
       6.867203e-06 6.5081267e-06 3.2554444e-06 2.1973851e-06
000170 7b 66 7b 35 14 d7 6c 36 d2 a4 5a 36 7e 1b 09 36
       9.3653915e-07 3.5291932e-06 3.258047e-06 2.0430593e-06
000180 c9 bb d1 38 21 c2 56 38 1d 57 08 38 ad 81 9b 38
       0.00010000874 5.1202373e-05 3.2506057e-05 7.41513e-05
000190 b5 93 31 38 5a a9 33 38 1f 31 6e 31 1d b7 d4 30
       4.233765e-05 4.2834647e-05 3.466148e-09 1.5477074e-09
0001a0 97 4c 73 30 aa b2 19 31 70 9b c3 30 ad db d5 30
       8.8511726e-10 2.236599e-09 1.4232295e-09 1.5560225e-09
0001b0 2b 73 d8 37 e7 a4 69 37 0f 4e 14 37 05 ef a1 37
       2.5802836e-05 1.3926277e-05 8.839662e-06 1.9303998e-05
0001c0 b0 63 55 37 8d ea 4d 37 69 ec 1b 37 93 ef b0 36
       1.2719e-05 1.2273563e-05 9.2937635e-06 5.273099e-06
0001d0 b5 e6 78 36 9a fa 0f 37 d6 dc f1 36 f0 02 b2 36
       3.708917e-06 8.581812e-06 7.2080684e-06 5.3051554e-06
0001e0 07 61 3f 33 ea 9e f8 32 9c ee 29 32 98 d2 1b 33
       4.45589e-08 2.8943266e-08 9.891348e-09 3.6280284e-08
0001f0 2e 8f fa 32 af 71 b2 32 d5 6a 85 37 ec d0 2a 37
       2.9168941e-08 2.0773625e-08 1.5904583e-05 1.0181433e-05
000200 58 6a e1 36 c6 e8 64 37 98 cd 26 37 71 ec 07 37
       6.7179026e-06 1.3644056e-05 9.94224e-06 8.101678e-06
000210 84 cc 71 37 8c d7 75 36 0e 5d 12 36 ed 32 e0 36
       1.4412337e-05 3.663331e-06 2.180986e-06 6.6816488e-06
000220 38 cc 63 36 c2 c9 8a 36 c8 6a 87 34 00 57 ec 33
       3.3944507e-06 4.136208e-06 2.5223403e-07 1.10054316e-07
000230 b8 95 56 33 24 9b 37 34 4a 48 52 34 cc 88 ed 33
       4.9961926e-08 1.7099643e-07 1.9584073e-07 1.1061056e-07
000240 f8 9f f5 37 f5 1a 20 37 2c ff a6 36 1f 80 a7 37
       2.9280767e-05 9.54302e-06 4.9768914e-06 1.9967612e-05
000250 a4 63 37 37 66 63 59 37 bd ef 64 38 71 91 39 37
       1.0930849e-05 1.2957351e-05 5.458271e-05 1.10607225e-05
000260 2f bb a8 36 2e fe 0c 38 7e a3 65 37 7a 6a cf 37
       5.028581e-06 3.3615324e-05 1.368753e-05 2.4725905e-05
000270 f2 96 3e 39 3e 11 08 39 41 08 a5 38 32 d0 29 39
       0.00018176044 0.00012976394 7.8693505e-05 0.00016194655
000280 cc 9c b4 38 b3 0e bb 38 03 1d 46 38 df 1a f0 37
       8.6122745e-05 8.919593e-05 4.7233898e-05 2.8622742e-05
000290 93 4f ac 37 9d b3 42 38 c3 ff a0 37 2f 97 dd 37
       2.0541052e-05 4.6420482e-05 1.9192585e-05 2.6415653e-05
0002a0 7c 30 c2 37 af ce 80 37 63 d8 e9 36 2d 00 83 37
       2.314918e-05 1.5355034e-05 6.969132e-06 1.5616499e-05
0002b0 2b 51 18 37 f3 54 07 37 91 c4 1b 37 96 60 c9 36
       9.078804e-06 8.066406e-06 9.284487e-06 6.001511e-06
0002c0 5a db 5a 36 6c 71 d3 36 d3 db 88 36 ef e5 73 36
       3.261221e-06 6.301494e-06 4.0787068e-06 3.634366e-06
0002d0 4d e5 89 31 50 34 04 31 aa 44 93 30 9e 50 43 31
       4.0132933e-09 1.9238264e-09 1.0715173e-09 2.842206e-09
0002e0 04 18 04 31 5a 1b 11 31 e5 7b 0d 38 b2 4d de 37
       1.922218e-09 2.1115825e-09 3.3732405e-05 2.6500642e-05
0002f0 91 21 5b 37 0b 07 c8 37 0c 28 97 37 c0 c5 3a 37
       1.30612325e-05 2.3845138e-05 1.8019251e-05 1.1132506e-05
000300 73 46 90 37 cb 8e 04 37 82 74 95 36 58 35 8f 37
       1.7198943e-05 7.90106e-06 4.4541093e-06 1.7071769e-05
000310 d7 39 23 37 4a 66 38 37 89 32 f8 31 1e 26 95 31
       9.729024e-06 1.0991071e-05 7.223495e-09 4.340804e-09
000320 59 bc eb 30 be 57 a3 31 16 e1 83 31 5a 73 7e 31
       1.7152032e-09 4.7538995e-09 3.838191e-09 3.7027434e-09
000330 a6 0b 73 38 b0 cb b3 37 c7 5c 25 37 a8 cd 4a 38
       5.7946563e-05 2.1433312e-05 9.856368e-06 4.8352085e-05
000340 93 97 e8 37 d9 52 08 38 92 87 ce 36 fb aa 87 36
       2.7727137e-05 3.2502085e-05 6.155061e-06 4.0432183e-06
000350 c4 cc 34 36 26 d3 92 36 7c 11 4c 36 7e d0 35 36
       2.694128e-06 4.37572e-06 3.0408546e-06 2.709246e-06
000360 48 6a 39 36 05 b0 3b 36 46 f2 6a 35 16 4c 06 36
       2.7629012e-06 2.7967628e-06 8.752435e-07 2.0011844e-06
000370 2a 99 a2 35 45 dd 76 35 6d 66 b3 37 47 00 02 37
       1.2114517e-06 9.196413e-07 2.1386159e-05 7.748668e-06
000380 f7 25 96 36 fb 54 6c 37 98 27 f8 36 4a 32 26 37
       4.474768e-06 1.4086482e-05 7.3955853e-06 9.90608e-06
000390 f2 3b 38 39 27 9a e9 38 10 93 a6 38 8d 54 28 39
       0.00017569939 0.00011139019 7.942889e-05 0.00016053226
0003a0 b1 04 bb 38 23 d9 c0 38 f2 b9 36 34 47 f0 3a 34
       8.917729e-05 9.195718e-05 1.7017717e-07 1.7410012e-07
0003b0 82 1f 6a 33 71 ac 5d 34 b2 c8 94 34 77 aa 00 34
       5.4511027e-08 2.0644963e-07 2.7713173e-07 1.1982944e-07
0003c0 42 c3 4a 36 dc ef a9 35 e9 ba 48 35 3b 65 3a 36
       3.0214e-06 1.266129e-06 7.4777796e-07 2.7775084e-06
0003d0 0f 11 be 35 61 f5 d3 35 75 55 e3 36 c5 a7 11 36
       1.4161068e-06 1.579214e-06 6.7750757e-06 2.1704338e-06
0003e0 45 0e d4 35 16 a4 93 36 6f d8 22 36 f2 d8 4d 36
       1.5799384e-06 4.4000435e-06 2.4265862e-06 3.067366e-06
0003f0 06 1d 04 37 4a f1 89 36 4a de c6 35 35 a9 0e 37
       7.874571e-06 4.111008e-06 1.4816844e-06 8.503256e-06

exp_avg f4 [100]
000000 8e 16 5a ba 05 4f 4f ba e1 82 aa 36 70 58 04 ba
       -0.0008319401 -0.0007908198 5.081631e-06 -0.00050485786
000010 08 3c 24 ba 7c 59 62 b9 2a 59 58 3a e2 80 13 ba
       -0.0006265049 -0.00021586375 0.00082530326 -0.000562681
000020 f5 77 c6 b9 9a fe bd b6 4b 52 14 b9 e2 7b 24 ba
       -0.00037854878 -5.6622785e-06 -0.00014145036 -0.00062745635
000030 2e b3 0a 39 02 ba 09 b9 a2 86 9d 3a 12 ea ad 39
       0.00013227455 -0.00013134631 0.0012018273 0.00033171527
000040 24 b9 e9 3a 8f 17 8f 36 27 7b b8 ba 21 4d 74 b9
       0.0017831665 4.2644747e-06 -0.0014074788 -0.00023298386
000050 69 e5 26 38 21 ab 7d 3a 00 db b2 39 58 5b bb b8
       3.979114e-05 0.0009676684 0.00034113973 -8.933869e-05
000060 ba 27 4a 3a 4b 81 4d 3a f5 92 d1 39 55 7a 66 ba
       0.0007711608 0.00078393955 0.00039973078 -0.00087920326
000070 d8 3c fd b9 de 94 45 3a d3 24 24 b7 a5 f7 97 38
       -0.00048301253 0.00075371366 -9.783736e-06 7.2463685e-05
000080 70 16 13 3a 6a e0 30 37 6c e8 d7 3a 50 aa bb b9
       0.00056109484 1.0542668e-05 0.0016472465 -0.00035794312
000090 ea 7d 25 38 be 07 fa 39 5f 15 3b 39 05 fc d5 b8
       3.9456332e-05 0.00047689484 0.00017841671 -0.00010203574
0000a0 5c 46 ab b9 e4 80 ee b9 82 a3 1b 3a b9 b1 32 3a
       -0.00032668083 -0.00045490928 0.00059371453 0.0006816644
0000b0 44 25 40 3a 3b 9a 91 3a c4 06 89 39 af 29 8f 39
       0.0007329772 0.0011108586 0.00026135717 0.00027306142
0000c0 07 0d 1e ba f1 35 0b 3a 8e c9 b6 3a 57 11 83 b9
       -0.0006029163 0.0005310467 0.0013945566 -0.00024999186
0000d0 25 ab 0d ba 78 d0 79 b7 7d 01 1a 39 09 cd 30 3a
       -0.00054042257 -1.48900945e-05 0.00014687139 0.000674442
0000e0 0e e3 02 b9 19 40 69 3a be c9 a5 b9 58 75 38 3a
       -0.0001248235 0.0008897796 -0.00031621562 0.00070365286
0000f0 d2 d4 8b 3a cf 2a 7a b7 6c 88 f1 b9 16 d2 4d ba
       0.0010668284 -1.4911128e-05 -0.00046068744 -0.00078514346
000100 54 d5 c8 b9 50 9c 2f ba 49 26 84 39 a5 90 d8 39
       -0.00038305914 -0.00066990126 0.00025205527 0.000413065
000110 dd 9e 3c b8 9f 85 a0 b9 16 f7 71 b6 6d fd 19 39
       -4.4970646e-05 -0.00030617134 -3.6055621e-06 0.00014685626
000120 c9 52 19 b9 9e ec 48 3a 8a de 3f 39 de 58 f6 39
       -0.00014622057 0.0007664653 0.00018298082 0.00046986988
000130 fd f3 bf 39 0d 00 de b9 e5 e4 11 36 ae 29 f5 b9
       0.00036612144 -0.00042343177 2.1739918e-06 -0.00046761095
000140 e2 68 1b b9 8f e3 f6 38 9e 47 04 37 82 0f 23 3a
       -0.00014821024 0.0001177258 7.884488e-06 0.00062202674
000150 81 16 c4 b9 f4 2f 78 36 b2 d6 18 36 11 d4 da b7
       -0.000374008 3.6982792e-06 2.2774734e-06 -2.6086376e-05
000160 19 6c 54 39 86 0a 5d 3a c0 b3 4f 3a e4 f0 a0 3a
       0.00020258165 0.0008432049 0.0007923208 0.0012278822
000170 bd ed 62 ba 70 25 0c ba ac b0 22 ba 4e bc db b9
       -0.00086566416 -0.0005346155 -0.0006206136 -0.00041911233
000180 6c 6c b6 39 7e e9 34 3a 6e fe b7 ba 40 89 79 b8
       0.00034794526 0.0006901248 -0.0014037618 -5.949405e-05

exp_avg_sq f4 [100]
000000 8b ec c0 39 d4 0a 8b 38 98 8b 20 32 70 c5 05 38
       0.00036797332 6.6300534e-05 9.344966e-09 3.189355e-05
000010 ab 97 4b 38 96 73 8d 37 9f 14 e5 38 7a a7 d7 37
       4.8540223e-05 1.6862334e-05 0.00010923412 2.5707985e-05
000020 8b 16 18 36 fb 06 0c 32 ca f2 84 39 07 4e 45 39
       2.2662887e-06 8.15066e-09 0.00025357894 0.00018816451
000030 da 3f 14 39 9f 0c 30 38 33 1b 20 38 d8 87 44 37
       0.00014138166 4.1973424e-05 3.8172304e-05 1.1714139e-05
000040 d5 b8 81 39 80 16 09 32 8c 59 80 38 d1 c2 c1 37
       0.00024742508 7.9795655e-09 6.120195e-05 2.3098111e-05
000050 db 94 9a 33 7d 5c 15 38 ae 55 e2 37 fa 15 16 35
       7.1982605e-08 3.5610505e-05 2.6981197e-05 5.5911335e-07
000060 e4 35 c9 38 0e 44 37 39 31 86 b4 39 b5 1c d2 38
       9.594465e-05 0.00017477592 0.00034432256 0.000100189274
000070 ac e9 33 38 21 7c 98 37 d3 df 00 32 7f 2a 72 38
       4.289455e-05 1.8177614e-05 7.501472e-09 5.7736874e-05
000080 52 4d 83 38 9e 6c 4f 32 2d 34 66 39 51 24 2c 37
       6.260969e-05 1.20736825e-08 0.00021953946 1.02604545e-05
000090 7e bc a1 36 c4 77 85 38 75 26 b3 39 61 65 0f 35
       4.8201173e-06 6.364242e-05 0.00034170193 5.3419177e-07
0000a0 c8 a5 34 37 2b 52 97 37 2f 62 10 38 11 64 0f 3a
       1.0767435e-05 1.8038865e-05 3.4423716e-05 0.0005469928
0000b0 c5 ff 61 37 87 c4 17 39 cd ff 88 39 03 1b 24 38
       1.3470596e-05 0.00014473694 0.00026130528 3.9125804e-05
0000c0 b2 88 9d 36 85 fa 2c 39 6a 88 79 38 3c 8a df 37
       4.694878e-06 0.00016496524 5.949327e-05 2.6648042e-05
0000d0 b4 84 a1 37 b8 ad fe 36 42 e5 18 38 56 26 1f 38
       1.925449e-05 7.5900134e-06 3.6453137e-05 3.7944257e-05
0000e0 d7 8a 2f 39 eb bb a8 38 26 9d 0c 39 90 5e 54 38
       0.00016741022 8.045867e-05 0.00013409983 5.0632807e-05
0000f0 3a a8 ad 38 9b 27 4a 34 aa ed 20 38 7e 3e 37 38
       8.2806175e-05 1.8827124e-07 3.8368315e-05 4.36888e-05
000100 71 34 ca 38 dd a2 09 39 0f d1 f3 39 d1 5a 0e 38
       9.6418786e-05 0.0001312601 0.00046504333 3.3940018e-05
000110 38 b6 39 34 8a c6 79 39 6b f4 61 37 b6 ab 61 38
       1.7295758e-07 0.00023820452 1.3467953e-05 5.38041e-05
000120 31 10 c5 35 c7 9d 6e 38 49 5a 2b 36 04 9d 4e 39
       1.4682356e-06 5.6890563e-05 2.5533539e-06 0.00019704184
000130 c8 56 10 39 5f af f2 38 db 31 ca 34 4c 8c 90 37
       0.00013765239 0.00011572125 3.7661707e-07 1.7231469e-05
000140 8c a9 e5 35 fb 45 7c 36 0e 4f 5e 35 2f f8 6e 38
       1.7111174e-06 3.759166e-06 8.2816484e-07 5.697476e-05
000150 cd 4c 20 38 eb 39 00 34 08 cf 10 32 af f6 0a 36
       3.82185e-05 1.1942e-07 8.428977e-09 2.0707191e-06
000160 03 9a 5b 37 3e 33 b4 38 bc 4c 21 37 4d 73 a8 39
       1.3089276e-05 8.5926134e-05 9.614214e-06 0.00032129363
000170 1c a1 0d 38 cf f1 98 38 33 86 c9 37 c2 d2 bd 36
       3.3767064e-05 7.292965e-05 2.4023559e-05 5.6571744e-06
000180 51 d5 b0 38 39 6c 8d 37 a0 5c c4 39 e6 34 f7 39
       8.432067e-05 1.6858905e-05 0.00037453044 0.00047150924
