mnc_ml_test/output/train/20221128-1132-model.pth (torch, 62813 bytes, 21 tensors)

module.0.weight f4 [60, 6]
000000 e7 4c a3 3e cb 71 94 be 27 04 2d 3f 84 62 40 be
       0.3189461 -0.28993067 0.6758446 -0.1878758
000010 bf 89 cc bc 31 99 c9 3d a6 52 ad be a2 74 76 3e
       -0.024968026 0.09843672 -0.33852118 0.2406793
000020 3e ba 4b bf 2d ce 38 3e b0 30 e1 3c 2b 75 b9 bd
       -0.7958106 0.180474 0.027489036 -0.09055551
000030 f7 4c f1 3e ab b2 1e bf 39 df 50 3f 75 71 2b 3c
       0.47129032 -0.61991376 0.8159061 0.010464062
000040 b8 7c b1 be 1a 43 0b 3e 87 b8 ad 3d 67 de a4 bd
       -0.34665465 0.13599816 0.084824614 -0.080502324
000050 45 c2 3a 3e dd a1 e6 bc dc 48 ab 3b e5 c6 e0 3c
       0.1823817 -0.028153354 0.0052271914 0.02743859
000060 c3 6b 03 bf 37 17 84 bb 9c bc 88 bc e8 d6 1c bd
       -0.51336306 -0.0040310877 -0.016691498 -0.038290888
000070 4f fb 0d be b3 b3 36 3e 3c f6 bf 3e 3c bb 09 bf
       -0.13865398 0.17841987 0.3749255 -0.5380132
000080 e6 20 4d 3f e0 55 0b be 22 36 5f be 2c 43 9d 3e
       0.80128324 -0.13606977 -0.21797994 0.3071531
000090 a1 44 24 be 0a 55 20 be f0 e3 57 be 7f 44 cf 3d
       -0.16041805 -0.1565744 -0.21083045 0.101204865
0000a0 91 af 60 3e 3b f0 a6 3d 1f 5d 9c 3e 20 7b c6 be
       0.21941973 0.08151289 0.30539796 -0.38765812
0000b0 fb 50 6b 3f bd 39 14 bf d8 1a 79 3e 5e bc e1 3d
       0.9192044 -0.579006 0.24326646 0.11022256
0000c0 d2 40 7f 3e 0f 5e 1a be 16 c1 48 3f 5c 50 f2 be
       0.2492707 -0.15074943 0.78419626 -0.47326934
0000d0 c1 1a 18 be af c0 38 3e 36 29 60 be 8d e5 24 3f
       -0.14853956 0.18042253 -0.2189072 0.64412767
0000e0 ca 9e 0e bf 6a 3c c5 bd c4 58 19 3e db 41 0b bc
       -0.5571104 -0.09630664 0.14975268 -0.008499588
0000f0 12 c7 7c 3d f4 ee 80 3f d4 65 80 3d dc 1b 31 3e
       0.061713286 1.0072923 0.06269422 0.17295784
000100 f7 53 32 3e 1e 9f 04 be 38 b4 20 3f 11 0b f2 be
       0.17414843 -0.12951323 0.6277499 -0.47274068
000110 84 19 56 3f 5b 62 0d be 53 07 bb 3e 75 88 86 3e
       0.83632684 -0.13807051 0.36529025 0.26275983
000120 09 b8 5e 3e 03 5b 8b 3f 7f 60 d5 be ae e4 06 bd
       0.21749891 1.088715 -0.41675183 -0.03293293
000130 20 70 f6 bc 83 2c f2 be ff 2b 5f 3e 03 19 15 bf
       -0.030082762 -0.47299585 0.21794127 -0.5824129
000140 32 8b 4c 3f e0 49 11 be 28 85 a7 be 33 27 88 3d
       0.79899895 -0.14188337 -0.32718778 0.06648102
000150 65 4f e7 3e 80 fc d6 3e 67 a4 7f bf 92 ef cf 3e
       0.4517776 0.41989517 -0.99860233 0.40612465
000160 7a 1f b9 bc 3c 53 df ba be e5 ea 3a 45 3d 1d 3b
       -0.022598017 -0.0017038356 0.0017921252 0.0023992818
000170 b5 fe 5f bb c2 24 f3 b9 08 07 24 bb 5f 25 17 3b
       -0.0034178917 -0.00046375958 -0.0025028605 0.0023063046
000180 df 33 5d 3e 71 85 fd 3e 3f 67 cb 3e f6 ac f0 bd
       0.21601819 0.4951587 0.39727208 -0.1175174
000190 7e bd dd be f4 76 81 bd cc 27 02 3f be 87 90 be
       -0.43308634 -0.06321517 0.50841975 -0.28228563
0001a0 1e b1 84 3f c6 30 41 be 26 b9 98 bd 35 d4 3f 3e
       1.0366552 -0.18866262 -0.07457189 0.18733294
0001b0 82 e6 98 bf f7 35 8e bd 34 ff a9 3e 83 23 16 bd
       -1.1945345 -0.06943887 0.33202517 -0.03665496
0001c0 ec 02 38 3e cf 19 ae bd d4 7a 72 3e 8c 04 f8 bd
       0.17969865 -0.08501016 0.23679668 -0.12110242
0001d0 fb bb 03 3f 04 f9 b3 bd 01 6d 18 3d 93 77 01 3e
       0.5145871 -0.0878773 0.03721333 0.1264327
0001e0 56 f8 8c 3e 49 4c 80 3e f9 a0 0b 3f c1 cf 8d be
       0.27533215 0.250582 0.545425 -0.27697566
0001f0 cc 82 20 3f 0c 7b e5 3d 2c 21 28 3e 75 f3 0f 3f
       0.6269958 0.1120511 0.16418904 0.5623086
000200 f3 63 24 bf 31 57 36 3c 87 ca 97 3e f0 1c c6 be
       -0.6421501 0.0111291865 0.29646704 -0.38693953
000210 38 2e 07 3d b2 fa 3b bf 2a 23 40 bf 74 9f a8 3e
       0.033003062 -0.73429406 -0.75053656 0.32934153
000220 63 3d 84 3d 62 7a e7 3d fb 65 05 3e b8 a2 18 bf
       0.06457021 0.113026395 0.13027184 -0.5962329
000230 87 2f 04 3f b8 e0 41 be 9d d8 76 3d 06 18 4f 3e
       0.5163502 -0.1893338 0.060265172 0.20224008
000240 f4 16 2e bf d7 6c 46 3e 06 f2 66 bf be 84 45 3e
       -0.68003774 0.19377457 -0.9021305 0.19288918
000250 93 d3 18 bd 8a 5d 6a be 80 1b 49 bc 86 0a 1d be
       -0.037311148 -0.22887245 -0.012274623 -0.15336046
000260 05 aa de 3e 37 df 1e be f4 ee 84 bf 69 d7 62 3d
       0.4348909 -0.15514837 -1.0385423 0.055381212
000270 f1 6b b7 bd 06 f0 11 3f 07 da 07 bf f7 20 0c 3e
       -0.08956135 0.5700687 -0.5306706 0.1368445
000280 b7 9a 85 bc 07 ab ff be 06 1e 6f bd 45 29 61 3d
       -0.016309125 -0.4993517 -0.058378242 0.054971
000290 07 d7 ff bd 07 62 0e 3d e5 33 29 3c 81 cf 8e bc
       -0.12492185 0.034761455 0.010327314 -0.01743293
0002a0 27 a6 d6 3e 86 cf e9 be 6b 69 eb 3e f3 30 c8 bd
       0.4192364 -0.4566614 0.45978865 -0.09774961
0002b0 0d c0 13 bf 1e f7 2e 3e fe 57 88 bf 6c 26 0c bf
       -0.5771492 0.17086455 -1.0651853 -0.5474613
0002c0 2d 93 98 3e ce 10 e7 3c 20 8c 38 3e 24 68 6e 3e
       0.29799786 0.028206255 0.18022203 0.23281914
0002d0 51 e3 5e 3d ad 5b ef be 71 1e 89 bf 4f 1a 32 be
       0.054416005 -0.4674963 -1.0712415 -0.17392848
0002e0 19 be bc 3e f7 8b 12 3d 2e fd 1e 3e 75 33 84 3e
       0.36863783 0.035778012 0.15526268 0.2582051
0002f0 5c e4 9d bf 91 98 86 3e e0 62 8b be 70 11 82 be
       -1.2335315 0.26288274 -0.27223873 -0.2540393
000300 d6 3f 03 bd 8b 6f 98 be 84 7b 5e bf 82 40 a6 3e
       -0.0320433 -0.297726 -0.8690722 0.3247109
000310 a9 48 3f 3e 79 d3 8c 3e 8b 9f 18 bb 07 58 85 3a
       0.18680061 0.2750509 -0.0023288454 0.0010173329
000320 8a ae 28 bb b0 d6 de ba 41 25 34 ba b9 1b 10 3a
       -0.00257388 -0.0017001238 -0.00068720063 0.0005497295
000330 0e 2f b2 3e 08 66 1b bf cf 9d 3c 3f e3 93 49 be
       0.34801525 -0.6070256 0.73678297 -0.1968532
000340 52 16 31 bd 3f e7 d2 3d b0 40 45 3e ca 84 93 be
       -0.043234177 0.10298013 0.19262958 -0.28812248
000350 4d 3b cd 3e c8 6a 0d bd 76 c0 c5 be 67 d1 4b 3d
       0.40084305 -0.034525663 -0.386234 0.04976025
000360 1d bd ec bc 6c af 0b 3f 17 1f cb bd 80 d8 9d 3d
       -0.02889877 0.5456455 -0.09918039 0.0770731
000370 b4 8b 8b be 3a c8 3e be 92 fe eb 3e c5 b9 d3 be
       -0.27255023 -0.18631068 0.4609266 -0.41352668
000380 56 e6 48 3f 3c 3b 77 be 55 00 ac bd bd c7 f0 3e
       0.78476465 -0.2414369 -0.08398501 0.47027388
000390 b9 95 b2 3e 56 74 94 bd 0e 96 a0 3d 61 d5 67 bd
       0.34879854 -0.07248752 0.07841121 -0.05659998
0003a0 ce f4 02 bf 42 e9 a6 3d d9 74 6e be 3d 8e 3e 3d
       -0.5115479 0.08149959 -0.23286761 0.046522368
0003b0 cb 0e 05 3f fd 32 23 be 61 ad 21 be e8 e7 1c bd
       0.519757 -0.15937419 -0.15788795 -0.0383071
0003c0 46 2b 0a bf 20 e0 56 bd 89 17 63 bf 57 a7 0b 3e
       -0.5397228 -0.052459836 -0.88707787 0.13638054
0003d0 4b 84 39 3e 90 34 a9 bd 38 9d 86 be 4a 74 1d 3f
       0.18116872 -0.082619786 -0.26291823 0.6150557
0003e0 f8 c3 0e bf a2 3a 01 be 11 64 a1 3d ae 90 c6 be
       -0.55767775 -0.12620023 0.07880414 -0.38782257
0003f0 20 83 15 3f 8d 86 e2 be 2d fe 23 3f 88 51 d6 3d
       0.58403206 -0.4424328 0.64059716 0.104647696

module.0.bias f4 [60]
000000 89 89 99 3d bc fc ba bd c4 73 64 3e 3e 87 33 3d
       0.07496936 -0.091302365 0.22309786 0.04383015
000010 80 2d b8 3e 9e 1d 88 3e cf fe a5 3e 6b 6e f0 3d
       0.35972214 0.26585096 0.32420966 0.117398106
000020 58 ec 69 bd 3c a8 bd be 0e 91 f1 be 73 97 1c 3e
       -0.05711016 -0.37042415 -0.4718098 0.15292148
000030 9d 76 f3 be 37 8b a9 3e b8 90 f2 bd 62 83 da 3b
       -0.47551432 0.33114025 -0.11844009 0.006668494
000040 7e 14 3b bf 52 11 09 3e dd bc 38 bf dc ba e6 3c
       -0.73078144 0.13385513 -0.7216318 0.028165273
000050 60 b3 6e bd 89 90 85 be 6d c7 8a be 06 03 f8 3e
       -0.058276534 -0.26086834 -0.27105275 0.48439807
000060 93 4f 94 3e 91 26 2f bf 98 23 bf bd ba 32 a5 bc
       0.2896696 -0.6841822 -0.09332961 -0.02016579
000070 a8 bb 0f bf e4 84 06 bf f7 65 da be 87 d3 99 be
       -0.56145716 -0.52546525 -0.42655918 -0.30044195
000080 35 26 0d bc 81 fa c4 3a 8d 2b c7 3e 02 f3 38 be
       -0.008615066 0.0015028269 0.38900414 -0.1806145
000090 a8 ee 0b bf 65 ee 0d be 61 0a f5 be f4 68 8c 3e
       -0.54661036 -0.13860472 -0.4785948 0.27423823
0000a0 3d 5b 24 bc 1b 3b 15 bd ab 13 ad 3d d5 04 c9 3d
       -0.0100315185 -0.03643332 0.08451017 0.09815375
0000b0 63 b2 0f 3f 14 06 2d be 5e ac 3e be d5 7e 24 b9
       0.5613157 -0.1689685 -0.1862044 -0.00015687507
0000c0 15 d8 e4 3d 61 ac 0c bd 32 2a a8 3c e3 98 8e 3e
       0.11174027 -0.03434408 0.020527933 0.27851018
0000d0 10 3c 96 bc 37 36 b8 3e 68 56 c8 ba 7b a1 62 3e
       -0.018339187 0.35978863 -0.001528454 0.22131912
0000e0 98 e8 72 3b 5c 6f 3a be 74 e2 fb bc 7c 85 56 be
       0.0037064906 -0.18206543 -0.03074763 -0.20949358

module.2.weight f4 [60, 60]
000000 86 43 a1 be 22 13 50 3e eb a3 34 bf cb 10 d6 bc
       -0.3149683 0.20319799 -0.7056262 -0.026131054
000010 c0 b5 18 bd 87 ad 2c bf b2 7c 2d be e9 57 a0 bd
       -0.037282705 -0.6745228 -0.16942099 -0.078292675
000020 ae 58 f6 3d 41 b5 96 3d ba 4d 7b 3e 3e 04 0f bf
       0.12028633 0.0735879 0.24541369 -0.5586585
000030 77 12 ef bd 5d 16 db be 2e af 61 bd dd a9 b0 3b
       -0.11673444 -0.427905 -0.055098705 0.005391343
000040 57 85 e0 bd c9 fe 01 bf ea 19 8f be e6 9f 24 be
       -0.109629326 -0.50779396 -0.27949458 -0.16076621
000050 37 9e 49 be da f5 bb 3e 1d f4 fb 3d 6e 33 34 be
       -0.1968926 0.36711007 0.1230242 -0.17597744
000060 a5 0d 5f bd 80 78 0d bf cb 5c 40 3e b2 02 7a 3d
       -0.05445637 -0.55261993 0.18785398 0.061037727
000070 b2 90 99 be 6e 8c 21 3c 53 14 06 3f b1 bc eb bd
       -0.29993206 0.009860141 0.5237476 -0.115105994
000080 9a 41 74 3e 57 dc 85 bc fb d0 d6 be 8f fb 09 be
       0.2385315 -0.016340418 -0.41956314 -0.13474868
000090 c9 3f 65 bd 77 7b 97 be f0 b8 87 be 04 d1 07 be
       -0.055969033 -0.29586384 -0.26508284 -0.13263327
0000a0 b5 a6 9b bd 51 40 53 bd 9c c3 2d 3e 53 67 3d be
       -0.07600156 -0.05157501 0.1696915 -0.18496446
0000b0 80 d5 d8 bd eb 19 c9 bc c9 7e b1 bd 7d 21 2b bc
       -0.10587597 -0.024548491 -0.086667605 -0.010444996
0000c0 b3 4b 0c 3e 04 40 eb bc 58 2f 96 3d 1d 30 81 be
       0.13700752 -0.028717048 0.07333249 -0.2523202
0000d0 24 e7 2c 3e c3 35 54 be ad e4 a5 bb 27 7e 60 be
       0.16885048 -0.20723633 -0.0050626607 -0.21923123
0000e0 d2 eb fd bc e2 dd 21 3e e3 8b 11 3c e3 6f 16 3e
       -0.030996237 0.15807298 0.008883449 0.14691119
0000f0 5e 81 e9 3c f3 97 56 be a9 48 0f 3d 66 d3 96 3c
       0.02850407 -0.20956402 0.034981403 0.01841135
000100 a6 15 9a bd be 7b c3 3b 96 e9 ba bb be c2 7c bd
       -0.0752366 0.005965679 -0.005704115 -0.061709158
000110 e6 8a 38 be d5 c9 63 3d 3d 1c d3 3c 07 91 1e be
       -0.18021736 0.055612404 0.025770301 -0.15485011
000120 cf 12 b5 3c f3 06 b4 3d e8 bc 1d 3d 84 7f de bc
       0.022103695 0.08790388 0.038510233 -0.027160414
000130 86 e8 1f bc f6 a9 ec bd 28 67 80 bd 06 51 87 3d
       -0.009760028 -0.11555855 -0.062696755 0.06607251
000140 04 67 dc bc a4 48 a8 bc 62 04 bb bd a3 36 e7 bc
       -0.02690459 -0.02054245 -0.09131695 -0.028224295
000150 11 c2 d3 3d c8 99 b1 bd 76 35 24 3d 89 19 2d 3d
       0.103397496 -0.086719096 0.040090047 0.04226068
000160 8a 27 c5 3d 0a 1f 71 3d 5c 25 e1 3c 6f fd 6a 3d
       0.09626682 0.05886749 0.027483635 0.0573706
000170 7e 5f ab 3d 93 95 d4 bb 7b e2 27 3d d5 19 ed 3c
       0.08367823 -0.006487557 0.040987473 0.028942982
000180 a1 e3 13 be 8f b8 9a 3d a7 81 b2 3d 79 1e 2d 3e
       -0.14442302 0.07554733 0.087161355 0.16906156
000190 5c e5 b0 3c e8 b2 5d 3d a7 4a a2 3c bd 72 24 3e
       0.021593742 0.054125696 0.019810988 0.16059394
0001a0 ee 19 6c 3d c6 87 99 bd b6 b7 fa be 39 39 b7 bc
       0.057641916 -0.074966 -0.48968285 -0.022366153
0001b0 3e 90 aa 3d 44 41 e4 bd b4 83 1a 3d 70 d2 c0 3c
       0.08328293 -0.11145261 0.03772326 0.023537844
0001c0 79 47 68 bd ba 24 54 be 4e 45 5e bc 43 e0 80 bd
       -0.056708787 -0.20717135 -0.013566328 -0.062927745
0001d0 39 00 aa bc 6f c9 0f 3d fb 57 07 3e 6c d7 c8 bc
       -0.02075206 0.03510421 0.13217156 -0.024516784
0001e0 a8 5b 77 bd 41 96 4e 3d ac f0 f6 bc d2 ee 9a 3d
       -0.060390145 0.050436262 -0.030144058 0.075650826
0001f0 e2 bd 0c bb ff be c4 3c 98 e1 46 bc eb db cf bd
       -0.0021475484 0.024016855 -0.012138747 -0.10149368
000200 32 0b 57 3d f7 40 ab bd e5 d0 b7 bd 57 0b 07 3e
       0.05250091 -0.083620004 -0.0897539 0.1318792
000210 98 71 cc 3d 15 2b 05 be e7 8b e4 3d 31 18 51 3c
       0.09982604 -0.13004716 0.11159497 0.012762115
000220 51 0b b8 bd f1 18 ff 3d ce ac 90 bb 0b 33 d5 bd
       -0.089865334 0.12455929 -0.004415131 -0.10410126
000230 65 f0 05 3d a1 a1 94 bd f1 2d 13 bb 8b b7 e7 3b
       0.03269996 -0.07257391 -0.0022457803 0.0070714406
000240 cd e3 c7 bc da 12 78 bd ce 8b 8b bd b6 86 ec 3c
       -0.024400616 -0.060564853 -0.06813775 0.028872829
000250 5a 57 c2 3d 19 70 31 bd a7 6c f9 3b fe 8e ca bd
       0.09489317 -0.043319795 0.0076118293 -0.09890555
000260 e9 82 1f 3d 3a 97 a8 3a d1 f6 f7 3c c6 ed 08 3d
       0.038943205 0.0012862452 0.030269058 0.033429883
000270 58 56 bd 3d 62 ba 84 bd 7f 42 4d 3c f1 fc a0 3d
       0.092449844 -0.06480862 0.012528061 0.07860745
000280 47 df 3d 3d 88 b2 b4 3d 6b 08 97 bd 43 b2 a1 3c
       0.046355512 0.08823115 -0.073746525 0.019738322
000290 c5 38 a7 3d b1 91 c7 bc 21 9c f3 bc f2 cb 4e 3d
       0.08165125 -0.024361463 -0.029737534 0.050487466
0002a0 6d dc e0 bd 86 f5 fb bd f6 2c 25 bd 2a 6f 48 bc
       -0.10979543 -0.12302689 -0.04032608 -0.012233535
0002b0 87 2c 43 3b 77 3a 1e 3d 52 3d 05 3d 38 ce f8 bc
       0.002978118 0.038629975 0.032529183 -0.03037177
0002c0 cb a8 0f 3d 2b 88 61 bd bc 9a 42 bd b8 ad 85 3d
       0.035073083 -0.0550615 -0.047510847 0.06527275
0002d0 d5 39 de bc ac 0f 11 3e 48 fc 1b 3c 47 88 b9 3c
       -0.027127186 0.14166135 0.009520598 0.02264799
0002e0 db 9f 2b 3d 2c 31 68 bd 69 68 dd 3c c2 f5 5a 3d
       0.041900497 -0.05668752 0.027027326 0.05345703
0002f0 f0 27 1d 3d 4e da 8b 3d b4 0d 29 3c a9 fb b9 3d
       0.038368165 0.06828748 0.0103182085 0.090812035
000300 fb 74 5f 3c dd a3 f9 bc ad ae 33 bd 6b 71 07 3d
       0.01363873 -0.030473644 -0.043867756 0.03306715
000310 be cd 00 3d 7f d1 37 bd e3 4b 1c 3d f6 71 20 3d
       0.03144621 -0.044877525 0.03815831 0.03917118
000320 1a 46 9a bd cf 2d 32 bd 80 84 a4 3c 0f 22 c1 3c
       -0.07532902 -0.043500718 0.020082712 0.02357581
000330 67 f6 b8 bc 12 81 43 3d 94 b7 2e bd fd 91 c1 3c
       -0.022578431 0.047730513 -0.042655542 0.023629183
000340 20 83 9d bc a8 73 b4 bc 5a 43 b0 bc b6 f2 76 bd
       -0.019227564 -0.022027805 -0.02151649 -0.06029006
000350 01 09 58 bd 68 13 36 bc ac fd 90 bd e9 5c 67 3d
       -0.05274296 -0.011113025 -0.07079634 0.05648509
000360 f4 c5 c3 bb b2 9d 48 bd d7 ea 84 bc 0d 17 99 bd
       -0.0059745256 -0.048978515 -0.016225262 -0.074751
000370 53 46 56 bd 19 02 ce bd 84 f0 88 3b 36 29 1b bd
       -0.05231316 -0.10058994 0.0041790623 -0.0378811
000380 6b c1 3b bc 7e c8 82 3d b7 a4 0d 3e 87 77 30 3c
       -0.011459689 0.06385897 0.13832365 0.010770685
000390 b3 64 83 bc 53 21 74 3d 7e b9 da bc 10 20 b1 3d
       -0.016039228 0.059602093 -0.026699778 0.086486936
0003a0 95 16 24 3d ae db 12 bd d8 45 92 3d 31 8f 08 3d
       0.0400606 -0.035854034 0.07142228 0.033339683
0003b0 b4 34 ac 3c cf 2a fc 3d 58 80 08 3c 30 82 b5 bc
       0.021021225 0.123128526 0.008331381 -0.022156805
0003c0 f4 66 35 3e ec 86 12 3d 38 b9 1a bd a4 c3 99 bd
       0.17715055 0.035773203 -0.037774295 -0.075080186
0003d0 3e 5e 33 3d 87 d5 6b 3d db 31 5d bd b5 7f 2c 3e
       0.04379105 0.057576682 -0.054002624 0.16845591
0003e0 96 27 ce 3d dd 7d af bd 3f d8 a4 bc 32 db d2 3d
       0.10066144 -0.085689284 -0.020122645 0.102957144
0003f0 a0 5e 6b bd 5f d0 34 bd 44 5b 19 bd ec 24 cd bb
       -0.05746329 -0.04414403 -0.037440553 -0.006260505

module.2.bias f4 [60]
000000 fe 8e c2 bc 00 fe 0b be 39 5e cf bd 4c 03 f8 3d
       -0.023749825 -0.13671112 -0.101253934 0.12110004
000010 08 8b 7b 3d f4 19 bf bd f0 4e a2 be 27 6b 12 3c
       0.061411887 -0.09331122 -0.3170085 0.00893668
000020 e9 d8 2a 3e bc de 82 bc 37 f2 70 3d 07 b6 fa bc
       0.16684307 -0.015975349 0.058824744 -0.030604376
000030 ff 55 77 bd 3a e9 b1 be 19 7a 1b bd e0 b5 7c 3d
       -0.060384747 -0.3474825 -0.03795824 0.061696887
000040 d3 b3 f4 3d 40 22 26 be 09 4c d6 3d e0 cd 47 bd
       0.11948361 -0.16224003 0.10463721 -0.048780322
000050 e4 10 ca be fa 6b 2a 3d 77 9b dd be ac df 5b be
       -0.39466012 0.04160688 -0.43282673 -0.21472043
000060 ad 39 01 3e dc 5a 00 3d 6d 6d db 3d 81 58 4c 3d
       0.12619658 0.03133665 0.10714231 0.04988909
000070 80 3c b8 be 40 b2 e2 3c c2 ce 2a bd d1 b5 bd bd
       -0.35983658 0.027672887 -0.041701086 -0.09263194
000080 15 dd c7 3d 54 63 0a 3d c3 3f 8c 3d 46 1c e2 3c
       0.09758965 0.033786133 0.06848099 0.027601372
000090 a2 65 a6 be 69 58 f4 3d 09 9e 49 bd 93 25 88 3d
       -0.32499415 0.119309254 -0.04922298 0.06647792
0000a0 1f 4e a7 3d a9 37 50 bf 70 90 92 be ec b4 c1 bd
       0.08169197 -0.8133493 -0.28625822 -0.09458336
0000b0 d9 ba c8 bd f1 5f 58 ba 8c 42 1f bf 7c a5 b7 bb
       -0.09801263 -0.00082540425 -0.6221092 -0.005604444
0000c0 0e 7c 95 3d 06 bb b6 be 51 0d 9a bd f6 e1 19 bd
       0.07299052 -0.35689563 -0.07522071 -0.03756901
0000d0 e5 9a ef be 15 03 04 bf 7c 56 c8 3d 7e a7 11 bf
       -0.46797863 -0.515672 0.097821206 -0.568962
0000e0 1d 00 8a 3c d6 ea b0 3c 57 b2 0a 3e d1 e2 9a 3d
       0.016845757 0.021596354 0.13544594 0.07562793

module.4.weight f4 [6, 60]
000000 e7 85 fc 3d c3 85 2c 3c 6f 0c 2a bb 37 cc 04 ba
       0.12330227 0.010529938 -0.0025947352 -0.0005065831
000010 25 1f 81 bb a2 bc 48 39 66 6c d9 3e 22 75 b3 3d
       -0.0039404803 0.00019143758 0.42465514 0.08762576
000020 89 4d ba bd 17 98 4b 3a 64 78 b4 3a 57 58 19 3b
       -0.0909682 0.00077664986 0.0013768789 0.0023398602
000030 9c f2 15 bc a4 8c 3e be 29 a2 3a 3e 59 61 cb bb
       -0.009152081 -0.18608338 0.18225922 -0.006206673
000040 50 d7 a3 3e be c0 25 bf 61 50 4f 3c 89 32 05 3d
       0.32000208 -0.64747226 0.012653441 0.032518897
000050 36 dc 8e 3d 80 44 47 3b e7 7d d3 3e 00 6a 8b 3f
       0.06975596 0.003040582 0.41306993 1.0891724
000060 0c d8 3c 3e 46 98 a1 bb f2 43 96 3a 8e 31 a2 3a
       0.1844179 -0.0049314825 0.0011464341 0.0012374388
000070 25 b8 c7 3d 56 00 54 3b 08 02 c2 bd 6a 99 d8 3d
       0.0975192 0.0032348833 -0.09473044 0.105761364
000080 44 b2 c4 bb c8 4a e6 be ee 97 b1 3e c4 99 b5 3e
       -0.006002696 -0.4497893 0.34686226 0.35468876
000090 f2 5e 1f 3f 17 78 a4 3b d3 34 cd 3e cf 9b ab 3e
       0.6225425 0.0050191986 0.40079364 0.3351731
0000a0 81 8d aa bb bb a2 5e 3e 5c 9c 05 3e 94 5c 28 3c
       -0.005204857 0.21741764 0.13047928 0.010275979
0000b0 60 45 a7 be 73 0b b7 3b 10 4c af bc c8 ce 2d bb
       -0.32670116 0.0055860817 -0.021398574 -0.0026520956
0000c0 72 c8 97 bb ea 0e f5 3e 0e db 3a bd 8d ec 5d bc
       -0.0046320492 0.4786294 -0.045619063 -0.013545168
0000d0 a7 25 92 bd 0a ca 5a 3d 5d 75 ce 3b 65 a1 4f 3d
       -0.07136088 0.053415336 0.006300612 0.050691027
0000e0 03 fd 09 3e 68 92 51 3a 23 f8 6d 3e b3 ae 85 3a
       0.13475423 0.00079945335 0.23239188 0.0010199159
0000f0 13 df eb 3d 0e be 83 3b 77 4e bc b8 e0 57 dc b9
       0.115171574 0.004020459 -8.979154e-05 -0.00042027142
000100 44 87 8f ba 58 94 7f ba ec 8b e6 bd d9 01 63 3c
       -0.0010950346 -0.0009749583 -0.11257157 0.013855421
000110 98 40 54 bd db 90 ba 3a f8 b4 06 3b b7 e8 af ba
       -0.051819414 0.0014233844 0.0020554643 -0.0013420795
000120 28 bb 71 bb c6 7d 5f be e0 87 88 bd 1a c8 42 ba
       -0.0036885235 -0.21825323 -0.06666541 -0.000743033
000130 ea 4c d7 3d 0b 4d c3 bd ee 00 7c ba 2c c3 fb 3b
       0.10512717 -0.09536179 -0.00096131756 0.0076831784
000140 f3 2b 9e be 72 19 48 3b 0f 3e af bd 9f 2a 12 be
       -0.30892906 0.0030532745 -0.085567586 -0.14274071
000150 4e cf 7c 3e 56 4f 01 bb be c6 22 3a 8f d9 92 3b
       0.24688455 -0.0019731126 0.00062094245 0.0044815014
000160 43 6e 2b bd f9 f1 10 bb 40 72 b0 bc fe 4e d7 3d
       -0.0418532 -0.0022116883 -0.021538854 0.105131134
000170 89 10 cd ba b7 2a ba be f6 5b a8 3d 59 3a 82 3e
       -0.0015645187 -0.36360714 0.08220665 0.2543514
000180 7b f8 9d 3c ce 1d 82 3a f7 4a 3b bd be cd 55 3e
       0.019283524 0.0009927095 -0.04572579 0.20879266
000190 bb e1 10 3b f5 1c b6 bd 44 d8 25 be 5d b8 15 3b
       0.0022107202 -0.08892242 -0.1619578 0.0022845485
0001a0 00 47 8d be 6d f6 15 bb c2 78 6e be 1b b7 4d bb
       -0.2759323 -0.0022882477 -0.23288253 -0.0031389657
0001b0 59 0b 2d 3b 75 3c 7d bd fd 1e 91 bb 26 fe ac bb
       0.0026404469 -0.061825234 -0.004428743 -0.0052793203
0001c0 7f 01 ae bc 48 68 0a be f7 35 2d b9 90 6a 0b be
       -0.021240948 -0.13516343 -0.00016518669 -0.13614869
0001d0 17 cd 0c 3d 96 b6 59 3b 72 88 b1 bc 4e 36 c9 3a
       0.034375276 0.0033220402 -0.021671508 0.0015351267
0001e0 8f 1c 1f 3e 11 57 6f 3c 44 57 b4 b9 08 0f 28 bb
       0.15538238 0.014608161 -0.00034397293 -0.0025643725
0001f0 53 64 b1 bb 4f c3 64 3a 3f 80 31 be 84 4a c2 3d
       -0.005413571 0.0008726613 -0.17334078 0.09486869
000200 5f cd 8e bc 17 8e 49 3b fe 5f aa b9 d3 5d 74 3a
       -0.017431913 0.0030754858 -0.00032496447 0.0009321842
000210 1b 91 1f bc 48 a3 be 3e 75 bd ac 3b 5a 1e 4b ba
       -0.009739186 0.3723395 0.0052716085 -0.0007748358
000220 ca 69 1b be 91 a6 9b 3d 8f 21 8c 3b 65 19 1d 3d
       -0.15177074 0.076001294 0.0042764614 0.038354296
000230 be 5d 37 bd 02 b1 b4 3b a8 32 83 3d a2 71 78 be
       -0.044767134 0.005514265 0.06406146 -0.24262097
000240 4f b5 0d 3e 5c 39 0a bc 19 72 db 38 b4 8a d5 3b
       0.13838695 -0.008436527 0.00010463986 0.006516779
000250 ce 1f 4f bd c0 ec 45 bb 56 29 b2 bd a9 f9 06 bc
       -0.05056744 -0.0030200928 -0.086992905 -0.008238235
000260 2f b7 19 bc ed 34 e0 3c 9a 09 7f be 7a ed 6b be
       -0.009382053 0.027368987 -0.24906006 -0.23039809
000270 8f b5 1d be 83 24 30 3b 23 cb 69 bd 20 b0 72 be
       -0.1540129 0.0026877231 -0.057078492 -0.23699999
000280 bb c0 21 bb e4 74 25 be 34 57 4b 3d b9 b1 40 3c
       -0.0024681527 -0.16157871 0.04964371 0.011761122
000290 84 92 3c 3e ac a9 66 3c 07 2c b2 3e be 01 e3 39
       0.18415266 0.014078539 0.34799215 0.00043298112
0002a0 d8 e8 a1 3b 6f 0a b7 bd e5 b1 2b bd df f3 1f bc
       0.004941087 -0.08937537 -0.0419177 -0.009762733
0002b0 7e b4 29 be 6c 7d 20 3e 88 6a 71 3b 12 aa 29 be
       -0.16572759 0.15672845 0.003683718 -0.16568783
0002c0 ce 77 c2 3d 7e 2e a0 3b 7d a2 b4 3d e0 28 ee bb
       0.09495507 0.004888355 0.08820055 -0.0072680563
0002d0 99 5b 56 bc 8e c6 0e 3c 7d 56 b3 3c 96 c7 fb bc
       -0.013083362 0.008714331 0.021891827 -0.030734818
0002e0 28 40 75 3c b4 1c 84 3b c2 98 84 bc 4e d7 95 3c
       0.014968909 0.004031742 -0.016186122 0.018291142
0002f0 af cd a6 3c 78 5a 08 3d 22 92 89 3c da 98 43 3c
       0.02036175 0.033289403 0.016793314 0.011938298
000300 b6 7c 25 bc 7b 79 9b bb f0 91 89 b9 43 2f 33 3c
       -0.010100534 -0.004744706 -0.00026239408 0.010936561
000310 3b 60 3f 3d 3e 65 c5 3b 60 2f 76 bc 22 5d f1 3c
       0.046722632 0.006024032 -0.0150259435 0.029463354
000320 d7 1a 64 bb aa 42 3d bc d3 f0 bc 39 c9 aa 66 3c
       -0.0034806037 -0.0115515385 0.00036037582 0.014078804
000330 36 fd 8e 3c d9 57 98 bb 1d e0 d1 bb 5f e2 cc 3c
       0.017454725 -0.004649144 -0.00640489 0.025010286
000340 5a e1 eb bb 0f be a4 bc 60 50 94 bb 8d c1 31 3d
       -0.007198495 -0.020110158 -0.004526183 0.043397475
000350 12 d1 b1 bc 85 2c 72 3d b4 aa d9 bc a1 10 eb 3b
       -0.021706138 0.05912449 -0.026570655 0.007173613
000360 2d f9 b1 bb 31 ac 81 bc ee da 89 3c 7c 82 7b 3c
       -0.0054313154 -0.015829178 0.016828027 0.015350934
000370 02 d1 bb bb 0c b6 95 3c 59 43 c7 bc 04 54 64 3a
       -0.005731703 0.018275283 -0.024324106 0.0008710029
000380 d3 d5 67 3c 6d ea 26 3b 7f 51 44 3d 6f 79 ff bc
       0.014150101 0.0025469318 0.047929283 -0.031185834
000390 3f 2d ec 3c de 1a d0 bb 99 34 4b 3c 85 61 09 3a
       0.028830169 -0.006350859 0.012402677 0.0005240667
0003a0 1f 25 fc bb 77 de 6d bd c8 e0 5b bd 09 51 1d 3c
       -0.007694855 -0.058073487 -0.053681165 0.00960184
0003b0 4d 20 db 3c 3a ba aa bc aa 17 e8 3c 44 19 5a 3c
       0.0267488 -0.020840753 0.028331596 0.013311688
0003c0 79 bf e5 3e 07 7a 1b 3a cc d4 ba 3a 12 dd 89 3a
       0.44872645 0.0005930964 0.0014254092 0.0010518155
0003d0 7d 72 81 3b 98 72 8c 3b 2e 9f d7 3e 96 16 b5 bc
       0.0039504156 0.0042861216 0.42113632 -0.022105496
0003e0 b4 1a 96 bc 60 f1 be b9 45 d6 09 bc 7a 67 a5 bb
       -0.01832328 -0.00036419462 -0.008412902 -0.0050477358
0003f0 c6 d6 99 3b 0c 7c e0 3d 5c 9d da 3d 83 cf 4e bb
       0.0046947924 0.1096116 0.10674545 -0.0031556792

module.4.bias f4 [6]
000000 d4 9a 60 be 8b 8b 34 3e 3c 55 9d 3e 16 4a 23 bd
       -0.21934062 0.17631356 0.3072909 -0.039865576
000010 98 73 16 bf 41 1c 9c be
       -0.5877013 -0.30490306

module.6.weight f4 [1, 6]
000000 4f 40 33 bd e2 90 cd 3d 2c ca 5b 3d 1a 23 7e ba
       -0.0437625 0.100374 0.053659603 -0.00096945616
000010 56 70 18 be 47 5e 62 bd
       -0.14886603 -0.05526569

exp_avg f4 [60, 6]
000000 ab c7 32 38 ae 0c 12 38 7e 90 a3 b8 18 3c 7d b9
       4.2624462e-05 3.482092e-05 -7.7993594e-05 -0.00024150347
000010 ff af a6 b8 cd b0 ff 38 a0 c6 71 b7 a0 55 e6 b8
       -7.948279e-05 0.00012192279 -1.4410965e-05 -0.000109832035
000020 96 64 ac 39 cd 0a 70 3a 58 17 96 38 64 d0 c3 b9
       0.0003288134 0.0009156883 7.1569055e-05 -0.0003734856
000030 ed c4 33 ba e9 59 21 b9 0d f2 2b b9 e7 33 73 ba
       -0.00068576523 -0.0001538765 -0.00016398002 -0.00092774484
000040 11 4f bd 39 d1 bf 35 3a c3 08 d7 b4 ab 13 77 36
       0.00036107798 0.0006933185 -4.0053246e-07 3.6817316e-06
000050 75 1b fd 33 4b a8 fd b7 90 41 d9 37 e6 67 fe b6
       1.1786225e-07 -3.0238318e-05 2.5898946e-05 -7.5818853e-06
000060 49 5b 0f ba cb e7 45 ba d8 14 04 39 d5 33 d5 39
       -0.00054686196 -0.00075494935 0.00012596266 0.00040665144
000070 55 03 57 39 1b 45 0b ba 3b e0 04 bb 06 c8 82 ba
       0.00020505239 -0.0005312727 -0.0020275253 -0.0009977825
000080 7d 58 8f ba 6b db 6a bb 7d b5 50 3a 49 82 97 3a
       -0.0010936406 -0.003583635 0.0007961614 0.0011559214
000090 c6 52 41 b9 09 0b 81 b9 32 4d 0b 39 cd c2 a0 39
       -0.0001843675 -0.0002461302 0.0001328483 0.00030662716
0000a0 38 2f 01 b7 72 08 24 b9 ec fd 04 bb a8 ad 5e ba
       -7.699993e-06 -0.00015643405 -0.002029295 -0.0008494505
0000b0 9d ec 97 ba c3 2e 66 bb ec 10 c7 39 47 3d 6b 3a
       -0.0011590902 -0.0035123087 0.00037968846 0.00089736696
0000c0 80 ed 63 ba d9 17 88 b9 6e 92 bd b9 ae 4e 9e ba
       -0.0008694753 -0.0002595771 -0.00036157988 -0.0012077892
0000d0 de 81 05 3a 76 b3 0f b7 23 e1 e9 39 60 a6 82 39
       0.0005092899 -8.565248e-06 0.00044608963 0.0002491949
0000e0 37 48 2f 3a ad c3 f9 3a ff f4 29 39 1a b8 4d ba
       0.0006686481 0.0019055508 0.00016208364 -0.00078475627
0000f0 71 4d 3c 3a 1e b9 34 3a a6 b0 1a b9 d6 00 8e 38
       0.00071831705 0.00068940397 -0.00014752391 6.771243e-05
000100 69 64 40 b9 f6 dd 48 b9 12 fd f7 ba a3 65 6d ba
       -0.00018347953 -0.00019156173 -0.0018920025 -0.00090559776
000110 40 01 bd ba 02 19 91 bb 3e 02 09 3a f2 a4 e5 3a
       -0.0014419928 -0.00442803 0.00052264694 0.0017520471
000120 a6 18 51 b9 b6 f5 0a 39 8d 9f 97 3a c2 81 21 3b
       -0.00019940975 0.0001325224 0.0011567936 0.0024643992
000130 56 66 d2 39 a0 80 fd ba d9 e1 b8 ba 9f 1c 76 ba
       0.00040130568 -0.0019340701 -0.0014105394 -0.000938842
000140 7c 05 e4 b9 b0 ce cd ba 31 3f 1c 3a dc 31 90 39
       -0.00043491635 -0.0015701856 0.0005960344 0.00027502968
000150 7f 16 a2 39 4c a3 8c 39 50 9d 1a 39 32 57 0b 3a
       0.0003091581 0.00026824547 0.00014745188 0.00053154223
000160 1d 28 52 b9 36 30 b9 b8 a9 8e 11 37 63 28 1d 36
       -0.00020042104 -8.8304674e-05 8.675889e-06 2.3418331e-06
000170 1e cc 11 b6 73 f1 03 36 d8 db e2 b6 f5 ea bc 36
       -2.1725496e-06 1.9661063e-06 -6.760918e-06 5.630189e-06
000180 b5 27 14 b9 88 f3 3d 39 3d c4 d0 39 dc 75 38 3a
       -0.00014129172 0.00018115167 0.0003981906 0.00070366054
000190 3b 02 59 39 5d 58 2a ba 0d 46 7a ba 37 9c ee 38
       0.00020695564 -0.00064981525 -0.00095471815 0.00011377822
0001a0 b3 7a 6f b9 7d 80 d4 ba d2 d2 9f 39 65 53 b7 39
       -0.00022838525 -0.0016212609 0.00030483917 0.00034966614
0001b0 71 87 86 3a d4 10 28 ba 43 f2 b2 b9 7d af 80 3a
       0.0010263753 -0.0006411199 -0.00034131305 0.0009817925
0001c0 f5 5d 50 b6 9f b5 1a 39 f2 03 07 39 a9 0d 31 39
       -3.1049105e-06 0.00014754244 0.00012876073 0.00016885124
0001d0 4c b4 f6 b8 aa 0f 9e b9 5d 9c 13 b9 d3 dc 1e 39
       -0.00011763777 -0.0003014778 -0.00014077262 0.00015150318
0001e0 6f 0e 00 3a c4 34 91 39 c0 60 17 ba b1 d8 6a ba
       0.0004884963 0.0002769587 -0.000577461 -0.0008958681
0001f0 a3 2f 10 b9 59 2d 3c 3a 49 d5 e6 37 3b 41 1e 39
       -0.00013750656 0.0007178388 2.7517455e-05 0.00015092354
000200 7d 47 1f 3a 04 a6 9f 3a 9d 28 b5 38 d4 a9 80 ba
       0.0006076021 0.0012180214 8.6383174e-05 -0.0009816238
000210 90 99 3f 3a d0 62 d3 39 6c 94 ab 39 bf 09 61 3a
       0.00073089544 0.00040318677 0.00032726245 0.0008584521
000220 79 5f 19 ba 1e 13 14 39 02 aa 9b ba 53 05 93 ba
       -0.00058507134 0.00014121502 -0.0011876228 -0.0011216797
000230 0e 80 0e ba df 45 cc ba 84 de 95 39 cf 53 03 3a
       -0.0005435952 -0.0015584788 0.00028585282 0.0005009742
000240 e7 ac 2d ba 71 e0 72 ba 0a 89 57 3a 7f a5 0b 3b
       -0.0006625191 -0.0009265012 0.00082220195 0.002130836
000250 6a 7d 97 39 1b ea cc ba a2 77 2e b9 fe ae 43 35
       0.00028894405 -0.0015633734 -0.000166385 7.289781e-07
000260 f2 b1 ce 38 f1 f5 c0 38 19 6c 00 3a 67 3a ca 37
       9.85599e-05 9.2010836e-05 0.00048989203 2.4107472e-05
000270 36 ce 25 b9 2f 1d 14 b9 28 00 ea 39 a6 62 8d 3a
       -0.00015812446 -0.00014125252 0.00044632074 0.0010786846
000280 94 a8 15 39 f0 1d 7a ba c9 96 66 38 2a 79 f4 37
       0.00014272548 -0.0009541204 5.4976703e-05 2.9143488e-05
000290 87 5c dc b7 12 a8 58 b7 ca 27 a9 b7 d3 3a d9 37
       -2.626913e-05 -1.2913735e-05 -2.0164898e-05 2.5895808e-05
0002a0 72 cb 1d 3a ac 2a 0a 3a 65 87 85 b9 d8 63 dc b9
       0.00060193904 0.0005270641 -0.00025468614 -0.0004203606
0002b0 f3 ab cb 38 04 cf 46 3a 54 bf 58 3a 2f 7e 33 ba
       9.711822e-05 0.00075839483 0.0008268256 -0.0006847111
0002c0 77 98 a4 b9 a6 72 4a 3a 37 21 b7 b5 56 35 67 37
       -0.00031394113 0.00077227724 -1.3644229e-06 1.3781091e-05
0002d0 4f dd 61 3a 4b 1f 0d 3a 05 63 25 3a ce ec a0 3a
       0.00086160464 0.0005383386 0.00063090055 0.0012277605
0002e0 1c ea b6 b9 9f d3 0d ba 11 6e 82 3a f5 38 1f 3a
       -0.0003488817 -0.0005410257 0.0009951015 0.0006073856
0002f0 7f 9b 91 3a 7f ce 2a 3b 6c fb 0f ba b4 29 92 ba
       0.0011108964 0.0026063023 -0.0005492482 -0.0011151345
000300 ef 67 3e 3a 1e 5f dd 39 ae a9 a0 b8 86 e7 15 39
       0.0007263412 0.00042223273 -7.661e-05 0.00014295997
000310 7e ed 03 ba 69 06 10 3a 66 26 97 36 28 80 12 37
       -0.00050326425 0.0005494119 4.504621e-06 8.732117e-06
000320 6d 53 95 b5 5f 31 93 b6 ff a9 df 34 5a 55 14 37
       -1.1125645e-06 -4.386689e-06 4.1660675e-07 8.84136e-06
000330 a0 c9 29 bb db 10 db ba 2d 35 93 ba 83 4f 77 bb
       -0.0025907531 -0.0016713397 -0.0011231058 -0.0037736602
000340 16 18 75 3a e1 2a 93 3a 09 06 4c 39 d8 f3 14 39
       0.00093495974 0.0011227989 0.00019457204 0.00014205219
000350 92 4a d2 b8 0f 85 02 b9 6e 01 79 38 4b 40 95 39
       -0.0001002747 -0.00012447334 5.9367558e-05 0.00028467397
000360 ef f5 ab 39 13 c3 b9 39 48 0d 17 39 a3 39 ed 39
       0.00032798896 0.0003543129 0.0001440543 0.00045247105
000370 89 5e 0e b6 b8 68 1a b9 65 47 e5 38 61 46 79 39
       -2.1214676e-06 -0.00014725595 0.00010932869 0.00023772709
000380 96 e9 40 ba 66 9e e3 ba fa 9c 8a b8 be cf 87 3a
       -0.0007359026 -0.0017365932 -6.609592e-05 0.0010361595
000390 c7 76 15 39 38 7a 80 39 f5 98 5f 39 84 60 d2 39
       0.00014253995 0.00024505123 0.00021323918 0.0004012623
0003a0 ad 24 be 38 bc 39 70 b8 93 5e 36 ba c4 1e 53 ba
       9.0667374e-05 -5.727423e-05 -0.00069568417 -0.00080535957
0003b0 32 74 01 b7 9d b2 c5 38 4c 71 db 39 f9 18 24 ba
       -7.716053e-06 9.426961e-05 0.00041855348 -0.0006259825
0003c0 0f 1a 48 3a 03 8c c0 b9 c0 7c 53 b8 f2 b1 77 3a
       0.00076332776 -0.0003672541 -5.0422503e-05 0.0009448818
0003d0 c3 6e 33 b9 8d 3f 80 b9 e3 6f ba b9 84 34 a3 b9
       -0.00017112032 -0.00024461412 -0.00035560047 -0.0003112891
0003e0 13 fc ff 39 20 89 95 3a 98 14 4b 39 49 b6 8d ba
       0.000488252 0.0011408664 0.0001936726 -0.0010811771
0003f0 69 42 a2 39 de 98 f9 38 df 17 0e ba dd 5f a2 ba
       0.00030948527 0.00011901719 -0.0005420427 -0.0012388189

exp_avg_sq f4 [60, 6]
000000 2b c6 30 35 05 a6 05 35 67 c3 90 34 99 6c 0e 35
       6.585348e-07 4.978795e-07 2.6964264e-07 5.305715e-07
000010 ff 67 c0 34 03 97 d4 34 2f 52 d1 36 d7 9b 81 36
       3.5838454e-07 3.9597953e-07 6.238253e-06 3.8626417e-06
000020 79 c2 56 36 04 82 0a 37 b2 18 77 36 0c 2d a8 36
       3.2001683e-06 8.255713e-06 3.6820243e-06 5.0120343e-06
000030 d0 8a 0a 39 d4 bb cf 38 ba 8b 5a 38 5c 84 ea 38
       0.00013212417 9.905515e-05 5.210538e-05 0.00011182643
000040 f6 82 88 38 35 e5 6c 38 37 b3 bf 32 5d ec 80 32
       6.509379e-05 5.648025e-05 2.2316824e-08 1.5008647e-08
000050 43 43 d8 31 ee 95 f3 32 df 56 70 32 9f 54 6b 32
       6.294074e-09 2.8357103e-08 1.3989591e-08 1.3698041e-08
000060 fb fe e2 37 01 6f 57 37 62 76 c0 36 b3 6e 98 37
       2.7060034e-05 1.2840844e-05 5.7358275e-06 1.817136e-05
000070 f1 eb 4b 37 b6 94 36 37 40 4e 11 3a d5 57 d9 39
       1.2154677e-05 1.088267e-05 0.0005542971 0.00041454905
000080 06 0b 89 39 26 d3 0d 3a c8 8b 8c 39 e6 d4 93 39
       0.0002613889 0.0005410187 0.00026807026 0.00028196647
000090 b5 14 8e 36 23 75 48 36 e0 98 9a 35 68 37 76 36
       4.2343404e-06 2.9870505e-06 1.1518387e-06 3.6689107e-06
0000a0 58 b4 2b 36 68 b8 ec 35 e3 1f b6 39 fb df 73 39
       2.558596e-06 1.763704e-06 0.00034737503 0.00023257725
0000b0 e7 c5 35 39 88 95 c3 39 f8 8d 24 39 b2 74 43 39
       0.0001733523 0.00037304708 0.00015693146 0.00018640122
0000c0 26 96 3f 38 b6 08 bf 37 fc 67 de 37 39 eb 71 38
       4.5677785e-05 2.277303e-05 2.6512884e-05 5.7677946e-05
0000d0 41 04 dc 37 4d d5 0b 38 c4 ce 88 38 ac e7 76 38
       2.6228025e-05 3.3338834e-05 6.5234985e-05 5.886673e-05
0000e0 b8 2f ff 37 e9 43 95 38 b0 39 0e 38 8c 47 12 38
       3.042059e-05 7.117523e-05 3.3909164e-05 3.4875746e-05
0000f0 41 a1 b8 38 db 91 b9 38 31 dc f4 37 f8 97 8c 38
       8.8038396e-05 8.848655e-05 2.9189601e-05 6.7040266e-05
000100 db 43 15 38 98 d7 de 37 68 83 8e 3a 0e 14 4f 3a
       3.5587564e-05 2.6564856e-05 0.0010872902 0.0007899412
000110 06 46 fd 39 13 5f 86 3a 7e c9 ec 39 32 13 18 3a
       0.00048308092 0.0010251723 0.0004516355 0.00058012
000120 98 81 56 39 d0 e2 36 39 66 9e b3 38 f5 93 2e 39
       0.00020456908 0.00017441367 8.564889e-05 0.00016649051
000130 ae c1 c7 38 95 7d ac 38 f2 17 32 39 9f b4 0a 39
       9.525135e-05 8.2249906e-05 0.00016984323 0.00013227992
000140 22 ed a1 38 3f 15 22 39 18 a9 b3 38 fe 45 9c 38
       7.721248e-05 0.00015457439 8.566881e-05 7.451697e-05
000150 7c bc e8 37 a2 a5 c3 37 53 52 62 37 99 ac e8 37
       2.7744325e-05 2.332294e-05 1.3489817e-05 2.7736927e-05
000160 6c 08 96 37 3d 0e 83 37 11 66 6e 31 78 47 11 31
       1.7885315e-05 1.5623047e-05 3.4691576e-09 2.1140902e-09
000170 4e 87 97 30 09 dd 45 31 6c 55 f5 30 a1 1e 00 31
       1.1025152e-09 2.8792917e-09 1.7850375e-09 1.8643862e-09
000180 48 ef 0b 38 c3 38 04 38 26 e2 19 37 6c 7c c6 37
       3.336303e-05 3.1524116e-05 9.172165e-06 2.3661378e-05
000190 98 6e 9f 37 98 ff 21 37 8a 06 0e 39 6a e1 aa 38
       1.9005776e-05 9.655858e-06 0.00013544611 8.148218e-05
0001a0 51 08 7f 38 3b 4c 14 39 b3 0c 8e 38 c6 33 b1 38
       6.0804483e-05 0.00014142778 6.773453e-05 8.449661e-05
0001b0 5a 3a bc 38 b8 c0 7e 37 c9 b5 04 37 7f 74 29 38
       8.9754074e-05 1.5184451e-05 7.910138e-06 4.0401235e-05
0001c0 a1 42 7e 37 93 15 d9 37 e4 bb 1d 35 fd 3b 6b 34
       1.5155093e-05 2.5878462e-05 5.8760475e-07 2.1907904e-07
0001d0 c9 9d 50 34 8e 22 03 35 3d 22 99 34 c2 1a b8 34
       1.9428911e-07 4.8851587e-07 2.8523382e-07 3.429214e-07
0001e0 83 10 d3 36 0c 0b 09 36 30 56 37 36 59 6b 86 36
       6.2902122e-06 2.042102e-06 2.7319293e-06 4.006008e-06
0001f0 ef d0 0b 36 6f f0 86 36 0b 50 74 38 76 40 40 38
       2.083423e-06 4.0215014e-06 5.824868e-05 4.58364e-05
000200 5e 0a dc 37 8c ea 5e 38 5c 54 ce 37 ad 1b d0 37
       2.6230871e-05 5.3147363e-05 2.4596397e-05 2.480842e-05
000210 a3 59 40 38 d1 d9 a9 37 23 28 d5 37 c9 f2 28 38
       4.5859848e-05 2.0247799e-05 2.5410269e-05 4.0280433e-05
000220 e0 96 bf 37 c9 e0 ed 37 5d 84 60 39 56 d9 38 39
       2.2839231e-05 2.8357275e-05 0.00021411614 0.00017628571
000230 65 8c b9 38 b5 4c 38 39 ed fd cc 38 11 f1 ac 38
       8.847638e-05 0.00017576183 9.7747754e-05 8.246501e-05
000240 db a2 af 38 f3 5a 31 38 bd d0 cf 37 01 df 94 38
       8.3749845e-05 4.228479e-05 2.4773524e-05 7.098728e-05
000250 f8 9c 2a 38 08 93 4a 38 a5 e0 cc 37 5b a0 9b 37
       4.0677347e-05 4.8297487e-05 2.4423303e-05 1.8552111e-05
000260 07 6a 22 37 6d 81 d1 37 8e 39 01 38 1f 6a 5c 37
       9.680639e-06 2.497501e-05 3.08096e-05 1.313773e-05
000270 f6 4e ef 37 ce a2 bb 37 7e e2 2b 37 ee 81 c1 37
       2.852779e-05 2.2367949e-05 1.0245129e-05 2.3067896e-05
000280 e6 62 58 37 a7 a1 53 37 b5 75 b2 32 4d b1 73 32
       1.289763e-05 1.2614218e-05 2.0775454e-08 1.4184775e-08
000290 a3 d0 00 32 8f 45 a3 32 22 30 75 32 2b d9 7f 32
       7.498019e-09 1.9007329e-08 1.4271821e-08 1.4892332e-08
0002a0 67 15 14 38 35 ce ad 37 26 3e 37 37 bf 78 eb 37
       3.5305882e-05 2.071923e-05 1.092212e-05 2.807041e-05
0002b0 84 01 e6 37 58 ab 9f 37 72 53 a3 38 fe ba 57 37
       2.7418842e-05 1.9034065e-05 7.7879886e-05 1.2858536e-05
0002c0 93 83 d9 36 0c d1 21 38 f0 ed 6b 37 77 e8 e0 37
       6.482421e-06 3.858008e-05 1.4062491e-05 2.681113e-05
0002d0 31 bd 9e 38 58 17 1e 38 51 ec 31 38 1f 88 9f 38
       7.569267e-05 3.7691876e-05 4.2420175e-05 7.607065e-05
0002e0 9e 24 07 38 3b e7 27 38 0d 58 a8 39 09 a0 6d 39
       3.222061e-05 4.0031253e-05 0.0003210906 0.00022661699
0002f0 19 8a 39 39 61 ce a3 39 e8 1a 35 39 12 44 34 39
       0.0001769442 0.00031243547 0.00017271528 0.00017191496
000300 57 10 ca 37 af 9e 4b 37 65 d9 51 37 fc df aa 37
       2.4087885e-05 1.2136689e-05 1.2507987e-05 2.036988e-05
000310 0f e8 62 37 f4 29 88 37 95 38 56 31 4f 01 de 30
       1.352468e-05 1.6232e-05 3.1173262e-09 1.6152998e-09
000320 26 25 6b 30 c5 dd 19 31 70 37 c7 30 73 3b df 30
       8.5545293e-10 2.2390492e-09 1.4494912e-09 1.6242282e-09
000330 2a 00 57 3a 9a e5 29 3a f4 31 c4 39 f5 96 47 3a
       0.00082016236 0.00064810517 0.0003742125 0.0007613742
000340 00 73 d1 39 5a be c7 39 66 3b 8a 36 49 81 1a 36
       0.00039949268 0.0003809806 4.1196354e-06 2.3023042e-06
000350 86 ad b1 35 62 da 58 36 4e 2f 4f 36 9a e3 12 36
       1.323803e-06 3.2313624e-06 3.0872939e-06 2.1888177e-06
000360 6c 88 d1 37 12 90 c9 37 57 d2 0b 37 10 e0 9c 37
       2.4978268e-05 2.4028155e-05 8.334019e-06 1.8700986e-05
000370 e4 f6 72 37 bf ee 05 37 20 4a 80 38 30 08 34 38
       1.4481808e-05 7.983005e-06 6.1173225e-05 4.292297e-05
000380 42 de f0 37 01 11 89 38 39 f4 09 38 03 3b 32 38
       2.8713726e-05 6.535836e-05 3.2890795e-05 4.2493466e-05
000390 fc ae 89 37 1f 91 36 37 92 0b b3 36 8d 24 6e 37
       1.6413156e-05 1.0881834e-05 5.3359627e-06 1.4194416e-05
0003a0 e7 4a 5d 37 2c 74 18 37 d0 31 d7 37 74 58 10 37
       1.3190066e-05 9.086954e-06 2.5653193e-05 8.603663e-06
0003b0 68 fe d8 36 d8 e5 6e 37 46 76 12 37 cc 48 24 37
       6.4669184e-06 1.423942e-05 8.729816e-06 9.792111e-06
0003c0 94 53 a1 38 50 1c 0b 38 c8 70 bc 37 d0 6b a1 38
       7.692646e-05 3.316655e-05 2.2463864e-05 7.69716e-05
0003d0 e9 9a 07 38 ff dd 40 38 0b d1 d4 37 d4 22 91 37
       3.233078e-05 4.5983117e-05 2.5369713e-05 1.7301565e-05
0003e0 c8 c7 0e 37 6c 8a b5 37 b4 c9 4c 37 c4 a4 5d 37
       8.510375e-06 2.164134e-05 1.220631e-05 1.3210989e-05
0003f0 a2 a4 83 37 00 8b 31 37 d5 05 ca 36 54 88 53 37
       1.569308e-05 1.0582386e-05 6.020748e-06 1.2608321e-05

exp_avg f4 [60]
000000 43 e0 19 39 3d 97 2e ba 7f 21 0e 3a 80 45 cb b7
       0.00014674761 -0.00066601095 0.00054218614 -2.423185e-05
000010 bd ab 3f ba b7 12 0a 3b 93 ed d9 b9 ab 50 24 3b
       -0.0007311663 0.0021068284 -0.00041566472 0.0025072496
000020 22 26 8b 3a 15 09 93 ba e6 19 1b 3a 61 53 46 3b
       0.0010616223 -0.0011217917 0.000591664 0.00302621
000030 47 4d b0 ba 1d dd 1f 3a 2d 94 ce b7 4f 49 55 b6
       -0.0013450765 0.0006098317 -2.4626113e-05 -3.1782145e-06
000040 de 30 26 b8 64 02 9e 3a 2f 47 82 ba db 48 79 39
       -3.9622995e-05 0.0012055156 -0.0009939427 0.00023773631
000050 c8 44 7f 3a 12 f4 68 ba d6 32 1b ba 22 57 84 39
       0.0009737727 -0.0008886467 -0.0005920356 0.0002524192
000060 d9 a9 0c bb a4 a7 01 b8 bb 88 4f ba 9c 78 9f b5
       -0.0021463542 -3.0912124e-05 -0.0007916798 -1.1881525e-06
000070 fa 97 24 3a 92 87 7a ba bd bc a7 ba b7 d9 bc ba
       0.000627875 -0.0009556945 -0.0012797337 -0.0014408146
000080 f3 ef 69 39 ea bd 34 37 25 58 c6 3a ea 9d 52 39
       0.0002231 1.0773054e-05 0.001513247 0.00020085988
000090 ab 2d 4c 39 72 bb c2 3a a1 5b 1f b8 2d c3 09 ba
       0.00019471969 0.0014856888 -3.799389e-05 -0.0005255219
0000a0 a3 99 69 ba 6c 5e 7d ba 6c c4 72 3a 03 67 87 38
       -0.0008911138 -0.0009665254 0.00092608365 6.456489e-05
0000b0 0c 50 27 ba 3b 49 e7 b8 3a a7 2e ba c8 e7 f2 36
       -0.00063824723 -0.000110285786 -0.0006662492 7.239145e-06
0000c0 f2 a3 f2 ba 1f 8f 92 3a a0 59 f5 b5 bd 80 d2 3a
       -0.0018511994 0.001118157 -1.8280007e-06 0.0016060096
0000d0 8c dc c7 38 fc 87 a9 39 66 a3 35 b7 10 99 66 b8
       9.5301395e-05 0.00032335508 -1.0826485e-05 -5.4978824e-05
0000e0 7a 77 36 36 92 34 b2 37 1e d9 29 ba 54 d1 cc ba
       2.7189658e-06 2.1243733e-05 -0.00064791914 -0.001562635

exp_avg_sq f4 [60]
000000 e1 82 e3 35 eb d8 a7 37 f1 19 8f 39 62 08 55 33
       1.6950909e-06 2.0008962e-05 0.00027294413 4.960055e-08
000010 18 af 9c 38 29 6b 92 3a ae 9e 2d 37 75 88 39 3a
       7.4712734e-05 0.0011170852 1.0348549e-05 0.00070775236
000020 ba 14 ed 38 a8 50 1c 39 99 da 18 39 61 c0 16 3b
       0.00011304901 0.00014907366 0.00014577284 0.002300285
000030 40 0a bd 39 2a f7 a9 39 56 fe 8d 38 59 ab e8 31
       0.00036056526 0.00032418343 6.770778e-05 6.7715686e-09
000040 85 0e 84 38 c1 f6 bd 39 36 55 3b 39 24 85 97 35
       6.296955e-05 0.00036232735 0.00017865453 1.1289126e-06
000050 c7 9a 10 37 78 e0 dd 38 a6 0f b5 38 4f 75 c9 39
       8.619106e-06 0.00010579912 8.633667e-05 0.0003842511
000060 83 44 74 39 e2 08 8b 38 6e c5 66 38 f8 f8 37 33
       0.00023295176 6.629691e-05 5.5020144e-05 4.2834444e-08
000070 48 f3 cd 38 8f a8 36 39 79 b1 0e 39 1e bf 2a 3a
       9.8204764e-05 0.00017419666 0.00013608289 0.0006513464
000080 a7 f8 4a 38 48 6b d0 31 b4 81 d0 3a 4c 57 36 37
       4.839213e-05 6.065793e-09 0.0015907795 1.0868371e-05
000090 db f2 4f 38 d9 fa 1e 39 1f 87 63 38 1c 27 6a 38
       4.9578823e-05 0.00015161502 5.424686e-05 5.582637e-05
0000a0 57 04 83 39 33 53 7d 38 2f 58 ff 37 1b f6 47 35
       0.000249895 6.0397386e-05 3.0439433e-05 7.449141e-07
0000b0 61 63 2d 39 50 7e 22 39 c8 bd fb 37 1d 00 d0 31
       0.00016535587 0.00015496579 3.0009905e-05 6.0536096e-09
0000c0 60 0b 38 3a 78 b3 e2 37 ba 8e f7 33 4c bb 93 39
       0.0007020738 2.7024871e-05 1.15277956e-07 0.00028177572
0000d0 01 da 20 36 94 07 3e 38 e9 92 25 32 7e f7 23 39
       2.3968753e-06 4.5306588e-05 9.6376676e-09 0.0001563709
0000e0 77 93 f0 31 d3 2c 81 35 7a f5 4e 39 e6 74 a7 39
       7.001684e-09 9.624295e-07 0.00019737138 0.00031939818
