mnc_ml_test/output/train/20221128-0248-model.pth (torch, 62813 bytes, 21 tensors)

module.0.weight f4 [60, 6]
000000 11 49 da be 74 71 9f be 68 d5 72 bd ff 11 c6 3e
       -0.4263387 -0.31141245 -0.05928555 0.38685605
000010 26 ce 6c be 22 fc b4 3e 40 af bb 3e 5d 7f 82 be
       -0.23125514 0.35348612 0.36657143 -0.25487795
000020 2e 29 4f 3f 25 59 b8 be e5 21 f3 3e ce 73 90 3e
       0.8092221 -0.36005512 0.47486797 0.28213352
000030 1d 56 49 be 79 de 37 3e f9 09 37 bf ab 07 ba bd
       -0.19661756 0.1795596 -0.7149959 -0.09083494
000040 0d 2a 65 bd 7d 4d 22 3e 02 c1 bc 3e 63 40 be 3b
       -0.055948306 0.15849872 0.36866003 0.0058060153
000050 c2 5c 46 bf 0f 50 b0 3e 65 c0 57 be 63 42 98 3d
       -0.7748529 0.3443608 -0.21069486 0.07434537
000060 17 82 d1 be 8d 29 3d be c4 d7 3e be 8b 3e 54 be
       -0.40919563 -0.18472882 -0.18636996 -0.20726983
000070 b7 6a 24 be 24 4e 39 be 7a e4 13 3f b0 07 dc bd
       -0.16056333 -0.18096215 0.577705 -0.10743654
000080 ea a5 9a 3e 64 8a 05 bf 59 9f ca 3e 52 a4 98 be
       0.30204707 -0.5216429 0.39574698 -0.29812866
000090 33 e4 61 be d0 97 a1 be 67 54 91 be 2d b8 5a 3e
       -0.22059707 -0.31561136 -0.28384706 0.2135932
0000a0 8e a6 97 3e 31 39 08 3e 50 8d ae bd 37 13 7a 3e
       0.2961926 0.13303067 -0.08523047 0.24421392
0000b0 15 99 ae be 7d 10 b2 3d 78 c4 aa 3d a0 bb ce bd
       -0.34101167 0.08694551 0.08338255 -0.100943804
0000c0 32 02 e7 be a6 cd e3 bd ef c9 3f bf ab 7c 96 3e
       -0.45118862 -0.11123209 -0.749175 0.2939199
0000d0 24 5a 15 3d 8c 79 4c bd 19 36 fe be 40 ca f3 3a
       0.036462918 -0.049920604 -0.49650648 0.0018599704
0000e0 8c 44 2a bf be f1 6a 3e f4 dd 1f 3d eb c7 a2 3d
       -0.66510844 0.2294378 0.03903003 0.079482876
0000f0 3d 26 f4 3e 07 07 27 be 36 75 51 3f 10 60 8b bd
       0.47685423 -0.16311274 0.81819475 -0.06805432
000100 5c 01 84 3e d5 9d 11 be 5b 50 af 3e d8 3f af be
       0.25782287 -0.14220364 0.34240994 -0.34228396
000110 14 fb ea 3e 5d 85 0d be 9b f1 d8 be 88 6e 0e 3e
       0.45894682 -0.13820405 -0.4237183 0.13909352
000120 43 be 96 3e dc 74 30 bf d6 04 18 bf b1 38 9b 3e
       0.29442033 -0.68928313 -0.5938238 0.3031669
000130 f6 9f 8e 3c 14 46 ae bd 8c c5 b5 3e 1a 4b 08 bf
       0.01741026 -0.0850946 0.3550228 -0.53239596
000140 8a 37 01 3f be 10 69 be 02 5c e1 be c9 e6 bf bc
       0.5047537 -0.22760293 -0.4401551 -0.023425477
000150 c8 a5 79 be 1e a6 e3 3d a5 6a 34 bf 55 38 0a 3e
       -0.24379647 0.11115669 -0.70475227 0.13498051
000160 b5 ab 98 3d d8 5f 12 be c1 df 75 bf 49 55 64 3e
       0.074546255 -0.14294374 -0.96044546 0.22298159
000170 39 45 b3 3e 7e b1 54 3e 6c 68 78 bd ab 61 a6 bd
       0.3501375 0.20770833 -0.06064646 -0.081240974
000180 d5 0a 58 3e 1c c1 e8 3e ac 44 5c bf 9f c0 47 3e
       0.21097882 0.4545983 -0.86042285 0.19507073
000190 7d 4e 26 bd 7a 60 ce be 5c 7f 20 bf 01 a9 22 bf
       -0.040602196 -0.4030798 -0.62694335 -0.6353913
0001a0 e1 d8 35 bf e8 30 cf 3e 79 75 ce 3d d2 d5 7e 3e
       -0.71034056 0.40467 0.10081 0.24886253
0001b0 a6 19 97 3e a8 6a 79 bd 4f 7a d3 3e 11 e4 62 bc
       0.29511756 -0.06089273 0.41304252 -0.013848321
0001c0 53 8b 54 bd 6f 6a 04 3e 99 de 29 be 35 32 0d 3e
       -0.051890682 0.12931226 -0.1658882 0.13788684
0001d0 f1 76 57 bf 8f ad 0b 3f 28 8c c7 bd f1 c0 7f bd
       -0.84165865 0.54561704 -0.097435296 -0.062439863
0001e0 bd a4 13 3e b3 72 11 bf 65 11 b9 3e 6f a0 93 bd
       0.14418311 -0.5681564 0.36146083 -0.07208335
0001f0 2d 78 c0 bd a4 ed 9b 3d c3 0a 22 bf 1f 49 f9 be
       -0.09397922 0.07613686 -0.6329767 -0.486886
000200 fd 3a 00 3f 2a 34 26 be a8 b4 58 3d 30 94 11 bd
       0.5009001 -0.16230837 0.052906662 -0.035541713
000210 32 4c c7 3e 5f dc 9e be 86 94 4b 3f 07 f0 92 be
       0.3892532 -0.31027505 0.79523504 -0.2869875
000220 dc 89 89 3d 38 e3 c1 bd ca 89 d0 bc 1f 8c 9d 3e
       0.06715748 -0.09467167 -0.025456328 0.30770966
000230 cc 61 04 3f 86 a4 a7 be da b7 1c 3e 3f 60 14 3e
       0.51711726 -0.3274271 0.15304509 0.1448984
000240 1b 58 be 3e 81 8e 62 be be e5 24 3f d1 9c 46 bd
       0.37176594 -0.22124673 0.6441306 -0.048489396
000250 f9 b9 b2 bd de 74 1b 3e 81 e6 d4 be d0 c3 c3 3e
       -0.08726878 0.151813 -0.4158211 0.3823533
000260 75 9a 40 be 9e c2 89 3d d5 5e c6 bd 1a 02 0a bd
       -0.1880892 0.067265734 -0.096860565 -0.03369341
000270 3c d3 20 3d 4a bb 23 3f 66 a1 63 bf 0d 3d 49 3d
       0.03926395 0.63957655 -0.8891815 0.04913049
000280 0c 23 5d 3d bd b4 48 be 47 93 59 3e 08 a0 b6 be
       0.0539885 -0.19600196 0.21247588 -0.3566897
000290 19 b4 44 3f f9 bf 20 be de 36 67 be 81 54 eb 3b
       0.7683731 -0.15698232 -0.22579524 0.0071817045
0002a0 6d 76 e8 be de 66 da bc c3 8c 4e bf 9b 4b d3 3d
       -0.45402852 -0.026660379 -0.80683535 0.10317155
0002b0 2d 89 c0 bd 95 19 f0 bd e7 d1 75 3e 97 bd e7 be
       -0.09401164 -0.117236294 0.24005853 -0.45261833
0002c0 10 3a 2e 3e ad d2 82 be ae e3 bd 3e c3 02 d6 3d
       0.17014337 -0.25551358 0.37087768 0.104497455
0002d0 43 3c c0 3e c5 9e 18 bf 95 75 3d 3f 8d 39 c1 bd
       0.37545976 -0.59617263 0.7400754 -0.09434805
0002e0 b4 2d 60 be 79 7e a0 3e 78 3d 9d be 60 1c 5e be
       -0.21892434 0.3134649 -0.3071096 -0.21690512
0002f0 94 c5 cc 3e 6d 63 23 be fe 15 e7 bd 97 77 1b 3e
       0.3999449 -0.15955897 -0.112834916 0.15182339
000300 9b cd ae 3c 35 b9 a9 be ad f7 b9 3e eb ce 41 3d
       0.021338275 -0.33149114 0.36321774 0.047316473
000310 55 46 8b bf 15 35 91 3d bd 55 07 3f 9d 96 b1 be
       -1.0880839 0.07090203 0.528652 -0.3468522
000320 32 bc 1a 3f 9d 97 57 3e 2d 7e d7 3e b8 9e e4 3e
       0.60443413 0.2105393 0.42088452 0.44652343
000330 e1 48 80 bd 76 e4 52 3d 85 da 1f be fb b5 c3 3c
       -0.062639005 0.05148741 -0.15610702 0.023890486
000340 16 47 aa 3a 2a 00 f2 bc 42 bd 7d be 9d 5d 1f 3f
       0.0012991156 -0.029541094 -0.24779227 0.6225222
000350 91 60 6a be e7 f5 a7 3c f6 c8 58 3e 24 96 89 be
       -0.228884 0.020502998 0.2117041 -0.2687236
000360 d2 ee 16 3f 89 6a 1d be ce 37 4f 3f 72 83 5d be
       0.5895816 -0.15372671 0.80944526 -0.21632174
000370 83 63 9c be 41 fe e2 3d 76 46 28 bf 4f 37 6b bd
       -0.3054467 0.11083651 -0.65732515 -0.057425793
000380 ac d5 55 bf 1a f3 7d 3d e8 13 81 bd bf 07 c3 3d
       -0.8352916 0.061999418 -0.06302625 0.09522962
000390 2d 3c ad bd 78 aa 45 3f a4 2a 59 be 08 45 4e 3e
       -0.08458743 0.7721324 -0.21207672 0.20143521
0003a0 f9 46 24 3e ae 96 a5 be 38 dc 3b 3d c6 de ee bc
       0.16042699 -0.32341522 0.045864314 -0.029158961
0003b0 b9 e6 71 3e 28 1a a1 bd 0c 43 c2 bc 02 9e 83 3d
       0.2362317 -0.07866317 -0.023713611 0.06426622
0003c0 cd 66 d9 3d d7 7e 54 be c8 6c 2a 3f d3 24 de be
       0.10615311 -0.2075151 0.66572237 -0.4338747
0003d0 b5 70 5c be 15 5e fb 3e aa df 79 3e bd 26 10 be
       -0.2152737 0.49095216 0.24401727 -0.14077277
0003e0 22 3f 18 3f 28 2f 8e bd 29 f1 0b 3f 67 2c c1 3d
       0.59471333 -0.06942588 0.54664856 0.09432297
0003f0 d2 fe 65 bf 05 cd 31 bf db 24 75 3e ad 86 26 bd
       -0.8984195 -0.6945346 0.2393984 -0.04065578

module.0.bias f4 [60]
000000 99 85 8a 3c cd 68 68 3d 02 26 69 be 20 b8 a5 be
       0.016909407 0.05674057 -0.22768405 -0.3236704
000010 11 f4 44 3e 7c d5 c3 be 6b a7 dc 3e b0 d9 ec bd
       0.19233729 -0.38248813 0.4309648 -0.11564958
000020 a7 8b 73 3e 8d 8e 18 3c 6e 9e 7a 3e 56 76 bc be
       0.23783742 0.0093113305 0.24474499 -0.36809033
000030 2a c6 56 3d 84 65 84 be a2 82 1d bd 27 1b a2 be
       0.052435078 -0.258587 -0.03845466 -0.3166134
000040 82 f6 aa be a3 cd 22 bd 45 f6 15 be 5c 29 08 3d
       -0.33391196 -0.03974689 -0.14644726 0.03324257
000050 d7 54 d9 3e 1c 41 be be fb 63 b1 3e cb 8c e0 3b
       0.4244754 -0.3715905 0.34646592 0.0068527213
000060 a2 4b 8a 3c 13 38 29 bb 9c 09 9c be c8 e1 ae 3e
       0.016881768 -0.0025820776 -0.3047608 0.34156632
000070 ea dd 0d be 6d 12 c0 3e 01 2b 77 3e 34 2f b0 3e
       -0.13854185 0.37514058 0.24137498 0.34411013
000080 ad 53 14 bf 22 cd f6 bd 53 d6 4c bc c8 5f 9a bd
       -0.5794018 -0.12050845 -0.012502271 -0.075378
000090 99 6f ab bd 7f ad 56 be 9c bb 10 be 18 52 8f 3b
       -0.08370895 -0.20964621 -0.14134067 0.0043738
0000a0 ca cc 7c be 07 01 a7 3e 29 56 6e be 03 fb 19 bf
       -0.24687496 0.3261797 -0.23275055 -0.6014864
0000b0 1e 6d 14 be dd 9e 4e 3e 9c 91 e0 bd 5e 97 db 3e
       -0.1449475 0.20177789 -0.10965273 0.42888921
0000c0 c6 18 b5 bc e3 30 9a be 9b ac a0 ba 11 24 8e 3d
       -0.02210654 -0.30115423 -0.0012258472 0.06940473
0000d0 4b 92 76 bd 44 f3 ef bd dd 93 cd be 72 50 23 bf
       -0.06019811 -0.11716321 -0.40151873 -0.63794625
0000e0 f2 50 5f bd 7a 73 1a bd 6d c5 b8 3c 3f 53 8b bd
       -0.054520555 -0.037707783 0.022555077 -0.06802987

module.2.weight f4 [60, 60]
000000 37 49 bf bc 62 e2 18 be b5 0c 75 3d 06 b4 b9 3d
       -0.023350341 -0.14930108 0.05982657 0.0906754
000010 c9 cc 26 3d d3 a8 2d bd a6 31 49 be ff e5 1c 3e
       0.040722642 -0.04239733 -0.19647846 0.15322112
000020 49 f6 08 be 64 8d 2a bd 0f f4 0b be c2 0c 2e be
       -0.133752 -0.041638747 -0.1366732 -0.16997054
000030 ba 6a 2e bd bc c1 b4 bd 3c b6 10 3e 79 a7 1f 3e
       -0.04258225 -0.088260144 0.14132017 0.1559123
000040 43 1e 1c 3e 3f e3 ea bd 79 c7 e7 39 1b b9 45 be
       0.15245919 -0.11469125 0.00044208372 -0.19308893
000050 3d ff a3 bd 25 b8 97 3d 9f f7 55 bd 9d d4 b9 39
       -0.08007667 0.0740817 -0.052238103 0.0003544436
000060 64 6d 7b bd 10 03 ed 3c 23 fe 1f 3e ec 26 76 3d
       -0.06138362 0.028932124 0.15624289 0.060095713
000070 bd e3 e3 3d 40 c2 c9 3d 5c e6 13 be 2d 2b f4 bb
       0.11127422 0.09851503 -0.14443344 -0.007451436
000080 6d 4c 8d be f8 d1 2b be 84 69 94 bc 3d ba e9 be
       -0.2759737 -0.16779315 -0.01811672 -0.456499
000090 0d f7 d3 3c 52 6a 18 3e 43 d0 a0 3d be f1 e9 bd
       0.025874639 0.14884308 0.07852223 -0.11423062
0000a0 c2 f7 25 3e 11 0b bd be 71 33 0f 3e a0 c7 02 bf
       0.16207793 -0.36922505 0.13984467 -0.51085854
0000b0 9e 51 34 bf db 2c e7 bd c8 69 3d bd 3e 2c 3f bd
       -0.7043704 -0.112878524 -0.04624346 -0.046673052
0000c0 b6 67 07 be 2d 03 32 be c5 31 3e 3d 48 fa 12 be
       -0.13223156 -0.17384024 0.046434183 -0.14353287
0000d0 8b 1b 80 3d 60 d0 a1 bc 29 15 56 3f 6b 71 e1 be
       0.062552534 -0.019752681 0.8362604 -0.44031844
0000e0 23 4c 8f be d5 ca 4f 3d 2e e8 b0 bd 64 96 ff bc
       -0.27987775 0.050730545 -0.08638035 -0.031199642
0000f0 da 15 38 3c 92 70 b1 3d bc 11 29 3d 78 4a 55 3c
       0.011235679 0.08664049 0.04127668 0.013018243
000100 4f 85 6d bd 9d 00 02 3a 58 69 3d 3d 04 d5 ca bc
       -0.05798846 0.0004959198 0.04624304 -0.024759777
000110 67 b5 95 bc 6f a2 44 bd 50 1b e9 bc a6 ee af 3d
       -0.018274976 -0.04800647 -0.028455406 0.085904405
000120 0e 69 bb bc 91 13 e4 3d f1 d8 86 3c 05 b1 86 bd
       -0.022877242 0.111365445 0.016460868 -0.065767325
000130 16 cf 58 3c ea 7c 70 3d 66 bb 27 3d 2e 3b a6 3d
       0.013232967 0.058712877 0.0409502 0.081167564
000140 ee 7f 88 bd 4f 4c fd 3c 1f 99 26 be 96 71 ad bc
       -0.06665026 0.030920176 -0.16269349 -0.021172326
000150 45 52 cf 3d 3e 2e c6 3c 1c f8 0c 3b 85 33 79 bb
       0.101231135 0.024191972 0.002151019 -0.0038025093
000160 c0 75 58 bd 7b 71 90 3c cf 2a 08 be 5d 37 19 bc
       -0.05284667 0.017632237 -0.1329758 -0.009351579
000170 e6 40 24 ba d2 50 e9 bd d2 69 b1 bd e0 76 cb 3b
       -0.0006265774 -0.113923684 -0.08662762 0.0062092394
000180 01 f6 95 3d c4 02 2a bd 0a 9c 94 bd 7d 99 8c bb
       0.07322312 -0.041506544 -0.072563246 -0.004290758
000190 7e e0 8c bd e7 4d 8a 3d dc fb bf 3c ca 43 47 bd
       -0.06878756 0.0675314 0.023435526 -0.048648633
0001a0 fc 60 d0 3d 88 98 75 3d de 61 a1 bd b7 05 3f 3d
       0.10174748 0.05995992 -0.07879995 0.04663631
0001b0 a2 08 b6 3c 91 92 18 bd 93 1c ff bc 72 0a d2 3d
       0.022220913 -0.03724915 -0.031141555 0.102558985
0001c0 03 ad 3d bd e7 ff a6 bd 50 27 bd bc 67 e6 f7 3c
       -0.046307575 -0.08154278 -0.023090035 0.030261232
0001d0 4b b7 75 3d 95 6b dc bc c2 96 ab 3b 33 97 ac 3d
       0.059989255 -0.026906768 0.0052364776 0.084272765
0001e0 dc f7 46 be 9c 50 30 bf 0e b0 52 3e 5f 2c b7 3e
       -0.19430488 -0.68873 0.20574972 0.3577604
0001f0 11 eb f1 bd 09 bc 84 be 00 b8 68 bc c5 ea 8b 3e
       -0.118124135 -0.2592471 -0.014204025 0.27327552
000200 fc 4b 73 bd 30 e1 a7 3c 07 56 ab be f7 53 bc 3c
       -0.059398636 0.02049312 -0.3346407 0.022989256
000210 88 97 88 3e 0e 64 36 bd 9a 68 7b 3e 4a 8a 4f 3e
       0.2667811 -0.044529013 0.24551621 0.20267597
000220 99 06 7b 3f 11 97 2f 3e 32 b0 cb 3c 56 ee e2 3e
       0.9805694 0.17147471 0.02486429 0.4432246
000230 7b e4 05 bf da 14 26 3a c1 7c 1f bf 1f 22 bb bd
       -0.5230176 0.00063355046 -0.62299734 -0.091373675
000240 0b 33 d5 bd 85 57 7b bd 36 53 49 3f 21 b8 5f bf
       -0.10410126 -0.061362762 0.78642595 -0.87390333
000250 5f a1 38 3e d4 cf dd bd b9 45 60 bf 6a fe d2 be
       0.18030308 -0.10830656 -0.8760639 -0.41209728
000260 57 df 08 be 62 09 c6 bd 3f 62 b3 3d bf 98 4e 3e
       -0.13366447 -0.096697584 0.08758973 0.20175456
000270 05 7c 21 bd c1 d2 87 3e 40 6f fa 3e ca 4d 2a bd
       -0.039424915 0.2652798 0.48913002 -0.04157809
000280 45 0e 90 be cb 94 ef be ba 8d 12 bd 06 87 94 3e
       -0.28135887 -0.46793208 -0.035779692 0.29009265
000290 da b6 fb 3d a5 a9 ab 3d e3 aa 06 39 de fe cf be
       0.122907355 0.083819665 0.00012842896 -0.40624136
0002a0 fe dc ed 3c 3f 70 49 3f e2 f9 17 bc f6 f6 a9 bc
       0.029036041 0.786869 -0.009275885 -0.020747643
0002b0 b0 64 47 bd 26 ed 8f 3e 36 b7 50 3f 5a 8c a6 3e
       -0.048680007 0.28110617 0.8152956 0.32528955
0002c0 7e 86 bd bd a6 ae 80 3e 4c 52 ae 3d bd d5 69 be
       -0.09254168 0.25133246 0.08511791 -0.22835441
0002d0 cb d4 0b be 9c 8d 64 3d 1d 1b a3 bd 62 76 1c 3d
       -0.13655393 0.05579911 -0.07964156 0.038198836
0002e0 5f 44 a3 bc 87 6f f4 bc 32 46 ea 3d fe 63 0b be
       -0.019930063 -0.029838337 0.1143917 -0.13612363
0002f0 fc 92 87 b8 75 6a 06 bd 04 2f 2d bd ff 7a 97 ba
       -6.4646796e-05 -0.03281637 -0.042281166 -0.0011557041
000300 63 d1 ee 3c e7 83 fe bd ac e3 27 be 08 c1 dc 3c
       0.029152578 -0.12427502 -0.16395444 0.026947513
000310 36 67 ab bb 4f c5 ec 3d ea 27 dc bb 4c 50 32 be
       -0.0052308096 0.11561071 -0.0067186253 -0.17413443
000320 11 af 40 bc 1a e6 3a 3c 1b 7b 2c bd 92 cd af bd
       -0.011760489 0.0114074 -0.04210959 -0.08584131
000330 f5 69 a8 bd 3f 31 0d 39 c9 71 90 bd f2 ef 8f 3d
       -0.08223335 0.00013465153 -0.07052953 0.07028188
000340 24 74 f6 bd 0a de 1b bd 85 2d 41 be 06 18 d2 3c
       -0.12033871 -0.03805355 -0.1886502 0.02564622
000350 d4 f7 b0 bc a7 3d 10 3d 43 a7 10 3b 6b 0a a2 bd
       -0.021602549 0.035215046 0.0022072352 -0.07912143
000360 ed f7 21 3c 40 cd 2f 3d d4 bf 01 3d 17 02 b8 3d
       0.00988577 0.04292035 0.031677082 0.089847736
000370 00 d1 65 bd 45 42 2f be 13 f1 ac bd f6 72 bb 3c
       -0.05610752 -0.17115124 -0.08444419 0.022881966
000380 af a3 9e bd 29 97 84 bd 6f fd f2 bd dd 27 d4 3d
       -0.07746064 -0.06474144 -0.11864745 0.10359166
000390 a6 9a d3 bd af 27 3f 3d 75 97 88 bd 6f e7 a7 bd
       -0.10332231 0.046668705 -0.06669513 -0.08198439
0003a0 ac fd 57 3c 02 9f 82 bd 6b b5 f8 3d de eb 8c 3d
       0.013183039 -0.063779846 0.12143978 0.068809256
0003b0 c3 82 06 bd 16 14 a7 bd 67 27 56 be ce 9c ca 3b
       -0.032839548 -0.08158128 -0.20913468 0.0061832434
0003c0 1d bc 3b 3e d7 ea 3e bf d9 b2 8b 3d b3 ad c7 3e
       0.18333478 -0.7457709 0.06821222 0.3899971
0003d0 04 3e 7a 3d 47 fa 63 be f1 f2 7b 3d fd b7 12 bd
       0.0610943 -0.22263442 0.061510984 -0.035819996
0003e0 7f ec 53 3e e9 d9 c4 3e 30 b5 a5 be ad 1d 2d be
       0.20695685 0.38447502 -0.32364798 -0.16905852
0003f0 1e 6e 7a 3e 3e 7c 60 be 27 28 2a 3e d1 ac b0 3e
       0.24456069 -0.21922395 0.1661688 0.34506848

module.2.bias f4 [60]
000000 af 76 b4 3b 6c 1c 42 3d 08 1d d7 bd ef 6a a1 3b
       0.0055073122 0.047390386 -0.10503584 0.0049260776
000010 d3 d1 fd bd da 8f 96 3d 73 c8 c1 3d d9 7b 08 bc
       -0.123935364 0.07351656 0.09462061 -0.008330309
000020 38 d8 2a be 67 29 e8 be 8a 7d eb be b1 c2 e2 bd
       -0.16684043 -0.45344087 -0.45994216 -0.11072291
000030 68 c5 7a 3d 0b 76 68 bd 57 8e d2 3b 1c 4a 9d 3c
       0.061223418 -0.0567532 0.0064256596 0.019200377
000040 69 3d 68 bd 5c 56 ca 3d d1 38 a9 be 17 07 ab be
       -0.05669919 0.09879753 -0.3305116 -0.33403847
000050 ea 20 ae bc 88 93 be 3d 63 0f b4 3d 59 3c 23 bd
       -0.021255929 0.09305483 0.08791997 -0.039852474
000060 0c c3 df ba c3 50 48 bd f1 dc cf 3d 08 16 bd be
       -0.0017071678 -0.048905145 0.10149563 -0.3693087
000070 3f eb 0b be 9d a7 d9 bb f5 af ff be 26 d5 07 be
       -0.13663958 -0.0066422955 -0.49938932 -0.13264903
000080 5e 1c 9d ba 29 a8 df be 93 cc 6e 3d 60 22 2f bd
       -0.0011986603 -0.43682984 0.058300566 -0.042757392
000090 5c 45 5b 3c 5d 96 1d bd a4 eb 77 be b9 18 40 3d
       0.013383236 -0.038473476 -0.24210984 0.046898577
0000a0 7d 44 c4 3c f8 f7 a5 3d eb b2 07 3d 6b 9b 53 3d
       0.023958439 0.08103937 0.033129614 0.05166189
0000b0 13 e1 03 bc 73 98 e6 be 95 fb 91 be 35 20 9d bd
       -0.008049267 -0.45038185 -0.28512254 -0.07672159
0000c0 38 cc 27 bd e2 ee 05 be dc 16 08 bd c7 c9 ba be
       -0.040966243 -0.13079408 -0.033224925 -0.3648207
0000d0 96 bc a6 3c 00 d5 9a 3d e2 ff 48 bd f9 38 92 3d
       0.020353597 0.07560158 -0.049072154 0.07139773
0000e0 24 02 5f 3b 52 08 ac bb ad 31 4e 3d 81 82 39 3d
       0.0034028376 -0.0052500153 0.050340343 0.045290474

module.4.weight f4 [6, 60]
000000 d0 32 d6 3d 71 11 89 bb 4a 97 36 3e 58 ae 4a 3b
       0.104589105 -0.0041829874 0.1783115 0.003092667
000010 74 63 cd 3d 9c 42 37 be c0 86 f2 bc 21 9e 0a 3c
       0.10028735 -0.17896503 -0.02960527 0.008460552
000020 c2 65 2d 3e 66 20 17 3e e9 19 20 3f 9a d7 77 3d
       0.16933349 0.14758453 0.62539536 0.060508348
000030 7a e8 73 ba 80 bf 13 3c 75 a0 e1 ba f7 7d 9c 3a
       -0.0009304356 0.009017825 -0.0017213958 0.0011939396
000040 5d e4 c4 3b 3f 96 cf bb 09 85 be 3e f2 f4 c4 3d
       0.0060086683 -0.0063350494 0.37210873 0.09617032
000050 f6 51 34 bb 28 98 6c 3e aa 3f bc ba 4d 26 f9 3a
       -0.0027514673 0.23104918 -0.0014362235 0.0019008607
000060 80 87 39 be 20 5b 90 3c 5b 1a 89 bb c1 c9 4e 3e
       -0.18118095 0.017621577 -0.00418405 0.2019415
000070 a3 df 86 3e 80 99 ac b6 cb 88 f9 3d 69 b8 12 3e
       0.26342496 -5.143869e-06 0.12184294 0.1432816
000080 49 c1 4b 3b f5 92 f0 3d ba dc 46 3c ba 51 0a 3b
       0.0031090549 0.1174678 0.012137586 0.0021105842
000090 ea 8b 1a 3b b8 a3 0a bd d9 1b 6c 3e 63 a3 38 3d
       0.002358193 -0.03384754 0.23057498 0.045077693
0000a0 1a c8 83 bd be e4 63 3a a3 ca e5 3d 6a 54 97 3a
       -0.06434651 0.0008693448 0.112202905 0.0011545543
0000b0 63 0a 88 ba 8b 2c 7e 3d 7f 3b e4 3e cd 54 c3 ba
       -0.0010379072 0.0620542 0.44576642 -0.0014902592
0000c0 f0 49 a9 be 56 44 ff 3b 69 e7 88 3b 1b 33 c3 ba
       -0.33064222 0.0077901287 0.004177977 -0.001489255
0000d0 25 5e c0 bd c2 e4 f8 ba 1c ed 4a bd d9 37 b8 3e
       -0.09392957 -0.0018989074 -0.04954253 0.35980108
0000e0 c5 75 84 3e a6 e7 0b bb 25 33 b2 bd e8 b7 19 3e
       0.258711 -0.002134779 -0.08701161 0.15011561
0000f0 fc 94 22 be 0d c7 7f bb 4d f2 a6 be 14 b5 66 3c
       -0.15877146 -0.0039028556 -0.32606736 0.014081258
000100 cb 3a a1 bd 98 08 45 3d eb 6d d0 bc a0 37 1a 3c
       -0.07872542 0.0481039 -0.025443038 0.009412676
000110 2d a9 7d be dc 45 0d 3e cc d0 cb bd 20 08 02 bd
       -0.24771567 0.1379618 -0.09951934 -0.03174603
000120 34 f3 e3 bc 00 b4 f5 bb 48 dc 8b 3c 81 dd 92 bb
       -0.02782593 -0.0074982643 0.017072812 -0.0044819717
000130 92 83 a6 3a 6e 85 e8 3b 9d 6b 4b bd 5e fc f2 bd
       0.0012704006 0.007095984 -0.049663175 -0.118645415
000140 6a 8c de ba ad e3 95 bb 92 fa 1d bc a2 ec 92 3c
       -0.0016979103 -0.00457426 -0.00964226 0.017935101
000150 b2 4b 1b 3d b6 a7 20 3d 61 43 14 3d b5 f2 8b be
       0.037913986 0.03922244 0.03619707 -0.27333608
000160 24 22 88 3e 98 e3 0c bb 7f d3 47 3c 33 92 5c 3e
       0.26588547 -0.002149796 0.012196421 0.21540146
000170 05 b8 3c bc 16 b5 db 3c c3 2b c2 ba 3c 68 38 3d
       -0.011518483 0.026819747 -0.0014814067 0.04502128
000180 e1 f3 92 bc ea e1 ae 3d 26 55 1c be 78 ca a9 bc
       -0.017938556 0.085391834 -0.15266857 -0.020726427
000190 27 15 8c 3d 8c 12 92 bb 45 ec c5 3d b7 99 89 3b
       0.06839972 -0.0044577774 0.096642055 0.0041992324
0001a0 cd 69 a7 3a 66 7b 03 3e 56 ef 16 be 65 2a 67 bc
       0.001277262 0.12840042 -0.14739737 -0.014109229
0001b0 f6 b1 2f 3d 5d 00 33 bd c7 c3 f1 bb 53 58 0c 3e
       0.042894326 -0.04370152 -0.007378075 0.13705568
0001c0 dc 3a 9f 3d cf 77 79 bb a1 32 a0 3c 13 65 e7 3d
       0.077748984 -0.0038065796 0.019555392 0.11298575
0001d0 07 e0 40 be 1e ed a2 bc 4c 33 1c 3e 57 64 a2 3d
       -0.1883546 -0.019888457 0.15253943 0.079292946
0001e0 55 80 fe 3c c7 07 3b bb 47 96 8c 39 33 af b5 bc
       0.031067053 -0.0028538571 0.00026814846 -0.022178268
0001f0 6c 43 ad 3b d2 df 70 3c d3 d8 99 3c aa 3d 62 bc
       0.0052875783 0.0147018 0.018780148 -0.013808647
000200 ce da ae bc 85 b6 9d 3c 66 e6 c2 bc 2f be 52 ba
       -0.021344569 0.019252071 -0.023791503 -0.0008039204
000210 04 e6 4c 3d 1a 04 31 3b 80 a7 c8 bb b0 ea 65 bc
       0.050024047 0.0027010501 -0.006123483 -0.014033005
000220 be 28 d4 bb 6e 2c 97 3b 7f 6a 11 bd 0a cd 94 bd
       -0.0064745834 0.0046134507 -0.035501953 -0.072656706
000230 0e a0 08 3d 16 f6 06 3d 06 c8 b0 3b 54 d1 0b 3d
       0.033355765 0.03294953 0.0053949384 0.034135178
000240 bf df 5e bb 6d b3 e7 bc 9c 4f ec bc a9 e8 43 3c
       -0.0034007875 -0.028283799 -0.028846554 0.011957326
000250 4b c0 50 3b 79 0a a9 bc ac 47 95 3d 7e 8a 68 bb
       0.0031852897 -0.020634877 0.07289061 -0.0035482938
000260 46 3e 80 bd 59 f3 05 3e e3 69 05 bd d3 e3 ec 3b
       -0.06261878 0.13081111 -0.032571685 0.007229307
000270 7e 59 92 bb 5c e1 fd bb 27 75 8a 3c d5 45 fa bc
       -0.0044662347 -0.007747812 0.016901566 -0.030550877
000280 dc 5e 5b 3b e3 0d f8 bb 7b 90 2c bc d0 3a bb bc
       0.0033473289 -0.007570015 -0.010532494 -0.022855192
000290 8b 71 4c bc e2 ac 1c bc 90 65 09 bd 54 34 80 bc
       -0.012478243 -0.009562703 -0.033544123 -0.015649952
0002a0 3d 76 4a bc 8f ac 20 3d 24 76 f6 3b 92 4e e6 3c
       -0.012357292 0.039227065 0.0075214077 0.028113637
0002b0 71 33 3c 3c e2 d5 7d bb 82 7d 57 3c ec ea a0 3c
       0.011486874 -0.003873222 0.013152482 0.01964327
0002c0 f0 1b 8f 3c 75 55 6b 3c 24 e8 1e bd 5f 14 56 bc
       0.017469376 0.014363636 -0.038795605 -0.01306638
0002d0 e6 48 25 3e 37 4e b8 bb 84 e3 25 be 5b 54 5e 3b
       0.1614109 -0.0056245583 -0.16200072 0.0033924791
0002e0 a7 6d 72 be 4a 6a 79 3e 35 2c 30 bd 85 aa 10 3c
       -0.23674642 0.24356952 -0.04301091 0.0088297175
0002f0 66 4a 1d be ed a6 1a be 8f d0 f7 be 76 86 b5 3d
       -0.15360412 -0.1510274 -0.48401305 0.08863537
000300 20 8b 01 3b b5 78 2e 3c ee b7 0b bb 53 34 28 3a
       0.0019766763 0.010648896 -0.0021319347 0.00064164883
000310 e7 48 d3 3b eb 02 b5 bb 08 92 7d be fa 16 76 bc
       0.0064478996 -0.0055240295 -0.24762738 -0.0150201265
000320 5f 11 01 bb 8a 7a 52 be aa a3 78 ba e8 30 0f 38
       -0.0019694192 -0.20554557 -0.0009484837 3.4139404e-05
000330 64 ff 77 3e d0 44 93 3c a7 8c df bb d2 67 c2 bd
       0.24218518 0.017977148 -0.006822187 -0.094924584
000340 02 7c 66 be 54 8a 7d ba 6f 5c 26 3e 5e 1d ca 3d
       -0.22508243 -0.00096717966 0.16246198 0.098688826
000350 f2 8b 34 3a 00 b0 a0 3d 96 c1 ce 3b 10 b2 77 3b
       0.00068873086 0.07846069 0.0063096983 0.0037795343
000360 4e 91 84 3b d7 4c 69 bd 7a d1 eb be 3c 0b da bd
       0.004045642 -0.056958046 -0.46058255 -0.10646674
000370 b2 23 dc bd 04 8a 83 b9 ef e0 11 be 8d 70 32 3a
       -0.10748996 -0.00025089097 -0.14245962 0.00068069325
000380 7d 45 76 bb 68 d0 fa 3d 7e d3 da be 1c 4b 48 bb
       -0.003757804 0.122467816 -0.4273948 -0.0030562347
000390 85 ba bb 3e b3 d9 3b 3c 7c c0 8b 3b e5 39 f3 3c
       0.3666574 0.011465478 0.0042648893 0.029690692
0003a0 fd f8 d8 3d 25 c0 d9 ba 6f 95 98 bd f9 81 b3 be
       0.10594366 -0.001661305 -0.07450377 -0.350601
0003b0 1a 4d bb be ec d3 35 ba e1 fe 0a be 08 9a 86 bc
       -0.3658226 -0.0006936181 -0.13573791 -0.01643087
0003c0 b7 53 2d 3e 8d 2a 64 bb 63 1d 9b be d7 f4 84 bc
       0.16926466 -0.0034815401 -0.30295858 -0.01623003
0003d0 d8 b4 25 be a7 62 90 bd d8 02 42 3d 2e 07 18 bc
       -0.16182268 -0.070500664 0.047365993 -0.0092790555
0003e0 6b ac 2a be f4 ec a8 3e f6 ab a6 3b f4 c5 f6 3c
       -0.16667335 0.3299328 0.0050864173 0.030123688
0003f0 20 71 23 3d 5d 33 90 3c c8 ac ba bc b6 f4 99 3b
       0.039902806 0.017602617 -0.022787467 0.0046983613

module.4.bias f4 [6]
000000 5d f2 80 be 30 b4 61 3d 31 4b 1f 3d 69 01 bb bd
       -0.25184909 0.05510348 0.038890067 -0.09131128
000010 30 fe c0 3d 37 02 82 3e
       0.094234824 0.25392315

module.6.weight f4 [1, 6]
000000 5c 1e f2 bd 98 f2 8a 3d 0c 0f 67 ba 00 cc cd bd
       -0.11822197 0.06784552 -0.0008814193 -0.100486755
000010 b2 e3 38 3d 71 4b 82 3d
       0.045139022 0.063620456

exp_avg f4 [60, 6]
000000 b7 21 40 37 35 ed 59 36 91 5b 8a b6 d0 7a c5 35
       1.1451942e-05 3.2473592e-06 -4.12338e-06 1.4713387e-06
000010 a0 1f 34 b5 a8 ee 6e 36 3d ee 44 b7 79 cc 10 b7
       -6.7101246e-07 3.560368e-06 -1.173798e-05 -8.630676e-06
000020 34 b9 4f 36 af f0 2c 35 33 aa fc 36 54 c8 92 36
       3.0953206e-06 6.4425234e-07 7.529999e-06 4.3744603e-06
000030 1d b2 be 36 b7 b9 83 36 23 7a 2d b6 44 8d 3a b6
       5.6831764e-06 3.9257243e-06 -2.5850102e-06 -2.7798387e-06
000040 19 6a 8a b6 4f ab 16 34 6e a1 43 37 9a 99 f5 36
       -4.125072e-06 1.403216e-07 1.16604915e-05 7.3194506e-06
000050 25 e4 d7 b6 50 82 e3 b6 11 5e 17 b7 fb 5e 98 35
       -6.434059e-06 -6.7802976e-06 -9.022203e-06 1.1352525e-06
000060 ab d0 7b 36 cb 73 73 b4 71 7e 2e b5 13 f7 8a 36
       3.7523375e-06 -2.2673264e-07 -6.500405e-07 4.1414837e-06
000070 91 d5 da 35 fb 22 2e 35 3e 40 ed b5 f0 52 12 b4
       1.6304422e-06 6.4870954e-07 -1.7676573e-06 -1.3627482e-07
000080 19 76 93 34 3b e1 1f b6 0f 22 a2 b4 8f a4 aa b3
       2.746681e-07 -2.3823948e-06 -3.0199632e-07 -7.946175e-08
000090 73 b3 29 36 79 b1 93 b5 5d e5 86 b4 2f a2 28 36
       2.5287416e-06 -1.1004005e-06 -2.512633e-07 2.5128354e-06
0000a0 31 b7 04 36 23 63 59 35 73 8f d0 b5 a3 d3 53 34
       1.9776164e-06 8.098306e-07 -1.5538957e-06 1.97279e-07
0000b0 ee 4e 16 35 04 b2 2d b5 af 90 a9 b4 55 bc 53 b5
       5.599421e-07 -6.470657e-07 -3.1583974e-07 -7.8877684e-07
0000c0 b8 65 49 37 f2 22 5e 36 33 91 8b b6 49 2d b5 35
       1.2004217e-05 3.3100919e-06 -4.159426e-06 1.3498731e-06
0000d0 9d d5 a8 b5 8a ff 26 36 4e 0e 90 37 c4 00 cc 36
       -1.2579145e-06 2.488467e-06 1.7172799e-05 6.079763e-06
0000e0 0c 7d da b6 35 42 a0 b4 64 41 83 b6 08 92 71 36
       -6.5114637e-06 -2.9850494e-07 -3.9117167e-06 3.59968e-06
0000f0 bb 82 b9 b7 d2 da 29 b7 29 c8 15 37 e8 ee 45 36
       -2.2114595e-05 -1.0124133e-05 8.9276955e-06 2.949435e-06
000100 6d 15 14 37 de 7c 4d b6 bd 0c 4a b6 53 ed 30 b5
       8.826476e-06 -3.0620063e-06 -3.010776e-06 -6.591046e-07
000110 60 6b 09 b4 93 78 60 b6 46 c4 1f b6 73 e1 a2 35
       -1.2798182e-07 -3.3448785e-06 -2.3807092e-06 1.2135555e-06
000120 f2 a3 64 36 3f 47 af 35 e6 79 25 b6 3a d0 72 b6
       3.4070076e-06 1.3059251e-06 -2.465787e-06 -3.6182014e-06
000130 40 03 82 b6 35 18 e3 35 86 3e c0 b6 fd 57 23 b6
       -3.8746803e-06 1.6919863e-06 -5.7293246e-06 -2.4340109e-06
000140 d2 dc a8 35 20 94 e6 b5 bb da 20 b5 b3 06 2d 35
       1.2581243e-06 -1.7179445e-06 -5.992294e-07 6.445727e-07
000150 2e b2 a8 36 c7 28 1b 36 f1 b0 18 b6 d8 f7 29 b5
       5.027533e-06 2.3120535e-06 -2.2752758e-06 -6.3318066e-07
000160 f6 39 2a b6 2e 97 75 35 6d 5c e8 37 a4 04 25 37
       -2.5365712e-06 9.148961e-07 2.7699594e-05 9.835847e-06
000170 f8 5f 2c b7 85 af 82 36 3e fe 9a b6 41 71 0c 37
       -1.0274343e-05 3.894735e-06 -4.6191553e-06 8.371019e-06
000180 e4 83 d1 37 11 af 8e 37 78 a3 51 b7 0a 5d 30 b7
       2.4976158e-05 1.700924e-05 -1.2495431e-05 -1.051208e-05
000190 c2 11 7b b7 10 2c 97 35 07 c1 92 37 4d 50 f4 36
       -1.49649e-05 1.1263201e-06 1.7494442e-05 7.281115e-06
0001a0 42 e2 ef b6 5b 31 f1 b5 f3 37 db b6 cc cd 83 36
       -7.149095e-06 -1.7970264e-06 -6.533222e-06 3.928062e-06
0001b0 01 3f e1 b4 a9 32 90 34 79 a5 a1 b4 4e 1a be b5
       -4.1955357e-07 2.685895e-07 -3.0108984e-07 -1.4163759e-06
0001c0 50 63 89 b5 c3 ae 44 35 8a b5 92 37 fe be 1c 37
       -1.0236199e-06 7.327e-07 1.7489092e-05 9.342793e-06
0001d0 33 4a 05 b7 32 aa d0 b6 89 a0 13 b7 e1 d8 04 36
       -7.944694e-06 -6.2186964e-06 -8.79926e-06 1.9795773e-06
0001e0 7d 08 80 b7 ba 8b 43 b7 55 31 ea 36 2c 26 c3 36
       -1.5262742e-05 -1.1655438e-05 6.9794864e-06 5.8158967e-06
0001f0 9d ea 32 37 11 77 a0 33 72 d0 bd 37 24 06 eb 36
       1.0664252e-05 7.472239e-08 2.262762e-05 7.0042606e-06
000200 a6 a9 0e b7 b3 2f b2 36 a2 da ef b5 49 82 08 37
       -8.503359e-06 5.3103663e-06 -1.7870518e-06 8.136566e-06
000210 37 2b 0c b8 6d b6 98 b7 44 3a 7a 37 7e 2e 1f 37
       -3.3418848e-05 -1.820476e-05 1.4914727e-05 9.487963e-06
000220 b1 82 98 37 cf 2b 97 b6 08 28 67 35 13 be 3e b5
       1.818067e-05 -4.5052507e-06 8.611246e-07 -7.105711e-07
000230 f8 a0 2c 35 95 1e 79 36 72 c0 67 36 f1 9f 97 b4
       6.4309233e-07 3.7121692e-06 3.45337e-06 -2.8242314e-07
000240 2b 9e 85 b7 78 62 df b6 39 5a be 36 d0 aa c5 b4
       -1.5928488e-05 -6.657381e-06 5.6729446e-06 -3.6818392e-07
000250 81 48 59 36 71 71 a3 b5 89 e4 0d 37 57 c8 33 36
       3.2377723e-06 -1.2177462e-06 8.457465e-06 2.6789692e-06
000260 b9 a6 36 b6 1b 42 2e 36 9f 68 f1 b3 c3 bc f3 35
       -2.7217159e-06 2.59665e-06 -1.12414675e-07 1.8159848e-06
000270 a0 d2 c6 37 b1 28 85 37 a6 72 3b b7 a1 1b 10 b7
       2.370152e-05 1.5873784e-05 -1.1172762e-05 -8.589502e-06
000280 ad dd 74 b7 7c ad 83 34 ad 0a 0a b8 05 67 b1 b7
       -1.4595146e-05 2.4526878e-07 -3.2911707e-05 -2.1148016e-05
000290 b4 48 82 37 13 dc 5f 37 18 21 bf 37 e1 45 36 b6
       1.5531063e-05 1.3343076e-05 2.2784385e-05 -2.7160788e-06
0002a0 9f 86 b2 37 1f ea 1a 37 30 69 15 b7 49 a8 db b5
       2.1281941e-05 9.233626e-06 -8.905583e-06 -1.6365749e-06
0002b0 87 f9 fd b6 b6 a5 92 36 57 96 02 b7 44 8e a7 b6
       -7.5690364e-06 4.3704304e-06 -7.7836075e-06 -4.9935497e-06
0002c0 48 4e 79 36 8e 2b 10 36 da bf 9a 36 c2 95 8f b5
       3.7149457e-06 2.1483024e-06 4.611892e-06 -1.0697916e-06
0002d0 be d5 56 b8 bd bf f4 b7 92 2d b8 37 69 f0 4a 37
       -5.122064e-05 -2.9176352e-05 2.195573e-05 1.2096113e-05
0002e0 13 fc e2 37 dc 4b 99 b6 8b 42 82 b5 c9 12 83 b6
       2.705868e-05 -4.5685865e-06 -9.705121e-07 -3.906291e-06
0002f0 22 7a 0d 36 91 c5 01 37 47 08 ec 36 3a 80 9b 34
       2.1081728e-06 7.734999e-06 7.0343117e-06 2.8964297e-07
000300 97 d0 7d 36 b8 1f ca 35 e0 e0 29 b6 92 c0 0b b6
       3.7821353e-06 1.5059404e-06 -2.5313857e-06 -2.0824705e-06
000310 0a 58 51 b6 78 17 5f 36 ae 82 f9 35 a7 2d 36 33
       -3.1194672e-06 3.324325e-06 1.8589978e-06 4.2416698e-08
000320 ef 9a 02 b6 4f 5e 2e b6 9e 42 8e b5 a1 8e 56 36
       -1.9461693e-06 -2.5982915e-06 -1.0599213e-06 3.1971506e-06
000330 09 af ce 33 b2 83 aa b3 84 31 fa b3 cc 88 97 b4
       9.624461e-08 -7.940197e-08 -1.1650539e-07 -2.8225475e-07
000340 46 66 fa 31 25 25 1a 34 90 47 ce 36 f6 de 3f 36
       7.2875848e-09 1.4355881e-07 6.1476094e-06 2.8590998e-06
000350 e0 59 05 b6 79 cc 7c 35 ee 8f 16 b5 6e 38 c9 33
       -1.9870859e-06 9.417486e-07 -5.60888e-07 9.3700564e-08
000360 78 c5 fd b7 15 b5 27 b7 ea 5b 4d 37 fb eb 5b b5
       -3.0251904e-05 -9.996137e-06 1.2240353e-05 -8.1927254e-07
000370 0b 15 90 36 bb 42 f3 b6 1b 27 ef 37 b3 f5 45 37
       4.293984e-06 -7.249733e-06 2.850923e-05 1.1799321e-05
000380 85 49 3b b7 db b8 81 34 e5 36 14 b7 c6 82 b0 36
       -1.1163186e-05 2.4162622e-07 -8.834269e-06 5.2604328e-06
000390 e9 ed 14 37 50 0f b6 36 59 1b 78 b6 21 0f 9d b5
       8.87688e-06 5.4258053e-06 -3.6970798e-06 -1.1701815e-06
0003a0 26 51 58 b6 90 3d b5 34 67 64 3a b4 30 52 75 b4
       -3.2233743e-06 3.375867e-07 -1.7359126e-07 -2.2847303e-07
0003b0 d9 90 4d 34 de 46 1f 35 62 16 d2 34 2c f8 50 b4
       1.9144808e-07 5.933524e-07 3.9131834e-07 -1.9461794e-07
0003c0 fb f8 10 b7 1a 2d b4 b6 e5 50 84 36 cf a3 54 36
       -8.641039e-06 -5.3696685e-06 3.943324e-06 3.168581e-06
0003d0 83 22 da 36 31 75 37 35 fa 5a 2d b7 35 6a d5 b6
       6.500924e-06 6.834335e-07 -1.0332786e-05 -6.360259e-06
0003e0 37 46 7a 36 db 37 06 35 b5 6e af 36 ff 96 28 35
       3.7293773e-06 5.000017e-07 5.2282944e-06 6.2804605e-07
0003f0 c5 f1 aa 37 48 05 cd 36 6f 67 f7 b6 42 cc 8b 36
       2.0378162e-05 6.110091e-06 -7.373215e-06 4.1663016e-06

exp_avg_sq f4 [60, 6]
000000 49 b9 f7 2f 7c b8 02 2f d1 2a 8b 2e dc a5 80 2f
       4.506069e-10 1.1888973e-10 6.328594e-11 2.3400915e-10
000010 49 b6 00 2f 7f a8 55 2f 39 c9 92 31 42 b1 45 31
       1.1706293e-10 1.9432099e-10 4.2720356e-09 2.8768032e-09
000020 22 01 19 31 2c 66 92 31 7e 74 e9 30 64 55 3f 31
       2.2265074e-09 4.260775e-09 1.698609e-09 2.7842697e-09
000030 4b 80 0f 30 f1 05 cf 2f c8 00 8d 2f 91 c1 08 30
       5.220541e-10 3.7657302e-10 2.5648306e-10 4.9751586e-10
000040 b5 11 8c 2f 92 26 a4 2f c9 39 f2 30 08 55 8b 30
       2.5478433e-10 2.9858832e-10 1.7624241e-09 1.0137748e-09
000050 a3 e5 86 30 55 a4 b8 30 b1 cc 6d 30 f4 ab 83 30
       9.81505e-10 1.3434468e-09 8.651098e-10 9.580376e-10
000060 00 08 80 2f 30 77 95 2e 19 86 e4 2d 77 13 09 2f
       2.328875e-10 6.7969075e-11 2.598015e-11 1.2466993e-10
000070 ca 37 6d 2e 9a a4 c7 2e ac 62 16 2e 60 00 a2 2d
       5.393711e-11 9.0787114e-11 3.419369e-11 1.8417434e-11
000080 4f 01 1e 2d e6 be 77 2e 06 0c 90 2d 47 40 ac 2d
       8.981551e-12 5.633085e-11 1.6376244e-11 1.9582681e-11
000090 eb 00 92 2f b4 e1 63 2f 49 44 aa 2e c3 4c 7d 2f
       2.6557898e-10 2.0725716e-10 7.742835e-11 2.3037487e-10
0000a0 61 55 57 2f f9 d6 0f 2f 77 11 d6 2d 97 5c 6d 2d
       1.9584469e-10 1.3082148e-10 2.433674e-11 1.3492449e-11
0000b0 e6 df bc 2c 35 2b 7b 2d 8e d8 16 2d ae 80 2c 2d
       5.368139e-12 1.4277292e-11 8.574598e-12 9.805641e-12
0000c0 1e ee 39 30 88 52 a4 2f c9 fc 6e 2f 05 2a 4a 30
       6.7640993e-10 2.9890068e-10 2.1735781e-10 7.3546885e-10
0000d0 bb d1 a8 2f 2d 83 fc 2f 61 b7 98 30 da 62 1e 30
       3.0708044e-10 4.593174e-10 1.1111575e-09 5.762054e-10
0000e0 a0 41 ed 2f 0c d2 a9 30 96 c0 06 30 9e b0 66 30
       4.3156678e-10 1.2356067e-09 4.9022597e-10 8.39245e-10
0000f0 12 24 3a 31 f2 e8 d4 30 20 47 ad 30 0e f4 21 31
       2.7087066e-09 1.5491237e-09 1.2607622e-09 2.3567313e-09
000100 6e 12 9b 30 0e 49 cd 30 7f 42 83 2f 1d a8 10 2f
       1.1282972e-09 1.4936477e-09 2.387601e-10 1.315645e-10
000110 6c 2e 9e 2e 03 55 81 2f 8e 2b 32 2f 78 dc 27 2f
       7.193254e-11 2.3525368e-10 1.620448e-10 1.5266888e-10
000120 90 5d 40 2f 8d ee 77 2e d7 ed a9 2e da 83 01 2f
       1.7495538e-10 5.6373173e-11 7.727479e-11 1.1779325e-10
000130 54 d0 a6 2e fb 18 d5 2e 98 b8 17 30 b5 c5 c3 2f
       7.5858125e-11 9.690556e-11 5.5195803e-10 3.5610773e-10
000140 75 12 82 2f 45 bb 23 30 cc ef c7 2f ed 34 b0 2f
       2.3659977e-10 5.956518e-10 3.6368275e-10 3.205182e-10
000150 ca b2 93 2f 27 82 0c 2f 8a 35 28 2f d2 f3 b2 2f
       2.6866182e-10 1.2779165e-10 1.5298532e-10 3.2551256e-10
000160 f2 0f 11 2f a8 6f 6d 2f a9 ed 1f 31 b0 64 37 30
       1.3193338e-10 2.1594693e-10 2.327264e-09 6.67181e-10
000170 c2 cf 9d 2f bb c3 a6 30 de 9e 01 30 13 41 7b 30
       2.8705754e-10 1.213372e-09 4.715569e-10 9.1405744e-10
000180 b0 a5 22 32 a5 7d f5 31 34 6d ad 31 ef dc 08 32
       9.467314e-09 7.1447226e-09 5.0473776e-09 7.966476e-09
000190 a2 0d a7 31 e3 ae a4 31 b5 73 ad 30 42 ea 35 30
       4.8618896e-09 4.7929105e-09 1.2620293e-09 6.6180317e-10
0001a0 7b 74 22 30 ff be c4 30 5b 22 1b 30 64 09 97 30
       5.9100785e-10 1.4315161e-09 5.6437494e-10 1.0989365e-09
0001b0 44 25 3d 2e 32 af cd 2d ab b0 84 2d 14 f1 4c 2e
       4.3006723e-11 2.3383604e-11 1.5085119e-11 4.659835e-11
0001c0 0e f9 d1 2d 60 87 0e 2e 04 e0 3c 31 89 64 f2 30
       2.3871152e-11 3.24073e-11 2.7484939e-09 1.7636391e-09
0001d0 c7 fe c8 30 71 02 36 31 b9 29 be 30 d6 bb f1 30
       1.4624327e-09 2.6485873e-09 1.3836178e-09 1.7588444e-09
0001e0 cd 78 77 31 5f d0 59 31 f9 c1 f1 30 98 dc 48 31
       3.6011898e-09 3.1696101e-09 1.7590188e-09 2.9229223e-09
0001f0 4f 78 0a 31 98 2d ff 30 cc f0 12 31 c0 cc a2 2f
       2.015003e-09 1.856665e-09 2.1382673e-09 2.9613112e-10
000200 2d 17 2d 2f 89 f5 40 30 ad 19 94 2f c0 39 12 30
       1.5742492e-10 7.019812e-10 2.6939287e-10 5.319656e-10
000210 a7 82 01 32 1f a0 ac 31 80 d8 85 31 4e 99 f4 31
       7.538495e-09 5.0240625e-09 3.8954227e-09 7.1187634e-09
000220 0a 85 7e 31 e3 1d 9a 31 f9 9b 32 2f 6c 2a 40 2e
       3.7037489e-09 4.4853876e-09 1.6244418e-10 4.3693424e-11
000230 d0 6b 65 2e fd 4f f7 2e 64 aa 87 2e 1c cc ab 2e
       5.216433e-11 1.1246468e-10 6.169357e-11 7.812437e-11
000240 a5 60 00 31 81 23 8e 30 8b a5 5f 30 db ba ef 30
       1.8681388e-09 1.0341951e-09 8.136218e-10 1.7442646e-09
000250 c4 ed 6d 30 cc 24 a9 30 9b be a5 2f 1e c2 cf 2e
       8.6557983e-10 1.2306827e-09 3.0148758e-10 9.447752e-11
000260 96 92 35 2e 43 0c 41 2f 2c 43 95 2e 0e 9b 07 2f
       4.128483e-11 1.7557604e-10 6.7876677e-11 1.2333265e-10
000270 8e 44 06 32 5a b6 d7 31 bb 72 91 31 64 42 f9 31
       7.815414e-09 6.2780545e-09 4.2330988e-09 7.2544015e-09
000280 8b d6 8f 31 bb 7b 9b 31 d8 f0 4e 32 ae f4 0c 32
       4.1862385e-09 4.5251602e-09 1.204554e-08 8.204706e-09
000290 59 4c dc 31 87 25 3e 32 36 29 d0 31 15 55 f4 31
       6.4115224e-09 1.1067988e-08 6.058282e-09 7.1110073e-09
0002a0 f9 14 09 31 7e 92 8d 30 cc 12 7b 30 36 f3 06 31
       1.9948045e-09 1.0300736e-09 9.133998e-10 1.9637816e-09
0002b0 b6 75 77 30 3c 6e b1 30 2e 16 19 30 0f e3 fe 2f
       9.0025354e-10 1.2909775e-09 5.5692595e-10 4.6363666e-10
0002c0 0f 09 88 2f 43 f4 e1 2f 2b 37 b4 2f d3 c1 8d 2f
       2.4744692e-10 4.110082e-10 3.2781008e-10 2.578547e-10
0002d0 09 6e bb 32 b1 9d 81 32 e0 2b 3b 32 cb f2 a2 32
       2.1819703e-08 1.5089286e-08 1.0894809e-08 1.8969692e-08
0002e0 28 21 3c 32 c3 f1 5a 32 bf dd 7a 30 5b 3d 03 30
       1.0950579e-08 1.274424e-08 9.126459e-10 4.7744714e-10
0002f0 11 bd ab 2f f6 48 0f 30 16 5a d9 2f 85 fe c7 2f
       3.1239059e-10 5.212678e-10 3.953608e-10 3.6378736e-10
000300 01 74 01 2f 97 e9 a3 2e 83 69 60 2e 0b 60 d8 2e
       1.1773695e-10 7.453876e-11 5.1025417e-11 9.8396034e-11
000310 a5 dd 09 2f 84 71 a2 2e f3 b1 8d 2f 58 fe ff 2e
       1.2538821e-10 7.3870715e-11 2.577419e-10 1.1641238e-10
000320 e3 62 e1 2e 4a 70 2c 2f 26 f0 d2 2e f4 20 39 2f
       1.0249381e-10 1.5683202e-10 9.592353e-11 1.6837359e-10
000330 7b c7 21 2b da b5 a2 2a 50 55 75 2a ee 6c 13 2b
       5.7475525e-13 2.8903166e-13 2.178997e-13 5.237606e-13
000340 fa ee 98 2a 6d 8f 16 2b 10 b0 e2 2f 10 bb b6 2f
       2.7166447e-13 5.348975e-13 4.123426e-10 3.3238523e-10
000350 bf cd 34 2f 18 03 da 2f bc 46 4f 2f 2a 41 7c 2f
       1.6444e-10 3.9656167e-10 1.885167e-10 2.2942417e-10
000360 e0 02 73 31 06 16 d1 30 2f fb a0 30 2a 65 53 31
       3.5362788e-09 1.5213011e-09 1.1712923e-09 3.0762046e-09
000370 b7 43 c5 30 e3 0d 0c 31 5a 05 6d 31 a2 59 fc 30
       1.4352882e-09 2.0380575e-09 3.449108e-09 1.8360888e-09
000380 9e 45 c4 30 76 37 69 31 42 f4 cc 30 51 59 22 31
       1.4280663e-09 3.3937488e-09 1.4912376e-09 2.3624873e-09
000390 d8 ca 92 30 85 07 80 30 82 ed 04 30 ce 6b 65 30
       1.068055e-09 9.315363e-10 4.835884e-10 8.3462914e-10
0003a0 5c af 14 30 ff 77 12 30 b3 5d 42 2c ae ce da 2b
       5.4091287e-10 5.3285015e-10 2.7621072e-12 1.5547197e-12
0003b0 97 60 f3 2b 18 6c 91 2c bb 10 09 2c 95 fe 69 2c
       1.7292998e-12 4.1331487e-12 1.9478158e-12 3.3252613e-12
0003c0 cb f3 fd 30 69 24 90 30 31 68 95 30 c9 6f 07 31
       1.8477463e-09 1.0487727e-09 1.087079e-09 1.9708628e-09
0003d0 aa c5 81 30 65 bc b7 30 60 7a dc 30 ca 81 91 30
       9.442165e-10 1.3368547e-09 1.6041888e-09 1.0587027e-09
0003e0 3c 77 5a 30 9d b3 bc 30 c2 32 44 30 a1 71 87 30
       7.947738e-10 1.372985e-09 7.1376516e-10 9.854838e-10
0003f0 0b af ba 30 a8 7a 78 2f 99 ae 0f 2f 0e c0 33 30
       1.3583031e-09 2.2599045e-10 1.3067804e-10 6.5392747e-10

exp_avg f4 [60]
000000 f9 9f 33 b7 2a 15 42 36 92 8a 89 36 20 1d 2a 37
       -1.0706478e-05 2.8920572e-06 4.09905e-06 1.0139571e-05
000010 9a 75 54 b7 c0 71 a9 36 f1 23 2e b7 44 86 56 36
       -1.2663566e-05 5.0498347e-06 -1.0379576e-05 3.1966638e-06
000020 a5 b3 56 b7 d7 48 4d b7 31 82 05 37 71 7e 11 37
       -1.2797221e-05 -1.22359115e-05 7.95773e-06 8.672113e-06
000030 52 17 8a 36 3a 77 f5 36 a3 5a 7c b6 e7 99 d3 b7
       4.1154353e-06 7.315449e-06 -3.7603684e-06 -2.5224826e-05
000040 be 79 6b 37 30 d5 16 b7 8b ef 90 36 ef a7 1b 35
       1.4035437e-05 -8.990333e-06 4.319421e-06 5.7986375e-07
000050 20 7b 2a b7 06 67 cd b7 d7 07 5e b6 8a 23 d2 b6
       -1.0161457e-05 -2.4485878e-05 -3.3085141e-06 -6.262625e-06
000060 79 c3 51 37 51 87 22 b7 bf 92 5c 37 c4 ec 58 b7
       1.2502883e-05 -9.687458e-06 1.3147189e-05 -1.292973e-05
000070 67 ad 1e b7 5a 56 11 b6 75 33 85 b6 d8 6b 9a b7
       -9.457907e-06 -2.1656947e-06 -3.9696993e-06 -1.840845e-05
000080 e7 bb 2e 36 86 33 a7 36 13 c7 1d b4 b0 2b 96 b6
       2.6037394e-06 4.982986e-06 -1.4694187e-07 -4.4754343e-06
000090 7e 59 a9 37 1f 64 7d b7 10 dd 71 b5 f2 1a 3c b5
       2.0188043e-05 -1.5103286e-05 -9.0101184e-07 -7.007467e-07
0000a0 45 0d 04 b6 a5 61 8b 36 21 91 b7 b7 96 8a 56 37
       -1.9677257e-06 4.15389e-06 -2.188288e-05 1.2787661e-05
0000b0 db 95 dc b6 47 d6 79 35 39 f4 61 37 1b 19 80 b7
       -6.5739564e-06 9.3071543e-07 1.3467908e-05 -1.527048e-05
0000c0 a6 5f df b6 a4 db 58 37 b4 3c 90 32 fe 0b b7 36
       -6.657053e-06 1.2925742e-05 1.6791411e-08 5.455221e-06
0000d0 84 77 00 36 4d c5 ea 35 4c a4 33 37 87 a3 c7 36
       1.9143054e-06 1.7491781e-06 1.0707485e-05 5.9496992e-06
0000e0 da 43 3d 37 a6 c0 16 b7 6a 2f 60 35 cf 82 48 b7
       1.1281076e-05 -8.985551e-06 8.35155e-07 -1.1951385e-05

exp_avg_sq f4 [60]
000000 99 c8 8a 30 37 7e 15 32 98 41 9c 30 bf d3 4f 31
       1.0097835e-09 8.701639e-09 1.1369137e-09 3.0242828e-09
000010 29 fc 14 30 8e e1 fd 2e b2 93 47 30 91 6f 81 2e
       5.420043e-10 1.15451745e-10 7.2605666e-10 5.886059e-11
000020 ca bd 09 31 03 37 5c 31 aa c5 bc 31 9c ba 2d 30
       2.0044006e-09 3.2045484e-09 5.493992e-09 6.320222e-10
000030 4a 66 99 2f 84 45 b6 30 f2 33 3a 30 68 be a7 31
       2.790322e-10 1.3262e-09 6.7740225e-10 4.8819864e-09
000040 1c 29 9b 32 c3 90 6a 31 b6 93 03 2f 9d 08 cc 31
       1.806307e-08 3.413377e-09 1.1966858e-10 5.9381606e-09
000050 49 fe f3 31 78 ba 79 31 4c 0a 85 32 19 0a a4 2f
       7.1011397e-09 3.6340264e-09 1.548792e-08 2.98386e-10
000060 f2 fc 95 31 f4 49 38 30 69 c1 8d 32 42 74 d1 32
       4.3652273e-09 6.7043904e-10 1.6502513e-08 2.438367e-08
000070 31 a8 9c 31 de e7 89 30 c4 f9 37 33 57 22 f3 30
       4.5593187e-09 1.0033963e-09 4.283517e-08 1.7690337e-09
000080 96 85 7b 2f b3 9d df 2f 58 67 a8 2b e2 96 7e 30
       2.2875776e-10 4.0675516e-10 1.1965802e-12 9.261908e-10
000090 bd e2 1a 32 66 97 0f 32 a9 7d 0e 31 78 85 f5 2c
       9.015534e-09 8.3581195e-09 2.073515e-09 6.978137e-12
0000a0 42 8a 84 31 a0 b0 54 31 ed 1d 3c 31 01 65 bf 30
       3.8574237e-09 3.095046e-09 2.7374611e-09 1.3925786e-09
0000b0 bb 17 a4 31 42 9c d6 2f 83 94 21 31 d4 30 0a 31
       4.775726e-09 3.90374e-10 2.3513003e-09 2.0109399e-09
0000c0 25 4d df 2f 92 f7 0b 32 70 8e f9 2a 4e 34 06 30
       4.0618278e-10 8.147156e-09 4.433012e-13 4.8823245e-10
0000d0 7f 4c ac 30 a1 6d 1d 30 31 af f5 31 91 03 9d 30
       1.2536389e-09 5.727206e-10 7.1503554e-09 1.1424267e-09
0000e0 9d 79 1d 31 a0 80 b7 30 8e aa 2a 2d 4e 38 79 30
       2.2915636e-09 1.335156e-09 9.701252e-12 9.0665686e-10
