mnc_ml_test/output/train/20221128-0245-model.pth (torch, 62813 bytes, 21 tensors)

module.0.weight f4 [60, 6]
000000 41 11 af 3e 4e 99 b1 bd f3 3e e9 3e 9f fc 39 3b
       0.3419285 -0.08671819 0.4555584 0.0028379334
000010 19 d9 bd 3e 31 e9 8d 3d f9 16 91 be 1c 09 c6 bd
       0.37079695 0.06929243 -0.2833784 -0.09669706
000020 3a c7 39 3d 48 26 ca bd a5 27 83 3e 34 01 09 3d
       0.045356013 -0.09870583 0.25616184 0.033448413
000030 11 4c 8d 3e dd cb 85 be b6 0a 31 3f 06 f8 49 be
       0.27597097 -0.26132098 0.6915697 -0.1972352
000040 5a 30 4b 3b 04 b4 6c 3d cc 03 06 3d 37 b2 dc bd
       0.0031004162 0.057788864 0.032718465 -0.10776179
000050 05 0a 11 3f cd d6 e5 be d9 1d 79 3e 07 8b 52 3e
       0.56655914 -0.44890442 0.24327792 0.20560847
000060 19 41 2f 3d 3a 6b 15 3e 73 9d 13 bf d0 9a 27 3e
       0.04278669 0.14591685 -0.57662123 0.1636765
000070 e0 5c fd bd 69 96 be be cd ef ea 3e 56 01 e8 bd
       -0.1237123 -0.3722413 0.45886078 -0.1132838
000080 85 69 33 3e 4b f4 53 bc 9d fe 35 3f ab c8 e6 bd
       0.17520721 -0.012936662 0.71091634 -0.11268743
000090 08 9e 41 bd 0b 4f 21 3e 25 ae 67 bf 6d d5 01 3e
       -0.04726985 0.15752809 -0.905001 0.12679072
0000a0 a0 51 a6 3e 30 6f 2c be 2e 51 f2 be 61 0d 87 be
       0.3248415 -0.1683929 -0.4732756 -0.26377395
0000b0 94 90 32 bf a7 3e de 3e 7a 50 91 bd e5 15 98 3e
       -0.6975186 0.43407175 -0.07095428 0.29704204
0000c0 d5 9a 06 3f 6d 39 e9 bc 47 8b 02 3f 77 2d 88 bd
       0.52580005 -0.028469766 0.5099377 -0.06649297
0000d0 7a 7c 8b bd 47 b6 13 3b a0 6e 60 3e a5 f8 fd be
       -0.068108514 0.0022539066 0.219172 -0.49603763
0000e0 05 7e 06 3f 6f 1c bd be 6e b3 d0 be 02 8e 8a 3e
       0.5253604 -0.36935756 -0.40761894 0.27061468
0000f0 b5 0e 1d bf c9 d0 d6 3e e9 47 33 be ad a2 aa 3c
       -0.61350566 0.41956165 -0.175079 0.020829523
000100 4d 97 ea bd 86 73 85 bd a9 23 9d be 66 b8 84 bd
       -0.114546396 -0.06516175 -0.3069127 -0.06480484
000110 52 1e 17 bf 18 5f a3 3e 47 34 39 3e 4f 43 1a be
       -0.5903064 0.31908488 0.18086348 -0.15064739
000120 8c 23 85 bd 6a 05 27 3f de 7d ff be 26 00 14 3e
       -0.06500921 0.65242636 -0.49900717 0.14453182
000130 dd 01 52 bb d3 6e 32 be 22 e6 36 be 47 41 d7 3e
       -0.0032044568 -0.17425089 -0.17861226 0.4204199
000140 12 a3 69 bf d6 4a 3f 3e 96 4b d0 be f2 75 d6 bd
       -0.9126445 0.18680891 -0.40682667 -0.10471715
000150 18 af 87 bf 08 0b f6 be 86 4b 34 be bb b9 40 3e
       -1.0600309 -0.4805529 -0.17606935 0.1882085
000160 fa 59 70 3e cb c2 0a 3e b7 83 f3 3d 14 de 02 bf
       0.23471823 0.1355087 0.11890357 -0.51120114
000170 dd a7 72 3e ac 84 fc be c5 c1 98 3d cb 1a 98 be
       0.23696847 -0.4931997 0.074588336 -0.2970794
000180 0b 05 c3 3e 37 c6 41 bd e7 c4 29 3f 77 dc 14 be
       0.38089785 -0.047308173 0.66316074 -0.14537226
000190 ea 42 3b 3d dc 18 3f be 25 65 4e bf f1 11 b9 be
       0.04571811 -0.18661827 -0.80623084 -0.361465
0001a0 d1 09 e3 be b8 e7 46 3e 4b e0 8f 3c 46 c7 8e 3e
       -0.44343427 0.19424331 0.017563006 0.2788641
0001b0 40 1c eb bd 70 86 31 3e 71 b2 77 3d 4f 4e 58 3c
       -0.11479998 0.1733644 0.06047291 0.013202264
0001c0 73 93 50 3d dd 6c a5 3e 72 90 6f be 0e 1a 2c 3e
       0.05092187 0.3230962 -0.23394945 0.16806814
0001d0 97 88 18 bf 91 9b bd 3a 0e 4e 9e 3e 5c 20 9a be
       -0.5958342 0.0014465918 0.30918926 -0.30102813
0001e0 b6 d0 d9 3d b2 81 b9 be 12 0c ea 3e 23 0a 67 bd
       0.106355116 -0.36231762 0.45712334 -0.05640615
0001f0 7c 93 71 bf ee 91 c0 3e df f2 01 be 83 ff 40 3d
       -0.9436567 0.37611336 -0.12690304 0.047118675
000200 f4 e5 10 bf 38 d9 1c 3e 01 06 ce be 27 24 00 bb
       -0.5660088 0.15317237 -0.40238956 -0.0019552798
000210 3b 11 e5 3e 99 b0 bb be 7a 62 0f 3f d3 ea ef bd
       0.44739708 -0.3665817 0.5600964 -0.11714711
000220 78 4c a0 3d 9f a5 f6 bb 45 43 54 3e 39 16 df be
       0.07827085 -0.007527068 0.20728786 -0.43571642
000230 41 4e b9 3e d0 68 19 bc 2f b8 ac be c3 a6 1b 3e
       0.36192515 -0.009363368 -0.3373427 0.15200333
000240 63 01 cd 3e 81 63 04 bf fe f0 25 3f d1 64 14 be
       0.4004012 -0.5171433 0.6482085 -0.14491583
000250 61 a6 83 3e 5c 87 3f be 41 a7 20 3e 38 85 b7 3e
       0.25712875 -0.18703979 0.15688802 0.35843825
000260 b3 39 c1 3b b5 22 31 3c 05 5d b2 be 21 e4 31 3e
       0.005896771 0.010811497 -0.34836593 0.1737218
000270 57 8d 86 be 6b dd 45 3f 19 08 fb 3c 6e f4 34 be
       -0.2627971 0.7729098 0.03064351 -0.17671368
000280 08 84 ee be 00 2f b3 be 7b 86 32 3e 91 00 03 3f
       -0.46585107 -0.34996796 0.17434113 0.5117274
000290 d7 2d 22 3e c2 1e 87 bd a1 ce 07 be e6 ee b1 be
       0.15837799 -0.065976635 -0.13262416 -0.34752578
0002a0 72 5d 6d 3e 79 9e 3e 3d c9 5a 35 3e ff 40 d3 3e
       0.23180178 0.04653785 0.17710413 0.41260526
0002b0 5e 05 e3 bc 39 f4 a0 be 38 3e 29 3c 3d c0 c3 3e
       -0.02771252 -0.31436327 0.0103297755 0.38232604
0002c0 93 a0 87 bf a8 6c 52 be 7c 9f 80 be eb d0 02 3e
       -1.0595878 -0.20549262 -0.25121677 0.12775008
0002d0 61 af 36 be 70 3e 5e b9 80 e9 b8 3e 65 f0 3a be
       -0.17840339 -0.0002119483 0.36115646 -0.18255766
0002e0 63 9f 6a be ac 70 f0 3d 83 f3 be be 02 db 86 be
       -0.22912364 0.117402405 -0.3729516 -0.26338965
0002f0 eb ec 5a bd 5e 4d ed bd c6 da b0 3e ba 38 ab 3e
       -0.0534486 -0.11587022 0.3454191 0.33441716
000300 8d 36 85 3e 6c 9a b8 3e 40 aa 3e bf 22 ca a5 be
       0.2601818 0.36055315 -0.7447853 -0.32380778
000310 ee b8 62 bd 72 fc d9 bd a7 5e 48 3e e0 63 28 3e
       -0.055352144 -0.10643853 0.19567357 0.1644435
000320 72 bf 72 bf a5 85 b7 3e 87 6b 39 3e d7 8d b5 be
       -0.9482337 0.3584415 0.18107425 -0.35459778
000330 cb 9e ad 3e 53 18 c1 3d d4 5c 58 be 80 41 6a 3e
       0.33910212 0.094284676 -0.21129161 0.22876549
000340 a9 48 48 3e 13 30 5d 3e a3 b6 c3 3e 21 db 08 bf
       0.19558968 0.2160037 0.38225278 -0.53459364
000350 82 b9 4a bf 84 d5 18 3f 71 b4 0c bf a4 0a 89 3e
       -0.7918931 0.597008 -0.5496283 0.2676593
000360 7f 96 1f 3c 2d 3b 97 bd 96 a1 06 3f b3 88 16 bf
       0.009740471 -0.07384334 0.5259031 -0.58802336
000370 cc 92 13 3e ae b5 31 3d 86 52 f8 3c c4 b6 31 be
       0.14411467 0.043386154 0.030312788 -0.17354876
000380 bf 9b 7b 3e 04 6c 77 3d 9f 49 d3 be b0 8b 96 bb
       0.24571131 0.060405746 -0.41267106 -0.0045942888
000390 27 ef 34 3e 03 a9 01 3f 52 d7 bb 3d ae b8 92 be
       0.17669354 0.50648516 0.091719285 -0.28656524
0003a0 8e c7 da be 03 2e b4 3c 56 cd fd 3e e8 99 47 bf
       -0.42730373 0.021994596 0.4957072 -0.7796922
0003b0 0f dd 62 3d 46 0e b9 be 6b ab 6b 3d 3c 48 b5 3e
       0.0553866 -0.36143702 0.057536524 0.35406673
0003c0 06 6d b3 be 1d a8 8c be 59 e5 01 3f 66 a3 ba be
       -0.35044116 -0.2747201 0.5074058 -0.36452788
0003d0 5a d9 ef 3e 23 08 cb 3e 2a 57 d4 bc c3 bb 0f 3f
       0.46845514 0.39654645 -0.02592047 0.56145877
0003e0 86 36 3a bf 44 90 86 3e 14 05 b1 3e 5c e4 18 3d
       -0.72739446 0.2628194 0.34574187 0.037327155
0003f0 0f 3a 9d be 54 b6 1a 3f 44 e2 ae be 87 a7 c7 3d
       -0.30708358 0.6043446 -0.34157002 0.0974875

module.0.bias f4 [60]
000000 b3 81 05 bf f1 df c1 3e 84 47 44 be 6d d5 2b be
       -0.5215103 0.37866166 -0.19167906 -0.16780634
000010 65 0d 96 3e e8 93 08 bf 1a e3 45 3e 0f ff e2 3e
       0.29307094 -0.5335069 0.19324914 0.4433522
000020 fa 51 9d be d0 64 17 bd 33 89 94 3e 3b 7c 61 be
       -0.30726606 -0.036961377 0.29010925 -0.22020046
000030 7a f7 a7 be 04 f0 9a 3e e5 a4 90 3e 8b 7b e8 3e
       -0.32805997 0.30261242 0.28250805 0.45406756
000040 ad d0 8a be 20 34 65 3e 34 07 ab be 72 5f f0 be
       -0.27112332 0.22383165 -0.33403933 -0.4694782
000050 d6 b9 63 be ce a2 ae 3e 34 3c 95 be 00 81 7d 3d
       -0.2223886 0.34108585 -0.29147494 0.061890602
000060 3b 36 c0 bc 2b 04 bb be dc 7a ce 3d ae 8f f6 be
       -0.02346336 -0.36526617 0.10082027 -0.48156494
000070 03 2d 97 be a6 9e 6b 3d 5c 2d 9a 3d 5b 39 a3 3e
       -0.2952653 0.057524346 0.07528183 0.31879696
000080 15 05 67 be c3 14 41 3e df 92 04 bf 75 4c bc 3d
       -0.22560532 0.18855576 -0.5178661 0.091942705
000090 5d 73 99 bd a1 56 ef 3d d5 20 0f bf 3f 31 2f bd
       -0.07492707 0.11686445 -0.5590947 -0.042771574
0000a0 b7 b3 f3 3e 2a 8b 86 be 2c b4 d9 bc a6 a3 f8 3d
       0.4759805 -0.2627805 -0.02657517 0.121405885
0000b0 92 88 c8 be bc 16 79 bd 36 2c 0a be f2 16 cd 3e
       -0.39166695 -0.060812697 -0.13493428 0.40056568
0000c0 f7 93 36 be 2e c8 c0 3d ba bd 29 3d 6b 4d d7 3e
       -0.17829882 0.09413181 0.041440703 0.42051253
0000d0 c9 65 be be c7 9e fe be e4 d3 c6 be b2 cf d9 3e
       -0.3718703 -0.49730512 -0.38833535 0.4254127
0000e0 49 30 d9 3e 94 55 50 3e d0 17 be 3d 53 18 2c 3e
       0.4241965 0.20345145 0.092818856 0.16806154

module.2.weight f4 [60, 60]
000000 44 b0 16 3d c3 bf d0 bd 3a c2 7e bf 4c 4c a6 bd
       0.036789194 -0.10192826 -0.99515116 -0.08120021
000010 a7 48 08 3e 68 2b 37 3e 9c 2e 36 3f 6e 42 c7 3e
       0.13308965 0.17887652 0.7116487 0.3891787
000020 2d 12 0c be 14 1f 91 bf 26 bd 1c 3f 9c 54 6f 3e
       -0.13678809 -1.1337609 0.6122612 0.2337212
000030 0b 80 9b 3f 17 40 75 3f 59 ab db 3e 6b c7 af be
       1.2148451 0.9580092 0.42904165 -0.3433183
000040 44 22 97 be b1 b0 a5 3e 4b d2 32 3e b3 dc 9e 3e
       -0.2951833 0.32361367 0.17463033 0.31027755
000050 9d dd 23 bf 80 6d 6e be fe 64 dc be 93 88 ca be
       -0.6401003 -0.23283958 -0.430458 -0.39557323
000060 73 f0 79 bf 15 b3 15 3e 8f a6 29 3e 08 a1 d3 3e
       -0.9763252 0.14619096 0.16567443 0.41333795
000070 ce 74 ca 3d 36 df 42 3f b0 ea b0 bd 03 df c5 bd
       0.0988556 0.7612184 -0.08638513 -0.09661677
000080 0a 29 20 3f b7 94 46 3e 85 10 fb 3d 8a 30 e5 be
       0.6256262 0.19392668 0.1225901 -0.44763595
000090 78 04 c7 bd cc 74 ab bd 63 56 8c 3e 76 67 18 bf
       -0.09717649 -0.083718866 0.27409658 -0.5953287
0000a0 61 d1 55 be f3 90 3b 3f df 57 46 3f f6 a3 67 3f
       -0.20880653 0.7326805 0.7747783 0.9048456
0000b0 c6 e6 27 c0 f3 70 79 3f b8 15 4c bf 8d 71 3e be
       -2.6234603 0.9743797 -0.7972064 -0.18598004
0000c0 00 47 22 3c dd 2a cc 3e 58 2b 70 3e c5 5e 93 bd
       0.009904623 0.39876452 0.23454034 -0.0719581
0000d0 e3 93 8d be 9f d4 80 3e 8c 04 29 3e 33 15 76 be
       -0.2765189 0.25162217 0.16505641 -0.24031524
0000e0 92 81 6a 3e ff 55 1a 3f c3 e8 95 bf 71 3f 66 3f
       0.2290099 0.6028747 -1.1711658 0.89940554
0000f0 c7 24 90 3d c9 02 b6 3d eb 75 91 bd 0f 42 39 bc
       0.07038265 0.0888725 -0.07102569 -0.0113072535
000100 bf 0d 3b bb 2a c4 1a be 37 8f 78 be cb 6a 25 3e
       -0.002854213 -0.15113893 -0.24273382 0.1615402
000110 19 2d fc be b4 87 58 be a2 80 62 3f dd ec 8e ba
       -0.49253157 -0.21145517 0.8847753 -0.0010904331
000120 7e 15 94 bd 1a ae 74 3d 7a 45 3c 3f 49 30 77 3e
       -0.07230662 0.05973635 0.7354351 0.24139513
000130 12 8f c9 bc 7b 7d 06 3f 2e 70 03 bb e5 e9 42 bd
       -0.024604354 0.5253522 -0.0020055878 -0.04758634
000140 f6 45 8d bb 79 76 0c be 39 9f 81 3a da 3f a0 bd
       -0.0043113185 -0.13717069 0.0009889371 -0.07824679
000150 fd 55 05 be aa fd b3 be 23 33 d6 3d 1f 02 d0 3c
       -0.13021083 -0.35154468 0.10458972 0.025391636
000160 1f c2 0e 3e 7d ab 6b 3b 20 2e 4d 3d c1 f9 6d 3d
       0.13941239 0.003596037 0.050092816 0.058099512
000170 2b c8 dc bb 4b 69 81 be 7a 74 bd be af e1 9f bd
       -0.006737729 -0.25275645 -0.37002927 -0.078067176
000180 ae e6 07 3e d0 dc ad 3c 3d 43 9f bc d0 6d c9 be
       0.13271591 0.021223456 -0.019441241 -0.39341593
000190 fe 97 33 3e 13 1c 90 be fb 62 fb 3d 06 40 fa bd
       0.17538449 -0.2814642 0.122747384 -0.12219243
0001a0 eb bd 75 bf e0 09 59 bc ed 68 d1 be 0d e5 a1 3d
       -0.95992917 -0.013246983 -0.40900365 0.07905016
0001b0 46 80 f8 3d 1b fa b5 3e 47 d2 ef 3e cb 67 28 bd
       0.12133841 0.35542378 0.46840116 -0.04111461
0001c0 90 ff a4 3e c7 ee b6 bd 90 b3 a6 bd 36 7f 71 be
       0.3222623 -0.08932262 -0.081397176 -0.23583683
0001d0 b4 7d f5 3d 34 8b 85 3e 25 49 55 3d b5 07 9f be
       0.119868666 0.26082766 0.05207171 -0.31060567
0001e0 9b e6 05 be 7c c7 be 3c 46 5e f4 be 8a 23 49 bc
       -0.1307625 0.023288481 -0.47728175 -0.01227654
0001f0 0d bb 32 3e 9e b7 00 3e e6 a9 c8 bd c3 f7 bb bc
       0.17454167 0.12570044 -0.097980306 -0.02294529
000200 d7 08 76 3d 91 18 84 3e ef 98 d1 bd 27 4b 11 3d
       0.060067024 0.25799993 -0.10234248 0.03547206
000210 ee d0 50 be 67 e4 74 be 38 f4 10 3d 0b 4d 26 bc
       -0.203922 -0.23915254 0.035389155 -0.010150204
000220 b7 db 6f bd e1 c0 8e bd 86 6a 81 3e 80 81 91 bc
       -0.058559146 -0.069703825 0.25276583 -0.017761946
000230 5b 27 50 bc cd b0 af 3d 95 c8 6e 3d 92 93 0f bc
       -0.012704696 0.08578644 0.05829676 -0.008763211
000240 70 62 37 3e a1 0b bb bc 78 30 17 be 08 45 82 3d
       0.17908645 -0.022832694 -0.14764583 0.06360823
000250 45 89 9a bd 73 2e aa bd 20 81 90 bd f6 7a a1 3d
       -0.07545713 -0.08309641 -0.07055879 0.07884781
000260 06 d0 f4 3c 0e 89 23 3e d9 aa f6 b8 b2 89 b5 3c
       0.02988435 0.15970251 -0.00011762017 0.022160385
000270 03 1e 63 be 07 9d 51 3d 62 2c a8 3d a9 13 3e be
       -0.22179417 0.051175144 0.0821159 -0.18562187
000280 07 10 1f 3b f4 71 b5 3c ea 52 9a 3d 33 22 26 be
       0.0024271028 0.022149064 0.07535346 -0.16223983
000290 f3 21 9d 3e ef ec 3b 3d 9a 9b 7c bd 99 a7 ff bd
       0.30689964 0.045880254 -0.06167183 -0.124831386
0002a0 37 b4 7f 3c 8d b0 89 bd ff 84 aa 3c 8b d3 c2 3e
       0.015606931 -0.067231275 0.02081537 0.3805202
0002b0 88 dd 95 3d b5 b6 1e 3e 4f 7f fd 3c 5c 88 27 be
       0.07317644 0.15499385 0.030944495 -0.1636061
0002c0 d9 88 8a bc 6c bd 9a 3e e1 70 82 3d 0b 37 70 bd
       -0.016910957 0.30222642 0.06369186 -0.058646243
0002d0 e7 de 90 be 0a 6d 3c 3c 77 ea 31 bf 25 1b 7e be
       -0.2829506 0.011500606 -0.6949839 -0.24815042
0002e0 4a 32 a7 bd ee 25 98 be e9 3f 0f 3f 0d f7 7d 3f
       -0.08163889 -0.29716438 0.55956894 0.99205095
0002f0 22 63 89 be 1d 1b f3 3d 0a 61 36 3e 19 63 3e 3e
       -0.26833445 0.11870406 0.17810455 0.1859249
000300 6f 36 95 bd 02 e3 46 3f a5 48 86 3e 65 88 0a be
       -0.07285773 0.77690136 0.26227298 -0.13528593
000310 17 8d 17 bf 01 0c c6 3e c0 78 78 3e 9d b3 b1 3d
       -0.5919966 0.38681033 0.24264812 0.08676837
000320 b2 d4 45 be 12 8e 86 3d 0e cf 76 3c 61 7f 2e 3e
       -0.19319418 0.065700665 0.015064014 0.17040779
000330 4e 7d 73 be 06 50 3b be 3a 30 1e bf 18 cf dc be
       -0.23778269 -0.18292245 -0.6179234 -0.4312675
000340 9b 65 58 bd 99 ff 3f 3e 03 df 95 bc 04 77 24 3d
       -0.052831274 0.18749847 -0.018294817 0.040152565
000350 69 6f cd bd da e6 8d 3e 5e c3 d7 3c 47 0e 20 3f
       -0.100310154 0.27715188 0.026338276 0.62521785
000360 70 64 f1 be aa 1a f6 3c 00 a2 8f be 82 e7 49 3f
       -0.4714694 0.030042011 -0.28053284 0.7886888
000370 36 6f 41 be b1 f4 e8 3c 00 6b 2f bf 3a 44 14 3f
       -0.1889008 0.02843699 -0.68522644 0.57916605
000380 b0 b0 b5 bf 43 78 8e 3b a4 0c 81 3d 88 e9 4a 3e
       -1.4194546 0.0043478324 0.06301239 0.19815648
000390 49 7f 77 3c 1a d5 36 bf 06 de d4 be 4c 0b 3c 3f
       0.015106031 -0.7141892 -0.4157564 0.7345474
0003a0 54 34 f6 be 52 aa c2 bd 4a b9 2a 3d 69 94 39 3e
       -0.48086798 -0.09505142 0.04168061 0.1812302
0003b0 a4 98 8b 3e b6 80 58 be b6 db 54 bf 3b 0f 70 3f
       0.27264893 -0.2114285 -0.8314775 0.9377324
0003c0 a1 4d a7 3d db 75 d0 ba 14 33 8d 3e 3f 86 00 3c
       0.081691034 -0.0015904264 0.27578032 0.007844507
0003d0 f0 09 07 bc 41 3b 90 be 6a 8e cc bd 02 9e cc 3c
       -0.008242115 -0.28170207 -0.09988101 0.024977688
0003e0 16 2b 46 bc 06 30 c5 bd 4e b8 8e 3d 65 30 1e 3d
       -0.012095233 -0.096283 0.06968747 0.03862037
0003f0 ef fb 0f 3e 94 f3 49 3e 49 81 2f 3e ad d7 02 3e
       0.14060949 0.19721824 0.17139162 0.12777586

module.2.bias f4 [60]
000000 da 9f 48 bd f3 03 26 3e d7 3f 04 3e 7b c8 d2 bd
       -0.04898057 0.16212444 0.12914978 -0.10292145
000010 d7 ab 25 3e a1 62 02 be 3f 27 2c bd bd 79 cc bd
       0.16178833 -0.12732936 -0.042029615 -0.09984157
000020 06 43 1a bd 7e b7 ba ba 60 75 5a 3c f1 ca 45 bd
       -0.037661575 -0.0014245359 0.013333648 -0.048289243
000030 91 23 78 3e 2a dd ef 3d 4e e5 09 3d 5a aa a3 be
       0.24232318 0.117121056 0.033665948 -0.31965905
000040 fd 9f 6f bd 79 3d 34 bd 54 1b 39 bd d9 ee ee be
       -0.058502186 -0.044003937 -0.045192078 -0.466666
000050 5c 0e a7 be 9f 23 aa be 73 19 23 3e 2b 74 cc be
       -0.32628143 -0.33230302 0.15927677 -0.3993238
000060 56 2f 82 be a7 f7 dd bd ec 1b c2 3d 18 b5 8a be
       -0.2542674 -0.108382516 0.09477982 -0.2709129
000070 a3 66 2a bf 35 3d cb bc 48 aa 0d be 26 23 db be
       -0.6656286 -0.02480946 -0.13834488 -0.42800254
000080 2e e7 d2 bd 92 7b be be 1c 4c 2e 3e 4e 78 56 bd
       -0.10298 -0.37203652 0.17021221 -0.052360825
000090 3f cd 85 bc 1d 2a 3c be ef b2 b8 bd 19 b7 b3 3d
       -0.01633322 -0.1837544 -0.09018504 0.087751575
0000a0 66 cf 97 be e3 6f 9e bc 42 52 d2 bd c2 4f f5 3d
       -0.2965042 -0.019340461 -0.10269596 0.11978103
0000b0 f5 d4 a3 3b 5e 7e 41 be ac ec 28 bc 14 14 ce 3c
       0.0049997517 -0.18895862 -0.010310333 0.025156058
0000c0 70 8b a9 be 83 27 06 be 9a cb 02 bf 6e 57 89 bd
       -0.33114195 -0.1310101 -0.5109192 -0.06706129
0000d0 5b 38 45 3e 10 cd dd be f1 a9 87 bd dd 56 32 bc
       0.19259779 -0.43320513 -0.066242106 -0.010884968
0000e0 6a 14 de bd e9 cd 3d be 91 17 0f bf d6 ba 58 be
       -0.108437374 -0.1853558 -0.55895334 -0.21165022

module.4.weight f4 [6, 60]
000000 11 da 07 3f 55 6a 1a 3e d3 b6 98 ba f3 2e 9f 3d
       0.5306712 0.15079625 -0.0011651166 0.07772627
000010 46 89 e5 bb 25 f0 96 3c fd 39 09 bc 57 ab d7 3b
       -0.0070048897 0.018425057 -0.008375642 0.0065817046
000020 79 85 6a 3b 1b 42 49 3e 37 c7 33 bc 26 41 89 be
       0.0035785122 0.19654123 -0.0109727895 -0.26807517
000030 4b cc 0f 3f e9 6f 29 3e 8b 9c 55 3c 2f 56 f5 3d
       0.561711 0.16546597 0.013037811 0.11979329
000040 3e 75 80 ba 05 b1 18 bd 21 31 87 be ae 18 5d 3e
       -0.0009800566 -0.037278194 -0.2640467 0.21591446
000050 26 ae 46 3e ef b7 53 3d 89 4d dc 3e db 7a 0f 3e
       0.1940237 0.051689085 0.43027905 0.1401171
000060 1e 76 ae 3e 97 28 b8 3e ef 4e 90 3b b6 69 86 3e
       0.3407449 0.35968468 0.004403941 0.26252526
000070 2c 4b 62 3e e7 fd ac 3c f6 a1 4b 3c ac 01 10 3d
       0.22098988 0.021117164 0.012428751 0.035157844
000080 35 7b 24 ba a8 eb 85 bd f4 a8 0e 3f 54 d6 5f 3e
       -0.0006274463 -0.065390885 0.5572655 0.21859103
000090 cf 05 45 be 9e 41 49 3e f1 9e 19 be ee 9a c2 3b
       -0.19240497 0.19653937 -0.15002038 0.005938879
0000a0 41 bd 91 3e 2a 35 0d 3e 1c 9e 90 3c fd f0 57 3d
       0.28464702 0.13789812 0.017653517 0.05272006
0000b0 2b 04 0e bc c7 ba 61 be e1 29 a0 ba 32 64 81 3c
       -0.008667986 -0.22043906 -0.0012219512 0.015794847
0000c0 6c 01 9f bd c3 49 94 be f8 eb a0 3e 1f 8e c7 39
       -0.07763943 -0.28962526 0.3143003 0.00038062126
0000d0 46 e5 a9 3e c7 d8 78 3e 45 30 e3 3d bb 94 32 3c
       0.33182734 0.24301444 0.11093191 0.010899718
0000e0 56 aa 5a be c7 b5 d1 3e 6d a7 9f 3e 5e 58 9e be
       -0.2135404 0.40958998 0.31182423 -0.30926794
0000f0 87 f5 61 3d d8 e1 80 3e 25 55 08 3b 03 61 de 3c
       0.055165794 0.25172305 0.0020802703 0.027145868
000100 66 76 38 3d 4b 34 9f ba 03 df d8 bc f8 db 9f bb
       0.04503479 -0.0012146322 -0.026473528 -0.0048785172
000110 a8 25 3b 3b 13 41 72 3e 87 91 65 bb ca a1 bc be
       0.002855638 0.23657636 -0.0035029368 -0.36842185
000120 04 47 36 3e de f8 d5 3e 1a b3 97 bc 8d d5 ea bd
       0.17800528 0.41791433 -0.01851802 -0.11466513
000130 45 26 82 bb 5c d5 75 be 10 80 41 be a1 97 6d bd
       -0.0039718472 -0.24007171 -0.18896508 -0.058005933
000140 aa d1 88 bd 22 6c f9 bd c2 97 f2 3c cf 08 b8 bd
       -0.06680615 -0.12178828 0.02961338 -0.08986055
000150 34 42 ff 3d 00 e6 07 3e d1 4c 0d 3c 14 3d c5 3d
       0.12463799 0.13271332 0.0086242715 0.0963079
000160 aa ad 00 bf 51 84 99 bd 18 1c 39 bc 4b 49 d0 be
       -0.5026499 -0.074959405 -0.011298202 -0.40680918
000170 07 88 14 bd 3e 5c 57 bd 06 d0 9d 3d 34 2a a9 bc
       -0.03626254 -0.052578203 0.07705693 -0.020650007
000180 18 b8 15 be 96 ec f9 3d 74 74 dd bd b7 da 1e 3d
       -0.14621007 0.12203328 -0.10813227 0.0387828
000190 ef d7 cd bd 8c cd bf bc 0c 7f 7e 3b 9e 28 ff bc
       -0.10050952 -0.023413442 0.003883305 -0.031147297
0001a0 ec f3 9b 3d b7 dd a3 be ab f7 9e b9 18 38 02 bd
       0.07614884 -0.32005093 -0.00030320635 -0.031791776
0001b0 f2 68 22 3e a5 d8 c4 bd 64 37 3b ba 4d 3d ee bb
       0.15860346 -0.09611634 -0.0007141738 -0.007270491
0001c0 f3 df c0 3d 6b 63 64 bd 43 11 64 3e 4c 7f 8c 3c
       0.09417715 -0.055758875 0.2227221 0.017150544
0001d0 e1 10 d1 be 9a ca d4 3d 4a 8e 8c 3c f7 c7 44 be
       -0.4083319 0.10390206 0.017157692 -0.19216906
0001e0 56 b7 1f be bd 88 22 be bc 72 e1 bc 98 1d 0e be
       -0.15597281 -0.15872474 -0.02752053 -0.13878477
0001f0 e2 91 af bd 39 7f d8 ba c0 77 3e 3d fc 58 3d bb
       -0.08572747 -0.0016517407 0.04650092 -0.002889215
000200 3b b3 ed bc 42 a8 18 be 04 12 79 3c 9f d8 19 be
       -0.029016128 -0.14907935 0.015202049 -0.1502404
000210 18 7c 40 bf 33 35 1e 3e ee 36 32 3d 57 2b 1c 3e
       -0.7518935 0.15449981 0.043509416 0.15250908
000220 f2 de 22 bc 96 58 9f 3e 58 a5 9b 3e 1e 6d 3f 3d
       -0.00994085 0.31122273 0.30399585 0.04673492
000230 63 5c 94 3e 52 0b 38 be 18 19 84 be 7f 60 79 3e
       0.28976735 -0.17973068 -0.25800395 0.24353217
000240 92 f4 4f bc 06 b2 af 3d 15 a3 27 bd e7 5b 3b bd
       -0.012692587 0.08578877 -0.04092701 -0.04574194
000250 23 0f 6c bd 59 d6 9b 3d 82 88 08 3d 6a b6 cb be
       -0.057631623 0.07609243 0.03333331 -0.39787608
000260 b2 88 31 3d e2 60 b1 be 31 f6 cd be 2d 49 96 3d
       0.043343253 -0.34644228 -0.40226892 0.07338176
000270 5a bd a0 3d 89 5f 99 3d ad 57 bf 3d 00 02 98 bd
       0.07848616 0.07488925 0.09342895 -0.074222565
000280 40 51 47 3e b0 9e 91 3c c4 2d 30 bc 0f 5c 41 3d
       0.19464588 0.017775863 -0.010753099 0.047206935
000290 11 7a b8 bd 37 05 f7 bd ec c3 b9 3c 02 be 52 3d
       -0.09007657 -0.120615415 0.02267643 0.051450737
0002a0 ea 40 e1 3d ec e4 3d 3f 2e 01 56 3e 49 5b 1a 3d
       0.109987095 0.7417743 0.20898888 0.037684713
0002b0 5f da 6a be 45 5a 3d 3e a8 02 e5 3c b0 0a 86 bb
       -0.22934864 0.18491466 0.027955368 -0.0040906295
0002c0 bf cc 14 3f 93 1c 61 bd a8 96 a0 3e 22 2a fe 3e
       0.5812492 -0.05495889 0.31364942 0.4964152
0002d0 43 c1 fa be 2b cb 93 be 2e 06 a2 bb 53 da b6 be
       -0.48975572 -0.28865942 -0.0049445843 -0.35713443
0002e0 5f 29 99 bc a6 b6 0d 3d 8c 12 18 bb e4 bb 5d 3c
       -0.018696485 0.034598015 -0.0023204414 0.013533566
0002f0 84 e5 7c 3b 6d c3 9c be 4f e8 27 bc 5d 17 5e 3e
       0.003858895 -0.30617848 -0.010248258 0.216886
000300 df d0 f3 be 29 2a 60 bd 22 37 c2 3c bf b7 09 3e
       -0.47620293 -0.054727707 0.02370793 0.13449
000310 64 44 d4 39 8e fd b0 bd 9d 38 65 3e 15 1e ee 3d
       0.00040486746 -0.08642112 0.22384878 0.116268314
000320 03 1a 50 bd 40 f7 b2 be ea 8d ac be 6d ca 38 3c
       -0.050806057 -0.34954262 -0.33702022 0.011278731
000330 5b 5c d2 be 2a 21 87 be 96 35 b1 3b 71 85 d0 be
       -0.41086087 -0.2639249 0.0054079993 -0.40726808
000340 51 cd 49 bd 6f c9 08 3d 05 95 24 3c a5 0b f9 3d
       -0.04926807 0.033395227 0.010045295 0.12160424
000350 54 35 37 3c ff b9 3d be e6 ba d9 be 66 08 9e be
       0.011182148 -0.18527983 -0.42525405 -0.30865782
000360 6c b4 9b 3e 9a c5 49 bd 22 ba a9 3e a8 7a 87 ba
       0.30411088 -0.049260713 0.3314982 -0.0010336237
000370 10 f4 26 3e 04 86 51 3e d6 bb d6 3c 2a 7b 35 be
       0.1630404 0.20461279 0.026212614 -0.17722765
000380 b6 cc 4a 3c c1 e9 a6 3e d4 4a 4a 3a f5 e1 f5 3c
       0.012377908 0.32600215 0.0007716839 0.030014971
000390 1a e6 18 3e 16 bd 2a 3d 29 97 27 3e 7e be b8 39
       0.14931527 0.041684233 0.16366257 0.00035237143
0003a0 2c b9 d6 be ca 56 25 3e 18 fc 9e b8 ab 8a 34 3c
       -0.4193815 0.16146389 -7.580983e-05 0.011019389
0003b0 7b 0d 82 3e 9c d9 2f be 28 d3 1a 3e 0a 19 9f 3e
       0.2540091 -0.17172855 0.15119612 0.3107379
0003c0 2c cf 80 3e 8c c3 9c be f7 eb 32 bd e1 76 0e 3f
       0.2515806 -0.3061794 -0.043682065 0.55650145
0003d0 67 63 71 bd 42 e0 fe 3d 96 3a 9f 3b f5 e4 fb 3c
       -0.058932688 0.124451175 0.004859279 0.030748824
0003e0 e7 8b 8a 3b 2f 90 2d 3d 8d 0d 3f bd d4 e1 da be
       0.0042281034 0.042373832 -0.046643782 -0.42750418
0003f0 17 fd e4 3e 42 0d 03 3a e5 32 ab 3d 5c e7 99 3d
       0.44724342 0.0004999229 0.08359317 0.075148314

module.4.bias f4 [6]
000000 57 64 ab be d9 6c 12 3e 2e 7d 6a be a5 95 9b be
       -0.3347499 0.14299335 -0.22899315 -0.30387607
000010 e8 a2 a7 be 62 1c e6 3d
       -0.32741475 0.11235882

module.6.weight f4 [1, 6]
000000 4f 86 d4 be f5 db 8f 3d 30 66 a4 bc b8 9a dd bd
       -0.4150872 0.07024375 -0.020068258 -0.10820526
000010 cf 0d 08 be 7e b3 43 3e
       -0.13286518 0.1911144

exp_avg f4 [60, 6]
000000 bb 5f 02 36 fa 01 ce 36 f5 5f 84 36 3f e2 62 36
       1.9427232e-06 6.1395085e-06 3.9450774e-06 3.3808317e-06
000010 59 6a a5 36 35 5d bf 36 4b 3f 18 b6 d3 96 39 b6
       4.9297637e-06 5.7030943e-06 -2.2686606e-06 -2.765494e-06
000020 6f 63 b8 b5 6e be 24 b2 07 39 8f 34 17 62 f1 b4
       -1.3738007e-06 -9.589355e-09 2.6677318e-07 -4.4961118e-07
000030 0f b4 63 b7 36 b6 b4 b5 3d 52 bd 36 e1 a9 2b 37
       -1.35721775e-05 -1.3464075e-06 5.6422127e-06 1.0231947e-05
000040 00 36 c9 36 e9 11 05 37 02 c8 1a b6 35 c6 3b b5
       5.996553e-06 7.931588e-06 -2.3064208e-06 -6.995136e-07
000050 e4 4c d9 34 49 7d 01 36 c0 41 80 35 a7 f0 04 36
       4.0475345e-07 1.9295423e-06 9.555879e-07 1.980961e-06
000060 b3 64 fa 35 71 fb 42 35 33 74 f3 b3 81 d5 33 b5
       1.8655759e-06 7.263653e-07 -1.1336706e-07 -6.6993385e-07
000070 d5 52 4d b5 17 a9 f7 33 54 61 42 35 7a 6d b2 36
       -7.648899e-07 1.1532591e-07 7.2412263e-07 5.317558e-06
000080 9a 75 87 36 68 ce 80 36 f0 2e 93 36 5b 5e d2 36
       4.037004e-06 3.838726e-06 4.3864056e-06 6.269472e-06
000090 74 96 ed 36 d9 60 54 b6 56 cc de b6 5f e1 1a b7
       7.0806655e-06 -3.1646834e-06 -6.6399034e-06 -9.231589e-06
0000a0 3e 60 fd b6 c0 b2 1e b7 c2 19 35 36 db d9 16 b7
       -7.5511916e-06 -9.459152e-06 2.6986095e-06 -8.99142e-06
0000b0 37 23 2d b7 d4 5a 53 b7 69 e4 fb b6 6b 88 83 b7
       -1.0319803e-05 -1.2597728e-05 -7.5069734e-06 -1.5679941e-05
0000c0 eb be 7b b6 59 65 2d 36 d8 bb 9a 36 35 e3 d6 36
       -3.7513043e-06 2.5838e-06 4.6114255e-06 6.4041474e-06
0000d0 a8 46 70 35 bd 7b df 36 d1 39 85 b7 45 dd 8a b6
       8.9509786e-07 6.660323e-06 -1.5881758e-05 -4.1384797e-06
0000e0 ab 43 a4 36 19 96 13 37 ce 1c 69 36 6c dc ad 36
       4.8954585e-06 8.79683e-06 3.4736472e-06 5.1814623e-06
0000f0 fd 8b 5a 37 c1 70 19 b6 b1 99 23 b7 1e d6 6b b7
       1.3026406e-05 -2.2864408e-06 -9.751341e-06 -1.4056945e-05
000100 d1 e0 a3 b6 30 cc 63 b7 01 1e d0 35 f7 a1 5d 34
       -4.8839506e-06 -1.35777955e-05 1.550594e-06 2.0641151e-07
000110 b7 6f 3a b5 69 03 e7 b5 89 46 8e b5 7f dd 05 b6
       -6.9452966e-07 -1.7211834e-06 -1.0600353e-06 -1.9947472e-06
000120 5c fe 11 38 b4 c2 cf 37 1a fe 55 36 01 1f de b6
       3.4807585e-05 2.4766989e-05 3.188738e-06 -6.619725e-06
000130 c6 a7 e6 b4 1d a4 a8 36 a1 aa b1 37 df cf 1d 35
       -4.296291e-07 5.0258955e-06 2.11795e-05 5.878955e-07
000140 35 91 34 b7 9e 18 a3 b7 2f 79 0e b7 cb e6 78 b7
       -1.0762645e-05 -1.9442577e-05 -8.492075e-06 -1.4835688e-05
000150 89 eb 01 36 e5 3f ba b6 fa c9 01 b7 3b 16 30 b7
       1.9359597e-06 -5.5506703e-06 -7.7360255e-06 -1.0495593e-05
000160 0d af 38 b6 0f 0b 73 b7 94 8d d6 b6 da ff 8c b6
       -2.752003e-06 -1.44865035e-05 -6.394179e-06 -4.20211e-06
000170 7e 6e d8 b4 a2 be 9d 35 f9 b0 cb 35 2a b4 58 b5
       -4.031353e-07 1.1752893e-06 1.5176184e-06 -8.0728444e-07
000180 3a d1 fa b3 0f 69 96 36 e8 59 7b 36 07 40 97 36
       -1.167959e-07 4.482579e-06 3.7454247e-06 4.5076044e-06
000190 df c3 2c 36 64 e9 cf 36 a4 59 39 36 8e ea 66 b6
       2.574401e-06 6.196251e-06 2.7619326e-06 -3.44092e-06
0001a0 7c ec c1 b6 8a de 09 b7 70 fc 1a b6 91 e5 2e b7
       -5.7793786e-06 -8.21765e-06 -2.3094726e-06 -1.0424658e-05
0001b0 9f 4d dd 34 c9 ac 20 35 6e e2 7e 34 51 9c 28 b3
       4.1220935e-07 5.985608e-07 2.3737968e-07 -3.9257717e-08
0001c0 d6 97 2e 35 e0 51 57 b3 c7 c3 ec 35 71 a1 a5 35
       6.5041e-07 -5.0133053e-08 1.7640349e-06 1.2340444e-06
0001d0 7d 2b 02 34 f0 88 33 b5 93 b5 b8 b4 ba 83 e9 b4
       1.2123014e-07 -6.6881967e-07 -3.4404783e-07 -4.3495476e-07
0001e0 15 e5 9b b6 f6 e2 fb 34 08 98 63 36 c1 3c 88 36
       -4.6460286e-06 4.691753e-07 3.391413e-06 4.0601885e-06
0001f0 27 f7 b5 35 c9 0b 2f 36 40 77 14 b6 88 a6 43 b6
       1.3557482e-06 2.6083892e-06 -2.2123131e-06 -2.9154198e-06
000200 a1 1c 98 b5 1d 40 a1 b5 95 63 fa b5 6c 5b 20 b6
       -1.1333215e-06 -1.2014094e-06 -1.8655434e-06 -2.3895072e-06
000210 14 7d e4 b6 2d 7d a9 b4 1b ec 40 36 37 37 84 36
       -6.8094905e-06 -3.156978e-07 2.874766e-06 3.9403344e-06
000220 73 4b 44 36 2c 25 10 36 b2 de 88 b6 99 2e 64 b6
       2.9250193e-06 2.147931e-06 -4.079041e-06 -3.400177e-06
000230 d8 90 7c b5 68 81 8c b4 28 df 60 b5 44 5e 14 b6
       -9.408809e-07 -2.6171188e-07 -8.377124e-07 -2.2108588e-06
000240 cd 78 a4 b7 62 27 fb b6 f1 40 68 36 dc d6 22 37
       -1.9606576e-05 -7.4849677e-06 3.4608495e-06 9.705978e-06
000250 58 85 a7 36 2f 1b a0 36 7d af a4 35 45 7b ae 35
       4.992511e-06 4.771536e-06 1.2270026e-06 1.2999886e-06
000260 b6 a2 74 35 49 68 92 34 7b 48 8c b5 62 bc f6 34
       9.113386e-07 2.7270497e-07 -1.0451907e-06 4.5958137e-07
000270 41 84 08 37 ef 22 ba 36 6f 63 45 35 a6 e4 83 b5
       8.137024e-06 5.5472988e-06 7.3532914e-07 -9.826806e-07
000280 c0 cf 27 b5 44 22 ed 35 07 3c 71 37 1e 3e 5c 37
       -6.2514664e-07 1.7667849e-06 1.4378696e-05 1.3127485e-05
000290 93 20 80 36 b0 85 ee 33 7a f9 bf 35 39 fb ba 36
       3.8184894e-06 1.1107056e-07 1.4303216e-06 5.572478e-06
0002a0 3a 86 12 36 b8 e7 2c 36 3a b3 8f 35 e8 bf 01 35
       2.1833825e-06 2.5764875e-06 1.0706492e-06 4.8335505e-07
0002b0 55 36 ac 35 7b 36 b2 35 32 0a 5f 37 58 b9 ca 36
       1.2830811e-06 1.3277889e-06 1.329421e-05 6.041646e-06
0002c0 78 35 d3 b5 84 de ac b6 b0 95 07 b6 4d 56 06 b6
       -1.5736287e-06 -5.1519037e-06 -2.0203697e-06 -2.001779e-06
0002d0 2c 18 9b b4 fc fc 50 b4 fb a5 08 b4 42 81 81 32
       -2.8888587e-07 -1.9463545e-07 -1.272637e-07 1.5076356e-08
0002e0 4a 16 3c 32 61 c3 7b b3 ed 40 b6 b6 5f a5 c9 b6
       1.0948108e-08 -5.8618188e-08 -5.431581e-06 -6.0095185e-06
0002f0 8e 8b 3a b6 df 54 53 b5 7f e0 67 b5 91 8a 5c b6
       -2.7797391e-06 -7.872713e-07 -8.638089e-07 -3.286321e-06
000300 4a cc 67 37 82 33 27 37 66 71 e0 35 a8 d4 c2 b5
       1.3816238e-05 9.965968e-06 1.6722304e-06 -1.4516017e-06
000310 ff 9f 1c 35 41 73 2b 36 a7 2b 7e 36 71 a0 7a b5
       5.8347354e-07 2.5548072e-06 3.7874358e-06 -9.336573e-07
000320 89 30 46 b6 2c 07 97 b6 e3 7b 6f b6 df bf 8c b6
       -2.953255e-06 -4.5009856e-06 -3.5685887e-06 -4.194662e-06
000330 b6 37 29 b5 f3 dd c1 32 7f 67 05 35 b7 66 17 35
       -6.3038476e-07 2.2569088e-08 4.969697e-07 5.6401353e-07
000340 6f ed df b4 32 64 d3 34 01 8b 82 b6 73 2c 6b b6
       -4.1709743e-07 3.9374714e-07 -3.890484e-06 -3.5043602e-06
000350 db e3 c4 b5 9f f4 e7 b5 e7 0a a4 b5 db d1 8f b6
       -1.4669453e-06 -1.7282035e-06 -1.2222125e-06 -4.2861625e-06
000360 b5 ea 1c b5 ee d9 57 35 fd 80 40 35 8f 70 d7 35
       -5.845607e-07 8.041087e-07 7.1713276e-07 1.6051507e-06
000370 87 ae ec 35 89 93 ed 35 e5 85 82 b4 a4 c0 cf b3
       1.7634164e-06 1.7700814e-06 -2.4311808e-07 -9.67423e-08
000380 84 29 c3 33 eb 49 50 33 db f4 ad b3 16 20 3b b4
       9.087947e-08 4.8496002e-08 -8.100479e-08 -1.7427405e-07
000390 23 98 4c 37 1f 98 3c 37 1d f1 73 36 a9 3d aa 34
       1.219477e-05 1.1241092e-05 3.6350168e-06 3.170983e-07
0003a0 65 9b a0 35 f4 7c 8d 36 cc 5f 4f b7 82 8f dc b6
       1.1966155e-06 4.216674e-06 -1.2360466e-05 -6.5732174e-06
0003b0 c3 ad 2d 35 59 af 0c 36 bd d0 74 34 59 fe ef b5
       6.470038e-07 2.0963691e-06 2.280021e-07 -1.7880913e-06
0003c0 ba e1 cb b6 60 aa 93 b6 ce 85 5e b5 38 be 18 36
       -6.0761495e-06 -4.4007757e-06 -8.2896156e-07 2.2760487e-06
0003d0 bc 4e ef 35 b1 d8 9e 35 95 f2 2c 37 c8 ff 60 36
       1.7829802e-06 1.1834983e-06 1.0308479e-05 3.3527485e-06
0003e0 fc fa 3a b6 67 39 b6 b6 0a d6 95 b6 44 50 49 b6
       -2.7862252e-06 -5.430705e-06 -4.4654635e-06 -2.9998055e-06
0003f0 b6 c4 58 37 14 17 fb 36 25 fb 52 b2 48 b9 38 b6
       1.2920404e-05 7.4830696e-06 -1.22807124e-08 -2.7525984e-06

exp_avg_sq f4 [60, 6]
000000 49 00 75 31 d7 48 a0 31 83 3d e3 30 23 77 6e 30
       3.5652354e-09 4.664894e-09 1.6533906e-09 8.67532e-10
000010 c2 7f 3f 31 99 05 e1 31 39 4d b8 30 b6 af 0b 31
       2.786678e-09 6.5489982e-09 1.340971e-09 2.0327042e-09
000020 46 51 92 30 23 ef 22 30 4f 8f 4a 30 75 db 13 31
       1.0645997e-09 5.927509e-10 7.3690826e-10 2.1516062e-09
000030 6b 16 7f 33 fb d7 84 33 11 08 53 32 af 12 f5 31
       5.9392203e-08 6.1860156e-08 1.22836505e-08 7.1325625e-09
000040 7c 75 9a 32 7e 39 7f 33 2e 30 1c 31 1e 70 17 31
       1.7981385e-08 5.9424103e-08 2.2728375e-09 2.2037123e-09
000050 68 bd c6 2f 98 f6 83 2f da 48 27 30 cb 53 10 31
       3.6150571e-10 2.4003977e-10 6.0857774e-10 2.1002389e-09
000060 9e 71 70 30 fc ca 4f 30 2c 90 0f 2f dc 0b da 2e
       8.747295e-10 7.559462e-10 1.3056994e-10 9.915599e-11
000070 14 1f 96 2f b2 04 61 30 59 fe ad 31 34 a4 f5 31
       2.7306923e-10 8.1861196e-10 5.0638786e-09 7.149106e-09
000080 72 bb 7b 31 35 6d f6 30 a1 4c a5 31 60 14 2a 32
       3.6631858e-09 1.7929894e-09 4.8108437e-09 9.899935e-09
000090 2c 0c 33 33 a4 cf 39 33 c8 78 12 32 72 85 ae 31
       4.1687755e-08 4.3262517e-08 8.525781e-09 5.0792375e-09
0000a0 2f 0d 68 32 f0 81 42 33 37 2d 46 33 dd 19 88 33
       1.3507175e-08 4.5287322e-08 4.614159e-08 6.337698e-08
0000b0 7b 4d ec 32 e7 0d 6c 32 6e 3e 01 33 19 8d af 33
       2.750925e-08 1.3740169e-08 3.0091933e-08 8.174738e-08
0000c0 8f e3 6e 32 8c 15 c0 32 23 fe 68 32 9b f0 e7 31
       1.3905164e-08 2.236154e-08 1.3561961e-08 6.7503385e-09
0000d0 46 69 54 32 64 99 fc 32 95 3b 82 33 f8 ef 8a 33
       1.23639605e-08 2.9406415e-08 6.0644346e-08 6.469776e-08
0000e0 4a 61 56 32 44 52 e7 31 41 2a 76 32 45 72 80 33
       1.247856e-08 6.7323374e-09 1.4328692e-08 5.98125e-08
0000f0 ae 34 93 33 5e 76 e9 33 f4 71 72 33 1f 65 ea 32
       6.854803e-08 1.0871439e-07 5.6448656e-08 2.728717e-08
000100 89 ab 64 33 dd e6 0b 34 a1 18 71 30 a0 3e 7c 30
       5.3241397e-08 1.3029371e-07 8.771029e-10 9.176606e-10
000110 45 67 5e 2f 17 a9 07 2f 9d 6d ab 2f 38 5a 71 30
       2.0227471e-10 1.2338251e-10 3.1182604e-10 8.78035e-10
000120 e9 9f bd 33 85 0e b9 33 e1 e5 37 32 f5 37 06 32
       8.830086e-08 8.617375e-08 1.070427e-08 7.81255e-09
000130 0c 7f 5d 32 05 f7 6e 33 b6 08 4d 34 06 05 5f 34
       1.289278e-08 5.5638356e-08 1.9095282e-07 2.0770321e-07
000140 de 9f 35 33 00 ba d0 32 2b e8 66 33 8c 46 55 34
       4.2287745e-08 2.429897e-08 5.3762204e-08 1.9862836e-07
000150 2c 2d 64 32 b5 1a 23 33 7b 20 2c 33 fb c0 a4 32
       1.3281618e-08 3.7975685e-08 4.007641e-08 1.917987e-08
000160 b0 25 19 33 ed 82 87 33 5b 8c 9f 31 ae 8c b7 31
       3.5657365e-08 6.3102426e-08 4.6434656e-09 5.3419944e-09
000170 b6 23 fb 30 b0 df 8c 30 7f 4a f5 30 e4 26 89 31
       1.8272803e-09 1.0249916e-09 1.7847269e-09 3.991646e-09
000180 65 4b dc 31 7b 87 13 32 fd 65 80 31 8f 99 fa 30
       6.411414e-09 8.587331e-09 3.736885e-09 1.8233538e-09
000190 03 24 9a 31 d2 3c 40 32 00 e1 3f 32 e3 3e ca 32
       4.486084e-09 1.11897e-08 1.1168822e-08 2.3544493e-08
0001a0 ef c3 ac 32 7b e8 28 32 c4 24 a2 32 d5 32 25 33
       2.0112536e-08 9.831747e-09 1.8876001e-08 3.8463288e-08
0001b0 2d 17 1c 2e c6 bf 54 2e 15 9f 5d 2e 56 c3 e4 2d
       3.5490878e-11 4.8373548e-11 5.0390876e-11 2.6007346e-11
0001c0 16 a6 5e 2e 85 06 b4 2e 8b ec ea 2f 35 a2 ef 2f
       5.062447e-11 8.1866104e-11 4.2732426e-10 4.3589102e-10
0001d0 09 81 a8 2e df 91 5e 2e 8a e3 bb 2e d4 e9 b2 2f
       7.662677e-11 5.0606516e-11 8.5441945e-11 3.2544156e-10
0001e0 94 39 3c 32 de df 4c 32 66 6f 39 31 05 db e0 30
       1.0956132e-08 1.1925264e-08 2.6984366e-09 1.6360394e-09
0001f0 eb 63 1b 31 8a 4f 4e 32 a5 13 b8 2f 04 a8 12 30
       2.2612265e-09 1.2008863e-08 3.3483363e-10 5.3353255e-10
000200 97 58 9a 2f 94 66 3b 2f 83 22 d0 2f ad 67 52 30
       2.8075384e-10 1.7043994e-10 3.7859502e-10 7.6544887e-10
000210 54 e1 61 32 72 29 81 32 06 be 7a 31 dd 6a 09 31
       1.3147957e-08 1.5036424e-08 3.6487804e-09 1.9996869e-09
000220 98 6f 97 31 98 27 76 32 84 ab 62 2f 20 f1 54 2f
       4.407365e-09 1.4328087e-08 2.0615515e-10 1.9366952e-10
000230 eb 12 dc 2d 23 9c 9a 2d 97 ea eb 2d 89 da 0d 2f
       2.5019506e-11 1.7577112e-11 2.6820586e-11 1.2901515e-10
000240 c8 19 8d 33 2f ad 94 33 f1 31 4d 32 5c 8a f5 31
       6.570514e-08 6.923289e-08 1.1943926e-08 7.146168e-09
000250 4f a7 8c 32 d9 a7 6d 33 b2 ca 79 30 5f aa 19 31
       1.6374228e-08 5.533352e-08 9.087372e-10 2.2361275e-09
000260 d7 4c 02 31 4e 2d 90 30 cb 51 bb 30 03 9a 4a 31
       1.8961168e-09 1.0490255e-09 1.3629288e-09 2.9482414e-09
000270 a5 2f 5b 31 b6 f4 7b 31 f8 89 36 30 35 bd ce 2f
       3.1895777e-09 3.666441e-09 6.640728e-10 3.7605621e-10
000280 2b 72 3c 30 51 fc 20 31 65 36 ae 31 2d 3f be 31
       6.8556244e-10 2.342649e-09 5.0702504e-09 5.53691e-09
000290 df 22 91 30 6a 48 26 30 f7 1a 65 30 31 27 54 31
       1.056005e-09 6.0493355e-10 8.3348034e-10 3.0872338e-09
0002a0 61 d8 d7 2e c4 62 fb 2e 47 c3 ed 2e 77 eb b4 2e
       9.815505e-11 1.1431703e-10 1.08122004e-10 8.227279e-11
0002b0 bf 72 09 2f 47 75 24 2f 85 29 13 33 c1 4b 10 33
       1.2500843e-10 1.4957378e-10 3.4263866e-08 3.359651e-08
0002c0 ce a6 9e 31 d7 eb 41 31 89 81 e6 31 44 42 f6 32
       4.6173687e-09 2.8219256e-09 6.7086074e-09 2.8668303e-08
0002d0 fa 76 cf 2e 00 71 a4 2e d4 be e1 2d ec bd 8c 2d
       9.4344046e-11 7.4779294e-11 2.5664283e-11 1.60005e-11
0002e0 35 9a 01 2e b4 4a da 2e 64 38 2b 31 ca 24 85 31
       2.9468167e-11 9.926762e-11 2.491583e-09 3.874992e-09
0002f0 d7 09 18 31 0b 2e 9f 30 bc 27 d9 30 61 d2 8d 31
       2.2124504e-09 1.1581859e-09 1.5800121e-09 4.1275574e-09
000300 2f e0 85 32 30 24 6d 32 81 1a c1 30 da de 88 30
       1.5585185e-08 1.3803444e-08 1.4050131e-09 9.958641e-10
000310 44 28 12 31 14 52 2b 32 25 1e 2f 32 d7 86 2b 32
       2.1268685e-09 9.972172e-09 1.0193195e-08 9.984169e-09
000320 7b 6d ef 30 84 ef a9 30 0d 57 41 31 21 3f 23 32
       1.7420655e-09 1.2364443e-09 2.813468e-09 9.502203e-09
000330 0a 47 fe 2f 2b 95 b3 30 50 35 cc 30 31 11 69 30
       4.6252807e-10 1.306636e-09 1.4858106e-09 8.4789337e-10
000340 22 24 c6 30 74 92 21 31 4c e1 57 30 02 4d 12 30
       1.4416666e-09 2.3511832e-09 7.853671e-10 5.3223925e-10
000350 3b 44 04 2f e0 c8 10 2f ac b4 6d 2f fd 61 65 30
       1.202957e-10 1.3168089e-10 2.1619212e-10 8.3448964e-10
000360 3d 86 1d 31 f9 1c 20 31 fa 30 50 30 1c 41 fe 2f
       2.2922813e-09 2.3299533e-09 7.573956e-10 4.6248594e-10
000370 92 8c 62 30 59 b0 28 31 8d 7b c2 2d ea c4 d5 2d
       8.2418083e-10 2.454746e-09 2.2110114e-11 2.4302744e-11
000380 6a 83 c3 2d e2 53 6e 2d b3 b2 0a 2e 29 ab 0b 2e
       2.2227293e-11 1.3547359e-11 3.1536284e-11 3.175696e-11
000390 3e a6 b7 31 5f 9f c6 31 58 76 a5 30 ba 35 39 30
       5.3449005e-09 5.780677e-09 1.2038965e-09 6.737896e-10
0003a0 63 8b 7b 30 0d d5 81 31 c2 ca 6d 32 50 a3 85 32
       9.151135e-10 3.778615e-09 1.3841317e-08 1.5557504e-08
0003b0 1a 12 78 31 9c a8 ee 30 7a 36 83 31 9d c3 63 32
       3.609904e-09 1.7364701e-09 3.818795e-09 1.3257616e-08
0003c0 f7 41 ea 31 3e 32 06 32 33 ce 22 31 a3 7e d3 30
       6.8177957e-09 7.81125e-09 2.3691313e-09 1.5388263e-09
0003d0 70 54 0e 31 02 37 e6 31 d5 b3 c4 32 92 7e c5 32
       2.0711717e-09 6.7001347e-09 2.2899181e-08 2.2991376e-08
0003e0 04 af 79 31 f0 99 2e 31 40 90 a7 31 02 d5 97 32
       3.6333754e-09 2.5407836e-09 4.876739e-09 1.7675578e-08
0003f0 ca 15 40 32 09 52 59 32 40 b6 27 31 f2 d1 b4 30
       1.1180825e-08 1.2649715e-08 2.4405296e-09 1.3156394e-09

exp_avg f4 [60]
000000 74 e2 c8 36 c3 04 0c b6 4e 43 8e b5 8b ea e2 b4
       5.986827e-06 -2.0864397e-06 -1.0599413e-06 -4.2266433e-07
000010 11 3f a6 35 07 09 bb 36 ee 73 97 b6 d3 b3 38 b7
       1.2386319e-06 5.574085e-06 -4.5136467e-06 -1.1009123e-05
000020 b6 e1 13 36 08 37 57 b6 60 a8 7f b6 35 b6 ea b4
       2.2036088e-06 -3.206953e-06 -3.8095968e-06 -4.371847e-07
000030 d6 d3 b2 37 e1 c2 12 b6 f3 93 0f b7 8c 61 4a b6
       2.1317897e-05 -2.186913e-06 -8.557911e-06 -3.0157125e-06
000040 e3 de 7f 36 ff d3 ae b6 8f 24 e0 34 a2 06 39 35
       3.8127698e-06 -5.2102837e-06 4.174985e-07 6.892752e-07
000050 2a 6a 98 35 f7 a9 41 b6 e7 f0 75 b5 bb 64 8e b6
       1.135578e-06 -2.8858174e-06 -9.162017e-07 -4.2436563e-06
000060 92 0b c3 b6 6e 32 12 35 39 50 a4 36 a1 6d 4d 37
       -5.8128e-06 5.4462623e-07 4.89692e-06 1.2244477e-05
000070 1f fe 33 36 a4 04 a5 36 41 6f 13 b5 27 9f c1 b6
       2.6820996e-06 4.9179234e-06 -5.4923663e-07 -5.770376e-06
000080 11 e6 1e 37 cb 6f 0b b6 17 81 0d b5 43 8e a1 b6
       9.4711e-06 -2.0777686e-06 -5.2714444e-07 -4.8147353e-06
000090 b7 75 76 35 d2 c3 c0 b3 62 80 2d 37 e8 a5 e1 b6
       9.181344e-07 -8.976316e-08 1.0341495e-05 -6.7248366e-06
0000a0 c1 93 36 b6 94 46 5f 35 37 63 ff 36 d9 76 98 36
       -2.7206117e-06 8.317668e-07 7.6111423e-06 4.5437887e-06
0000b0 1e 5a 23 37 85 ab cf 36 79 39 44 b6 36 de 92 b6
       9.736539e-06 6.1890482e-06 -2.923973e-06 -4.377008e-06
0000c0 fb bc 8c 35 ee 86 50 36 c8 06 8e 36 fc 61 b7 b6
       1.0485813e-06 3.1072955e-06 4.232719e-06 -5.465232e-06
0000d0 4e d2 8e 36 96 a8 c9 35 0b bd 0a 36 70 bb 13 b7
       4.2564125e-06 1.5024732e-06 2.067364e-06 -8.805524e-06
0000e0 88 b1 a6 b6 5a 19 0a 37 dc 35 02 b5 00 5e 29 32
       -4.967853e-06 8.231344e-06 -4.850715e-07 9.858468e-09

exp_avg_sq f4 [60]
000000 52 a3 5f 32 e0 cb b3 31 b7 96 06 34 3d 6f 99 31
       1.3017443e-08 5.2327636e-09 1.2534552e-07 4.4655324e-09
000010 b2 b3 de 30 44 c7 b3 32 55 2f c8 33 e8 5d 3a 34
       1.6203698e-09 2.0928958e-08 9.3218354e-08 1.7356763e-07
000020 ea 62 8f 33 bf 55 06 34 0c cb 9d 34 90 fe 04 31
       6.676949e-08 1.2510917e-07 2.9391265e-07 1.935323e-09
000030 51 98 05 34 1c 10 e0 34 49 4d 24 34 58 1f 31 32
       1.2442003e-07 4.1734972e-07 1.5301806e-07 1.0309883e-08
000040 cc 78 d1 32 b3 fe b9 33 94 13 46 2f e5 7e 51 30
       2.4385734e-08 8.661063e-08 1.801495e-10 7.6214085e-10
000050 ed ac d0 32 36 e8 f8 30 71 cb 02 33 ba f5 9e 2f
       2.4293024e-08 1.8110373e-09 3.0453013e-08 2.8914632e-10
000060 76 f5 03 34 7e 2a f8 31 2d 35 b1 31 8d cd 0a 32
       1.2289624e-07 7.2225808e-09 5.1574234e-09 8.079394e-09
000070 b1 e1 e6 2f 18 26 7d 33 06 61 57 2f 49 db 2e 32
       4.199712e-10 5.89408e-08 1.9588606e-10 1.0177993e-08
000080 ac e1 b5 32 05 9b ac 32 5e c9 b3 31 78 6a b3 30
       2.1173797e-08 2.009393e-08 5.2324785e-09 1.3054224e-09
000090 a4 ac bf 31 c0 b4 a7 2e f6 ec 1b 32 14 f0 ee 32
       5.5784586e-09 7.6263884e-11 9.076066e-09 2.7816021e-08
0000a0 f8 77 8a 32 9a 7f 25 33 da d0 ad 32 75 49 01 34
       1.611987e-08 3.853311e-08 2.0234825e-08 1.2040785e-07
0000b0 eb 4b 01 36 f5 7e 19 33 b8 d6 de 33 73 27 65 31
       1.9266688e-06 3.5738555e-08 1.0376738e-07 3.334631e-09
0000c0 b1 e4 4a 2e 59 58 37 33 f8 e5 16 33 01 27 9a 32
       4.61326e-11 4.268836e-08 3.5133752e-08 1.7945696e-08
0000d0 4a 99 04 33 5f 3c ff 30 a1 5c dc 30 92 94 17 31
       3.087306e-08 1.857085e-09 1.6033433e-09 2.2057844e-09
0000e0 10 c9 29 33 9d 3a af 32 e7 1e 17 34 c1 96 15 34
       3.9531244e-08 2.0399336e-08 1.4074213e-07 1.393155e-07
