mnc_ml_test/output/best/20221127-2300-model-test9.pth (torch, 67165 bytes, 21 tensors)

module.0.weight f4 [60, 12]
0	0xbf08401d	-0.5322283
1	0x3e7345fd	0.23757167
2	0xbeda77f9	-0.42669657
3	0x3e128931	0.14310147
4	0x3e110ba1	0.14164592
5	0xbe29dc58	-0.1658796
6	0x3e45b453	0.1930707
7	0xbc9c53d1	-0.019082936
8	0xbe16483a	-0.1467599
9	0xbdbd5370	-0.0924443
10	0xbe382d1a	-0.17985955
11	0xbc9e5f68	-0.019332603
12	0xbdc55376	-0.096350595
13	0xbe43cf25	-0.19121988
14	0xbefda287	-0.4953806
15	0x3e4b7ded	0.19872256
16	0xbb0ea503	-0.0021765835
17	0x3c553ebd	0.013015446
18	0xbe3b5a10	-0.18296075
19	0xbdaf0ca8	-0.08547336
20	0xbe8b4055	-0.2719752
21	0x3e9fd149	0.3121436
22	0x3d9dca85	0.07704643
23	0x3e3ecd11	0.18632914
24	0xbe7c77a4	-0.24655014
25	0xbddc780a	-0.10765083
26	0xbdb270f8	-0.08712953
27	0x3e2f2019	0.17102088
28	0xbc6eaa18	-0.014566921
29	0x3d354047	0.044250753
30	0xbcaa924f	-0.020821718
31	0x3e59e179	0.21277417
32	0xbe1693c5	-0.14704807
33	0x3dd409f7	0.10353463
34	0x3d5ce3b4	0.053928092
35	0x3d8e7709	0.06956298
36	0xbdf9b1e7	-0.12192135
37	0xbc252e5e	-0.010081856
38	0xbe149557	-0.14510094
39	0x3d86965a	0.06571646
40	0xbc5c3d64	-0.013442371
41	0xbe2e4bc7	-0.17021094
42	0xbca3651c	-0.019945674
43	0x3cd28dee	0.025702443
44	0xbd42ec89	-0.04758886
45	0x3e493315	0.19648392
46	0xbcde9bd7	-0.02717392
47	0xbda4cd50	-0.08046973
48	0xbc0b9c15	-0.0085211
49	0xbd321a7d	-0.043482292
50	0x3bddd0e5	0.006769287
51	0x3e4d63e6	0.2005764
52	0x3e4d2c4c	0.20036429
53	0xbde319cc	-0.11088905
54	0xbe0d9507	-0.1382638
55	0xbd8cfb21	-0.068838365
56	0xbda72881	-0.081620224
57	0x3e4a5153	0.19757585
58	0x3c8d7046	0.01726545
59	0x3dcd3c1d	0.10021231
60	0x3c665447	0.014058179
61	0x3a08990b	0.00052107935
62	0xbbdb7060	-0.0066967458
63	0x3c943fe2	0.018096868
64	0x3c42ecdf	0.011897295
65	0x3bd6d973	0.0065566837
66	0xbcd46b68	-0.025930122
67	0x3a03d280	0.00050286204
68	0xbb852942	-0.004063756
69	0x3c0780ef	0.008270486
70	0xba79c762	-0.00095283065
71	0xba34f8e5	-0.0006903543
72	0xba3641b8	-0.0006952542
73	0xb942f1d1	-0.00018591365
74	0x3aa24f9d	0.0012383346
75	0xbab70339	-0.0013962752
76	0xba86d61f	-0.0010287202
77	0x3a30d568	0.0006745667
78	0xbba635db	-0.005072338
79	0x3a767c07	0.0009402637
80	0xba88b1ea	-0.0010428999
81	0xbaf1f7cc	-0.001846069
82	0xbaac3498	-0.0013138233
83	0x3ad3d1bf	0.0016160532
84	0xbd48861d	-0.048956025
85	0xbe8a24c4	-0.26981175
86	0x3eebea26	0.4607708
87	0x3d4737dd	0.04863726
88	0x3e03b143	0.12860589
89	0x3d8e7a7d	0.069569565
90	0x3bedbafc	0.0072549563
91	0x3e400874	0.18753225
92	0x3e36fc5a	0.17869702
93	0xbdf2b463	-0.11850812
94	0x3e5dbeaf	0.21654771
95	0xbb4dfe6d	-0.0031432167
96	0xbc208b3c	-0.009798821
97	0x3eeeaf38	0.46618056
98	0xbf53fd01	-0.8280793
99	0x3e045123	0.12921576
100	0x3ddf19f4	0.10893622
101	0xbe919e03	-0.28440866
102	0xbe995b12	-0.29952294
103	0xbbfe9125	-0.0077687674
104	0xbea88b50	-0.32918787
105	0xbd809649	-0.062786646
106	0xbd1f6d01	-0.038922314
107	0xbca48a62	-0.020085517
108	0xbd1f1a02	-0.038843162
109	0x3da5c4e7	0.08094197
110	0xbd8bb280	-0.068211555
111	0xbe9b57ad	-0.3034033
112	0x3c8faf3f	0.017539619
113	0xbd6bb524	-0.057545796
114	0x3d76aff5	0.0602264
115	0xbe3ab44d	-0.18232842
116	0x3e009449	0.12556566
117	0x3d02c0ad	0.03192203
118	0xbe0e0583	-0.1386929
119	0xbe1ac064	-0.15112454
120	0xbcd4c31f	-0.025971947
121	0x3e5ce7dc	0.21572822
122	0xbe2017c0	-0.1563406
123	0x3d0ccd0c	0.034375235
124	0xbd296371	-0.0413546
125	0x3d73ef43	0.05955435
126	0xbd25c0e6	-0.040467165
127	0x3e02cc2d	0.127732
128	0xbdd1fe3c	-0.102535695
129	0x3e208c51	0.15678526
130	0x3d9f615a	0.0778224
131	0xbd8a5d8c	-0.06756124
132	0x3e051baa	0.12998834
133	0xbf139f3f	-0.57664865
134	0x3f15e5ac	0.58553576
135	0xbe823b56	-0.25435895
136	0x3e0691cc	0.13141555
137	0x3eb3523d	0.3502368
138	0xbe9a72b0	-0.30165625
139	0x3e7df342	0.24799827
140	0x3eacf5a6	0.33781165
141	0xbd5db40b	-0.05412678
142	0xbe8989b9	-0.26862887
143	0x3db32a4d	0.087483026
144	0x3e0cd97d	0.1375484
145	0xbdca7d3b	-0.09887167
146	0x3e643c61	0.22288658
147	0xbcdf4049	-0.027252333
148	0x3d95b99e	0.07310794
149	0x3e6e1fac	0.2325427
150	0x3d3e81cf	0.046510514
151	0x3e10b97b	0.14133255
152	0x3e00c165	0.12573774
153	0xbe0764fd	-0.13222118
154	0xbbd24f23	-0.0064181252
155	0xbda0735d	-0.07834504
156	0xbe6dbf26	-0.23217449
157	0xbe4286d9	-0.18996753
158	0xbe487efe	-0.19579694
159	0x3ccc0ebe	0.024909373
160	0x3d84fad7	0.064931564
161	0x3dd59a55	0.10429827
162	0x3e8baf01	0.27281955
163	0x3cc58214	0.024109878
164	0x3d30bcaf	0.043148693
165	0x3e250110	0.16113687
166	0x3b95b691	0.0045688828
167	0x3d493374	0.049121335
168	0xbf01dfdd	-0.50732213
169	0x3d037d6e	0.03210204
170	0xbeb9a82b	-0.36261114
171	0xbd2d1818	-0.042259306
172	0x3dfb51d5	0.122714676
173	0xbe6ca6e1	-0.23110534
174	0xbe5166bb	-0.20449345
175	0x3e75b1d1	0.23993613
176	0xbf16bcbc	-0.58881736
177	0x3e9ecafb	0.31014237
178	0xbe47ffa0	-0.19531107
179	0x3df3fcd8	0.119134605
180	0xbe1399bc	-0.14414114
181	0xbe57e7cf	-0.21084522
182	0xbec200b0	-0.3789115
183	0xbeb04732	-0.34429318
184	0xbd7d0de6	-0.061780833
185	0x3e8edecf	0.27904364
186	0xbed63e75	-0.41844526
187	0xbdba1e60	-0.09087825
188	0x3d18854a	0.03723649
189	0xbe909e72	-0.28245884
190	0xbd619102	-0.05506993
191	0xbc3fb132	-0.0116999615
192	0xbe3d4977	-0.18485056
193	0x3e84b63f	0.25920293
194	0xbe814999	-0.25251463
195	0xbe302345	-0.17200954
196	0xbd6fe628	-0.058569103
197	0x3de539ed	0.11192689
198	0xbe6dcddc	-0.2322306
199	0xbe328c63	-0.17436366
200	0x3d8f6026	0.07000761
201	0xbda41448	-0.08011681
202	0x3e10b041	0.14129736
203	0x3c270e65	0.010196303
204	0x3ddfb0df	0.10922407
205	0x3b540bfa	0.0032355771
206	0x3f04ab2f	0.51823705
207	0x3d271f7c	0.04080151
208	0xbd921f45	-0.071348704
209	0x3e5449b9	0.20731248
210	0xbe5f8876	-0.218294
211	0xbde6b878	-0.11265653
212	0x3e9e4eab	0.30919394
213	0xbe6a4d50	-0.22881055
214	0xbd64e6f4	-0.055884317
215	0xbe13ea8f	-0.14444946
216	0xbf1da7de	-0.6158427
217	0x3d995c8d	0.07488356
218	0xbee9e677	-0.45683643
219	0x3e88db29	0.26729706
220	0x3dd2c210	0.10290921
221	0xbd92c349	-0.07166154
222	0x3e77a68d	0.24184628
223	0x3e40575b	0.18783323
224	0xbe940080	-0.2890663
225	0xbd49975b	-0.04921661
226	0x3d30c484	0.043156162
227	0xbd896d03	-0.067102455
228	0x3d523cd5	0.051327545
229	0xbb96a524	-0.004597323
230	0x3e307804	0.17233282
231	0x3d44937f	0.047992226
232	0x3dec6161	0.11542011
233	0x3dce9b12	0.10088171
234	0x3d219b22	0.039454587
235	0xbdd502ed	-0.10400949
236	0x3e5c62be	0.21522042
237	0xbe5e78d8	-0.21725786
238	0x3db3cf5f	0.08779787
239	0x3b8a0eba	0.0042131813
240	0xbc9b42c0	-0.018952727
241	0x3ee24374	0.44192088
242	0xbf2ee0de	-0.6831187
243	0x3e26d7c6	0.16293249
244	0x3cc50cb9	0.024053918
245	0xbe774c77	-0.24150263
246	0xbcc537d6	-0.024074476
247	0x3e873781	0.26409534
248	0xbe3ffe99	-0.18749465
249	0x3d59fec5	0.053221483
250	0x3d15cbd8	0.036571354
251	0xbd52ac6e	-0.051433973
252	0xbe9bb0d5	-0.3040835
253	0xbe80f9bf	-0.2519054
254	0xbd5a11a5	-0.053239483
255	0xbe917626	-0.28410453

module.0.bias f4 [60]
0	0x3e745a58	0.23862588
1	0xbe03ad62	-0.12859109
2	0xbc41aecc	-0.01182146
3	0xbe1e0b4d	-0.15433998
4	0xbe5d9706	-0.21639642
5	0xbcd45885	-0.025921116
6	0xbba635e0	-0.0050723404
7	0xbe6212fc	-0.22077554
8	0x3d82d497	0.063882045
9	0xbcd79755	-0.026317278
10	0xbd93cd4d	-0.072168924
11	0xbe8fd6a5	-0.28093448
12	0xbe4ecb7e	-0.20194814
13	0x3d83a0b2	0.064271346
14	0x3e0c114c	0.13678473
15	0xbea44175	-0.3208119
16	0xbe4a5b03	-0.1976128
17	0x3e047190	0.12933946
18	0x3ecfb411	0.40567067
19	0x3d802df0	0.06258762
20	0x3c214902	0.009844067
21	0x3e45f938	0.1933335
22	0x3d87084b	0.06593379
23	0x3e011a60	0.12607718
24	0xba070452	-0.0005150485
25	0xbd2c0b74	-0.04200311
26	0x3e0cc073	0.13745289
27	0xbd44f4af	-0.04808491
28	0xbe22ef0a	-0.15911499
29	0xbe9f2896	-0.31085652
30	0x3d810f45	0.063017406
31	0x3d7c588e	0.06160789
32	0xbe663664	-0.22481686
33	0xbdc9190b	-0.0981923
34	0xbde83de4	-0.1133993
35	0xbdb3d076	-0.08779995
36	0xbe3dfd0c	-0.18553561
37	0xbda2f715	-0.079572834
38	0x3e9d5d66	0.3073532
39	0xbdac4b54	-0.08412805
40	0x3e905082	0.28186423
41	0xbe0147e3	-0.12625079
42	0xbdbbbfb2	-0.09167422
43	0xbd6f47c8	-0.058418065
44	0xbe825ef3	-0.25463066
45	0xbc0c4b5e	-0.008562891
46	0xbe6866bd	-0.22695442
47	0xbe0466df	-0.12929867
48	0xbe1357cf	-0.14388965
49	0x3e6e6378	0.23280132
50	0xbc35165b	-0.011052693
51	0xbe073a5d	-0.13205858
52	0xbc149057	-0.009067616
53	0xbdc18aa2	-0.0945027
54	0xbe0986c9	-0.13430323
55	0xbe026852	-0.12735108
56	0xbdbdf364	-0.09274939
57	0xbd5a319a	-0.05326996
58	0x3eaddc43	0.3395711
59	0x3e0a207c	0.13488954

module.2.weight f4 [60, 60]
0	0xbcade1ea	-0.021225888
1	0x3bf8094c	0.0075694676
2	0xb9d3d1c0	-0.00040401332
3	0x39bfb330	0.00036563864
4	0xbb7fc81e	-0.0039029191
5	0xb7b81eae	-2.1948796e-05
6	0x36918a34	4.3374257e-06
7	0xbbd001ea	-0.0063478844
8	0xba788471	-0.00094801845
9	0xbc5e6acc	-0.013575267
10	0x3a00fdd9	0.0004920639
11	0x3ac5da4d	0.0015094966
12	0xba9cbe80	-0.0011958629
13	0xbc452b4d	-0.0120342495
14	0x3a3f983a	0.00073087553
15	0xba297e49	-0.00064656563
16	0x3aa6513a	0.0012689002
17	0xbbc3591c	-0.0059615504
18	0xbcbb688f	-0.022877006
19	0xbca8036f	-0.02050945
20	0xbc3661f1	-0.0111317495
21	0xbc353eb8	-0.011062317
22	0xbc72163e	-0.014775811
23	0xbb091fc6	-0.002092348
24	0xb5b29648	-1.3305771e-06
25	0xb9e7c1e0	-0.00044204202
26	0xbcae13bb	-0.021249643
27	0x379839aa	1.8146664e-05
28	0x3a29625b	0.00064614945
29	0x39bce7dd	0.00036030906
30	0xbb710938	-0.0036779176
31	0xbb32bed9	-0.0027274399
32	0xbb4907e1	-0.0030674862
33	0xbb990d85	-0.004670801
34	0xbb763b1b	-0.003757185
35	0xbb4dd4c7	-0.0031407343
36	0xbb3a0e9f	-0.0028390063
37	0xba40f77b	-0.0007361096
38	0xbcaa5035	-0.020790199
39	0x383eb8b2	4.547154e-05
40	0xbc182c77	-0.009287945
41	0xbc70ec7e	-0.014704822
42	0xbcb47d55	-0.02203242
43	0xb8653947	-5.46512e-05
44	0xbb6a3026	-0.0035734265
45	0x37ca78f8	2.4136607e-05
46	0x3a3cd334	0.00072031026
47	0x3c1f69f3	0.00972985
48	0xbae38661	-0.0017358774
49	0xbc96befb	-0.018401613
50	0xbc23d779	-0.010000103
51	0xbb3d8012	-0.0028915447
52	0xbbd0433a	-0.0063556703
53	0xbb2f88d3	-0.0026784434
54	0xbbb2ea80	-0.0054600835
55	0xba4fa44d	-0.0007920906
56	0xbc0c5deb	-0.008567314
57	0xba829af8	-0.0009964397
58	0xbcb905a5	-0.0225857
59	0xbc8df26d	-0.017327512
60	0xb9301adf	-0.00016794678
61	0xb6699210	-3.4804725e-06
62	0x39170b3a	0.00014404664
63	0x3865f202	5.4823242e-05
64	0xb9a4a4bf	-0.00031403263
65	0xb4a564b0	-3.0806905e-07
66	0x342822a4	1.5658821e-07
67	0x399ed4f8	0.00030294782
68	0xb76431f6	-1.3601491e-05
69	0x394ca608	0.00019516808
70	0xb788890a	-1.6276277e-05
71	0x38bfc65e	9.1445385e-05
72	0x393c50d7	0.00017959192
73	0x39c40033	0.00037384182
74	0x395d988d	0.00021133032
75	0x385a488c	5.2042815e-05
76	0x38859de0	6.371341e-05
77	0x38110d46	3.4583056e-05
78	0xbabf7b5d	-0.0014608909
79	0x3a197d04	0.00058551156
80	0x392cf841	0.0001649568
81	0x39a60721	0.000316673
82	0x3a44f1f8	0.0007512863
83	0x3735708e	1.0814647e-05
84	0xb36253ec	-5.2696052e-08
85	0xb7c7b9d4	-2.3809182e-05
86	0xb70f44da	-8.539495e-06
87	0xb8f22126	-0.000115456336
88	0xb7bbe762	-2.2399883e-05
89	0x39533fa8	0.00020146242
90	0xb97f6593	-0.00024356534
91	0x394ac29b	0.00019336717
92	0xb926c874	-0.00015905668
93	0x39436532	0.00018634347
94	0x39367a76	0.00017402493
95	0xb9478bba	-0.00019030171
96	0xb8899c89	-6.561826e-05
97	0xb981f676	-0.00024788425
98	0xba7eebb7	-0.00097244553
99	0x38106916	3.4430144e-05
100	0x3a2b0f52	0.0006525415
101	0x392c3c4e	0.00016425663
102	0x398f88f8	0.00027377135
103	0xb69f0864	-4.739546e-06
104	0x38e170d2	0.000107498505
105	0x35b4c0ab	1.3467119e-06
106	0x3932440d	0.00017000754
107	0x393bc6f4	0.00017907826
108	0xb9aa5e33	-0.0003249511
109	0xb93338bd	-0.00017091907
110	0x3856c1cc	5.1202063e-05
111	0xb8ee7832	-0.000113711125
112	0x39497c2a	0.00019215108
113	0x38fbec7f	0.000120126635
114	0x398d68b1	0.00026971617
115	0x38d05896	9.934713e-05
116	0x39cd49fa	0.00039155764
117	0xb91f406c	-0.0001518742
118	0xb8e247ac	-0.0001078987
119	0x389ebfc8	7.569749e-05
120	0x3e4a143b	0.1973428
121	0xbd8904ee	-0.066903934
122	0x3cc56ba8	0.024099186
123	0x3bc99e0c	0.006152874
124	0x3c2d0d0e	0.0105621945
125	0xbb4c8b32	-0.0031210897
126	0x399b9a56	0.00029678893
127	0x3db8a791	0.09016336
128	0xbdeb48c3	-0.114884876
129	0x3d4c706c	0.0499119
130	0xbd56c347	-0.052432325
131	0x3d52e3f6	0.05148693
132	0xbd43e6e5	-0.04782762
133	0xbdf723f4	-0.120674044
134	0xbd82048e	-0.06348525
135	0xbd135ea0	-0.035978913
136	0xbb05eb83	-0.0020434565
137	0x3e79ba10	0.24387383
138	0xbde75836	-0.11296122
139	0xbdc922e3	-0.09821107
140	0xbd612a8d	-0.05497222
141	0xbe0cd9a2	-0.13754895
142	0xbe254b79	-0.16142072
143	0x3cc80dc6	0.02442063
144	0x384199e3	4.6158104e-05
145	0xbc562f18	-0.013072751
146	0xbd8d5a10	-0.06901944
147	0x3d875811	0.06608594
148	0x3bc42aed	0.0059865625
149	0x3e04e04f	0.12976192
150	0x3b09bf9b	0.0021018747
151	0xbda2f2ba	-0.07956453
152	0x3dbbc279	0.09167952
153	0xba8d1f03	-0.0010766689
154	0xbcb2b602	-0.021815304
155	0xbb84fe8b	-0.004058664
156	0xbc8819bb	-0.016613832
157	0xbe0127db	-0.1261286
158	0x3e592f0e	0.21209356
159	0xbd9af388	-0.07565981
160	0xbe479077	-0.19488703
161	0x3c93f4fc	0.018061154
162	0x3c806915	0.015675107
163	0xbb4fe11a	-0.0031719864
164	0xbbf7683d	-0.007550268
165	0xba13004e	-0.00056076504
166	0xbe653243	-0.22382455
167	0x3e9436cc	0.28948057
168	0xbca282fb	-0.019837847
169	0x3cc61593	0.02418021
170	0x3d8b8866	0.06813125
171	0xbd7fffd4	-0.062499836
172	0xbbd37bbe	-0.00645396
173	0x3ddde9b6	0.108355924
174	0xbdb93296	-0.090428516
175	0x3d00a384	0.03140594
176	0xbe014b4b	-0.12626378
177	0x3e4b6e4d	0.19866295
178	0x3b74a475	0.003732947
179	0xbe9c831b	-0.30568776
180	0xbc6012cf	-0.013676359
181	0x37db4be0	2.6142166e-05
182	0x3a08da58	0.0005220524
183	0x39deb0c0	0.0004247483
184	0xba82b649	-0.0009972538
185	0xb72c8599	-1.02831045e-05
186	0x345cfff8	2.0582218e-07
187	0x3aaf3596	0.001336741
188	0xb8b2b6a9	-8.5217245e-05
189	0xba19a88e	-0.00058616034
190	0x39a50497	0.00031474672
191	0x396620d6	0.00021946742
192	0x39fd971c	0.00048368506
193	0x3a39e307	0.00070910197
194	0x3a62582a	0.0008634353
195	0x38f1472c	0.00011505032
196	0x39f702ce	0.000471136
197	0xba7ac0ac	-0.00095654535
198	0xbc8be680	-0.017077684
199	0x3ab9fe23	0.0014190119
200	0xb9008602	-0.00012256953
201	0x3a848c31	0.0010112581
202	0xbb952e5d	-0.004552646
203	0xb91564a7	-0.00014247243
204	0xb4a36abb	-3.0438773e-07
205	0xb921fae3	-0.00015447619
206	0xbc839456	-0.016061943
207	0xb9c415e4	-0.00037400343
208	0x392f2a19	0.00016704983
209	0x39fa6a87	0.00047763085
210	0xbad7fc23	-0.0016478341
211	0xb9e9bf30	-0.0004458367
212	0x3b0cd4bf	0.0021489111
213	0x3a199869	0.00058591977
214	0xba51bc27	-0.0008000754
215	0xba8ff3a4	-0.0010982645
216	0xba2a7d21	-0.0006503631
217	0x3830c3a7	4.2143885e-05
218	0xbc6b8772	-0.014375554
219	0xb80db6f6	-3.3787415e-05
220	0xbb22a2e2	-0.0024816324
221	0xbae94916	-0.001779827
222	0xbbc211f2	-0.0059225494
223	0xb7c58f05	-2.3550829e-05
224	0x37a80c38	2.003285e-05
225	0x37244444	9.791056e-06
226	0xbb678671	-0.0035327936
227	0x39af7e4d	0.00033472702
228	0xba055747	-0.00050865527
229	0xbc1dd803	-0.009634021
230	0xb9b2c4a2	-0.00034097309
231	0xb9fa0b5e	-0.00047692185
232	0x3a7e1204	0.00096920156
233	0xb4b06b90	-3.2860817e-07
234	0x39cdd5b6	0.00039259874
235	0xbb9865c1	-0.004650802
236	0x3aa2223b	0.0012369821
237	0x38988c88	7.274101e-05
238	0xbc2be9ca	-0.010492751
239	0xbb78df76	-0.003797499
240	0x3dddbd32	0.10827102
241	0x3dbfc002	0.093627945
242	0x3deb96ee	0.11503397
243	0x3e085e32	0.13317183
244	0xbe24f1ef	-0.16107915
245	0x3b8a8bcd	0.0042280913
246	0x3b138b74	0.002251354
247	0x3d90dbbd	0.07073162
248	0x3eb74265	0.35792843
249	0xbdd46c8b	-0.103722654
250	0x3dcad49f	0.099038355
251	0xbd8fbf0b	-0.070188604
252	0xbe59926f	-0.21247266
253	0x3d2f4fae	0.042800598
254	0x3ea7809e	0.32715315
255	0xbe3b22bf	-0.18274973

module.2.bias f4 [60]
0	0xbcdcff42	-0.026977185
1	0xbbde036c	-0.0067753103
2	0xbd6645d9	-0.056218956
3	0xbcfb7754	-0.030696549
4	0xbe7c0059	-0.24609508
5	0x3c52400b	0.012832652
6	0x3e08a68b	0.13344781
7	0x3d434e3c	0.047682032
8	0x3e766fdc	0.24066108
9	0xbb5e039c	-0.0033876663
10	0x3dc38442	0.095467106
11	0xba5022cb	-0.0007939755
12	0x3d3f598e	0.046716265
13	0xbab85510	-0.0014063437
14	0x3e4afdbb	0.19823353
15	0x3e4f5ede	0.20251033
16	0xbc47f3ea	-0.01220415
17	0xbc0068b3	-0.007837462
18	0xbb5583d6	-0.00325798
19	0xba541bfa	-0.0008091327
20	0x3e2e0b10	0.16996408
21	0x3d8ee71a	0.06977673
22	0xb995e731	-0.00028591746
23	0xbcf92f4d	-0.030418063
24	0xbd277c86	-0.04089024
25	0xb9ff6ca4	-0.00048718334
26	0xbe812651	-0.25224546
27	0x3d66cc17	0.05634698
28	0xbc7b701b	-0.015346552
29	0xba782268	-0.0009465576
30	0x3c253723	0.010083946
31	0xba80c8e8	-0.00098255
32	0x3e83f2a8	0.2577107
33	0xb9960a52	-0.0002861792
34	0xbd8979b8	-0.06712669
35	0xbb23a22d	-0.002496849
36	0xbe98c029	-0.29834107
37	0xbbb519df	-0.0055267657
38	0xbc9c72d1	-0.019097717
39	0x3e34b444	0.17646891
40	0x3e56978b	0.20956247
41	0x3d92cdc4	0.07168153
42	0xbcc146cf	-0.023593334
43	0xba216d75	-0.0006157973
44	0xbe1f2ccb	-0.15544431
45	0xbca2d9f2	-0.019879315
46	0xb92b149e	-0.00016315511
47	0xb886f0cb	-6.434469e-05
48	0x3db1c789	0.086806364
49	0x3e56cbec	0.20976228
50	0xbca04392	-0.01956347
51	0xb93c6b01	-0.00017968939
52	0x3dd0793b	0.10179373
53	0xbdbbc53b	-0.09168478
54	0x3dc3b81c	0.095566005
55	0xbb0ab775	-0.0021166478
56	0xbdcdbe04	-0.10046008
57	0xbc85dddb	-0.01634114
58	0x3d272a7d	0.040812004
59	0xbaa69d25	-0.0012711628

module.4.weight f4 [6, 60]
0	0x3be54da7	0.0069977823
1	0xb9a6aaf2	-0.00031789351
2	0xbb58d10d	-0.0033083588
3	0x3b297f58	0.0025863256
4	0xbea9953d	-0.33121672
5	0x392ac9ee	0.00016287688
6	0x3d4a66a5	0.049414296
7	0xbdd202da	-0.1025445
8	0xbdc0f551	-0.094217904
9	0x3aa1c1a2	0.0012341032
10	0x3d36e5b8	0.04465267
11	0xb7caecb6	-2.4190504e-05
12	0x3cdd4e84	0.027014978
13	0x393c8e07	0.00017981986
14	0xbd97bc4e	-0.07408963
15	0x3d15b5cd	0.03655033
16	0x39413289	0.0001842474
17	0xb989f652	-0.000263142
18	0xb9443a20	-0.0001871367
19	0x38be07df	9.061372e-05
20	0xbcab4cc5	-0.02091063
21	0xbbe24e15	-0.0069062808
22	0xbd53f902	-0.051751144
23	0xb9670cbe	-0.00022034624
24	0x3d40d999	0.047082517
25	0x3772e1d2	1.4476902e-05
26	0xbcda9c73	-0.026685929
27	0x3d41a247	0.0472739
28	0x3a46a4b2	0.0007577642
29	0x393bce33	0.00017910525
30	0xbd1f5121	-0.03889573
31	0x397d0e88	0.00024133374
32	0xbd834f9c	-0.06411669
33	0xb77302c2	-1.4484571e-05
34	0xbe2e325c	-0.17011398
35	0x388f0ea4	6.8214984e-05
36	0x3d98cb99	0.07460708
37	0x39b78901	0.00035006556
38	0x3b3f8d7c	0.0029228618
39	0x3c03d13f	0.008045494
40	0xbcf543c2	-0.029939536
41	0x3d00b489	0.03142217
42	0xba4d0160	-0.0007820334
43	0x3df044a7	0.117318444
44	0x3cea54bf	0.028604863
45	0x3bb9713d	0.005659251
46	0xb7a11c02	-1.9205738e-05
47	0x36cf4a69	6.177743e-06
48	0x3dc2db74	0.095145136
49	0x3e4926fc	0.19643778
50	0x3c6c9c12	0.014441507
51	0x379e2dd5	1.885641e-05
52	0x3d5d97d7	0.054099884
53	0xbcc0967e	-0.02350926
54	0x3c2dabd5	0.01060005
55	0x39dfaf95	0.00042664693
56	0x3a87cef4	0.001036136
57	0x3a3aa4f7	0.00071199186
58	0xbdf3db29	-0.11907036
59	0x397cef60	0.00024121767
60	0xb9b2e841	-0.00034123848
61	0xb7ca58e4	-2.412167e-05
62	0x3b48a73e	0.0030617262
63	0xb9a23b4b	-0.00030943225
64	0x3bdef972	0.0068046385
65	0xbc1de7bf	-0.009637772
66	0xbca9b1ec	-0.020714723
67	0xbcb30080	-0.021850824
68	0xbcb429d7	-0.021992607
69	0xb85d20aa	-5.2720927e-05
70	0xbcb6373f	-0.02224314
71	0x369abed2	4.611772e-06
72	0xbca21060	-0.019783199
73	0xb7867486	-1.6028305e-05
74	0xbca2c4f4	-0.019869305
75	0xbcadeed3	-0.021232044
76	0x382c2750	4.104461e-05
77	0xb9171cee	-0.0001441126
78	0xb6ed08cc	-7.0641745e-06
79	0x36d56c4e	6.360503e-06
80	0xbcaad3b9	-0.02085291
81	0x3b05542e	0.0020344364
82	0xbb1eb972	-0.002421942
83	0xb7dc2a9c	-2.6245885e-05
84	0x3b36c714	0.0027889656
85	0xb79811cc	-1.81281e-05
86	0xbb433460	-0.0029785857
87	0xbad378e7	-0.0016134054
88	0xb933b3ae	-0.00017137706
89	0xb5121c30	-5.4430257e-07
90	0xbc64b589	-0.013959297
91	0x353f8ce4	7.135807e-07
92	0xbcb5bc2d	-0.022184456
93	0xb5a07969	-1.1956264e-06
94	0xbc52eb6f	-0.012873515
95	0x37ae398b	2.0769212e-05
96	0xba466129	-0.00075675786
97	0x36d14c80	6.237591e-06
98	0xbcb0b865	-0.021572301
99	0xbcb5a1e5	-0.022171924
100	0xbcb4633d	-0.022019977
101	0xbc11b600	-0.00889349
102	0xb903fdaa	-0.00012587631
103	0xbb97b8fe	-0.004630207
104	0xbb0a8f68	-0.0021142606
105	0xb9b2f29a	-0.00034131558
106	0x35648abe	8.5138515e-07
107	0xb60ad473	-2.0687264e-06
108	0x3b91811a	0.004440439
109	0xbca687ea	-0.02032848
110	0xbc2a4e69	-0.010394671
111	0xb5a6e05c	-1.2433261e-06
112	0xbcac528d	-0.021035457
113	0x3ab26352	0.0013609922
114	0xba2abeaa	-0.00065133965
115	0xb7108c6d	-8.615764e-06
116	0x3a53b3bf	0.00080757955
117	0xb850ecb7	-4.9811522e-05
118	0xbbccc7f4	-0.006249422
119	0x3519d814	5.7311377e-07
120	0x38def822	0.00010632003
121	0x366e691b	3.5525943e-06
122	0xb9aaff1b	-0.00032614995
123	0x38214590	3.8450176e-05
124	0x39ec9b3e	0.00045129092
125	0x3a487835	0.0007647307
126	0x39eae3fd	0.00044801823
127	0xb98d575b	-0.000269587
128	0xbb2c329d	-0.0026275285
129	0x3674e186	3.6490105e-06
130	0xbaa804c7	-0.0012818807
131	0xb4e672fc	-4.29245e-07
132	0x3aa8221c	0.0012827548
133	0x35ab47c1	1.2761376e-06
134	0xbb00d767	-0.001965964
135	0xb8289dba	-4.0201216e-05
136	0xb6c3d0ff	-5.835783e-06
137	0x37428d4f	1.1596202e-05
138	0x35d9a44f	1.621558e-06
139	0xb568bbd7	-8.670008e-07
140	0x3a4883a9	0.00076490134
141	0xba371940	-0.00069846585
142	0xb8b6e930	-8.721871e-05
143	0x35dbf708	1.6388667e-06
144	0xb987d8a0	-0.00025910605
145	0x360a01e8	2.0564712e-06
146	0x3a7fd981	0.00097598886
147	0x392f4904	0.00016716501
148	0x368bdf4d	4.1685184e-06
149	0x34d4e93a	3.9657772e-07
150	0x3a7e2372	0.0009694613
151	0xb461ecce	-2.1040907e-07
152	0xbb632ed6	-0.0034665368
153	0x344e0d8c	1.9190173e-07
154	0x3ac221a1	0.0014811048
155	0xb5f49e30	-1.8225455e-06
156	0x38c5fbaf	9.440572e-05
157	0x35360523	6.780776e-07
158	0x39c01a98	0.00036640908
159	0xbb2a19cb	-0.0025955315
160	0xbaf43d8c	-0.0018634065
161	0x3a4ef654	0.0007894982
162	0x37f9e6b0	2.9790535e-05
163	0xb9cfa12b	-0.00039602196
164	0x394c5a28	0.00019488542
165	0x380494a1	3.1609674e-05
166	0xb403afd7	-1.2264296e-07
167	0x34234d90	1.5208775e-07
168	0xba08d0bc	-0.0005219092
169	0xbb83ce5a	-0.0040224018
170	0x3aa0c4e8	0.0012265714
171	0x33d9db77	1.01447704e-07
172	0x3a3c8c48	0.00071925344
173	0xba0871dd	-0.0005204955
174	0xb9311bee	-0.0001689044
175	0x3505c12a	4.982745e-07
176	0xb6959acf	-4.458568e-06
177	0xb743a2f5	-1.1660847e-05
178	0x3a264e68	0.0006344081
179	0x34816a25	2.4105353e-07
180	0xb897fbed	-7.247166e-05
181	0xb5eab6f3	-1.7487604e-06
182	0x38dcb18d	0.00010523489
183	0xb7d554a7	-2.5430998e-05
184	0xb91988ba	-0.00014642152
185	0xb9281004	-0.00016027695
186	0x382d0d91	4.125905e-05
187	0xbaafa7ad	-0.0013401412
188	0xbacbcf21	-0.00155494
189	0xb615e99c	-2.2338709e-06
190	0xba95457a	-0.0011388503
191	0x34a8cd88	3.1441982e-07
192	0x396e6528	0.00022735132
193	0xb50f6480	-5.34179e-07
194	0xb96a0aeb	-0.00022320046
195	0xb89faa56	-7.613438e-05
196	0x36515741	3.1194215e-06
197	0xb6d89c2d	-6.455483e-06
198	0xb54376c2	-7.2815976e-07
199	0x34b04619	3.2833557e-07
200	0xb9aae2ec	-0.00032593997
201	0x39baa12f	0.00035596776
202	0x38d2755c	0.0001003544
203	0xb64db29a	-3.065134e-06
204	0x39316d7a	0.00016920819
205	0xb4d9516e	-4.0478648e-07
206	0xba22bca9	-0.0006207922
207	0x39ea8f12	0.00044738554
208	0xb6964f6a	-4.4795934e-06
209	0x33f52e43	1.14171165e-07
210	0x398ae233	0.00026489943
211	0x343d4862	1.762833e-07
212	0xbb00e1f4	-0.0019665929
213	0xb3a76f38	-7.796774e-08
214	0x3a43b9c8	0.0007466343
215	0x35907212	1.0762035e-06
216	0xb9207af5	-0.00015304594
217	0xb52333fc	-6.079788e-07
218	0xba3d1a1d	-0.0007213669
219	0xbab05e9e	-0.0013455932
220	0xbac26286	-0.0014830388
221	0xb87902c1	-5.936879e-05
222	0xb7e5d89e	-2.7399798e-05
223	0x39e47e6d	0.00043581743
224	0xb871cbc4	-5.764865e-05
225	0xb7b4aa16	-2.1536875e-05
226	0x3388d76a	6.372177e-08
227	0xb3d5bac0	-9.952555e-08
228	0x39bc8a05	0.00035960987
229	0xb9ebaaa7	-0.0004494984
230	0x38c8b124	9.569738e-05
231	0xb37c6157	-5.8761852e-08
232	0xb9c16330	-0.0003688573
233	0x39155a8d	0.0001424348
234	0x3997b046	0.00028932298
235	0xb50b7c32	-5.1962263e-07
236	0x3855c69d	5.096813e-05
237	0xb626986d	-2.482465e-06
238	0xba8754ce	-0.0010324956
239	0xb39d0421	-7.311633e-08
240	0xb974e4a9	-0.00023354836
241	0xb79a6b12	-1.8408089e-05
242	0x3abadca2	0.0014256428
243	0xb8e43bbd	-0.00010883014
244	0xba31a457	-0.00067765027
245	0xb9d02988	-0.00039703795
246	0xbc00daeb	-0.007864694
247	0xbc048636	-0.008088639
248	0xbc16722d	-0.009182495
249	0xb7b2ad6f	-2.1300015e-05
250	0xbbf2302f	-0.007390998
251	0x3659d669	3.2460323e-06
252	0xbb46e0f1	-0.0030346478
253	0xb6f9f1e2	-7.448937e-06
254	0xbbde68e2	-0.0067874053
255	0xbc05ec0a	-0.008173952

module.4.bias f4 [6]
0	0x3d55fb5c	0.052241668
1	0xbcb801fc	-0.022461884
2	0xbb6f7c14	-0.0036542462
3	0xba88dedb	-0.0010442393
4	0xbc53dd9d	-0.012931255
5	0x3e5651ef	0.20929693

module.6.weight f4 [1, 6]
0	0x3b8686d0	0.0041054264
1	0x3ca6ba08	0.020352378
2	0xbb10176c	-0.0021986617
3	0x3a77be81	0.00094506895
4	0x3c142c11	0.009043709
5	0x3e8bd2ed	0.2730936

exp_avg f4 [60, 12]
0	0x3b9d8750	0.0048073903
1	0x3b2c9595	0.0026334275
2	0x3a8e75e2	0.0010868872
3	0x38be2fbe	9.068799e-05
4	0xba84b042	-0.001012333
5	0xba9894ec	-0.0011641062
6	0xba56ee94	-0.0008199003
7	0x3b52d0ac	0.0032167835
8	0xbab2a454	-0.0013629296
9	0xbb0208ae	-0.00198416
10	0xbb358ff6	-0.0027704216
11	0x396793b0	0.00022084895
12	0xb593ddb4	-1.1016878e-06
13	0x39c6f134	0.00037945213
14	0x387c4394	6.014442e-05
15	0xb99de432	-0.00030115392
16	0x3970d0e8	0.00022966007
17	0x379da21d	1.8791348e-05
18	0xb9c343bc	-0.00037243764
19	0x38c75a67	9.505898e-05
20	0x3905c06c	0.00012755551
21	0xb9068846	-0.00012830002
22	0x397c9a0d	0.00024089981
23	0xb863970b	-5.4261687e-05
24	0x3a608525	0.0008564762
25	0x3941f3d2	0.00018496744
26	0x35534c00	7.871422e-07
27	0x3919b7f8	0.00014659751
28	0x393911cc	0.00017649605
29	0xb90255dd	-0.00012429753
30	0xba3a5817	-0.00071084633
31	0x398fe525	0.0002744581
32	0xb9396953	-0.00017682211
33	0x384e0e7e	4.9127724e-05
34	0xb92c6bca	-0.00016443353
35	0xb884db7b	-6.335132e-05
36	0x38330c25	4.2688236e-05
37	0x391e29fa	0.00015083692
38	0xb514d9ad	-5.5451056e-07
39	0xb879f304	-5.9592552e-05
40	0xb8b5806d	-8.654674e-05
41	0x3889e8fa	6.576064e-05
42	0xb8dc79f8	-0.00010513136
43	0x38b794e3	8.753852e-05
44	0x37b4167f	2.1468148e-05
45	0xb78b80b1	-1.6630018e-05
46	0xb89c6112	-7.4567404e-05
47	0x37edce9b	2.834881e-05
48	0xba14f870	-0.0005682772
49	0xb9c301cc	-0.00037194637
50	0xb9dd598b	-0.0004221912
51	0xba1d298a	-0.00059952645
52	0xb9e3817a	-0.00043393282
53	0x369c78f7	4.6632445e-06
54	0xba031559	-0.00050004345
55	0xba0b834d	-0.00053219945
56	0x39171ab3	0.00014410428
57	0xb853aa93	-5.046518e-05
58	0x396066b7	0.00021400569
59	0xb997ceba	-0.00028954988
60	0x3399c4dd	7.160427e-08
61	0xb406a236	-1.2538734e-07
62	0xb3f545d5	-1.1421404e-07
63	0x342cbe66	1.6088015e-07
64	0x34f14ac2	4.4944142e-07
65	0x33eeea5f	1.11253705e-07
66	0xb4c35e9f	-3.6390426e-07
67	0xb40cc03e	-1.3108453e-07
68	0x32c2d3b3	2.2680842e-08
69	0x3426378a	1.548016e-07
70	0x34810d7b	2.403793e-07
71	0xb3af831a	-8.17292e-08
72	0xb3d02d93	-9.694045e-08
73	0xb3b03d06	-8.206739e-08
74	0xb308870f	-3.1787803e-08
75	0xb34d7a2e	-4.7841404e-08
76	0x33ced1f5	9.6308135e-08
77	0xb2dba936	-2.5571904e-08
78	0xb42c7c58	-1.6063984e-07
79	0xb3db4110	-1.0209817e-07
80	0x333ad65b	4.3501455e-08
81	0x32cfa6a9	2.417376e-08
82	0x3401b450	1.2079659e-07
83	0xb3af9bc9	-8.17741e-08
84	0xbabd5355	-0.001444439
85	0xb9639429	-0.00021703601
86	0x37c94840	2.3994711e-05
87	0xb8f6a174	-0.00011760267
88	0x3a49c5a5	0.0007696993
89	0xb93c3fcf	-0.00017952848
90	0x3a776f01	0.0009438843
91	0xba145051	-0.000565772
92	0x39d4ca2c	0.0004058642
93	0x38ea06b7	0.0001115924
94	0x3a892bb3	0.0010465294
95	0xb97f5d2d	-0.00024353406
96	0x380bfd47	3.3376065e-05
97	0xba875d98	-0.0010327576
98	0xb9b4335b	-0.00034370538
99	0xb78ad0bf	-1.6548087e-05
100	0x3a2a66ec	0.0006500322
101	0xb9b76e8e	-0.0003498685
102	0x398a9919	0.00026435478
103	0xb9a7a093	-0.0003197236
104	0xb9568b2a	-0.00020460473
105	0xb8ffacef	-0.00012191559
106	0x39856230	0.00025440892
107	0xb95c3aff	-0.00021002813
108	0x392ab6a3	0.00016280501
109	0x3970065d	0.00022890554
110	0x38f8ec4f	0.000118695774
111	0xb92eb350	-0.00016660732
112	0xba1e8f2c	-0.0006048556
113	0x391dfcd1	0.00015066868
114	0x399e9733	0.0003024876
115	0x39adc3c5	0.0003314299
116	0xb94f3cea	-0.0001976375
117	0xb9c9f661	-0.00038521274
118	0xba1903aa	-0.0005837033
119	0x39d0f6f2	0.0003985684
120	0xb7c25082	-2.3164092e-05
121	0xb923666b	-0.00015583045
122	0xb8851fe6	-6.347876e-05
123	0xb790ee0a	-1.7276983e-05
124	0x388e12b7	6.7745736e-05
125	0xb8e5cb80	-0.00010957476
126	0xb9170700	-0.0001440309
127	0xb908d80f	-0.00013050459
128	0x380c7671	3.348891e-05
129	0x38594241	5.1798535e-05
130	0x38cf1931	9.8752214e-05
131	0xb92bf0e1	-0.00016397565
132	0xb9f57f85	-0.0004682505
133	0xb91dba6c	-0.00015042134
134	0xb7fbf188	-3.0034003e-05
135	0x39a9065d	0.00032238933
136	0xb9c893d8	-0.00038257125
137	0xb9830a91	-0.0002499414
138	0xb8d8f583	-0.00010345413
139	0xb99ed12f	-0.00030291962
140	0x392078dc	0.00015303813
141	0x3984fd35	0.00025365656
142	0x36db079a	6.5275935e-06
143	0xb930070c	-0.00016787293
144	0xb7c503d0	-2.3486005e-05
145	0x399c8f56	0.00029861432
146	0x36c7ddea	5.9564964e-06
147	0xb9d51a3f	-0.0004064608
148	0xb8eec859	-0.00011386042
149	0x39235932	0.00015578119
150	0x39a93dd5	0.0003228026
151	0x395ddd24	0.00021158584
152	0xb89fd79d	-7.621872e-05
153	0xb9b13b9d	-0.00033804486
154	0xb8eed9d4	-0.00011389298
155	0x396fefab	0.000228821
156	0x3a5203f1	0.00080114516
157	0x39d05ed9	0.0003974352
158	0xb923dc1e	-0.00015626891
159	0xba2f1f5e	-0.0006680394
160	0xba626703	-0.0008636566
161	0xb9ad53b8	-0.00033059507
162	0xba8286ba	-0.0009958365
163	0x39c6adfa	0.00037895126
164	0xb95640a5	-0.00020432712
165	0xba24a95a	-0.0006281339
166	0xba2f12db	-0.000667853
167	0xb92d99c0	-0.00016555842
168	0x3b2111a5	0.0024577167
169	0xba0ffb72	-0.00054924854
170	0xba8ab689	-0.0010582964
171	0xbaccae53	-0.0015615918
172	0xba28419e	-0.0006418469
173	0xba343234	-0.0006873936
174	0xbb75e8f4	-0.0037522884
175	0xb6fd9efe	-7.5584967e-06
176	0xba1eae15	-0.0006053162
177	0xba5fe5b5	-0.0008541004
178	0xba22255b	-0.0006185376
179	0xba832ddf	-0.0010008177
180	0xb833ab65	-4.283655e-05
181	0x3a106d01	0.0005509407
182	0x39c3ed0e	0.00037369918
183	0x3a53ae49	0.0008074982
184	0x39cba110	0.00038839178
185	0xb7d958a3	-2.590969e-05
186	0xba5ad7e8	-0.00083482126
187	0xb8eb876a	-0.00011230896
188	0x3a02fbe5	0.00049966417
189	0x3a5e8083	0.00084877777
190	0x3a2755c7	0.0006383326
191	0xb9a34e2d	-0.00031148028
192	0x39806be8	0.0002449446
193	0xb961d1ae	-0.00021535784
194	0xb70fa616	-8.562134e-06
195	0x398f37e2	0.0002731672
196	0x38d43f1b	0.00010120702
197	0xb91509ad	-0.00014213352
198	0xb989c9c5	-0.00026281006
199	0xb8843b8c	-6.305342e-05
200	0xb8311b50	-4.2225525e-05
201	0x398f9f48	0.0002739376
202	0x3817cd35	3.619232e-05
203	0xb917df74	-0.00014483725
204	0xba61076f	-0.00085841765
205	0xb9faf999	-0.0004786968
206	0xb8db17fb	-0.000104472005
207	0x390142da	0.00012327303
208	0xb9cc3ab7	-0.00038953658
209	0x3a057317	0.0005090697
210	0x3959ac82	0.00020758997
211	0xb9f80e24	-0.00047312782
212	0x395d1535	0.00021084103
213	0x39dee273	0.00042511857
214	0x38aa9745	8.134408e-05
215	0x391ad488	0.00014765759
216	0x3bc69470	0.0060601756
217	0x3b3f1731	0.002915811
218	0x3a895c9e	0.0010479873
219	0xba609ff2	-0.00085687556
220	0xbb0a0528	-0.0021060202
221	0xbb003e6d	-0.0019568459
222	0xba799a4c	-0.0009521588
223	0x3b807abb	0.0039208806
224	0xbaf0ea99	-0.0018380462
225	0xbb447b31	-0.0029980654
226	0xbb762857	-0.0037560666
227	0x39377da0	0.00017499039
228	0xb7e72c16	-2.7557875e-05
229	0x3997bcec	0.00028941722
230	0xb94a74c1	-0.00019307715
231	0xb998e6ba	-0.00029163604
232	0xba58506e	-0.0008251731
233	0x3a336ed6	0.0006844824
234	0xba3cb356	-0.0007198354
235	0xb88b6c0b	-6.648161e-05
236	0x37f4416b	2.911753e-05
237	0x3841c81b	4.620115e-05
238	0xb9865bc8	-0.00025626854
239	0x39cdcb71	0.00039252223
240	0xb9381029	-0.00017553628
241	0xba9dde8d	-0.0012044475
242	0xb9a62fec	-0.00031697692
243	0x3a0fbcff	0.00054831797
244	0x3b07b5f3	0.0020707815
245	0x394d6ecf	0.00019591603
246	0xba40125f	-0.0007326956
247	0xba6af7da	-0.00089633244
248	0x39931b6c	0.00028058456
249	0x39da1b2f	0.00041600454
250	0x3ab8ac00	0.0014089346
251	0xb9da0b35	-0.0004158855
252	0x39dded56	0.00042329234
253	0x38d03714	9.928472e-05
254	0xb912662a	-0.00013961704
255	0xb9d5f6ab	-0.00040810308

exp_avg_sq f4 [60, 12]
0	0x39966a98	0.00028689648
1	0x3919d6d3	0.00014671245
2	0x38978ab1	7.2260744e-05
3	0x396bdfc6	0.00022494709
4	0x393367f9	0.00017109503
5	0x392f5e10	0.00016724342
6	0x3a926297	0.0011168298
7	0x38eab3a3	0.000111914494
8	0x386d97ab	5.6646455e-05
9	0x3990ba71	0.0002760473
10	0x38efe8df	0.00011439784
11	0x39445795	0.00018724643
12	0x35f2dd99	1.8094898e-06
13	0x35d82407	1.6103739e-06
14	0x3497ff09	2.8311504e-07
15	0x35fc599c	1.8801543e-06
16	0x35b3374f	1.3352636e-06
17	0x359bb763	1.1601772e-06
18	0x366c2ece	3.5193984e-06
19	0x354e2db4	7.6807487e-07
20	0x34dd8218	4.1259113e-07
21	0x35b34f9e	1.3359711e-06
22	0x3582fd85	9.759539e-07
23	0x35ada666	1.2937933e-06
24	0x3667da30	3.4548684e-06
25	0x35d20b90	1.5649584e-06
26	0x35628518	8.438524e-07
27	0x36258bfb	2.4668395e-06
28	0x35edd823	1.772078e-06
29	0x360893b5	2.0351556e-06
30	0x36fe959c	7.5872067e-06
31	0x357ba1c7	9.3740204e-07
32	0x35052346	4.959769e-07
33	0x35990683	1.1401283e-06
34	0x358f9be9	1.0699706e-06
35	0x361014e0	2.1469823e-06
36	0x351316d0	5.4794964e-07
37	0x34b21117	3.3167518e-07
38	0x34375af7	1.7076296e-07
39	0x34f8d963	4.635177e-07
40	0x34aa915f	3.177074e-07
41	0x34f7d612	4.6163092e-07
42	0x35748f26	9.110539e-07
43	0x34450711	1.8349625e-07
44	0x33fd994d	1.1809116e-07
45	0x3494f6ec	2.7746808e-07
46	0x344c59f0	1.90317e-07
47	0x348ba636	2.6011702e-07
48	0x34c5533e	3.6754676e-07
49	0x3493dfb8	2.754366e-07
50	0x3466a898	2.1481753e-07
51	0x35267da8	6.2022673e-07
52	0x34e36eca	4.2362655e-07
53	0x348cc40c	2.6219675e-07
54	0x3535b937	6.769728e-07
55	0x344af228	1.8900812e-07
56	0x3399632b	7.142656e-08
57	0x34690963	2.1703231e-07
58	0x340b63b2	1.2981653e-07
59	0x3435988b	1.6912433e-07
60	0x30506d7f	7.582556e-10
61	0x2fafaeb0	3.1956437e-10
62	0x2f87ee77	2.4725796e-10
63	0x30547075	7.728496e-10
64	0x300e8af9	5.185679e-10
65	0x2fbfaeb0	3.486682e-10
66	0x30ceacff	1.5037641e-09
67	0x2fc924a3	3.658772e-10
68	0x2f4c8140	1.8599611e-10
69	0x2fd75129	3.916594e-10
70	0x2f693da5	2.1213127e-10
71	0x2f816c2f	2.3541832e-10
72	0x2ec8f2a9	9.138052e-11
73	0x2e5062b4	4.738139e-11
74	0x2db6a039	2.0762158e-11
75	0x2e518e73	4.764762e-11
76	0x2ea5e8e5	7.544702e-11
77	0x2e557c28	4.8540866e-11
78	0x2f619d72	2.0519567e-10
79	0x2e314771	4.0308593e-11
80	0x2db0f660	2.0118296e-11
81	0x2e746f43	5.5577997e-11
82	0x2e245c99	3.7371526e-11
83	0x2e57a309	4.9030145e-11
84	0x36c65c67	5.911617e-06
85	0x36542f3b	3.1617953e-06
86	0x35fab5b3	1.8679333e-06
87	0x36470389	2.9655369e-06
88	0x36bbfe4e	5.6026392e-06
89	0x363cac6f	2.8114553e-06
90	0x373df3b9	1.1322024e-05
91	0x35afaf6c	1.308957e-06
92	0x3584826e	9.872726e-07
93	0x3602f1a7	1.951217e-06
94	0x3636a709	2.721734e-06
95	0x360cabf8	2.0961725e-06
96	0x375a47b5	1.3010508e-05
97	0x3732a146	1.0647176e-05
98	0x3677a047	3.6899162e-06
99	0x37c546d8	2.351722e-05
100	0x3734b08a	1.076994e-05
101	0x37406c2a	1.1469276e-05
102	0x38073fbe	3.2245873e-05
103	0x3721f996	9.654459e-06
104	0x370055e5	7.649393e-06
105	0x37db754b	2.6161453e-05
106	0x36f19062	7.199168e-06
107	0x3710bd60	8.627161e-06
108	0x366b3e05	3.505383e-06
109	0x36334fe7	2.6719588e-06
110	0x359d305b	1.1711485e-06
111	0x36cca8cf	6.0993257e-06
112	0x365885a2	3.2264293e-06
113	0x36568b1e	3.1969462e-06
114	0x37393601	1.1039433e-05
115	0x35c96484	1.5004921e-06
116	0x35dcfb1b	1.6464359e-06
117	0x36e18987	6.721533e-06
118	0x3612a5c6	2.1852188e-06
119	0x3614715b	2.21197e-06
120	0x3474641c	2.276069e-07
121	0x34ead115	4.3738024e-07
122	0x34097ded	1.2804931e-07
123	0x348f7e93	2.672792e-07
124	0x34765ee1	2.2945052e-07
125	0x345ec476	2.0746833e-07
126	0x351eeecb	5.9207076e-07
127	0x348f3329	2.667305e-07
128	0x3373e169	5.6782856e-08
129	0x3440f8fe	1.7971976e-07
130	0x3419dbd2	1.4329206e-07
131	0x3468a87c	2.1667978e-07
132	0x36f07da0	7.167182e-06
133	0x368a3f18	4.1200656e-06
134	0x35570e34	8.011441e-07
135	0x367d8b10	3.7780883e-06
136	0x36800085	3.8147577e-06
137	0x369206be	4.351924e-06
138	0x370ddad7	8.4552075e-06
139	0x36022ac0	1.9396393e-06
140	0x362d2687	2.5801435e-06
141	0x36796ed3	3.71684e-06
142	0x360ad004	2.0684683e-06
143	0x36b7b59b	5.4749667e-06
144	0x35504589	7.7587225e-07
145	0x353b23d3	6.971506e-07
146	0x34218e2a	1.5046012e-07
147	0x35289ea3	6.2815724e-07
148	0x350ae2fd	5.173932e-07
149	0x35219ca8	6.020514e-07
150	0x35c069d2	1.4335913e-06
151	0x353c24cd	7.008901e-07
152	0x34a2a845	3.0297284e-07
153	0x3542fb0e	7.2635964e-07
154	0x34937eff	2.7473286e-07
155	0x354d8b5b	7.657124e-07
156	0x380372a3	3.1339598e-05
157	0x375fcf34	1.3340079e-05
158	0x36bb6550	5.5848286e-06
159	0x37903023	1.7188553e-05
160	0x3775d729	1.4653234e-05
161	0x37824563	1.5529518e-05
162	0x38be1c34	9.065159e-05
163	0x36ce7b86	6.1536584e-06
164	0x36a81bf0	5.0100425e-06
165	0x378fbb32	1.7134098e-05
166	0x371d701d	9.384033e-06
167	0x37949e24	1.7716615e-05
168	0x384f7099	4.945751e-05
169	0x37a9ec1c	2.0256317e-05
170	0x37107c2d	8.611981e-06
171	0x37f5ab22	2.9285966e-05
172	0x37cf83a7	2.4737628e-05
173	0x37c715cf	2.3732804e-05
174	0x38fae206	0.00011963029
175	0x37133f99	8.77669e-06
176	0x36f6d171	7.3557535e-06
177	0x37d9234e	2.5884856e-05
178	0x376c7222	1.409327e-05
179	0x37ba15b4	2.2183034e-05
180	0x373a8075	1.1116373e-05
181	0x371bdaa2	9.289624e-06
182	0x36cddce8	6.135193e-06
183	0x37c87d55	2.390022e-05
184	0x373db13a	1.1306542e-05
185	0x374e6018	1.230093e-05
186	0x380edbde	3.4060206e-05
187	0x36831167	3.90613e-06
188	0x36c96605	6.0021434e-06
189	0x37d34a7f	2.518785e-05
190	0x36c4bf5d	5.863533e-06
191	0x37586dd4	1.2900175e-05
192	0x350b61be	5.192377e-07
193	0x346c6194	2.2014711e-07
194	0x33e88bd9	1.082878e-07
195	0x34de5cb0	4.141816e-07
196	0x34eb5584	4.3834382e-07
197	0x34e3f58a	4.2460698e-07
198	0x35378704	6.8369286e-07
199	0x33f9617e	1.16127e-07
200	0x336241bc	5.267951e-08
201	0x34e45332	4.2528842e-07
202	0x34a4d128	3.0699562e-07
203	0x34eaa028	4.3702426e-07
204	0x37117bf0	8.67153e-06
205	0x36f7191d	7.364097e-06
206	0x366ea2db	3.5559558e-06
207	0x369ca725	4.6686205e-06
208	0x36aa4127	5.0739795e-06
209	0x36a05937	4.7787576e-06
210	0x37ccfe6b	2.4437168e-05
211	0x367f52a3	3.8046062e-06
212	0x35b3402d	1.3355217e-06
213	0x367c11c2	3.7561263e-06
214	0x366a9638	3.4956156e-06
215	0x36a4a526	4.9068067e-06
216	0x39c87faf	0.00038242104
217	0x3939e391	0.0001772775
218	0x38c05955	9.171913e-05
219	0x398b5868	0.00026578014
220	0x39559e84	0.00020372315
221	0x3955ba0a	0.00020382568
222	0x3ab33e8d	0.0013675258
223	0x3905b809	0.00012752427
224	0x38857b35	6.364883e-05
225	0x39a59020	0.00031578634
226	0x3917d964	0.00014481466
227	0x39622246	0.00021565807
228	0x36873b5a	4.030223e-06
229	0x368063a6	3.826298e-06
230	0x35b2bed1	1.3317568e-06
231	0x368aea6a	4.14001e-06
232	0x362686d0	2.4814399e-06
233	0x3669f1cd	3.4860452e-06
234	0x3728b774	1.0056294e-05
235	0x3631675b	2.6435216e-06
236	0x359aad26	1.1524287e-06
237	0x368a6eca	4.125618e-06
238	0x359827b6	1.133644e-06
239	0x3642c1b6	2.9021007e-06
240	0x378b334b	1.6593976e-05
241	0x37838195	1.5676758e-05
242	0x36d528d1	6.3526463e-06
243	0x378e136f	1.6936769e-05
244	0x37525ec8	1.2539043e-05
245	0x377e50c9	1.5158389e-05
246	0x382879ac	4.0167637e-05
247	0x376c06ff	1.4068325e-05
248	0x36d7e750	6.4344276e-06
249	0x3790c143	1.7256132e-05
250	0x371815d1	9.0649855e-06
251	0x372aa8b7	1.0172072e-05
252	0x37c50e70	2.3490953e-05
253	0x371ec695	9.46377e-06
254	0x363c6c8c	2.8077366e-06
255	0x375627c7	1.2764655e-05

exp_avg f4 [60]
0	0xba56d00f	-0.00081944553
1	0xb9c2fac4	-0.00037189398
2	0xba3a520b	-0.0007107562
3	0xb8df4b8d	-0.00010647541
4	0xba0349ca	-0.0005008249
5	0xb4c35238	-3.6381402e-07
6	0xb42c7c5a	-1.6063987e-07
7	0x3a76d5fb	0.0009416041
8	0x398c80d8	0.00026798877
9	0x399e2307	0.00030162206
10	0xb9175c1f	-0.000144348
11	0xb8d88646	-0.00010324693
12	0x39a7f056	0.00032031786
13	0xba82ccb6	-0.0009979222
14	0xbb75afb4	-0.003748876
15	0xba5a9666	-0.0008338451
16	0xb9899b4d	-0.00026246384
17	0x395d51af	0.00021106632
18	0xba792c74	-0.000950522
19	0xba3ca3cf	-0.000719604
20	0xba3ffb9b	-0.0007323564
21	0xba17b33c	-0.0005786901
22	0x3a774974	0.00094332476
23	0x38ecd665	0.00011293291
24	0xb25a8f6e	-1.2721882e-08
25	0xbc495245	-0.012287681
26	0x399ab3c8	0.00029507116
27	0xb84c70a5	-4.87423e-05
28	0x3893d7a5	7.049673e-05
29	0x384c4053	4.8697297e-05
30	0x3a02da0c	0.0004991598
31	0xb9c4478d	-0.00037437343
32	0xba701a7d	-0.00091592205
33	0xb84c96ab	-4.877771e-05
34	0xb9b129b5	-0.00033791145
35	0xb96031f1	-0.0002138091
36	0xb8dbdb31	-0.00010483561
37	0xb8d65ab1	-0.00010221208
38	0xbae2ca05	-0.0017302638
39	0xb96457b1	-0.00021776442
40	0xb9875d8c	-0.00025818904
41	0x39e10c03	0.00042924294
42	0xb9971e62	-0.000288236
43	0xb5ec378a	-1.7599534e-06
44	0xba54f2cc	-0.0008123338
45	0xb483dc51	-2.4560953e-07
46	0x399f751f	0.00030414105
47	0xba26ebbe	-0.0006367526
48	0x39314890	0.00016907067
49	0x3a87d88d	0.001036422
50	0xba7ef258	-0.0009725443
51	0xb96d7aea	-0.0002264787
52	0xba0315a7	-0.000500048
53	0xbb351334	-0.0027629854
54	0x39457e90	0.00018834532
55	0xb9bebd86	-0.0003638083
56	0x3794530c	1.7681647e-05
57	0xb990bf43	-0.0002760832
58	0xba3d42e8	-0.00072197476
59	0xb9b7f7b2	-0.00035089027

exp_avg_sq f4 [60]
0	0x3a92629f	0.0011168307
1	0x366c2ecc	3.519398e-06
2	0x36fe958e	7.5872003e-06
3	0x35748fbe	9.1106256e-07
4	0x3535b945	6.7697357e-07
5	0x30ceacf1	1.5037626e-09
6	0x2f619d72	2.0519567e-10
7	0x373df364	1.1321947e-05
8	0x38073fbc	3.2245865e-05
9	0x37393612	1.10394485e-05
10	0x351eee9f	5.9206826e-07
11	0x370ddad6	8.455207e-06
12	0x35c069ae	1.4335872e-06
13	0x38be1c38	9.065162e-05
14	0x38fae1d8	0.000119629956
15	0x380edbe2	3.406022e-05
16	0x353786d1	6.8368996e-07
17	0x37ccfe76	2.4437188e-05
18	0x3ab33e85	0.0013675248
19	0x3728b763	1.0056278e-05
20	0x382879a4	4.0167608e-05
21	0x387ae882	5.9821185e-05
22	0x38064289	3.2010055e-05
23	0x37614434	1.3426925e-05
24	0x2e8fef98	6.5454475e-11
25	0x3b54d6b1	0.00324766
26	0x395485d9	0.00020267758
27	0x34864633	2.5010522e-07
28	0x33b0dd14	8.2358525e-08
29	0x3683e9de	3.93133e-06
30	0x363f2bab	2.8486636e-06
31	0x36ecbd8e	7.055415e-06
32	0x37d440ed	2.5302603e-05
33	0x3588fa4b	1.0205634e-06
34	0x37a8f68e	2.0141972e-05
35	0x33e41d8f	1.0622454e-07
36	0x36987ea2	4.544695e-06
37	0x354b082a	7.5635273e-07
38	0x3aa12871	0.0012295378
39	0x3607efe2	2.0256198e-06
40	0x3926fdab	0.00015925492
41	0x396b7bc9	0.0002245746
42	0x38876d90	6.457709e-05
43	0x31d739e4	6.263905e-09
44	0x37dfb4c8	2.6667854e-05
45	0x2f9d1efa	2.8580144e-10
46	0x37d03486	2.481999e-05
47	0x381cff37	3.7430986e-05
48	0x358dc034	1.0561257e-06
49	0x39216727	0.00015392584
50	0x3916d455	0.00014384215
51	0x358802d6	1.0133615e-06
52	0x35deddec	1.6604877e-06
53	0x379ac25d	1.8448738e-05
54	0x35a36202	1.217297e-06
55	0x382702ed	3.9818628e-05
56	0x35cc420e	1.5218409e-06
57	0x35950609	1.1103122e-06
58	0x3a1be392	0.00059466914
59	0x3835ad09	4.3314914e-05

exp_avg f4 [60, 60]
0	0xb590c44d	-1.0785967e-06
1	0x349e4650	2.9480952e-07
2	0xb499bb02	-2.8634537e-07
3	0xb46790c6	-2.156622e-07
4	0xb312b117	-3.4154336e-08
5	0xabfebfcd	-1.8101021e-12
6	0x2e9fe02f	7.270306e-11
7	0xb480c53b	-2.3985362e-07
8	0xb35f764a	-5.2028817e-08
9	0x335c0fc8	5.1237095e-08
10	0x32abb606	1.9989795e-08
11	0xb44f756a	-1.9321092e-07
12	0x31caabff	5.8985274e-09
13	0xb5ba8782	-1.3897518e-06
14	0xb3dbe87e	-1.0240272e-07
15	0xb49ccaa2	-2.92047e-07
16	0x342b00d1	1.5925913e-07
17	0xb33c80af	-4.3889198e-08
18	0xb5d74946	-1.6040074e-06
19	0xb508c136	-5.0945107e-07
20	0x34812a0c	2.4058716e-07
21	0xb5508d7c	-7.7691925e-07
22	0xb55d9d7e	-8.2558097e-07
23	0xb48a9d47	-2.5818937e-07
24	0x2d853099	1.5141931e-11
25	0x33f5e1be	1.1449764e-07
26	0xb4fd64bf	-4.7198225e-07
27	0x32e80a4b	2.7013035e-08
28	0x30dc510f	1.6030145e-09
29	0x34385220	1.7166212e-07
30	0xb487b9d2	-2.5280912e-07
31	0x30b6365f	1.3257696e-09
32	0x3461109d	2.0960802e-07
33	0xb48d359a	-2.6302297e-07
34	0x347352d5	2.2661273e-07
35	0xb2ec63e1	-2.7519436e-08
36	0x332262ba	3.7808356e-08
37	0x33526d2b	4.8993723e-08
38	0xb5cace3c	-1.5110195e-06
39	0xb34f99cb	-4.8335817e-08
40	0xb5990d2e	-1.1403224e-06
41	0x340f171e	1.3326323e-07
42	0xb3eb3c1d	-1.0953975e-07
43	0x2f09ff4d	1.2550778e-10
44	0xb4bdef8d	-3.537829e-07
45	0xaf8a0ac7	-2.5109712e-10
46	0x3363adef	5.3010748e-08
47	0xb383c012	-6.1351e-08
48	0x33a4a1dc	7.666287e-08
49	0xb5929e6b	-1.0923953e-06
50	0x33f3de02	1.1355952e-07
51	0xb30160fe	-3.0123367e-08
52	0xb4b9538c	-3.4519724e-07
53	0x33be703e	8.867981e-08
54	0xb44f23f2	-1.9291454e-07
55	0x330f277b	3.333069e-08
56	0xb4c1e24a	-3.6113698e-07
57	0x34da198c	4.0624252e-07
58	0xb5fce923	-1.8843315e-06
59	0xb587d933	-1.0121497e-06
60	0xb35bbbf0	-5.116084e-08
61	0x325b9aa6	1.2782641e-08
62	0xb265e687	-1.338197e-08
63	0xb24577b6	-1.1494128e-08
64	0xb11a0ae9	-2.2416151e-09
65	0x2d8c4746	1.5947809e-11
66	0x2ca8b74e	4.795198e-12
67	0xb1d7443d	-6.2650813e-09
68	0xb177eac3	-3.6076677e-09
69	0x324e0280	1.1991347e-08
70	0x3076ffc9	8.985777e-10
71	0xb252a5f5	-1.2261343e-08
72	0x31394bfa	2.696423e-09
73	0xb38b35a6	-6.4824505e-08
74	0xb178fcde	-3.6232488e-09
75	0xb27befdc	-1.4664661e-08
76	0x320df429	8.262796e-09
77	0x2fe6e353	4.199828e-10
78	0xb3c62031	-9.225949e-08
79	0xb23d6c41	-1.1025862e-08
80	0x32b15500	2.0644165e-08
81	0xb30c2326	-3.2628257e-08
82	0xb3009cdc	-2.9944985e-08
83	0xb2489a07	-1.1676554e-08
84	0x2b67805f	8.2245837e-13
85	0x31d2b7f6	6.1327183e-09
86	0xb2959cd1	-1.7417195e-08
87	0x3081d568	9.446639e-10
88	0xb00c97d4	-5.1147464e-10
89	0x3249152f	1.1704556e-08
90	0xb2684957	-1.3520853e-08
91	0x313cc398	2.7468783e-09
92	0x3258b484	1.2613899e-08
93	0xb22dd923	-1.01192965e-08
94	0x3286bd22	1.568566e-08
95	0xb0d637d6	-1.5586419e-09
96	0x3175644f	3.5709211e-09
97	0x311db1c2	2.294755e-09
98	0xb3b288e9	-8.313675e-08
99	0xb12f4f5f	-2.551097e-09
100	0xb3587926	-5.0401603e-08
101	0x328fbbc6	1.673278e-08
102	0x32074b6b	7.875182e-09
103	0x2bdd9521	1.5744386e-12
104	0xb2808d6a	-1.4965469e-08
105	0xad80345b	-1.4575166e-11
106	0x3172f552	3.5355083e-09
107	0xb1d6a9d1	-6.2475256e-09
108	0x31556fbe	3.1059098e-09
109	0xb3621811	-5.2641614e-08
110	0x32521649	1.2228676e-08
111	0xb10c976b	-2.0458752e-09
112	0xb25f068f	-1.29818e-08
113	0x32073721	7.870569e-09
114	0xb1cb825a	-5.922897e-09
115	0x31348d5d	2.6273803e-09
116	0xb24a3dc2	-1.177199e-08
117	0x32bfabff	2.2313541e-08
118	0xb3c7cb00	-9.303585e-08
119	0xb341b643	-4.510208e-08
120	0xb870232e	-5.7253223e-05
121	0x36d4490a	6.326595e-06
122	0xb7079777	-8.081893e-06
123	0x338f9684	6.686335e-08
124	0x36394304	2.7606156e-06
125	0x3447562d	1.856467e-07
126	0x32a5af46	1.9288233e-08
127	0xb6d61c28	-6.380975e-06
128	0x37a81154	2.003523e-05
129	0xb87c27d9	-6.0118593e-05
130	0x362cae05	2.573129e-06
131	0xb8c21582	-9.254647e-05
132	0xb8f0c123	-0.00011480066
133	0xb82408ec	-3.9108956e-05
134	0x371e6ad8	9.44241e-06
135	0xb607a632	-2.0213306e-06
136	0x365678fc	3.1958907e-06
137	0xb8660ced	-5.484831e-05
138	0xb87f2a84	-6.0836333e-05
139	0xb8bd84c6	-9.036953e-05
140	0x369f0f25	4.7403323e-06
141	0xb6a91a13	-5.039628e-06
142	0xb87fdf86	-6.100491e-05
143	0xb58b528a	-1.0380329e-06
144	0x30b83ca6	1.3404999e-09
145	0x374425a9	1.1691279e-05
146	0x3754aca0	1.2676377e-05
147	0x36282cad	2.5059956e-06
148	0x35c11d9d	1.4388239e-06
149	0xb8938116	-7.03355e-05
150	0x32e255b5	2.6348838e-08
151	0x378c9464	1.67584e-05
152	0x365e8157	3.3155864e-06
153	0xb6906e4a	-4.3043738e-06
154	0x371e9155	9.451372e-06
155	0x35886b52	1.0164024e-06
156	0xb7a12050	-1.9207742e-05
157	0x35e24428	1.6858148e-06
158	0xb89be284	-7.433168e-05
159	0xb6a57a2a	-4.931605e-06
160	0xb71544ab	-8.89708e-06
161	0xb91e543d	-0.00015099435
162	0xb984bce1	-0.00025317728
163	0x34e1ff7f	4.2095414e-07
164	0xb5db1274	-1.6322142e-06
165	0x33db62ab	1.021593e-07
166	0xb79379f8	-1.7580562e-05
167	0xb80c3e24	-3.3436474e-05
168	0x37d0b8d0	2.4881592e-05
169	0xb8bdd062	-9.0510366e-05
170	0xb930fb77	-0.00016878346
171	0xb7a968e5	-2.0195215e-05
172	0xb5fad5a3	-1.8688628e-06
173	0xb6042dc3	-1.969617e-06
174	0x363a00fb	2.771673e-06
175	0xb80718ad	-3.220949e-05
176	0xb83c586e	-4.490505e-05
177	0xb684b650	-3.9551305e-06
178	0xb89c776d	-7.4609045e-05
179	0xb8553919	-5.0836334e-05
180	0xb500446d	-4.778329e-07
181	0x33c26657	9.0524445e-08
182	0xb3dff645	-1.0429043e-07
183	0xb3b1db6f	-8.2821195e-08
184	0xb23c2253	-1.0950845e-08
185	0xab7ab4de	-8.9068846e-13
186	0x2d7aa68c	1.42478356e-11
187	0xb3675ecc	-5.3870096e-08
188	0xb27e2a4a	-1.4794361e-08
189	0x3392ff0b	6.845047e-08
190	0x321ca8e4	9.118796e-09
191	0xb3af7af8	-8.1714404e-08
192	0x325bd523	1.2795939e-08
193	0xb502ccb4	-4.8726656e-07
194	0xb30f5092	-3.336806e-08
195	0xb3eb5fd2	-1.096047e-07
196	0x3384b156	6.178986e-08
197	0xb153f860	-3.0845726e-09
198	0xb53eea22	-7.1121224e-07
199	0xb3df94c6	-1.04113084e-07
200	0x3412e5fa	1.3680975e-07
201	0xb4846e87	-2.4667335e-07
202	0xb4a74af1	-3.11607e-07
203	0xb3c33b76	-9.091211e-08
204	0x2cc901db	5.7129696e-12
205	0x333ade64	4.3508763e-08
206	0xb48fd005	-2.678718e-07
207	0x32259bfe	9.639733e-09
208	0x2f3b2734	1.7021479e-10
209	0x33974a5e	7.045013e-08
210	0xb3d641e2	-9.9771356e-08
211	0x32071720	7.863292e-09
212	0x33f6a6b7	1.1485593e-07
213	0xb3a82ca6	-7.831231e-08
214	0x33cbadba	9.484525e-08
215	0xb22a59c4	-9.915713e-09
216	0x32a5855f	1.9269178e-08
217	0x32a5c4de	1.9298053e-08
218	0xb52fd8a6	-6.5507845e-07
219	0xb2a9f217	-1.9784279e-08
220	0xb4e991ce	-4.350572e-07
221	0x33c66b71	9.239637e-08
222	0xb28cef14	-1.6406865e-08
223	0x2e414af5	4.3949695e-11
224	0xb400fb4a	-1.2012347e-07
225	0xaf042c75	-1.2021124e-10
226	0xb2a09a4a	-1.8696614e-08
227	0xb372147e	-5.6363653e-08
228	0x3309a505	3.2047883e-08
229	0xb4f326b6	-4.5290443e-07
230	0x33aeb419	8.135266e-08
231	0xb19e52a0	-4.6077986e-09
232	0xb3d2a82c	-9.809477e-08
233	0x33411362	4.4953943e-08
234	0xb34e646e	-4.8054453e-08
235	0xb306d78a	-3.1395338e-08
236	0xb3c96372	-9.377881e-08
237	0x342ac139	1.5902778e-07
238	0xb54aa314	-7.5488174e-07
239	0xb4c3d7f5	-3.647871e-07
240	0xba53f7d7	-0.0008085942
241	0xb9a9ef74	-0.00032412598
242	0xb9de29f5	-0.000423744
243	0x39a48572	0.00031379942
244	0x38b27879	8.510141e-05
245	0x35f44ce8	1.8201799e-06
246	0x344fef4c	1.9365433e-07
247	0x39475d71	0.00019012929
248	0x3869e47a	5.5764314e-05
249	0x39f43603	0.00046579549
250	0xb8c3e46a	-9.34087e-05
251	0x377d5f51	1.5102168e-05
252	0xb89c76b5	-7.4607706e-05
253	0xb6a351e7	-4.8673132e-06
254	0xb987d33d	-0.0002590659
255	0x39a5501c	0.0003153094
