mnc_ml_test/output/best/20221127-2308-model-test10.pth (torch, 67293 bytes, 21 tensors)

module.0.weight f4 [60, 12]
000000 e0 99 3b 3f c0 89 ea be 27 99 53 3f 75 bf 58 be
       0.7328167 -0.4580822 0.82655567 -0.21166785
000010 30 99 cb bb 8a 48 8f 3e 19 cb b0 3d e9 e1 cf 3e
       -0.0062133297 0.2798503 0.08632488 0.40602043
000020 80 a3 e8 3e 4a 39 43 be 57 29 90 be 57 28 8d bd
       0.4543724 -0.19064823 -0.2815654 -0.0689246
000030 ca 36 e6 3c c4 8d e2 bd 53 81 4c 3d 20 f2 1c 3d
       0.028102297 -0.11062196 0.04992802 0.038316846
000040 07 d1 37 bd d8 91 04 3e 83 42 18 bd d6 64 0b 3e
       -0.04487708 0.1294626 -0.037172806 0.13612685
000050 38 bb 05 3e 38 73 bf bd 26 9e 9c 3d 4a 9d f9 bd
       0.130597 -0.09348148 0.07647352 -0.12188204
000060 e6 a4 9c 3d 2c e3 e0 3e 58 3f 5c bc 34 78 c6 bd
       0.076486394 0.43923318 -0.013442837 -0.09690896
000070 7d 9e 29 3d 7f fb bf be 8b ed 2b 3d 0b e6 1f 3e
       0.04141091 -0.37496564 0.041974586 0.15615098
000080 8d 1d c5 be d7 ad 6e 3d 44 a8 ff 3b 9e b3 98 3d
       -0.38499108 0.058271255 0.0078020412 0.07456134
000090 22 72 8d b9 6f 52 4c 3a a5 02 f6 b9 17 73 18 3b
       -0.0002697865 0.0007794266 -0.00046922747 0.0023261958
0000a0 25 e3 05 bb 9f 48 d1 38 90 4e 9d b8 d6 65 79 ba
       -0.0020429578 9.979423e-05 -7.500977e-05 -0.0009513771
0000b0 0d 7f f4 ba 40 5e c2 b9 0c fb 53 3b 02 80 0f ba
       -0.0018653587 -0.00037072785 0.003234568 -0.0005474092
0000c0 fe a4 73 be 2d 3c 1d bf 01 58 25 bf c4 42 94 3e
       -0.23793408 -0.61419946 -0.6458741 0.28957188
0000d0 88 74 e0 ba 56 c2 75 3e 75 03 9b bd 2b f9 fd 3c
       -0.0017124573 0.23999915 -0.07569019 0.031002602
0000e0 52 b6 13 bf e3 cc d4 3d 4a fc 94 3d 04 27 49 be
       -0.57700074 0.103906415 0.07274683 -0.1964379
0000f0 cc b4 07 3c fb d9 1b bd 45 cb 5f 3e 21 db 8e bd
       0.008282851 -0.03804968 0.21854885 -0.06975389
000100 35 57 97 3d f6 70 27 3e f7 89 60 3e 3e 6a bb be
       0.0738968 0.16351685 0.2192763 -0.36604494
000110 9e 92 3b 3f e2 c6 69 be ff 9a ff 3d 71 23 2a bd
       0.73270595 -0.22829774 0.12480735 -0.041537706
000120 ae 50 a4 3e 2f 6e 4a 3f 41 44 ab be 5b 48 ec bc
       0.32092804 0.79074377 -0.3345051 -0.028843096
000130 17 ac 0f bd 76 05 e8 be 51 a1 c1 be d1 60 9a 3e
       -0.035076227 -0.45316666 -0.37818387 0.3015199
000140 e5 16 de be 37 9a 62 3e 75 60 0c be 75 26 8f bd
       -0.43376842 0.22129141 -0.1370867 -0.06989757
000150 29 58 66 3e a5 f0 00 3f 67 77 fc bd 36 ac bc bd
       0.22494568 0.50367194 -0.12327462 -0.09212534
000160 47 e1 e6 3d cd a1 b6 be 6c cd c3 be 02 05 1f 3d
       0.11273437 -0.3567032 -0.38242662 0.038823135
000170 6f a3 8c be 5b 21 aa 3d 6f 7a a5 bc af be 08 3e
       -0.2746844 0.08307143 -0.020199982 0.1335399
000180 0c 20 26 3f bb 1d f5 be 27 bd 84 3e b7 b2 43 3e
       0.6489265 -0.47874245 0.25925562 0.19111143
000190 24 e0 a6 bd b8 25 06 3f 8e 33 cc be 76 61 81 3e
       -0.0814822 0.52401304 -0.39883083 0.2526967
0001a0 93 46 e8 3d d2 3c bf bd 34 e8 41 3e a7 94 9e be
       0.11341586 -0.093377724 0.18936235 -0.30972788
0001b0 8d df 57 39 a9 8b cd ba 4a 25 a1 ba 9e 63 bc b9
       0.00020587277 -0.0015681881 -0.0012294438 -0.00035932375
0001c0 03 86 1b bb 48 2b ab ba b1 90 83 ba f2 ff 35 3b
       -0.0023731 -0.0013059163 -0.0010037628 0.0027770963
0001d0 d5 ee df ba b3 8e f9 ba 77 81 84 3b 59 85 55 3b
       -0.0017084727 -0.001903972 0.0040437537 0.0032580702
0001e0 bc 45 8d bc df 0b 96 3e 93 0f 65 be d1 92 8f 3e
       -0.017245166 0.29305932 -0.22369222 0.280417
0001f0 fa 9e 1d 3e 3d 57 12 bd da 17 88 be 66 a8 3a 3e
       0.15392676 -0.03572773 -0.26580697 0.18228301
000200 4b 1b cd be c9 5e 0d 3e 15 2e 08 be 79 13 59 be
       -0.40059885 0.13805689 -0.13298829 -0.21198834
000210 75 cb b0 ba c8 97 bd 3d 2e aa 38 be 22 b2 8b bd
       -0.0013488369 0.092574656 -0.18033668 -0.068210855
000220 6b 18 78 bf 08 2e 74 3d a0 d8 17 bf b8 4c e2 bd
       -0.9691226 0.05961421 -0.5931492 -0.11049789
000230 4d 4d 32 3e f2 c2 09 3e 0f cc 26 bf 6c fb e1 bd
       0.174123 0.13453272 -0.6515512 -0.11034283
000240 ef bf dd be 1b 6f 16 bc d1 65 e2 be 7d d7 2b 3e
       -0.43310496 -0.009181763 -0.44218305 0.16781421
000250 ae 48 36 be 70 ee e6 3d a6 84 18 bd 8f 31 50 be
       -0.17801163 0.11275947 -0.03723588 -0.20331405
000260 24 01 69 bb 96 4a 01 be d2 3e 9c 3e e8 dc 8c be
       -0.0035553658 -0.12626109 0.30516678 -0.27512288
000270 c2 5b b6 be 05 c9 85 3d 23 0a c1 be e7 0c ba 3a
       -0.3561688 0.06532482 -0.37703046 0.0014194519
000280 35 d3 16 be 9a 11 00 be d0 fa 6a 3e 63 8e 5f be
       -0.14729007 -0.12506714 0.2294724 -0.2183166
000290 9e 44 a7 3e 21 5c 38 3d 90 3f c6 bd 67 f7 01 3e
       0.32669538 0.045009736 -0.09680092 0.12692033
0002a0 1e a8 39 bb f7 1d a1 3a 3c a9 86 3a e2 53 87 3a
       -0.0028328965 0.0012292255 0.0010273824 0.0010324682
0002b0 aa 59 85 3b 5a d4 d5 ba 14 1e 19 bb 79 83 1b 3b
       0.0040695267 -0.0016313896 -0.0023363875 0.0023729487
0002c0 80 f7 85 ba a6 0c 7c 3b ba a4 91 bb 9e d8 74 3a
       -0.0010220855 0.0038459687 -0.0044446858 0.000934014
0002d0 1a 9b fe ba 76 97 39 ba 68 5d 1f ba 24 30 93 3b
       -0.0019424886 -0.00070797594 -0.0006079287 0.004491823
0002e0 f5 6b 29 ba 07 ac 2c 3b 92 fc a1 bb a8 3f e9 ba
       -0.0006462925 0.0026347653 -0.004943439 -0.001779546
0002f0 69 7e 3d b9 2e 80 b3 bb b3 02 52 38 50 64 25 bb
       -0.00018071536 -0.0054779267 5.0070415e-05 -0.0025236793
000300 7e da 3c bb 49 2f da 3a 68 97 a1 b7 67 1b b2 3b
       -0.0028816755 0.0016646172 -1.92632e-05 0.0054353955
000310 91 d0 37 3b 84 a9 db 3a a6 2c 04 3b f9 7d 81 3b
       0.00280479 0.0016758894 0.0020168214 0.0039517847
000320 17 03 3f 39 b0 34 33 3b 97 6c d7 ba 1c 4f ad bb
       0.0001821633 0.0027344637 -0.001643556 -0.0052889716
000330 78 bc a9 ba 82 95 61 3b 55 fd 79 ba cf fb 0f 3a
       -0.0012949845 0.003442139 -0.00095363456 0.00054925395
000340 a7 db 21 3b a5 b6 10 bb fd 74 81 3b 85 a3 4f bb
       0.0024697573 -0.002208152 0.0039507137 -0.0031683159
000350 11 b7 f3 ba 40 de 06 bb 74 96 81 bb d1 ba 0a 3a
       -0.0018593987 -0.0020579249 -0.003954703 0.000529212
000360 7b 47 b1 bd bc e2 7b be d6 09 a0 3d df b1 2c bc
       -0.08656212 -0.24598211 0.07814376 -0.010540455
000370 59 67 fe bd f3 c7 99 be d8 38 92 be bc bc 2e 3e
       -0.12422056 -0.30035362 -0.28558993 0.17064184
000380 76 45 d0 bd f1 dc 34 3c 02 50 4a be 85 8e 27 bd
       -0.101694986 0.011039005 -0.19757083 -0.0409074
000390 c3 85 dd be 35 d5 1f 3f 76 6c 11 bf bc 4c 7b 3d
       -0.43266115 0.62434703 -0.56806123 0.061352476
0003a0 87 29 e4 3c 40 54 90 be 08 4e 50 3e 5e 0b c0 3c
       0.027851833 -0.28189278 0.20342267 0.02344292
0003b0 89 a9 a3 be a2 dd fd 3b ff 71 23 be 75 76 7b bd
       -0.31965283 0.007747368 -0.15961455 -0.061392266
0003c0 b6 8d 85 bd 28 21 34 3f 45 80 85 bf 6e 4b 05 3e
       -0.0652117 0.7036309 -1.042977 0.13017055
0003d0 35 81 15 bd 67 fe f3 be d3 f7 40 3e 41 17 b6 3e
       -0.036500175 -0.4765503 0.18844537 0.35564616
0003e0 2a df 4a bf 4b 0d c6 3e 59 80 05 3e b0 f9 63 bb
       -0.7924677 0.38682017 0.13037242 -0.0034786277
0003f0 65 d1 68 be 14 04 9a bd 1c a0 5a bd 29 90 d7 3d
       -0.22736128 -0.07520309 -0.05337535 0.10525543

module.0.bias f4 [60]
000000 94 81 04 be 37 cd 4b 3d 78 91 8e be 7c 31 f0 39
       -0.12940055 0.049756255 -0.2784536 0.00045813236
000010 02 50 0d be de 4f 5f 3d 3d 82 3c be 4a f3 81 be
       -0.13800052 0.054519527 -0.18409057 -0.25380927
000020 3b 2d 73 be c0 b3 f0 39 66 bc b9 be 49 b2 04 bf
       -0.23747723 0.0004591029 -0.3627655 -0.5183454
000030 1b e0 16 bd 37 2d 7c 3a 10 a2 88 3a fe 92 7e 3b
       -0.036834817 0.00096197746 0.0010424275 0.0038844938
000040 79 fd e9 ba 5e e4 a1 bb f0 0e 3e be 74 0c 07 be
       -0.001785203 -0.0049405536 -0.18560386 -0.13188344
000050 5f 06 3d be b2 4f 40 3e 7c 16 62 bd db f1 a8 3e
       -0.18459462 0.18780401 -0.055197224 0.3299702
000060 88 17 37 38 7d a8 b7 3d 46 06 ec b9 15 b3 94 3d
       4.3652515e-05 0.089676835 -0.00045018102 0.0726072
000070 fd 79 77 3c 27 50 e4 be 03 ec 8f be 4b 37 6e b9
       0.015104768 -0.445924 -0.2810975 -0.00022718047
000080 1d 50 08 3a 43 5b 34 3c 63 33 48 be 2b a1 93 3e
       0.0005199926 0.011008087 -0.19550852 0.288339
000090 a1 7e 19 bf 95 14 06 bb 14 ae 45 be be 06 72 bd
       -0.59958845 -0.0020459045 -0.19304687 -0.05908846
0000a0 b2 64 6a ba 26 cc c1 3d b1 90 a5 be a0 d6 61 ba
       -0.00089413964 0.09462766 -0.32336953 -0.00086150505
0000b0 78 57 47 bd 13 a0 14 39 73 eb 57 3d 66 c9 7e ba
       -0.0486674 0.00014174012 0.052714776 -0.0009719342
0000c0 f2 0c ac 3a 27 31 6c 3c 7a b9 64 ba 97 d8 a5 bd
       0.0013126417 0.014416016 -0.0008725148 -0.08097952
0000d0 76 64 56 3b 2a be 9a b8 cc 46 ce ba 8d 5c d7 3c
       0.0032713688 -7.378713e-05 -0.0015737652 0.026289249
0000e0 4a 2b ad be ec 11 cb 3c 8b 4c 13 be 96 f1 07 3e
       -0.3382209 0.02478882 -0.14384668 0.13275751

module.2.weight f4 [60, 60]
000000 47 5a 04 bf e0 3b 53 bd fa bd 49 3e fc 05 ec 3a
       -0.5170025 -0.051570773 0.19701377 0.0018007155
000010 c2 4a 1d 3f 09 02 90 be 4c a0 10 3f 38 f6 ca 3e
       0.61442196 -0.28126553 0.56494594 0.39640975
000020 1f 83 b9 bc b9 0e 13 3a cd 29 9b 3e a7 ac a2 be
       -0.022645531 0.0005609799 0.3030533 -0.31772348
000030 29 4b da 3d 17 d1 9c bd 22 a1 d3 39 a2 79 2b ba
       0.10658867 -0.07657068 0.0004036511 -0.0006541257
000040 73 fb 33 ba 86 43 42 3a ee 06 d7 bd 73 6b d2 3e
       -0.0006865777 0.00074105745 -0.104993686 0.41097602
000050 35 73 42 3f 0a 03 eb bd 4a e3 a4 be 9a 35 60 bb
       0.7595704 -0.11475189 -0.32204658 -0.0034211637
000060 58 b2 3e 39 6a ed ad be a4 06 20 bb 86 47 9f bd
       0.0001818625 -0.33970195 -0.002441802 -0.07777314
000070 c0 7c 9e be 07 8a 5e be 69 11 33 be fc e6 f5 ba
       -0.30954552 -0.21732341 -0.1748711 -0.0018760855
000080 b0 72 7d ba a4 08 c0 3b 6c 3d c6 3c f4 dc 41 be
       -0.0009668274 0.005860405 0.02419921 -0.18931943
000090 84 d1 4d 3f 00 20 a3 ba f7 24 1b be 74 83 4a 3f
       0.8039782 -0.001244545 -0.1515082 0.7910683
0000a0 bc 6a 29 3a 62 c2 a0 3e 5b 5e 85 be e5 56 fb 39
       0.0006462743 0.31398302 -0.2604855 0.00047939192
0000b0 c6 40 69 3e d0 81 ee ba 92 6a 80 3e 4b 43 d6 39
       0.22778615 -0.0018196646 0.25081307 0.00040867398
0000c0 5b fa ed ba c0 5c a6 bd 9c 0e 4b bb 19 f9 ac be
       -0.0018156277 -0.081231594 -0.003098405 -0.33783796
0000d0 86 ef 23 b9 60 4f 0b 3a bb fc 15 ba ce e5 b5 3e
       -0.00015634121 0.0005314257 -0.00057215587 0.3552689
0000e0 36 19 f2 3d 22 4f d0 be 99 f6 10 be 4c 77 ec be
       0.11821215 -0.40685374 -0.1415657 -0.46184766
0000f0 52 e9 84 bb 84 6a 07 bb 4e 14 85 3b d5 74 ad 3a
       -0.0040561343 -0.0020662853 0.0040612584 0.0013233671
000100 56 73 aa bb e2 9d 0f bb e1 e3 a8 ba 92 62 c5 3a
       -0.0052017374 -0.0021914174 -0.0012885296 0.0015059283
000110 35 2e 47 3a bc 04 3b 39 fc a3 7b 3b 2b e6 ac b7
       0.0007598133 0.00017835473 0.0038397303 -2.0611178e-05
000120 99 ff a2 ba 40 82 5d bb 41 22 0d 3b 14 dd ec b9
       -0.0012435793 -0.003379956 0.002153531 -0.00045178144
000130 cd d0 c5 3b 4b 93 d8 b9 c9 34 72 bb 62 49 85 3b
       0.006036854 -0.00041308472 -0.0036957732 0.004067586
000140 42 45 ce bb a4 5f 55 bb df 87 e8 ba 57 90 4d bb
       -0.0062948773 -0.0032558227 -0.0017740688 -0.003136655
000150 24 a3 8b 3a 54 f4 bd 3a 5c af d1 3a 2b d5 4f bb
       0.0010653478 0.0014492371 0.0015997696 -0.0031712751
000160 43 3a b5 3b a0 e5 20 3b a8 dd 89 bb 24 09 3d 3b
       0.005530627 0.002455093 -0.0042073317 0.002884456
000170 fb dd 3b 3b 8c ef f2 bb 0e da b3 3a 4c 80 64 bb
       0.0028666246 -0.00741381 0.0013721602 -0.003486651
000180 84 15 17 3b 9a ed a0 39 12 50 85 ba ad 1a 39 3a
       0.0023053596 0.00030694605 -0.0010170958 0.0007061165
000190 d5 51 d6 bb fa cd 1c 3b 65 fe 94 bb a1 55 b2 3a
       -0.006540517 0.0023926483 -0.0045469278 0.0013605842
0001a0 fd 0b 4e 3a 77 36 3e ba 5a 02 f2 3a e1 b8 f6 ba
       0.0007860063 -0.00072560407 0.0018463836 -0.0018823409
0001b0 a6 fc a9 3b 43 be 5b bb f2 82 32 ba 75 d9 e7 ba
       0.0051875887 -0.0033530153 -0.00068096735 -0.0017688709
0001c0 7c 09 49 3a ef 95 12 bc bc e9 ae 3b af a1 2b 3b
       0.0007668955 -0.00894688 0.005337922 0.00261889
0001d0 aa 8d eb 3a 57 45 fd b9 e0 dd 25 ba 0f 33 9a bb
       0.0017971296 -0.00048307583 -0.00063273124 -0.0047057937
0001e0 3d cc e3 be dc a9 09 bd 6d 10 33 3d 19 69 a7 3a
       -0.4449176 -0.033609256 0.043716837 0.001277241
0001f0 8b 64 85 3d 80 dc ad 3d f1 ac 06 3e 9d 30 01 3e
       0.06513318 0.08489323 0.1315191 0.12616201
000200 3c fc d8 bd 82 2b 35 bb 6f 32 75 3d 0f 92 07 3d
       -0.10594985 -0.002764434 0.05986255 0.033098277
000210 18 1a 4e 3e 9b 75 2f 3e 43 9d 8e b9 0d 76 d3 3a
       0.20127141 0.17134707 -0.0002720152 0.0016133204
000220 4e e8 5b ba ec b4 77 3b 84 68 0b 3e ad b6 2c 3e
       -0.0008388803 0.0037797047 0.13614088 0.1686656
000230 1c ef 37 3e 2b bb bb 3c 85 ee 8f be bc ab 85 3d
       0.17962307 0.022916397 -0.28111663 0.06526896
000240 d4 55 c6 39 54 12 5a bd c2 71 00 bb e1 1c f0 bb
       0.0003782945 -0.053240135 -0.0019599055 -0.0073276614
000250 90 b2 0a be dc c0 b0 bd 0d 91 fc bd 78 f1 8f b9
       -0.13544679 -0.08630535 -0.12332354 -0.00027454994
000260 28 c6 94 b7 5a d3 47 3e ad 13 a4 3d 71 54 b0 bd
       -1.7735249e-05 0.19514218 0.08011565 -0.08609856
000270 55 91 3b 3e 71 a8 65 3b 11 fd 0b be 65 5e 1d 3e
       0.18317159 0.0035043026 -0.13670756 0.1536804
000280 04 ae 2e ba ff 44 44 3e 8b ad 4c be 4f 34 46 3a
       -0.00066635036 0.19166945 -0.19988076 0.0007560895
000290 05 e9 c9 3c 8b ef 4d bb 14 8d 7d 3d c6 b6 22 b9
       0.024647245 -0.0031423296 0.06190212 -0.00015517612
0002a0 25 5c 56 ba 49 4d 92 bc af b1 31 3a a5 7d 31 be
       -0.0008177183 -0.017859118 0.0006778491 -0.17333086
0002b0 c8 d0 24 3b 9a 1c 39 3b 5f 38 e0 ba 8a b6 c7 3d
       0.0025148857 0.0028245808 -0.0017106644 0.097516134
0002c0 e9 79 a6 3d 48 fa 20 be 8e dc d2 bd a3 46 35 3e
       0.08128721 -0.15720475 -0.10295974 0.17702727
0002d0 42 98 a3 3d 0c 31 3f 3d a9 ea 6f be 54 48 0e ba
       0.07988025 0.046677634 -0.2342936 -0.0005427648
0002e0 03 c1 16 3e 23 f4 be 3d f9 d2 80 bd 2f 73 c8 bd
       0.14722066 0.09323909 -0.0629024 -0.097875945
0002f0 c7 dd ab 3e 8a f0 dd ba 03 15 25 3c fb 54 4d 3d
       0.3356764 -0.0016932648 0.01007581 0.05012987
000300 ce c5 fc 3c 63 18 d1 bc 50 8e ed 3a 85 21 aa ba
       0.03085604 -0.025524324 0.0018124077 -0.001297996
000310 01 c2 ae ba 7e 7e c5 3b 20 2b 15 bd f1 97 4b bd
       -0.0013332964 0.006027042 -0.03641808 -0.04970545
000320 3e 5a 64 3d fc 31 e0 3b ee 64 cb 3b 70 c1 ba 3d
       0.055750124 0.006841896 0.0062071 0.091189265
000330 33 ad 80 3a f4 96 91 3a b7 47 b9 3a d1 02 b6 3d
       0.0009817242 0.001110761 0.0014135753 0.08887256
000340 0b 9b 8b 3e c0 b5 a1 3e db 2e 0a bd d9 d5 40 3b
       0.27266726 0.31583977 -0.03373609 0.0029424338
000350 7f 06 5e ba 49 fc 9f 3b 42 d8 52 3e 5a 7e 14 3e
       -0.0008469596 0.0048823697 0.20590308 0.14501324
000360 fc aa a9 bd c3 84 9c 3a 47 20 47 3e 99 e8 1d bc
       -0.08284566 0.0011941422 0.19445907 -0.009637975
000370 1e f0 23 3b d2 73 62 bc af 2a 1c bd 0a 2a 1d 3b
       0.0025014947 -0.013821559 -0.038126644 0.0023981356
000380 60 8b 8c 3c b0 dc e0 39 00 d6 77 be ad 2d 91 3b
       0.017156303 0.00042889034 -0.24202728 0.004430494
000390 da 0e ce ba c5 cb e5 3d 78 ee 0c 3b ba 2c 83 bb
       -0.0015720979 0.112205066 0.0021504443 -0.0040031346
0003a0 70 2c cd 3a eb 5f 1c 3a 56 62 8f ba 06 8f 84 be
       0.0015653502 0.00059652206 -0.001093934 -0.25890368
0003b0 26 c4 ca 3e 8a 8e 27 3e dd e9 98 3d 3e 67 90 3d
       0.39602774 0.16362968 0.07466481 0.07050942
0003c0 86 7c 1e 3b e3 82 b0 3a e8 50 3d bb 88 38 d7 ba
       0.0024183108 0.0013466742 -0.0028887335 -0.0016420046
0003d0 47 e7 00 bb 0e af 8b bb e4 90 cb bb aa 6a a4 ba
       -0.0019669102 -0.0042628115 -0.0062123407 -0.0012543995
0003e0 5d 4e f7 38 0f 31 28 bb 3e 20 8e 3b 71 13 6d 3b
       0.00011792474 -0.0025664007 0.0043373397 0.0036174918
0003f0 56 f9 b4 3a 8e f7 c1 3b 21 e2 e0 3a db 40 78 bb
       0.0013807218 0.0059194034 0.0017157235 -0.0037880454

module.2.bias f4 [60]
000000 03 a9 a9 be 24 50 a5 3b 3f 45 1d 3e 60 90 8f 3e
       -0.33136758 0.005044954 0.15358447 0.28039837
000010 8d 0f 1a 3c 99 8e 99 ba 7f f1 b9 be aa 4e c9 be
       0.009403122 -0.0011715471 -0.3631706 -0.39317828
000020 59 e7 5d bb e4 54 27 bb 0f cf 79 3e 3e 85 cf ba
       -0.0033859818 -0.0025532776 0.24395393 -0.0015832556
000030 cb dd 45 b9 7c 02 a7 3d 55 41 42 ba 60 d0 90 ba
       -0.00018870008 0.08154771 -0.0007410248 -0.0011048429
000040 fb 83 e2 3a 2c 92 1e 3e 97 d0 30 3e d7 cd 2a ba
       0.0017281765 0.15485448 0.1726707 -0.0006515658
000050 82 9a b5 38 6d 31 36 3d 7b a9 70 3a 15 5e 7a bb
       8.659532e-05 0.04448073 0.0009180528 -0.003820305
000060 10 a2 90 3a cc 6b 2b bb 31 c7 a3 3d b2 ab 6b bb
       0.0011034627 -0.0026156781 0.07996977 -0.0035960493
000070 f9 db 18 ba aa a6 22 bd dc 04 a6 ba 86 50 87 be
       -0.00058311183 -0.039709724 -0.0012666243 -0.26428622
000080 d1 e0 48 ba 1a 20 96 bd be e4 ac ba 3b 13 20 3b
       -0.0007662895 -0.07330342 -0.0013190729 0.0024425525
000090 8a d4 ee 39 c4 14 d7 ba 2b 48 54 bd 0d ca d6 bb
       0.0004555325 -0.0016409387 -0.051826637 -0.006554848
0000a0 75 c7 33 3b 25 b7 b4 bd ac 94 4e 3d 36 e8 18 3d
       0.0027432118 -0.088239945 0.050434753 0.03733083
0000b0 be d8 1f bb 8a 02 1f 3a 59 44 63 ba 4d 49 4f 3b
       -0.0024390663 0.0006065747 -0.00086695474 0.0031629384
0000c0 87 2c 16 3a 42 dc 21 3b 4c 31 46 3a 02 ac 54 b9
       0.0005728681 0.0024697934 0.00075604464 -0.00020281973
0000d0 e9 7e 36 bc 8c 49 80 b9 fa 84 91 bc 17 4b 28 bb
       -0.011138656 -0.0002446886 -0.017763603 -0.0025679523
0000e0 b1 4a 0d 38 22 d5 52 bb ed 60 87 ba 44 e2 66 bd
       3.368658e-05 -0.0032170494 -0.0010328569 -0.056368127

module.4.weight f4 [6, 60]
000000 13 8f 9f 3a e3 dc 13 3c f5 4c 97 3b c3 d1 0f 3c
       0.0012173377 0.0090248315 0.0046173283 0.008778038
000010 87 1b 2e 3c 64 09 8a bc 4a 9a 85 ba 9e 6e a6 ba
       0.01062668 -0.01685018 -0.0010193076 -0.0012697761
000020 5a 28 91 bb 34 64 ec bb 59 c0 11 3c a2 d1 e9 bb
       -0.004429859 -0.0072140936 0.008895957 -0.007135586
000030 4d 72 51 bb 44 af 67 bb 80 66 fd ba e9 62 34 3b
       -0.0031958998 -0.003535227 -0.0019332916 0.0027524775
000040 a1 8f 24 3b 6a 6f 21 bc 05 06 3a 3c a1 33 90 bc
       0.0025110024 -0.009853223 0.011353974 -0.017602744
000050 44 0b f7 3b 06 46 91 3c 02 ed 22 bc 61 74 80 bb
       0.0075391848 0.017733585 -0.009944202 -0.0039201234
000060 c8 bd e8 3a eb 3a 4a bc ea 05 b7 bb ba 71 90 bb
       0.0017756755 -0.012343149 -0.005585422 -0.0044080885
000070 e8 13 ad bb e9 ff 9d bb 6b e5 d9 3b 54 7f c3 b9
       -0.005281914 -0.0048217666 0.006649663 -0.00037288165
000080 cd 20 17 bb 4e 94 c1 ba 12 15 cb 3b 8f c4 e3 3b
       -0.0023060322 -0.001476893 0.00619758 0.006950922
000090 54 49 2f bc 7e 58 d9 bb f5 00 3c 3c 1a 48 95 bb
       -0.010698635 -0.0066328635 0.011474838 -0.0045557143
0000a0 20 35 37 3c 9e 0f 31 3c 98 47 4c bc ad c5 c0 bb
       0.0111821 0.010806946 -0.012468241 -0.00588294
0000b0 65 99 92 3b 6f 7f 74 3b 9d 95 36 3b 35 33 03 3b
       0.0044738525 0.0037307402 0.0027860173 0.0020019535
0000c0 10 a0 1d bb 78 40 45 bb 2e 1b 4f b9 ad e3 21 3c
       -0.0024051704 -0.003009824 -0.00019751184 0.009880942
0000d0 52 a5 05 3a 36 91 b2 38 f8 74 34 bb 8d ce 27 3b
       0.0005098182 8.514749e-05 -0.002753554 0.0025605292
0000e0 9e 53 d2 3b 09 bd 4c 3c f9 a2 fd 3b 6f 20 3c bc
       0.0064186594 0.012496241 0.007740375 -0.011482342
0000f0 97 04 21 be e0 b5 44 3c c9 89 93 3d f9 c5 6c 3d
       -0.15724407 0.012006253 0.07204015 0.05780599
000100 65 63 05 3c 78 9a bb 3b 41 9c a1 bd e4 b1 ad be
       0.008141373 0.005725201 -0.07891131 -0.33924782
000110 5b 5f ab 3a 3b 99 2f 3c 5b 34 8f 3d 68 43 24 3c
       0.0013074683 0.010717685 0.06992408 0.0100258365
000120 9b e1 3e bb 7e d3 bd ba dd 17 8d 3a b0 60 07 bc
       -0.002912617 -0.0014482585 0.0010764558 -0.008262798
000130 a0 7a 38 3b fa 33 4a 3d 44 a1 02 be 3b 47 76 3c
       0.0028149262 0.049365975 -0.1275683 0.015031631
000140 79 3f b0 3b 58 e1 2d bc a9 03 13 3b af 88 06 3b
       0.0053786603 -0.010612808 0.0022432602 0.0020528247
000150 e7 dd 12 bc 6c bb 9b bb ea 11 f3 3d 28 76 33 3b
       -0.008964038 -0.004752567 0.11868651 0.002738366
000160 79 a2 5b 3b 72 60 26 3e bc 3f a8 bb 31 5b ea bd
       0.003351359 0.16247728 -0.005134551 -0.11443175
000170 83 ff f0 bb d7 a9 3c be 95 e6 38 bb 9d 51 09 3c
       -0.007354678 -0.18424164 -0.002821361 0.0083812745
000180 5c 14 d2 3a a7 54 ab 3b 1a a8 b3 bc f5 a9 15 bc
       0.0016027796 0.005228597 -0.021930743 -0.009134759
000190 a7 87 14 3b a7 d9 2a 3e 6a 62 91 3c 56 55 12 be
       0.0022663863 0.1668459 0.017747123 -0.14290366
0001a0 2c 4c f8 b9 26 5d 1f bc ed 46 0e 3b 6b ea a6 3a
       -0.00047359 -0.009726798 0.0021709756 0.0012734657
0001b0 b0 92 86 3b 70 a9 96 b9 59 35 55 bc f5 e3 6d b9
       0.004106842 -0.0002873647 -0.013013207 -0.00022687002
0001c0 bf 2c 84 bc 91 59 16 bb 65 4a a0 3c a6 f9 09 bc
       -0.016134618 -0.002294157 0.019566724 -0.008421337
0001d0 e1 4d 1a bb fe ab 00 bb e3 2a d8 bb f6 7b 5e bc
       -0.0023544955 -0.0019633765 -0.0065969094 -0.013579359
0001e0 d4 19 cc be af ce 72 bb ed e2 13 bd 75 fa 4a be
       -0.39863455 -0.0037049463 -0.036105085 -0.19822104
0001f0 91 de b4 3a a2 77 21 3b 6c 72 e8 bd d9 04 d2 be
       0.001379924 0.0024637957 -0.11349949 -0.41019323
000200 52 80 35 bb d0 b8 84 ba 11 5e 55 be bb 72 37 3b
       -0.0027694893 -0.0010125879 -0.20836665 0.0027991969
000210 20 e0 b2 3a 95 71 ad be 7b 64 99 3a 35 d5 34 3b
       0.0013647117 -0.3387572 0.0011702919 0.0027592902
000220 6e 1e 4b bb 8e 5e f4 bd 92 89 a4 be 32 1f 51 3a
       -0.003099348 -0.119320974 -0.32136208 0.0007977366
000230 a5 80 ee ba be 6d a0 3b 59 fa f9 3a c9 fb d8 3a
       -0.0018196298 0.004895895 0.0019071802 0.001655453
000240 6f e8 b5 ba 64 23 7b ba c9 43 22 3d ba b6 22 3a
       -0.0013878475 -0.0009580164 0.039615426 0.0006207038
000250 f9 21 10 3a d1 ca 11 3f 3d 99 09 3b fa 47 db bd
       0.00054982264 0.569501 0.0020995878 -0.10707088
000260 48 cb bc 3a 87 fe 1c bf 12 50 6b 3b ce 30 a1 ba
       0.0014403844 -0.6132588 0.003590588 -0.001229787
000270 c3 b3 e9 3a fb 29 e7 ba 85 5a 82 3b e7 4b a2 3a
       0.0017830062 -0.0017636413 0.003978076 0.001238224
000280 22 52 9d ba 1b 20 fa 3e ca 98 04 bb 08 3b 79 be
       -0.0012002627 0.4885262 -0.002023267 -0.24338925
000290 70 68 0e ba d4 b2 bf b9 73 87 13 bb ec 38 11 bb
       -0.00054324325 -0.00036563596 -0.0022511154 -0.0022159172
0002a0 e7 94 33 3a 7c 57 e0 ba ca 37 5c 3b 26 ab 2d bb
       0.0006850496 -0.0017115916 0.0033602589 -0.0026499717
0002b0 43 c7 50 3e ab e1 15 3b 0c 56 53 ba ff ec b7 ba
       0.20388512 0.0022870104 -0.0008061833 -0.0014032422
0002c0 93 0e 54 bb db 05 12 3b 39 ae 4b bb b4 5d 68 39
       -0.003235732 0.0022281322 -0.0031079187 0.00022160151
0002d0 1b d4 03 3d 42 f7 b6 38 73 96 d1 bb e9 6c a3 be
       0.0321847 8.7244916e-05 -0.006396109 -0.3191903
0002e0 1a 0b fb ba c8 c9 34 3a ef a6 c0 3c e6 b1 70 bd
       -0.0019153089 0.0006896523 0.0235171 -0.058763407
0002f0 c2 e7 68 ba f4 e8 87 b8 62 54 cb be f8 ab 5d 3a
       -0.0008884632 -6.4806925e-05 -0.39712816 0.00084561063
000300 67 5f 68 39 f8 b0 cb 3c a0 bc db 36 78 b3 a1 b8
       0.00022160784 0.024864659 6.5486674e-06 -7.710507e-05
000310 44 fe 86 b9 bf 62 79 be 28 34 a6 3d df 46 b6 3a
       -0.00025747914 -0.24354075 0.08115417 0.0013906619
000320 d2 81 09 3a 6b 2e 91 3a 24 9f 5b 38 de e5 53 3a
       0.000524548 0.0011076456 5.236188e-05 0.0008083264
000330 b7 87 52 39 84 08 0c 3b ad 7c 17 be 9c 5b 8e 38
       0.00020077718 0.002136738 -0.14793654 6.788151e-05
000340 08 a5 9b b8 bb 07 c5 bd d2 5e eb ba 26 5d 24 be
       -7.4217154e-05 -0.09620615 -0.0017957336 -0.16051158
000350 ff 77 3c b9 a4 37 94 bd df a1 2f ba ea 92 74 3a
       -0.00017973779 -0.07237175 -0.0006699841 0.0009329753
000360 25 1b 83 39 31 0c bf 3a a4 1b a7 3a b1 1d 15 ba
       0.0002500649 0.0014575777 0.0012749326 -0.0005688323
000370 be 5c 5a ba 80 17 b8 3d e2 8c 1a bb 19 1d b7 bd
       -0.00083298597 0.08988857 -0.0023582508 -0.08941097
000380 00 64 4b 3a c8 3d 87 b9 3f 19 f8 b9 b1 16 4f ba
       0.00077587366 -0.00025795237 -0.00047321056 -0.00078998046
000390 e0 50 59 b9 ed 4a 3b ba 66 94 37 3a 40 26 68 b9
       -0.00020724861 -0.00071446487 0.0007003009 -0.00022139493
0003a0 0d 4e 76 be 49 97 27 3a 7a a8 e3 39 35 ad 06 bb
       -0.24053212 0.00063930877 0.0004342234 -0.0020550017
0003b0 ee b0 63 b9 ee 95 ae ba 3a c3 9b ba 37 42 c6 ba
       -0.00021714318 -0.0013319829 -0.0011883744 -0.0015125935
0003c0 0d 4b 9f 3c bd 78 59 bb f8 7f 89 3c d3 2c 30 3b
       0.019444967 -0.0033183538 0.016784653 0.0026882186
0003d0 b6 f3 05 bc a0 ae dc 3a 39 f7 12 3d e5 33 6b bc
       -0.008175781 0.001683671 0.0358803 -0.014355634
0003e0 99 56 5c bc b7 02 f0 39 5c 64 05 3c f5 83 bb 3c
       -0.013448381 0.0004577839 0.008141603 0.02289007
0003f0 f1 3c 82 3a 77 c0 46 bc 6e 03 9c 3b 78 54 78 3c
       0.0009936375 -0.012130848 0.004761151 0.015156858

module.4.bias f4 [6]
000000 be b6 c9 bb 3f 4d 7e 3e 6f 1c 13 be 66 43 c2 bd
       -0.006155818 0.24834155 -0.14366315 -0.094855115
000010 e4 5d 58 3c 30 4f 5b 3e
       0.013205979 0.21416926

module.6.weight f4 [1, 6]
000000 bc 11 ed 39 a5 7e 78 3e f3 85 f6 bd ec 5b 17 be
       0.00045217376 0.24267061 -0.120372675 -0.14781159
000010 20 44 05 39 f8 92 3e 3e
       0.00012709247 0.18610752

exp_avg f4 [60, 12]
000000 c5 b0 2b 3a b0 5c e0 3a be b1 0d 3a 75 16 92 ba
       0.0006549473 0.0017117467 0.0005405209 -0.0011145609
000010 f6 1d 13 bb cf b1 1b ba c8 46 79 3a 63 79 a2 3a
       -0.0022448278 -0.00059392763 0.00095091434 0.0012395795
000020 7e 94 8f b8 c7 a4 af ba 42 4d de ba 28 cb 0a b9
       -6.84643e-05 -0.0013400548 -0.001696028 -0.00013236387
000030 87 63 dd b7 2b e0 21 38 76 06 b7 37 97 92 0f 37
       -2.6391599e-05 3.8594164e-05 2.1818309e-05 8.557595e-06
000040 ea e9 a7 b8 8a 7e 91 b8 ee d0 8d 37 a0 c3 d5 36
       -8.0067504e-05 -6.9377085e-05 1.69058e-05 6.3706684e-06
000050 09 02 5a 37 72 ee 00 b7 ef 33 e5 b7 f6 7a 37 b8
       1.2994286e-05 -7.684912e-06 -2.732311e-05 -4.3745116e-05
000060 00 e6 1f 3a 9f 37 0c 39 cf 78 53 38 aa 46 4f 39
       0.00060996413 0.00013372161 5.0418832e-05 0.00019767383
000070 39 80 87 39 ea b4 cd 39 d4 2c 0b 39 17 16 e3 39
       0.0002584474 0.00039235438 0.00013272773 0.00043313272
000080 08 0c 60 b9 3b 8f 20 38 91 95 39 b9 c9 ea e6 39
       -0.00021366787 3.8280366e-05 -0.00017698693 0.00044043947
000090 b5 bf 43 37 28 9c fb 35 2a a3 42 36 fc 8b 8c 36
       1.1667541e-05 1.8746405e-06 2.9003227e-06 4.1886215e-06
0000a0 f1 17 a5 34 d6 d4 3f b4 d6 03 ae 36 5d ac 09 37
       3.0751065e-07 -1.786569e-07 5.1860507e-06 8.205968e-06
0000b0 74 da 7d b6 75 52 8e b5 44 b7 ab b6 48 4d 95 36
       -3.7827094e-06 -1.0603823e-06 -5.117532e-06 4.4495428e-06
0000c0 4c 21 ee 3a ed 63 29 3a 1c a4 2e 3a 06 46 b5 3a
       0.0018167882 0.00064617285 0.00066620274 0.0013830073
0000d0 a2 df a8 3a 33 49 1c 3a 55 53 c5 b9 ee fc b1 3a
       0.0012884031 0.0005961835 -0.00037636855 0.0013579407
0000e0 33 1f 63 b9 c2 e4 88 3a b7 a5 eb b8 60 b2 8b 3a
       -0.0002166003 0.0010444152 -0.0001123654 0.0010658018
0000f0 2b ae 1e bb 76 ea 93 ba 84 c2 37 ba e3 b0 55 ba
       -0.00242127 -0.0011285085 -0.0007009881 -0.00081516634
000100 ed 78 b2 b9 5f 6b 00 ba c6 52 1f ba b8 a9 04 bb
       -0.00034040902 -0.0004898812 -0.0006077703 -0.0020242762
000110 a3 4a 25 3a 98 76 be b8 fd 10 8f 3a 1d 0a a0 ba
       0.0006305372 -9.081996e-05 0.0010915097 -0.0012210045
000120 a5 6d 14 3b 10 36 2f 3a 7c a4 8f 39 2b f0 2a 39
       0.002264836 0.0006683776 0.00027397636 0.00016301933
000130 5d 68 3f 3a 32 29 11 3a 52 65 e7 3a 20 1c f1 3a
       0.0007301623 0.00055374496 0.0017654097 0.0018395223
000140 bc 56 93 ba 2b 55 3f ba d0 39 85 ba b9 a4 b7 3a
       -0.0011241059 -0.0007298763 -0.0010164324 0.0014010883
000150 83 db ee 3a 2d 06 33 3a b5 25 90 39 7c 63 80 b8
       0.0018223379 0.00068292284 0.00027493914 -6.122046e-05
000160 df 98 b3 39 82 08 c4 39 d2 a4 bb 3a 4b 93 c9 3a
       0.00034255438 0.00037390372 0.0014316088 0.001537898
000170 45 81 61 ba 5e 0b 40 ba 33 84 80 ba 7c dd 8e 3a
       -0.00086023315 -0.00073259126 -0.0009805023 0.0010899748
000180 57 b0 0e 3a f7 8b 1e 3a 02 58 66 39 ac 53 03 37
       0.0005443147 0.0006048078 0.00021967295 7.82769e-06
000190 57 f3 bd b9 7f 3a a6 b9 63 5f df 39 60 98 1c 3a
       -0.00036230191 -0.0003170557 0.00042604943 0.00059736334
0001a0 e0 b2 38 b9 4e 5d 8e b9 78 34 0b ba 04 e1 17 38
       -0.00017614244 -0.00027153868 -0.00053102477 3.6210768e-05
0001b0 a8 7b 09 36 72 5a 8c b6 8d b4 1c b6 24 93 ae b4
       2.0486568e-06 -4.1828544e-06 -2.3350906e-06 -3.2517084e-07
0001c0 c7 7b d2 36 d7 1c 33 36 c3 57 8e b6 21 d4 d9 b5
       6.2728973e-06 2.6689866e-06 -4.2421466e-06 -1.6229498e-06
0001d0 1a 12 6c b5 22 01 f7 35 a9 ef 54 36 ee 12 97 35
       -8.794319e-07 1.8403264e-06 3.1729962e-06 1.1255886e-06
0001e0 fb 7a b2 3a 6b ee 12 3a 87 a5 b4 39 bb 6e a9 39
       0.0013616973 0.0005604985 0.00034455603 0.00032316693
0001f0 c3 53 9d 39 08 3a 63 39 06 74 7e 3a 32 56 98 3a
       0.0003000778 0.00021670025 0.000970662 0.0011622368
000200 9e b6 15 ba 96 3d 9c b9 9c 09 34 ba 5d ae 47 3a
       -0.0005711111 -0.00029800524 -0.0006867887 0.000761723
000210 15 44 c6 39 f5 87 a5 37 e3 f4 96 39 50 6c 1c ba
       0.00037816228 1.9732843e-05 0.00028792684 -0.00059670676
000220 ac 9b 7e ba 7b 7e 62 ba 8d a9 b7 3a 3d 6a 10 3a
       -0.0009712528 -0.0008640063 0.0014012322 0.0005508995
000230 e6 37 bc b9 de 5f 7c ba 18 d9 83 ba f3 1f e1 b8
       -0.00035899802 -0.00096273224 -0.0010059206 -0.00010734787
000240 25 a7 09 ba 54 b9 44 ba b6 98 82 b9 cc aa 29 39
       -0.0005251042 -0.00075044227 -0.0002490931 0.00016180723
000250 92 11 24 3a 3a 12 92 38 8d 36 7d b9 6b bb 38 ba
       0.00062587217 6.9652175e-05 -0.00024148282 -0.00070469704
000260 11 27 94 38 88 62 9f 39 73 5a 27 3a 99 0b f2 b8
       7.0644666e-05 0.00030400255 0.00063840224 -0.000115416195
000270 de 92 aa ba 9a a9 a1 ba 66 9d 05 ba 12 35 36 34
       -0.001301374 -0.001233387 -0.00050970016 1.6969378e-07
000280 76 40 80 3a 66 23 8d b8 64 57 1f ba 54 76 bd ba
       0.0009784836 -6.7299974e-05 -0.0006078391 -0.001445482
000290 0e 3d a2 39 74 c8 d6 39 c8 d3 a9 3a 54 bf 11 ba
       0.00030944537 0.0004096661 0.0012956792 -0.0005559821
0002a0 e2 42 78 36 f6 03 12 37 aa 2f d5 35 90 8c fb b6
       3.699381e-06 8.7032e-06 1.5883609e-06 -7.4967465e-06
0002b0 e7 18 a7 b6 af df b4 b5 3d 8b 05 37 2b 97 0a 37
       -4.979887e-06 -1.3476146e-06 7.959837e-06 8.2606375e-06
0002c0 c8 3e 01 b6 b6 2b 1a b7 73 b6 eb b6 fb ee ea 35
       -1.9259041e-06 -9.1892925e-06 -7.0247856e-06 1.7503911e-06
0002d0 47 dc 1f 37 fb f2 04 b6 25 f0 8b 36 b0 3f 50 37
       9.528426e-06 -1.9810966e-06 4.1704793e-06 1.24125945e-05
0002e0 ef 06 8c 34 2b ec 76 b5 ab bd 8d 36 84 4f 9f 36
       2.6082077e-07 -9.198581e-07 4.2242077e-06 4.747826e-06
0002f0 8f 92 33 b6 86 0f a5 36 95 ec 38 b6 c1 eb 82 36
       -2.6758387e-06 4.9191904e-06 -2.7555845e-06 3.9017473e-06
000300 81 f3 a0 37 9c 73 8a 37 93 77 bf 36 ec 76 cc b6
       1.9186877e-05 1.6504717e-05 5.706164e-06 -6.093518e-06
000310 ac 8e 3c b7 54 1c 93 b5 17 b9 af 37 74 22 c3 37
       -1.1238892e-05 -1.0960598e-06 2.0947815e-05 2.3261855e-05
000320 33 26 06 b7 85 89 87 b7 86 33 9e b7 75 bf 16 37
       -7.995916e-06 -1.6157292e-05 -1.885906e-05 8.985274e-06
000330 09 f9 3a b7 a1 95 81 b6 59 8d 3d b6 81 ae 7f b6
       -1.1144447e-05 -3.8619187e-06 -2.824547e-06 -3.8099536e-06
000340 57 0e 5d 35 9d 12 45 b4 83 81 c6 b6 8c c5 17 b7
       8.234978e-07 -1.8353826e-07 -5.915937e-06 -9.046296e-06
000350 3d 6d 80 36 b9 a2 d1 35 90 a4 b1 36 db f0 9d b6
       3.8274143e-06 1.5619072e-06 5.2941687e-06 -4.707004e-06
000360 2b 1f 1a 3a ae a2 6d 39 6b 6f 18 39 2c 11 39 b9
       0.0005879278 0.00022662684 0.00014537356 -0.00017649372
000370 08 c2 9c b9 51 ae 28 b9 89 31 2d 3a e7 19 0b 3a
       -0.00029899203 -0.00016086666 0.00066068076 0.0005306289
000380 dc 9e 98 b9 3a 42 df b9 27 3e 0e ba 19 b3 63 39
       -0.0002911006 -0.00042583217 -0.00054261315 0.00021715126
000390 2e 36 94 39 54 ff 48 ba 64 2d 2b b9 93 39 a6 3a
       0.00028269127 -0.00076674414 -0.0001632474 0.0012681953
0003a0 e2 52 b2 3a 18 89 e9 39 51 f1 7d ba 69 8a bb b9
       0.0013605023 0.00044543366 -0.0009687143 -0.00035770543
0003b0 e4 0a a6 37 07 59 a9 3a 48 b2 63 3a e6 c4 57 39
       1.9793813e-05 0.0012920209 0.0008685929 0.00020577348
0003c0 16 f3 1b 3b 29 17 5b 39 33 cc ec 39 17 50 0d 3b
       0.0023796014 0.00020894095 0.00045165568 0.002156263
0003d0 1c ce 13 3b e4 a7 84 3a 90 15 55 ba 15 1d b3 3a
       0.002255327 0.0010120836 -0.0008128518 0.0013665283
0003e0 34 bc e0 b9 aa 16 e3 3a 4c 9c b5 39 fe ae ac 3a
       -0.00042864832 0.001732548 0.0003463946 0.001317471
0003f0 cf b2 ae ba 0b 36 46 ba f4 5f af b9 cc 27 df 38
       -0.0013328436 -0.00075611536 -0.00033450092 0.000106408814

exp_avg_sq f4 [60, 12]
000000 3d 60 b3 38 d2 ff 52 38 19 36 dc 37 a7 ef 86 38
       8.553311e-05 5.0306153e-05 2.6251235e-05 6.434257e-05
000010 c1 d2 58 38 20 b0 43 38 ef 1f bb 39 33 12 26 38
       5.1694693e-05 4.6655652e-05 0.00035691212 3.9594433e-05
000020 20 f9 92 37 8a 9f aa 38 37 38 28 38 0c d2 79 38
       1.7520564e-05 8.135948e-05 4.0106675e-05 5.9561848e-05
000030 ff 6d c1 33 4d 4b 50 33 05 8b 77 32 4f 5f 60 33
       9.007271e-08 4.849726e-08 1.4408902e-08 5.2240747e-08
000040 e4 3a 8d 33 e7 c4 36 33 e4 df 03 34 09 f9 f5 32
       6.576536e-08 4.255426e-08 1.2281777e-07 2.8635002e-08
000050 27 aa e8 32 89 e2 52 33 a8 3e 58 33 24 6c 43 33
       2.7085731e-08 4.9100468e-08 5.0348405e-08 4.550033e-08
000060 0c 0c 06 36 04 54 b0 35 91 c9 08 35 e1 bc ec 35
       1.9974568e-06 1.3137474e-06 5.0957266e-07 1.7638341e-06
000070 c9 35 b9 35 90 71 a6 35 48 ae 93 36 49 19 80 35
       1.3799228e-06 1.2401015e-06 4.4012304e-06 9.544102e-07
000080 da 43 54 35 26 2f e9 35 5a c3 84 35 3a a0 91 35
       7.907489e-07 1.7373575e-06 9.891621e-07 1.0849974e-06
000090 a8 01 c7 31 55 11 45 31 e5 9f 93 30 93 3b 34 31
       5.7918506e-09 2.8677125e-09 1.0741102e-09 2.6227311e-09
0000a0 09 bb 38 31 9f 9c 2a 31 9f 83 83 32 9b f6 34 31
       2.6881841e-09 2.4827285e-09 1.5310262e-08 2.6333626e-09
0000b0 a3 23 b8 30 2b 9b 4a 31 83 eb 35 31 b9 9c 43 31
       1.3397891e-09 2.9483072e-09 2.647284e-09 2.8465321e-09
0000c0 bf 0a af 37 d1 39 4d 37 c5 20 d0 36 fd 04 d1 37
       2.086663e-05 1.2232414e-05 6.202698e-06 2.4917064e-05
0000d0 fd 23 8b 37 27 d0 6f 37 ff 9d 5d 38 70 f8 05 37
       1.658685e-05 1.4293974e-05 5.283765e-05 7.985262e-06
0000e0 3c 0d 2b 37 90 61 dd 37 cc ae 4b 37 30 41 79 37
       1.0195476e-05 2.6390684e-05 1.2140441e-05 1.4856734e-05
0000f0 46 61 ca 37 70 10 7d 37 8d c9 c9 36 22 b1 95 37
       2.4125573e-05 1.5083802e-05 6.0137304e-06 1.7844668e-05
000100 68 ef 6f 37 d1 12 58 37 14 2b 9c 38 02 62 31 37
       1.4301251e-05 1.2878984e-05 7.4466836e-05 1.0572841e-05
000110 16 8a c6 36 46 0c a4 37 f5 de 2d 37 97 26 3d 37
       5.916935e-06 1.9556039e-05 1.0363515e-05 1.1274263e-05
000120 f0 b4 c8 37 d5 04 ab 37 27 04 f7 36 df be b3 37
       2.3926113e-05 2.0387039e-05 7.361657e-06 2.1427344e-05
000130 07 f0 91 37 23 db 8c 37 e9 11 74 38 a2 87 a7 37
       1.7397118e-05 1.6791344e-05 5.8190813e-05 1.997111e-05
000140 3e 15 32 37 7b 31 bd 37 02 26 89 37 6b 9a 3d 37
       1.0614573e-05 2.2553597e-05 1.6349371e-05 1.1301231e-05
000150 38 97 55 37 27 87 0b 37 95 41 5d 36 b7 f2 10 37
       1.2730998e-05 8.316513e-06 3.296974e-06 8.63958e-06
000160 79 4f ee 36 5f 1c d5 36 f0 2a 03 38 98 59 1e 37
       7.1022046e-06 6.3511975e-06 3.1272823e-05 9.438394e-06
000170 d0 71 9c 36 d0 54 2f 37 b8 c4 e5 36 4b c4 b5 36
       4.662412e-06 1.045056e-05 6.847633e-06 5.417072e-06
000180 a9 3c b6 36 8b aa 4b 36 9b 66 c2 35 e3 b8 57 36
       5.4310844e-06 3.0348626e-06 1.4483988e-06 3.2145115e-06
000190 ec f9 4d 36 17 4a 2a 36 a8 3b 90 37 ec 03 51 36
       3.0692854e-06 2.53751e-06 1.7193917e-05 3.114571e-06
0001a0 6b e5 b7 35 45 e1 64 36 84 b7 2b 36 1a 17 5d 36
       1.3701332e-06 3.4105772e-06 2.5587806e-06 3.2945013e-06
0001b0 43 7e 9f 31 ed 0e 16 31 b1 b7 79 30 5d a8 22 31
       4.6418633e-09 2.1836357e-09 9.0846713e-10 2.3669806e-09
0001c0 21 a1 23 31 0f a1 d7 30 2f 89 4e 32 01 b6 00 31
       2.3811213e-09 1.5689084e-09 1.202197e-08 1.8729909e-09
0001d0 08 e1 81 30 18 bc 34 31 82 5b 05 31 65 62 07 31
       9.449943e-10 2.6300366e-09 1.9406063e-09 1.9701016e-09
0001e0 2f be 04 37 b6 5b b4 36 a7 3c 21 36 44 c9 b6 36
       7.912094e-06 5.3750946e-06 2.4026174e-06 5.447453e-06
0001f0 aa ee 9e 36 e3 87 8d 36 37 2c aa 37 42 38 b4 36
       4.736551e-06 4.2179468e-06 2.0286168e-05 5.3709673e-06
000200 9f dc 2d 36 52 50 9f 36 ff 51 94 36 51 54 6f 36
       2.5907427e-06 4.74792e-06 4.4202893e-06 3.5662854e-06
000210 de ba 00 37 4d 5c b3 36 f5 bd 24 36 b4 95 d1 36
       7.672903e-06 5.345361e-06 2.4548474e-06 6.246113e-06
000220 b8 95 5b 37 94 71 9d 36 6c 27 f1 37 95 c6 b6 36
       1.3088276e-05 4.692187e-06 2.8747796e-05 5.4471407e-06
000230 8e ec 14 36 6d 7a fd 36 0f 71 50 37 3f f1 ac 36
       2.2191412e-06 7.55424e-06 1.242409e-05 5.154084e-06
000240 77 ed af 37 a3 6f dd 36 f6 d6 2d 36 98 8b f4 36
       2.0972204e-05 6.5993095e-06 2.5904133e-06 7.2880175e-06
000250 55 e6 e9 36 0c 05 cd 36 64 d7 67 38 56 2c 58 36
       6.9707553e-06 6.1100636e-06 5.527529e-05 3.2212315e-06
000260 d6 26 f4 35 79 61 10 37 e2 dd a3 36 52 3f f8 36
       1.8190719e-06 8.6057635e-06 4.883609e-06 7.3983474e-06
000270 08 33 20 38 97 7f 6e 37 55 c7 d0 36 19 82 83 37
       3.81945e-05 1.4215612e-05 6.2220884e-06 1.5676998e-05
000280 5f d1 71 37 05 20 4e 37 d6 10 ee 38 b2 f0 0f 37
       1.4413467e-05 1.2286012e-05 0.0001135186 8.579505e-06
000290 5e ad 98 36 c8 49 9f 37 0c 4d 43 37 67 52 7a 37
       4.5501356e-06 1.8988634e-05 1.1640845e-05 1.4920347e-05
0002a0 a5 0c af 31 05 72 24 31 cb 1a 7c 30 c2 49 24 31
       5.094608e-09 2.3929954e-09 9.171514e-10 2.3907067e-09
0002b0 5d f8 24 31 2a 81 f1 30 aa 0b 5c 32 e3 4a 0f 31
       2.400632e-09 1.7571768e-09 1.28083375e-08 2.0851807e-09
0002c0 6d 8f 9e 30 b3 b8 46 31 90 5d 1d 31 18 19 12 31
       1.1536777e-09 2.8917782e-09 2.289969e-09 2.126006e-09
0002d0 b2 fe bb 31 ad f2 6c 31 9c d5 a8 30 c7 63 3b 31
       5.471372e-09 3.4480465e-09 1.228432e-09 2.7268798e-09
0002e0 3f 3b 35 31 32 ca 22 31 cc 09 63 32 c0 f7 0a 31
       2.6372644e-09 2.3689037e-09 1.3215367e-08 2.0222473e-09
0002f0 86 36 97 30 18 88 41 31 78 9e 17 31 1e 6e 1b 31
       1.1002192e-09 2.8162557e-09 2.206347e-09 2.2618063e-09
000300 82 2e f4 31 9d 27 68 31 65 f5 b5 30 81 9f 63 31
       7.106622e-09 3.378296e-09 1.3239229e-09 3.3123515e-09
000310 11 25 72 31 06 b3 2d 31 14 7a a2 32 a4 bc 36 31
       3.5236705e-09 2.5276576e-09 1.8914797e-08 2.6591715e-09
000320 bd c4 cc 30 bb 91 87 31 aa 64 4e 31 c0 bf 4a 31
       1.489887e-09 3.9455847e-09 3.0034166e-09 2.9503866e-09
000330 a7 e4 ba 31 50 7c 42 31 63 ad 9b 30 1e 53 52 31
       5.4393072e-09 2.830138e-09 1.1327014e-09 3.0606269e-09
000340 a6 3a 32 31 d2 29 16 31 15 62 8e 32 7d 4c 1b 31
       2.5935747e-09 2.1851645e-09 1.6575578e-08 2.2598947e-09
000350 41 3b b2 30 79 13 71 31 9c 5e 2a 31 76 e9 31 31
       1.2968046e-09 3.5081185e-09 2.4792035e-09 2.5889597e-09
000360 11 55 62 36 6c 01 dd 35 df d7 65 35 6e df ea 35
       3.372614e-06 1.6466197e-06 8.562328e-07 1.7499385e-06
000370 bf 7a fe 35 14 a2 c1 35 3f 1e 2a 37 c4 e2 06 36
       1.8960199e-06 1.4426791e-06 1.0139832e-05 2.009955e-06
000380 30 b9 8e 35 11 24 24 36 8c 3c 30 36 b7 e9 a9 35
       1.0633721e-06 2.4458898e-06 2.6261287e-06 1.2659501e-06
000390 67 f6 48 38 7a 25 a4 37 7e 48 3a 37 5a 21 ee 37
       4.7913196e-05 1.9567775e-05 1.1103342e-05 2.8387341e-05
0003a0 cc dc b9 37 c9 a8 a2 37 34 97 19 39 6f fb 84 37
       2.2156535e-05 1.9390502e-05 0.00014647545 1.585271e-05
0003b0 72 06 fc 36 56 05 11 38 1f 1d 89 37 09 23 c2 37
       7.5109356e-06 3.4575663e-05 1.6345233e-05 2.3142917e-05
0003c0 6c 0c 9d 38 3e 41 6a 38 95 2c f4 37 c3 0b b2 38
       7.488657e-05 5.585071e-05 2.9107827e-05 8.489892e-05
0003d0 f5 ff 81 38 20 16 6a 38 6c 6f 6f 39 b7 d9 55 38
       6.198875e-05 5.5810553e-05 0.00022834324 5.098592e-05
0003e0 e7 95 fd 37 d1 5b c1 38 2d 9d 40 38 4d 13 53 38
       3.0229754e-05 9.220059e-05 4.592275e-05 5.0324295e-05
0003f0 aa 04 6a 37 eb 18 dd 36 ef fe 42 36 6e 10 f0 36
       1.3948573e-05 6.589214e-06 2.9056644e-06 7.15447e-06

exp_avg f4 [60]
000000 07 b6 78 3a 3f 1c 95 37 a9 d0 07 39 ae 31 ae 36
       0.00094875734 1.7775337e-05 0.00012952335 5.1913876e-06
000010 f3 a6 c5 b9 57 c1 1f ba 75 a6 e7 3a fb cf bb 3a
       -0.00037699155 -0.00060941785 0.001767351 0.0014328951
000020 f1 37 e0 39 ff d9 8d b6 f9 32 7e 3a a5 c2 b7 3a
       0.0004276629 -4.2275055e-06 0.00096969266 0.0014019801
000030 7c 35 7d b9 bc f0 1f ba 7b 1c 06 37 a3 b4 90 36
       -0.00024147885 -0.0006101241 7.9936535e-06 4.3125633e-06
000040 61 67 af 37 db 7d c9 b6 a2 74 2d 3a 5a d2 7e ba
       2.0909765e-05 -6.0049183e-06 0.0006616806 -0.0009720676
000050 eb 0f 56 ba 55 ba 86 ba f6 ac 04 3b 2b 1e ea ba
       -0.0008165824 -0.001027892 0.0020244694 -0.0017861774
000060 c2 ea a3 36 5a 85 9a b9 61 7a 24 37 2a f1 97 37
       4.885108e-06 -0.00029472524 9.803655e-06 1.8112903e-05
000070 66 5f 4b b8 4f 4a f2 39 e3 0f 42 3a c7 ad 4e 37
       -4.848782e-05 0.000462132 0.000740288 1.23190175e-05
000080 93 7e 91 37 9d 05 b7 39 f9 bf f9 b8 15 7a a1 ba
       1.7344288e-05 0.00034908662 -0.00011909003 -0.0012319708
000090 74 81 9a 3a 78 3a cb 36 8f e3 c7 39 8d c9 91 3a
       0.0011787848 6.056678e-06 0.00038125782 0.0011122689
0000a0 9a ba c5 b7 d8 98 5e 39 ed 09 ab 3a 7e f4 f1 36
       -2.3571123e-05 0.00021228509 0.0013049223 7.2108223e-06
0000b0 67 f8 84 ba 90 76 49 b7 66 6e 65 b8 a1 29 58 b7
       -0.001014483 -1.2008139e-05 -5.470067e-05 -1.2884296e-05
0000c0 b4 b9 43 37 b1 89 a9 37 e6 9c 9c b6 10 ea e3 39
       1.1666143e-05 2.0210487e-05 -4.6674277e-06 0.00043471204
0000d0 ce 57 34 36 28 1a 4c b7 f2 ed 88 37 ba f1 3e b9
       2.68732e-06 -1.21654375e-05 1.6323265e-05 -0.00018209862
0000e0 de 22 4d 39 cd db a6 38 b8 0b 8c 39 20 6f 8d 3a
       0.00019563313 7.956438e-05 0.00026711612 0.0010790564

exp_avg_sq f4 [60]
000000 f3 1f bb 39 de df 03 34 48 ae 93 36 a8 83 83 32
       0.00035691223 1.2281768e-07 4.4012304e-06 1.5310277e-08
000010 f7 9d 5d 38 21 2b 9c 38 0b 12 74 38 f2 2a 03 38
       5.2837622e-05 7.446693e-05 5.8190937e-05 3.127283e-05
000020 b3 3b 90 37 43 89 4e 32 2d 2c aa 37 7d 27 f1 37
       1.7193937e-05 1.2021988e-08 2.028615e-05 2.8747827e-05
000030 64 d7 67 38 cc 10 ee 38 cb 0b 5c 32 c0 09 63 32
       5.527529e-05 0.00011351853 1.2808367e-08 1.3215356e-08
000040 19 7a a2 32 17 62 8e 32 57 1e 2a 37 30 97 19 39
       1.8914806e-08 1.6575582e-08 1.0139854e-05 0.00014647539
000050 61 6f 6f 39 11 5e 3e 38 4b 12 85 39 df 95 35 39
       0.00022834308 4.5387136e-05 0.00025381366 0.00017317336
000060 e3 be 90 32 00 19 32 38 b3 7f 8f 32 c2 c0 60 34
       1.6850612e-08 4.246179e-05 1.6705462e-08 2.093175e-07
000070 bb 7e 3c 36 96 a8 4a 38 f5 2a e2 37 b2 d0 85 32
       2.808795e-06 4.831756e-05 2.6961303e-05 1.5578141e-08
000080 ba 46 5c 32 9f 87 f8 37 51 d3 c3 35 db e1 5e 38
       1.2821767e-08 2.9627057e-05 1.4590133e-06 5.313927e-05
000090 f5 5d 39 38 b2 e3 8c 32 e5 f2 b3 37 d6 c9 1f 39
       4.419494e-05 1.6401689e-08 2.145157e-05 0.00015238611
0000a0 e8 f9 8c 32 c6 2f 46 38 05 0a 80 38 b6 f8 a9 32
       1.641179e-08 4.725137e-05 6.105382e-05 1.978729e-08
0000b0 63 74 10 39 45 e2 61 32 8b 9e ad 36 72 5f 82 32
       0.00013776268 1.3148171e-08 5.1742586e-06 1.5177395e-08
0000c0 47 0a bc 32 61 3c 65 34 7b 9f b6 32 53 ae e0 37
       2.1890754e-08 2.1349253e-07 2.1260112e-08 2.6784057e-05
0000d0 41 96 4c 32 4b d9 33 33 12 89 90 32 3b 37 f2 37
       1.1908527e-08 4.1874312e-08 1.6826139e-08 2.8874367e-05
0000e0 2d 56 70 36 09 e2 61 36 8b 69 26 36 7e a4 14 39
       3.5812948e-06 3.3659182e-06 2.4797362e-06 0.00014175658
