mnc_ml_test/output/best/20221126-0515-model-test2.pth (torch, 15629 bytes, 9 tensors)

module.0.weight f4 [60, 12]
0	0xbd58dc21	-0.052944306
1	0x3decce94	0.11562839
2	0xbd925e23	-0.071468614
3	0xbe25a51e	-0.16176268
4	0x3a14eea1	0.00056813104
5	0x3b8cd8cb	0.0042983047
6	0x3bd65b9c	0.0065416824
7	0x3d15e707	0.036597278
8	0xbe99dce8	-0.3005135
9	0xbe8cf273	-0.27528724
10	0x3d0b2d5e	0.033978812
11	0xba4e78c5	-0.00078762724
12	0xbe147806	-0.1449891
13	0xbce1cab2	-0.027562473
14	0x3e1a389f	0.15060662
15	0xbe2c6d51	-0.16838576
16	0xbe6f0aaf	-0.23343919
17	0xbe3708c2	-0.17874435
18	0xbd61d47b	-0.055134278
19	0xbded6968	-0.1159237
20	0xbeb0e886	-0.345524
21	0x3d2cd765	0.042197604
22	0x3daa6b68	0.08321267
23	0x3c2641af	0.010147496
24	0x3e38747f	0.1801319
25	0x3e84ba99	0.25923613
26	0x3e1b69c3	0.15177064
27	0x3e85959c	0.26090705
28	0xbf8d6599	-1.104663
29	0xbd1c623d	-0.038179625
30	0xbe6d30d7	-0.23163162
31	0xbd245182	-0.040116794
32	0xbe16a386	-0.14710817
33	0x3d486f2f	0.048934158
34	0xbf491b52	-0.7855731
35	0xbc8c1f42	-0.017104749
36	0xbe92aec0	-0.2864895
37	0x3e475c64	0.19468838
38	0xbd6ca3cc	-0.057773396
39	0xbceeb7cb	-0.029140374
40	0xbd63b983	-0.05559684
41	0xbda09763	-0.07841375
42	0x3d11b76b	0.03557531
43	0xbe0bc288	-0.13648427
44	0x3ebeb70c	0.3724903
45	0xbded7166	-0.11593895
46	0x3e82e74b	0.25567088
47	0x3da1b30f	0.07895481
48	0x3e0d9510	0.13826394
49	0xbdd73930	-0.105089545
50	0xbe448bad	-0.19193907
51	0x3d1bb8fc	0.03801821
52	0xbda39b1c	-0.07988569
53	0xbe94c29a	-0.2905472
54	0xbe850965	-0.2598373
55	0x3e8594a0	0.26089954
56	0xbe1a1e8e	-0.15050718
57	0xbdcd22bc	-0.10016391
58	0xbe58e663	-0.21181636
59	0x3d00006f	0.031250414
60	0x3eddb85a	0.43304712
61	0xbe521f03	-0.20519643
62	0x3ea80668	0.32817388
63	0x3cb00241	0.02148545
64	0xbc8309a0	-0.0159958
65	0x3de88a95	0.113545574
66	0xbda65edf	-0.08123564
67	0x3e2ad075	0.16681083
68	0x3d11c532	0.03558845
69	0xbe26b7f6	-0.16281113
70	0xbe0b8701	-0.13625719
71	0xbd8348c2	-0.06410362
72	0x3d5f4030	0.054504573
73	0x3e4610a4	0.19342285
74	0xbc1eef80	-0.009700656
75	0xbda83878	-0.082138956
76	0xbe8e64fd	-0.27811423
77	0xbe921463	-0.2853118
78	0xbe48ff0b	-0.19628541
79	0x3d209030	0.039200008
80	0x3df6cb4c	0.120504946
81	0xbe01e413	-0.1268466
82	0xbdb53614	-0.08848205
83	0xbe588d28	-0.21147597
84	0xbd06a15e	-0.032868735
85	0xbe83f79c	-0.25774848
86	0xbe3d4d5c	-0.18486542
87	0xbe269b47	-0.16270171
88	0xbdbb03d7	-0.09131592
89	0x3dcc42d6	0.099736854
90	0x3dbc28d6	0.09187476
91	0xbe4609d1	-0.19339682
92	0x3e0033d0	0.12519765
93	0x3e04b738	0.12960517
94	0x3de2103d	0.110382535
95	0xbeaecc2b	-0.34140143
96	0xbe1b3f89	-0.15160955
97	0x3dc51ce5	0.09624652
98	0xbf258563	-0.64656657
99	0xbd082667	-0.03323975
100	0x3ea532a2	0.32265192
101	0xbda2333f	-0.07919931
102	0x3d5bea94	0.053690508
103	0xbdb6091c	-0.08888456
104	0xbe862d65	-0.26206508
105	0x3e38cdfd	0.18047328
106	0x3e9b63d1	0.3034959
107	0xbdbc413e	-0.091921315
108	0x3db48624	0.08814648
109	0xbe423870	-0.18966842
110	0x3e853548	0.26017213
111	0xbddc8e66	-0.10769348
112	0x3d9c75c8	0.076396525
113	0xbe3c13c2	-0.18366912
114	0xbe919f9c	-0.28442085
115	0xbc448100	-0.011993647
116	0xbe0122ae	-0.12610886
117	0xbe809640	-0.25114632
118	0x3e051918	0.12997854
119	0x3e826e00	0.25474548
120	0x3e21e902	0.15811542
121	0x3dc5d9d9	0.09660692
122	0xbc2e3c1e	-0.01063445
123	0x3ce046fa	0.027377594
124	0x3dcf5454	0.10123506
125	0xbe361cc8	-0.17784417
126	0xbe0a2d15	-0.1349376
127	0xbd09f62d	-0.033682037
128	0xbd3ddd64	-0.046353713
129	0xbe4b0a2c	-0.19828099
130	0xbdc3e748	-0.09565598
131	0x3df93d1e	0.1216986
132	0xbd18e038	-0.037323207
133	0xbe8b24b6	-0.27176446
134	0x3da41a74	0.08012858
135	0x3e5c9038	0.2153939
136	0xbe5b875b	-0.21438353
137	0x3d191d38	0.03738138
138	0xbe72ed6e	-0.23723385
139	0xbd498908	-0.04920295
140	0x3e87ba94	0.26509535
141	0xbd5f6b58	-0.05454573
142	0xbe7aa642	-0.24477485
143	0xbe7379e8	-0.23776972
144	0xbee655b2	-0.44987255
145	0x3ec366cc	0.38164365
146	0xbea0132d	-0.3126463
147	0xbee57f83	-0.44823846
148	0x3d071756	0.03298124
149	0xbe537e42	-0.20653632
150	0xbe03752c	-0.12837666
151	0x3e6de1a5	0.23230608
152	0xbc3f223e	-0.011665879
153	0xbdab9951	-0.08378852
154	0xbe1225d7	-0.14272247
155	0xbec531bb	-0.38514504
156	0x3f02549a	0.5091034
157	0xbe8e456a	-0.27787334
158	0xbec2dc60	-0.38058758
159	0xbd077361	-0.03306902
160	0xbe1f6d54	-0.15569049
161	0x3e4e007f	0.20117377
162	0x3e6e1144	0.23248774
163	0xbf1666b3	-0.58750457
164	0x3ef17dd5	0.47166315
165	0xbf713609	-0.94223076
166	0x3e0a3d10	0.13499856
167	0x3e81d90e	0.25360912
168	0xbdd948a4	-0.10609558
169	0xbcd0b293	-0.025475776
170	0xbeab108b	-0.3341106
171	0x3de9d652	0.114178315
172	0xbe6aa3e1	-0.22914077
173	0xbd3d301f	-0.04618847
174	0x3e47f401	0.19526674
175	0x3cb3ad69	0.021933274
176	0x3e481073	0.19537525
177	0xbe6a45a4	-0.22878128
178	0xbe2490fa	-0.16070929
179	0x3d3338fa	0.04375551
180	0xbe0ddd97	-0.13854061
181	0xbd21b51f	-0.03947937
182	0xbcdfe6ac	-0.027331673
183	0x3d384dec	0.044996187
184	0x3c2e8033	0.010650682
185	0xbe4b2e9f	-0.19842003
186	0x3e600207	0.21875773
187	0x3b9b440e	0.0047383374
188	0xbe65dc00	-0.22447205
189	0xbdbd18bf	-0.092332356
190	0xbc81033a	-0.015748609
191	0xbe1027a2	-0.14077619
192	0xbe88cdd3	-0.2671953
193	0x3dba4c6c	0.090966076
194	0xbdf3146a	-0.11869128
195	0xbe8107c1	-0.25201228
196	0xbe7ccf8e	-0.24688551
197	0x3bd76280	0.0065730214
198	0xbe312a1e	-0.17301223
199	0xbe8a82bf	-0.27052876
200	0xbe58723a	-0.21137324
201	0xbdc96ab8	-0.09834808
202	0xbe864cb4	-0.26230395
203	0xbe624870	-0.22097945
204	0x3d196469	0.037449274
205	0xbce0d7a6	-0.02744658
206	0xbf294846	-0.66125906
207	0xbe78daa1	-0.2430215
208	0xbe3ace03	-0.1824265
209	0xbd02dc30	-0.03194827
210	0x3e831f9a	0.25610048
211	0xbde6bfee	-0.112670764
212	0x3e811cdb	0.25217327
213	0x3e970a49	0.29500034
214	0xbe62f094	-0.22162086
215	0x3dbd867b	0.09254166
216	0xbe498c91	-0.19682528
217	0x3aaf2a13	0.001336398
218	0xbdf17ac9	-0.117909975
219	0xbd40cfa4	-0.04707302
220	0xbdd811f6	-0.10550301
221	0x3cd2d193	0.025734698
222	0xbdf6563d	-0.120281674
223	0x3da4d013	0.080474995
224	0x3d7f7372	0.062365957
225	0x3d585fe4	0.052825823
226	0x3d9e0a95	0.07716862
227	0xbe294106	-0.1652871
228	0xbedee777	-0.4353597
229	0x3e85aecf	0.2610993
230	0xbeae8fb5	-0.34094015
231	0xbdcd505b	-0.10025092
232	0x3d96cdba	0.07363458
233	0xbe83b054	-0.25720465
234	0x3e45725d	0.19281907
235	0xbd241e08	-0.040067703
236	0xbe2ece16	-0.17070803
237	0x3ea58cb9	0.32333925
238	0x3c1a32ad	0.009411496
239	0x3dc94919	0.098283954
240	0x3c6b8ae0	0.014376372
241	0x3e7d1da9	0.24718346
242	0xbe4ec196	-0.20191035
243	0xbe53b7d8	-0.206756
244	0xbd8f2449	-0.06989343
245	0xbe3a3557	-0.1818441
246	0xbd11f235	-0.035631377
247	0xbe2c2283	-0.1681004
248	0x3e0eb707	0.13937007
249	0xbd117f69	-0.0355219
250	0x3e88555c	0.26627624
251	0xbce27486	-0.027643453
252	0x3d6cd8b8	0.057823867
253	0x3dc49180	0.095980644
254	0xbe864f64	-0.26232445
255	0x3e6b2338	0.22962654

module.0.bias f4 [60]
0	0xbd258b55	-0.04041608
1	0x3e1b1081	0.15143014
2	0x3db8ea8a	0.0902911
3	0x3df7885d	0.12086556
4	0xbc916675	-0.01774905
5	0xbe081af4	-0.13291532
6	0xbe7bd333	-0.24592285
7	0x3e1699dc	0.1470713
8	0xbe94492b	-0.28962073
9	0xbe0ceb0e	-0.13761541
10	0xbe40d298	-0.18830335
11	0xbe095f12	-0.13415173
12	0x3cb923a7	0.022600008
13	0xbe593122	-0.21210149
14	0xbe17c979	-0.1482295
15	0x3e3c2b11	0.18375804
16	0x3e155794	0.1458419
17	0x3e302b03	0.17203908
18	0x3dac339b	0.084082805
19	0x3ed817d4	0.4220568
20	0xbe81487a	-0.25250608
21	0x3cea0870	0.028568476
22	0x3eacc796	0.33746022
23	0xbb4d6abc	-0.0031344136
24	0xbe8b879a	-0.27251893
25	0xbcf0b9cd	-0.029385472
26	0xbcd2d240	-0.02573502
27	0x3edad19e	0.4273805
28	0xbe7ddc50	-0.24791074
29	0xbd9a5c05	-0.075370826
30	0x3dd711e0	0.10501456
31	0xbd2982b3	-0.04138441
32	0xbe12b06a	-0.14325109
33	0xbe83b522	-0.2572413
34	0x3e9c42b2	0.30519634
35	0x3eb7e46d	0.35916463
36	0x3ec81542	0.39078718
37	0xbe9086ed	-0.2822794
38	0xbdfc4e4b	-0.12319621
39	0x3e56d5fc	0.20980066
40	0x3e14168d	0.14461727
41	0xbead5f72	-0.33861881
42	0xbde77fde	-0.113036856
43	0x3e427eb6	0.18993649
44	0xbe7b6c53	-0.24553041
45	0xbdaa7727	-0.08323508
46	0xbedfd5f6	-0.43717927
47	0x3e03946c	0.12849587
48	0xbd9bec39	-0.07613415
49	0x3d88b652	0.066754
50	0xbd252653	-0.040319752
51	0xbd93c129	-0.07214577
52	0xbe33f7ee	-0.17575046
53	0x3db4ce0a	0.08828361
54	0xbec38e71	-0.38194612
55	0x3ea298b6	0.31757134
56	0x3e819744	0.2531072
57	0x3c0b7846	0.008512562
58	0xbd091ef6	-0.033476792
59	0x3eb5fb9f	0.35543534

module.2.weight f4 [1, 60]
0	0x3c106ae6	0.008814549
1	0x392ee54b	0.00016679351
2	0xbce4aff6	-0.027915936
3	0x3d77b482	0.06047488
4	0x3dbb2a9c	0.091389865
5	0xbda46ec5	-0.0802894
6	0xbdc9af6d	-0.09847913
7	0x3c5342fc	0.012894388
8	0x3dcbb021	0.09945703
9	0xbd9d97ac	-0.07694945
10	0x3dcad72a	0.099043205
11	0x3db1d756	0.0868365
12	0x3d76f559	0.060292576
13	0x3f031bf8	0.5121455
14	0xba52a323	-0.00080351735
15	0xbab66ff6	-0.0013918865
16	0x3df4428a	0.11926754
17	0xbd4ec928	-0.050484806
18	0xb6fc985e	-7.527923e-06
19	0x3e82c7b9	0.25543
20	0xbddd44fd	-0.10804174
21	0xbd9735c4	-0.07383302
22	0x3e387edb	0.18017142
23	0xbca81ebd	-0.02052247
24	0xbe5731ea	-0.21015134
25	0xbc4d1c51	-0.012518958
26	0xbcca3321	-0.024682583
27	0x3d9c6690	0.0763675
28	0x3dd5c7c4	0.10438493
29	0x3d9e0844	0.0771642
30	0xbd05e3d6	-0.032687984
31	0x3d149b5c	0.036280975
32	0xbd9e5abf	-0.07732152
33	0xbe889e23	-0.2668315
34	0x3d5fb8b5	0.05461951
35	0x3dd824bc	0.105538815
36	0x3d935689	0.0719424
37	0xbd0db8da	-0.034600116
38	0xbd7704da	-0.06030736
39	0xbd941d6b	-0.072321735
40	0xbd5e58ed	-0.054284025
41	0xbe3cce25	-0.18438013
42	0x3d6d8ea8	0.057997376
43	0x3deaefe2	0.11471535
44	0xbe039610	-0.12850213
45	0xbd17c1a8	-0.03704992
46	0x3f2431e5	0.64138633
47	0x3def829a	0.11694832
48	0xbb294954	-0.002583106
49	0xbf03a8fa	-0.5142971
50	0xbcc3eaa9	-0.023915606
51	0x3d2720d4	0.04080279
52	0x3c98d5a8	0.018656567
53	0xb3e2d7fa	-1.0563231e-07
54	0xbe59f9dc	-0.2128672
55	0xbf965c01	-1.1746827
56	0x3ca81d11	0.020521672
57	0xbccd26f7	-0.025042994
58	0x3d9c1a86	0.076222464
59	0x3dbf46f3	0.09339704

exp_avg f4 [60, 12]
0	0x00000004	6e-45
1	0x00000004	6e-45
2	0x00000004	6e-45
3	0x00000004	6e-45
4	0x00000004	6e-45
5	0x00000004	6e-45
6	0x00000004	6e-45
7	0x00000004	6e-45
8	0x00000004	6e-45
9	0x00000004	6e-45
10	0x00000004	6e-45
11	0x00000004	6e-45
12	0x00000004	6e-45
13	0x00000004	6e-45
14	0xaf5048a7	-1.8943301e-10
15	0xae91cc74	-6.630155e-11
16	0x00000004	6e-45
17	0x00000004	6e-45
18	0xb0363f97	-6.630158e-10
19	0x00000004	6e-45
20	0xaf96163d	-2.7300642e-10
21	0xae91cc74	-6.630155e-11
22	0xaf11cc74	-1.326031e-10
23	0x00000004	6e-45
24	0xb988a786	-0.00026064756
25	0x36ee6090	7.104194e-06
26	0x38cc6781	9.746757e-05
27	0x3921a475	0.00015415422
28	0xb85034c3	-4.9640203e-05
29	0xb96598d1	-0.0002189607
30	0x38da61ce	0.000104132676
31	0xb82f9272	-4.185964e-05
32	0x3942c768	0.00018575566
33	0x3931bbf6	0.00016950056
34	0x381bb694	3.712492e-05
35	0xb940c209	-0.0001838283
36	0xba4e1d8f	-0.0007862681
37	0xbb456345	-0.0030118984
38	0xbb31d697	-0.0027135962
39	0xbaf96001	-0.0019025804
40	0xbab2e8e8	-0.0013649734
41	0xbaf78e5e	-0.0018887033
42	0xbb7b7948	-0.003837185
43	0xbb20dc95	-0.002454554
44	0xbb1e336e	-0.0024139541
45	0xbacf8d2c	-0.0015834919
46	0xbac45ef7	-0.0014981915
47	0xbb0a40c5	-0.0021095735
48	0x00000004	6e-45
49	0x00000004	6e-45
50	0x00000004	6e-45
51	0x00000004	6e-45
52	0x00000004	6e-45
53	0x00000004	6e-45
54	0x00000004	6e-45
55	0x00000004	6e-45
56	0x00000004	6e-45
57	0x00000004	6e-45
58	0x00000004	6e-45
59	0x00000004	6e-45
60	0x3a642d6e	0.00087042793
61	0x39c06f01	0.00036703798
62	0x3aae6a80	0.0013306886
63	0x3ae9ad00	0.0017828047
64	0x3a94f4ae	0.0011364424
65	0xb92ded36	-0.00016586934
66	0x3afa1845	0.0019080719
67	0x3a7856b5	0.00094733696
68	0x3a639818	0.00086820265
69	0x3a9705bf	0.0011522098
70	0x3a3fddab	0.0007319103
71	0x3a259748	0.0006316793
72	0x00000000	0.0
73	0x00000000	0.0
74	0x00000000	0.0
75	0x00000000	0.0
76	0x00000000	0.0
77	0x00000000	0.0
78	0x00000000	0.0
79	0x00000000	0.0
80	0x00000000	0.0
81	0x00000000	0.0
82	0x00000000	0.0
83	0x00000000	0.0
84	0xb81d8b22	-3.7561294e-05
85	0xb7e7d7ae	-2.763778e-05
86	0xb9373c2f	-0.0001747466
87	0xb8c67baf	-9.4644136e-05
88	0xb93a4b35	-0.00017766359
89	0xb8ac852a	-8.226403e-05
90	0xb9b96ef2	-0.0003536861
91	0xb88078a4	-6.125987e-05
92	0xb940bf47	-0.00018381803
93	0xb8a8b00d	-8.043656e-05
94	0xb94f1021	-0.00019747067
95	0xb8d6fd37	-0.0001025148
96	0x1d4eb8a3	2.7359328e-21
97	0xb6be73d3	-5.675925e-06
98	0xb87f8fd5	-6.093069e-05
99	0xb7ad3161	-2.0646201e-05
100	0xb95f9ddb	-0.00021325743
101	0xb875dd7e	-5.8618833e-05
102	0xb95f9ddb	-0.00021325743
103	0xb67defc0	-3.783949e-06
104	0xb8b827a2	-8.781186e-05
105	0xb7ad3161	-2.0646201e-05
106	0xb95f9ddb	-0.00021325743
107	0xb875dd7e	-5.8618833e-05
108	0x00000000	0.0
109	0x00000000	0.0
110	0x00000000	0.0
111	0x00000000	0.0
112	0x00000000	0.0
113	0x00000000	0.0
114	0x00000000	0.0
115	0x00000000	0.0
116	0x00000000	0.0
117	0x00000000	0.0
118	0x00000000	0.0
119	0x00000000	0.0
120	0x00000004	6e-45
121	0x00000004	6e-45
122	0x00000004	6e-45
123	0x00000004	6e-45
124	0x00000004	6e-45
125	0x00000004	6e-45
126	0x00000004	6e-45
127	0x00000004	6e-45
128	0x00000004	6e-45
129	0x00000004	6e-45
130	0x00000004	6e-45
131	0x00000004	6e-45
132	0x00000000	0.0
133	0x00000000	0.0
134	0x00000000	0.0
135	0x00000000	0.0
136	0x00000000	0.0
137	0x00000000	0.0
138	0x00000000	0.0
139	0x00000000	0.0
140	0x00000000	0.0
141	0x00000000	0.0
142	0x00000000	0.0
143	0x00000000	0.0
144	0xb4de4a8d	-4.1404965e-07
145	0xb99077c9	-0.00027555067
146	0xb94e6077	-0.00019681627
147	0xb7f3ae1f	-2.9048939e-05
148	0xb921553c	-0.00015385909
149	0x2684e8c0	9.222427e-16
150	0xb9a6846d	-0.00031760652
151	0xb940dd77	-0.00018393049
152	0xb964633f	-0.00021780746
153	0xb7f3ae1f	-2.9048939e-05
154	0xb94374c9	-0.00018640155
155	0xb4b93e21	-3.450414e-07
156	0xbb5dbf2d	-0.0033835873
157	0xbba33d68	-0.0049816854
158	0xbb38fcdd	-0.002822689
159	0xb931e811	-0.00016966487
160	0x3baca903	0.005269171
161	0x3a091e26	0.0005230628
162	0xbc0674c9	-0.008206555
163	0xbbafcf6d	-0.0053653033
164	0xbb144973	-0.0022626787
165	0x38ceb8ca	9.857265e-05
166	0x3b3460e8	0.002752358
167	0xbafb2210	-0.0019159932
168	0x00000004	6e-45
169	0x00000004	6e-45
170	0x00000004	6e-45
171	0x00000004	6e-45
172	0x00000004	6e-45
173	0x00000004	6e-45
174	0x00000004	6e-45
175	0x00000004	6e-45
176	0x00000004	6e-45
177	0x00000004	6e-45
178	0x00000004	6e-45
179	0x00000004	6e-45
180	0x3842e817	4.6469355e-05
181	0x37f234d1	2.8873243e-05
182	0x387970b7	5.94712e-05
183	0x382d0ed0	4.126021e-05
184	0x37a1a3fe	1.926906e-05
185	0x37601da1	1.3358339e-05
186	0x38ea61f8	0.000111762376
187	0x3862362a	5.3933043e-05
188	0x384f631b	4.9444945e-05
189	0x37de4d9a	2.6500598e-05
190	0x37c4fa8c	2.348169e-05
191	0x380c9521	3.351749e-05
192	0x00000000	0.0
193	0x00000000	0.0
194	0x00000000	0.0
195	0x00000000	0.0
196	0x00000000	0.0
197	0x00000000	0.0
198	0x00000000	0.0
199	0x00000000	0.0
200	0x00000000	0.0
201	0x00000000	0.0
202	0x00000000	0.0
203	0x00000000	0.0
204	0x3a188a88	0.00058189826
205	0x3a441bc9	0.0007480947
206	0x3a7983bd	0.0009518227
207	0x3a9cd1de	0.0011964401
208	0xb9df062f	-0.00042538482
209	0x39fdce93	0.0004840983
210	0x3ac65cab	0.0015133818
211	0x3a7fb546	0.000975449
212	0x3a3e8d2f	0.0007268963
213	0x3a747429	0.00093251705
214	0xb9271577	-0.00015934357
215	0x3a60192e	0.0008548674
216	0x00000004	6e-45
217	0x00000004	6e-45
218	0x00000004	6e-45
219	0x00000004	6e-45
220	0x00000004	6e-45
221	0x00000004	6e-45
222	0x00000004	6e-45
223	0x00000004	6e-45
224	0x00000004	6e-45
225	0x00000004	6e-45
226	0x00000004	6e-45
227	0x00000004	6e-45
228	0xbb432aed	-0.0029780224
229	0xbc4271f7	-0.011867992
230	0xbc33fc65	-0.0109854685
231	0xbc095380	-0.008381724
232	0xbbb9e53e	-0.0056730798
233	0xbbf5e98d	-0.007504648
234	0xbc856ec2	-0.016288165
235	0xbc22fdab	-0.0099481745
236	0xbc2633ef	-0.010144218
237	0xbbe41aa7	-0.006961185
238	0xbbd24b03	-0.0064176335
239	0xbc0d9176	-0.008640638
240	0x00000000	0.0
241	0x00000004	6e-45
242	0x00000004	6e-45
243	0x00000004	6e-45
244	0x00000004	6e-45
245	0x00000004	6e-45
246	0x00000004	6e-45
247	0x00000004	6e-45
248	0x00000004	6e-45
249	0x00000004	6e-45
250	0x00000004	6e-45
251	0x00000004	6e-45
252	0x00000000	0.0
253	0x00000000	0.0
254	0x00000000	0.0
255	0x00000000	0.0

exp_avg_sq f4 [60, 12]
0	0x0d80d423	7.939679e-31
1	0x0d94be23	9.166978e-31
2	0x0d2c1ecc	5.3038662e-31
3	0x0bac89f2	6.645955e-32
4	0x0d940afa	9.123847e-31
5	0x0dbc1184	1.1590611e-30
6	0x0e30f370	2.1810886e-30
7	0x0dadec9b	1.0718909e-30
8	0x0cbf5e05	2.9484795e-31
9	0x0b2e2950	3.354226e-32
10	0x0d162aa7	4.627366e-31
11	0x0de536e3	1.4126428e-30
12	0x2ee6b91e	1.04920725e-10
13	0x2f84cf62	2.4158014e-10
14	0x2fa3762d	2.9733496e-10
15	0x2eebed6d	1.0728738e-10
16	0x2edc927f	1.0030465e-10
17	0x2f333d9b	1.6301842e-10
18	0x30973b49	1.1003546e-09
19	0x2f817495	2.35478e-10
20	0x2f8fbe10	2.6146596e-10
21	0x2ea54d3f	7.517053e-11
22	0x2ef887df	1.130187e-10
23	0x2f8183a5	2.3558502e-10
24	0x369c1778	4.6518944e-06
25	0x368ce1a4	4.198593e-06
26	0x368a0eee	4.1144585e-06
27	0x369c1de1	4.6526407e-06
28	0x337071f1	5.5982984e-08
29	0x36339031	2.675701e-06
30	0x371d564b	9.378021e-06
31	0x36b01aa7	5.2483115e-06
32	0x35f6613e	1.835673e-06
33	0x3617aa79	2.2599982e-06
34	0x33b7c025	8.5565524e-08
35	0x368ea383	4.250965e-06
36	0x3825919a	3.9474668e-05
37	0x3936196a	0.0001736634
38	0x394eb266	0.0001971215
39	0x390cee56	0.00013440227
40	0x3920fe59	0.00015353541
41	0x39324ef3	0.00017004814
42	0x3a0ba9a1	0.0005327706
43	0x391e82d6	0.00015116794
44	0x39212193	0.00015366664
45	0x38c8ae0b	9.569161e-05
46	0x3906cd9d	0.00012855833
47	0x395db391	0.00021143096
48	0x00165be9	2.053352e-39
49	0x0000c8c5	7.2023e-41
50	0x00034286	2.9937e-40
51	0x00035591	3.06202e-40
52	0x000070ca	4.0461e-41
53	0x000028a0	1.4574e-41
54	0x00165be9	2.053352e-39
55	0x000b69b5	1.048111e-39
56	0x00008d7e	5.0758e-41
57	0x0000d567	7.6554e-41
58	0x0000120e	6.477e-42
59	0x0005f25f	5.46124e-40
60	0x397c362f	0.00024052778
61	0x3918b0b1	0.00014561672
62	0x3931c6d4	0.00016954105
63	0x38ff1143	0.00012162563
64	0x39017863	0.00012347246
65	0x3910f26b	0.00013823218
66	0x39efdd57	0.00045750543
67	0x3983867f	0.00025086474
68	0x386929c9	5.5590444e-05
69	0x383bbe92	4.4761757e-05
70	0x381a6e62	3.6819263e-05
71	0x39732532	0.00023188142
72	0x00000000	0.0
73	0x00000000	0.0
74	0x00000000	0.0
75	0x00000000	0.0
76	0x00000000	0.0
77	0x00000000	0.0
78	0x00000000	0.0
79	0x00000000	0.0
80	0x00000000	0.0
81	0x00000000	0.0
82	0x00000000	0.0
83	0x00000000	0.0
84	0x325dc561	1.2908772e-08
85	0x3382de41	6.0940245e-08
86	0x3500c00a	4.796317e-07
87	0x34f9f6f7	4.6559555e-07
88	0x35300cb1	6.558358e-07
89	0x34bbaff9	3.49595e-07
90	0x36011ceb	1.923933e-06
91	0x33519c62	4.8803834e-08
92	0x35213f06	6.0068885e-07
93	0x34ed6402	4.4217455e-07
94	0x3545a61a	7.362993e-07
95	0x34ca57b7	3.7689253e-07
96	0x31ce6285	6.0065894e-09
97	0x34402706	1.789559e-07
98	0x34a0254c	2.982946e-07
99	0x34253b45	1.5388385e-07
100	0x365fd80c	3.3355345e-06
101	0x359d1a7e	1.1705122e-06
102	0x36637ef1	3.3899526e-06
103	0x33c16fe2	9.007614e-08
104	0x351d1e44	5.85311e-07
105	0x3423f0ae	1.5268117e-07
106	0x365cac1c	3.2882735e-06
107	0x359ea4fe	1.1819936e-06
108	0x00000000	0.0
109	0x00000000	0.0
110	0x00000000	0.0
111	0x00000000	0.0
112	0x00000000	0.0
113	0x00000000	0.0
114	0x00000000	0.0
115	0x00000000	0.0
116	0x00000000	0.0
117	0x00000000	0.0
118	0x00000000	0.0
119	0x00000000	0.0
120	0x01c610ac	7.2757636e-38
121	0x01346c8f	3.3138666e-38
122	0x0132c5d1	3.2835363e-38
123	0x00edfda5	2.1856003e-38
124	0x01408069	3.535696e-38
125	0x00bf1788	1.7549021e-38
126	0x01e15180	8.2768893e-38
127	0x01a3d6c8	6.018494e-38
128	0x004b2af2	6.903068e-39
129	0x003e8a12	5.743331e-39
130	0x004e1e88	7.174121e-39
131	0x0160294f	4.117194e-38
132	0x00000000	0.0
133	0x00000000	0.0
134	0x00000000	0.0
135	0x00000000	0.0
136	0x00000000	0.0
137	0x00000000	0.0
138	0x00000000	0.0
139	0x00000000	0.0
140	0x00000000	0.0
141	0x00000000	0.0
142	0x00000000	0.0
143	0x00000000	0.0
144	0x329b6965	1.8092303e-08
145	0x3624cf04	2.4558403e-06
146	0x35a770d8	1.2475311e-06
147	0x32e5d9f7	2.6758228e-08
148	0x35348c74	6.725961e-07
149	0x328ef1bd	1.6640906e-08
150	0x36485d0a	2.9856478e-06
151	0x359c5f89	1.165071e-06
152	0x35bc2bdc	1.4019856e-06
153	0x32dfec20	2.6067994e-08
154	0x356264f9	8.4338495e-07
155	0x33086df3	3.1764966e-08
156	0x3ad764f8	0.0016433289
157	0x39c1d504	0.00036970538
158	0x39ef90a7	0.00045693407
159	0x390c6bc1	0.00013391582
160	0x3ac16440	0.0014754608
161	0x3b4deee5	0.003142291
162	0x3bb09aee	0.005389563
163	0x3aa67b08	0.0012701461
164	0x39e0c146	0.0004286861
165	0x384b70ad	4.850391e-05
166	0x3a785693	0.000947335
167	0x3b707ff0	0.003669735
168	0x0c67ea47	1.7866093e-31
169	0x0cd1c90a	3.2322545e-31
170	0x0cd0ca8b	3.2169375e-31
171	0x0c903887	2.2220734e-31
172	0x0c71c0ab	1.8623944e-31
173	0x0d1ddea2	4.8647345e-31
174	0x0db82675	1.1349134e-30
175	0x0cd9db01	3.3565952e-31
176	0x0ca03e81	2.4689521e-31
177	0x0c333989	1.3806972e-31
178	0x0c42f6e0	1.5019508e-31
179	0x0d3cc8c2	5.8173626e-31
180	0x35114796	5.412088e-07
181	0x3553ea1b	7.8944294e-07
182	0x3581981f	9.655522e-07
183	0x352fdf88	6.551786e-07
184	0x3553856e	7.879779e-07
185	0x354095ca	7.1743546e-07
186	0x36335984	2.6725183e-06
187	0x35770949	9.202818e-07
188	0x352817b2	6.261936e-07
189	0x34d416f4	3.9504778e-07
190	0x350f871b	5.3468256e-07
191	0x358bb5ff	1.0409275e-06
192	0x00000000	0.0
193	0x00000000	0.0
194	0x00000000	0.0
195	0x00000000	0.0
196	0x00000000	0.0
197	0x00000000	0.0
198	0x00000000	0.0
199	0x00000000	0.0
200	0x00000000	0.0
201	0x00000000	0.0
202	0x00000000	0.0
203	0x00000000	0.0
204	0x37912f1e	1.7307288e-05
205	0x3761c457	1.3456759e-05
206	0x3799cd96	1.8334755e-05
207	0x376daa8f	1.4166012e-05
208	0x36cde22e	6.135807e-06
209	0x382b97d0	4.0910963e-05
210	0x38ba1570	8.873164e-05
211	0x37ae2bdf	2.0762845e-05
212	0x3785c7ab	1.5947813e-05
213	0x372f5b30	1.0452044e-05
214	0x36e77067	6.897422e-06
215	0x384b9d58	4.854551e-05
216	0x2cf5f927	6.9909803e-12
217	0x2e2b2ec1	3.8922424e-11
218	0x2e2e5f31	3.9647566e-11
219	0x2dfeed8b	2.8981947e-11
220	0x2df7b410	2.8160613e-11
221	0x2deb54b3	2.6754021e-11
222	0x2ed80fc2	9.825342e-11
223	0x2dff08bc	2.8994022e-11
224	0x2e13b901	3.3588247e-11
225	0x2dc04399	2.1857892e-11
226	0x2de22a6f	2.571207e-11
227	0x2e11a6ee	3.3117446e-11
228	0x3b1da30f	0.002405349
229	0x3b8b3319	0.0042480347
230	0x3ba01584	0.0048853774
231	0x3b5fe444	0.0034163157
232	0x3b7b25e5	0.0038322147
233	0x3b863a10	0.004096277
234	0x3c5b9cf3	0.013404119
235	0x3b973dad	0.0046155066
236	0x3b5528db	0.0032525572
237	0x3b0b43b6	0.0021250076
238	0x3b30e6f1	0.002699312
239	0x3bb84a05	0.005624058
240	0x00000000	0.0
241	0x00063b7d	5.72353e-40
242	0x000384f1	3.23197e-40
243	0x00000fa1	5.607e-42
244	0x00074b79	6.69923e-40
245	0x0000304f	1.733e-41
246	0x00091733	8.34842e-40
247	0x0002c515	2.54371e-40
248	0x00044de0	3.95278e-40
249	0x00000fa1	5.607e-42
250	0x000793db	6.95889e-40
251	0x0000304f	1.733e-41
252	0x00000000	0.0
253	0x00000000	0.0
254	0x00000000	0.0
255	0x00000000	0.0

exp_avg f4 [60]
0	0x00000004	6e-45
1	0xb0363f97	-6.630158e-10
2	0x38da61ce	0.000104132676
3	0xbb7b7948	-0.003837185
4	0x00000004	6e-45
5	0x3afa1845	0.0019080719
6	0x00000000	0.0
7	0xb9b96ef2	-0.0003536861
8	0xb95f9ddb	-0.00021325743
9	0x00000000	0.0
10	0x00000004	6e-45
11	0x00000000	0.0
12	0xb9a6846d	-0.00031760652
13	0xbc0674c9	-0.008206555
14	0x00000004	6e-45
15	0x38ea61f8	0.000111762376
16	0x00000000	0.0
17	0x3ac65cab	0.0015133818
18	0x00000004	6e-45
19	0xbc856ec2	-0.016288165
20	0x00000004	6e-45
21	0x00000000	0.0
22	0xb62dec98	-2.5916725e-06
23	0x39cf554d	0.0003954567
24	0xbb921bae	-0.004458866
25	0x00000004	6e-45
26	0x387e85f0	6.0683058e-05
27	0xbba5417f	-0.005043208
28	0x00000000	0.0
29	0xbab2434d	-0.001360038
30	0x00000000	0.0
31	0xb99f4c58	-0.00030383724
32	0x00000004	6e-45
33	0x3c8fcfdc	0.01755517
34	0xbb45d2dd	-0.0030185499
35	0xbbda343e	-0.00665906
36	0xbb94e0d1	-0.0045434018
37	0x00000000	0.0
38	0x3b2a9048	0.002602594
39	0x00000004	6e-45
40	0x00000004	6e-45
41	0x3c435a31	0.011923359
42	0x366a4c5f	3.491317e-06
43	0xbbeef5d8	-0.0072924905
44	0x00000000	0.0
45	0x3a52b06d	0.0008037154
46	0x3b402c6f	0.002932336
47	0xbbf45c06	-0.007457259
48	0x00000004	6e-45
49	0xbb907516	-0.004408489
50	0x3a33317b	0.0006835681
51	0xbb0ed7fc	-0.0021796217
52	0x00000000	0.0
53	0x00000004	6e-45
54	0x3bc8c4d6	0.0061269803
55	0x3b8905ca	0.0041815983
56	0xbab44c9f	-0.0013755745
57	0x3934b7e6	0.00017234645
58	0xbb5cdd66	-0.00337013
59	0xbbc26b41	-0.005933196

exp_avg_sq f4 [60]
0	0x0e30f370	2.1810886e-30
1	0x30973b49	1.1003546e-09
2	0x371d564b	9.378021e-06
3	0x3a0ba9a1	0.0005327706
4	0x00165be9	2.053352e-39
5	0x39efdd57	0.00045750543
6	0x00000000	0.0
7	0x36011ceb	1.923933e-06
8	0x36637ef1	3.3899526e-06
9	0x00000000	0.0
10	0x01e15180	8.2768893e-38
11	0x00000000	0.0
12	0x36485d0a	2.9856478e-06
13	0x3bb09aee	0.005389563
14	0x0db82675	1.1349134e-30
15	0x36335984	2.6725183e-06
16	0x00000000	0.0
17	0x38ba1570	8.873164e-05
18	0x2ed80fc2	9.825342e-11
19	0x3c5b9cf3	0.013404119
20	0x00091733	8.34842e-40
21	0x00000000	0.0
22	0x35e6e232	1.7202167e-06
23	0x372270ee	9.682246e-06
24	0x3a96fec4	0.0011520018
25	0x07a043a3	2.4113878e-34
26	0x36076058	2.0172647e-06
27	0x3a9ffabb	0.0012205461
28	0x00000000	0.0
29	0x391e86a2	0.00015118209
30	0x00000000	0.0
31	0x37aaeaf2	2.0374984e-05
32	0x00018840	1.40713e-40
33	0x3c04f391	0.008114711
34	0x39ac8e47	0.000329124
35	0x3b1abd8e	0.0023611519
36	0x3a93a879	0.0011265419
37	0x00000000	0.0
38	0x3971f1fe	0.000230737
39	0x02371e0a	1.3453337e-37
40	0x0003775a	3.18322e-40
41	0x3b592d05	0.0033138406
42	0x39108342	0.00013781808
43	0x3b39e5ca	0.0028365725
44	0x00000000	0.0
45	0x379b711b	1.8530109e-05
46	0x3a8a57ff	0.0010554789
47	0x3b401f3c	0.0029315492
48	0x1d9896fc	4.039018e-21
49	0x3b581c45	0.0032975834
50	0x376d6be7	1.4151424e-05
51	0x396fe673	0.00022878665
52	0x00000000	0.0
53	0x29388e95	4.0979878e-14
54	0x3b62de2c	0.0034617288
55	0x3c843fcc	0.016143702
56	0x38c27302	9.272063e-05
57	0x34f62cc0	4.585363e-07
58	0x3a5ca9c6	0.0008417632
59	0x3af87342	0.0018955248

exp_avg f4 [1, 60]
0	0x00000004	6e-45
1	0xb2602768	-1.3047476e-08
2	0xba15db21	-0.00057165517
3	0xbcc350cf	-0.023842243
4	0x00000004	6e-45
5	0xbb31f8ab	-0.0027156274
6	0x00000000	0.0
7	0xbb16994d	-0.0022979558
8	0xb8e8b310	-0.00011095975
9	0x00000000	0.0
10	0x00000004	6e-45
11	0x00000000	0.0
12	0xb946c2c9	-0.00018955315
13	0x3b733d33	0.0037115335
14	0x80000004	-6e-45
15	0xbbe7912f	-0.007066868
16	0x00000000	0.0
17	0xbbb99919	-0.0056640026
18	0x80000004	-6e-45
19	0xbcd2d784	-0.025737531
20	0x80000004	-6e-45
21	0x00000000	0.0
22	0xb60434c8	-1.9700256e-06
23	0xbb0eb149	-0.002177315
24	0x3a92292f	0.001115119
25	0x80000004	-6e-45
26	0xb961eeaf	-0.00021546589
27	0xbcc3d437	-0.023904903
28	0x00000000	0.0
29	0x3ad0fd55	0.001594464
30	0x00000000	0.0
31	0xbb076dfb	-0.0020664919
32	0x80000004	-6e-45
33	0xbb76037e	-0.0037538703
34	0xbbeed094	-0.007288048
35	0xbd0182eb	-0.031618994
36	0xbd0790b0	-0.03309697
37	0x00000000	0.0
38	0xbb3fad41	-0.0029247554
39	0x80000004	-6e-45
40	0x80000004	-6e-45
41	0xbaabe53f	-0.0013114585
42	0xba0c8b01	-0.00053612894
43	0xbd4f180b	-0.05056004
44	0x00000000	0.0
45	0x3b0d4ec5	0.0021561843
46	0x398f58d7	0.00027341276
47	0xbd4263dd	-0.04745852
48	0x80000004	-6e-45
49	0x3b870bd0	0.004121281
50	0xbb7627a8	-0.0037560258
51	0xbc75b983	-0.014997843
52	0x00000000	0.0
53	0x00000004	6e-45
54	0xbc948b23	-0.018132752
55	0xb92b9338	-0.00016362674
56	0xbc59da9b	-0.0132967485
57	0xb95bc426	-0.00020958539
58	0xbc9e07a5	-0.019290755
59	0xbd300c78	-0.04298064

exp_avg_sq f4 [1, 60]
0	0x1285ecf8	8.451897e-28
1	0x348a7dcb	2.579603e-07
2	0x3a2cc4a6	0.0006590582
3	0x3c845fbc	0.016158931
4	0x00062141	5.62942e-40
5	0x3b9c43b2	0.004768812
6	0x00000000	0.0
7	0x38a56d79	7.888204e-05
8	0x35428532	7.2464456e-07
9	0x00000000	0.0
10	0x018867d1	5.010748e-38
11	0x00000000	0.0
12	0x36e7352a	6.8905256e-06
13	0x3a95a546	0.0011417053
14	0x13220fa3	2.0454984e-27
15	0x3b291815	0.0025801708
16	0x00000000	0.0
17	0x3a3b5bf2	0.0007147185
18	0x3336ca8f	4.2559403e-08
19	0x3cc01d7a	0.023451556
20	0x00007256	4.1016e-41
21	0x00000000	0.0
22	0x359c66a1	1.1652775e-06
23	0x3a014d2f	0.0004932461
24	0x39598ff9	0.00020748367
25	0x0a274c6f	8.055133e-33
26	0x37f927c3	2.9701629e-05
27	0x3d070f30	0.03297347
28	0x00000000	0.0
29	0x3a474331	0.000760126
30	0x00000000	0.0
31	0x38c3aa89	9.330089e-05
32	0x00002fe1	1.7176e-41
33	0x39f12020	0.00045991037
34	0x3baa8b14	0.0052045677
35	0x3d1b5ccd	0.0379303
36	0x3d30da6a	0.043177046
37	0x00000000	0.0
38	0x3b32391b	0.0027194682
39	0x021b5c3b	1.141407e-37
40	0x00008084	4.6103e-41
41	0x39c2e700	0.00037174672
42	0x3aef4c2f	0.0018256957
43	0x3db4caf8	0.08827776
44	0x00000000	0.0
45	0x3962d97f	0.00021634063
46	0x37676ab8	1.379352e-05
47	0x3da519e6	0.0806158
48	0x22300e95	2.3860167e-18
49	0x39b638df	0.00034756117
50	0x3a0112c5	0.00049237564
51	0x3b9d2767	0.004795957
52	0x00000000	0.0
53	0x2afcd3c8	4.4911145e-13
54	0x3bbf9202	0.005846263
55	0x3734218c	1.0736647e-05
56	0x3c0a9b39	0.0084598595
57	0x368ef376	4.2602724e-06
58	0x3c6fd4e0	0.014638156
59	0x3d88c3ba	0.06677957
