mnc_ml_test/output/best/20221126-0434-model-test1.pth (torch, 22349 bytes, 9 tensors)

module.0.weight f4 [100, 12]
0	0x3cf34f46	0.029700886
1	0xbe220628	-0.15822661
2	0x3dd2a1be	0.10284756
3	0x3d6b452f	0.057439025
4	0x3e22a075	0.15881522
5	0x3e3a1efe	0.18175885
6	0xbe57460f	-0.21022819
7	0xbe8dd56a	-0.27701885
8	0xbe1a7892	-0.15085056
9	0xbe995d9f	-0.2995424
10	0x3e5893f8	0.21150196
11	0x3e55b0fd	0.20868297
12	0xbe84d1fb	-0.25941452
13	0xbe61838e	-0.2202284
14	0x3e086d56	0.13322958
15	0x3e55ab23	0.20866065
16	0xbe512333	-0.20423584
17	0x3e37ea78	0.17960536
18	0x3e24563f	0.16048525
19	0x3d893f76	0.06701557
20	0x3de1d7cc	0.11027488
21	0x3ce6e66a	0.028186042
22	0x3da9e591	0.082957394
23	0xbe3d1c69	-0.18467869
24	0x3e41a0bb	0.1890897
25	0xbea9cdb3	-0.3316475
26	0xbe2f2b1a	-0.17106286
27	0xbe8680b0	-0.26270056
28	0xbe38b0c5	-0.18036182
29	0x3dcb1cd5	0.09917609
30	0x3d401e81	0.04690409
31	0xbe1020eb	-0.14075057
32	0x3dff525a	0.12466879
33	0xbebf6568	-0.37382054
34	0x3e34b66e	0.17647716
35	0x3e343bc2	0.17600921
36	0xbd1b8ae0	-0.03797424
37	0x3b8237c0	0.003973931
38	0xbe609d78	-0.2193507
39	0xbce14600	-0.027499199
40	0xbe669ba0	-0.22520304
41	0xbdc923a6	-0.098212525
42	0xbe5fc06a	-0.21850744
43	0x3e6173d4	0.22016841
44	0xbd93b72e	-0.07212673
45	0xbe533e96	-0.20629343
46	0x3e697fd0	0.22802663
47	0xbe817999	-0.25288084
48	0x3d8033ed	0.06259904
49	0x3e232d8a	0.1593534
50	0xbe14b20e	-0.14521047
51	0x3b990c82	0.0046706805
52	0x3d33cf8a	0.043899097
53	0xbe2defd4	-0.16986018
54	0xbe8f917b	-0.2804068
55	0x3dba0807	0.09083562
56	0x3dbe7f9a	0.09301682
57	0x3d57758b	0.052602332
58	0x3e3b77e5	0.18307455
59	0x3e00419e	0.12525031
60	0xbe3a8cd1	-0.1821778
61	0x3d8a1277	0.06741803
62	0x3e2b234f	0.16712688
63	0x3c5bb26a	0.013409236
64	0x3d23f523	0.040028702
65	0xbd7acfdc	-0.061233386
66	0xbd6776c9	-0.056509767
67	0xbb3bce09	-0.0028656742
68	0x3e2dc370	0.16969085
69	0x3dab1e5a	0.083553985
70	0x3e0d384d	0.13791008
71	0x3ba7bcbc	0.0051189344
72	0x3de8afb2	0.11361636
73	0xbe6bdb25	-0.23032816
74	0x3d766278	0.0601525
75	0xbd4a26cf	-0.049353417
76	0x3d72afcc	0.059249684
77	0x3dcf525d	0.101231314
78	0x3d2a646f	0.041599687
79	0xbe56b034	-0.20965654
80	0x3db4404e	0.08801328
81	0xbeb14c1e	-0.34628385
82	0xbd9fa918	-0.07795924
83	0x3df49cd7	0.11943977
84	0x3e226576	0.15859017
85	0xbe4cacc4	-0.1998778
86	0xbe20c37c	-0.15699571
87	0xbd992520	-0.07477784
88	0xbe0ed009	-0.13946547
89	0xbee5a554	-0.44852698
90	0xbe09f78e	-0.13473341
91	0xbd0dc306	-0.034609817
92	0x3db0c660	0.08631587
93	0xbe18a040	-0.1490488
94	0x3dc5e49c	0.096627444
95	0xbe01c611	-0.12673213
96	0x3e177a58	0.14792764
97	0xbe235614	-0.15950805
98	0xbd06c04e	-0.03289824
99	0xbe2ad8a9	-0.16684212
100	0xbe9e3742	-0.30901533
101	0x3b372a53	0.0027948811
102	0x3da0f34e	0.07858907
103	0x3e0def2e	0.13860771
104	0x3e8a2395	0.26980272
105	0x3e7005c3	0.23439698
106	0xbe57a80c	-0.21060199
107	0x3e46131b	0.19343226
108	0xbe82f786	-0.2557947
109	0x3e206d0c	0.15666598
110	0x3d997d43	0.07494595
111	0xbd2459e0	-0.040124774
112	0x3d9cf53d	0.07663963
113	0xbe0bf746	-0.13668546
114	0xbe294f24	-0.16534096
115	0x3e700a66	0.23441467
116	0x3e19fabc	0.15037054
117	0x3ea3da19	0.32002333
118	0xbe611554	-0.21980792
119	0xbe37dd3d	-0.1795549
120	0xbe5cf586	-0.21578035
121	0xbe375517	-0.17903553
122	0xbbbf0b15	-0.0058301785
123	0xbe43653e	-0.1908159
124	0xbe34b260	-0.1764617
125	0x3e60e5de	0.21962687
126	0x3d224097	0.03961238
127	0x3eacff36	0.3378846
128	0xbdc02c75	-0.093834795
129	0x3e26fead	0.16308089
130	0x3ea36137	0.31910107
131	0x3db0e9b3	0.086383246
132	0xbe6941be	-0.22778985
133	0xbe09e904	-0.13467795
134	0x3e0ef807	0.13961802
135	0xbda1ca3e	-0.07899903
136	0xbd7cfdf5	-0.06176563
137	0x3e1ddae6	0.15415534
138	0x3e9e175a	0.3087719
139	0x3e0240dc	0.12720054
140	0xbd6aadb9	-0.05729458
141	0x3d8ce7e4	0.06880167
142	0x3df75976	0.1207761
143	0x3cf18eb9	0.029487
144	0x3e390bc9	0.18070902
145	0x3e30f841	0.17282201
146	0xbd90d0b2	-0.070710555
147	0xbe31a52d	-0.17348166
148	0xbe8aa6a4	-0.27080262
149	0xbd6358e6	-0.055504702
150	0xbe97052d	-0.29496136
151	0xbe0d8a15	-0.13822205
152	0xbc75a4f9	-0.014992946
153	0xbd8629cb	-0.0655094
154	0xbe85437f	-0.26028058
155	0xbe1eb450	-0.15498471
156	0x3ce234f0	0.027613133
157	0xbdf1818e	-0.11792289
158	0xbd734dd8	-0.05940041
159	0xbe19885b	-0.14993422
160	0xbcc6dd60	-0.024275482
161	0x3d182fd0	0.037154973
162	0xbe89bc24	-0.26901352
163	0x3d8f0ce8	0.069848835
164	0xbe1a012f	-0.15039514
165	0xbe28f141	-0.16498281
166	0x3d4c6ce0	0.04990852
167	0xbdef7958	-0.11693066
168	0xbe94e435	-0.29080358
169	0x3e75d826	0.24008235
170	0xbe0676c2	-0.1313124
171	0xbe3fc1b5	-0.18726237
172	0x3e5f28f9	0.21792974
173	0xbd4304dc	-0.047612056
174	0xbe1f5cbe	-0.15562722
175	0x3e2cacec	0.1686284
176	0x3e4017aa	0.18759027
177	0x3e1ee108	0.1551553
178	0x3e218b34	0.15775758
179	0x3d2c010d	0.04199319
180	0xbe35c1ff	-0.17749785
181	0x3e10b2c0	0.14130688
182	0x3e59ec22	0.21281484
183	0xbc7e7811	-0.015531556
184	0xbe72705d	-0.23675676
185	0xbdfebc52	-0.12438263
186	0x3e8b9a4c	0.27266157
187	0x3c6aef1f	0.0143392375
188	0x3d087466	0.03331413
189	0x3d1262d5	0.035738785
190	0xbe48f7fb	-0.19625847
191	0x3e48f6fc	0.19625467
192	0x3dc35116	0.0953695
193	0x3d0cb2d6	0.03435024
194	0xbd85aca3	-0.065270685
195	0x3d58c890	0.052925646
196	0xbdf55bc4	-0.119803935
197	0x3d6e9f68	0.05825749
198	0x3ea042bc	0.31300914
199	0x3d3bcf18	0.045851797
200	0x3e001513	0.12508039
201	0xbdab0e04	-0.08352283
202	0x3cdc5644	0.026896603
203	0xbd8ed93c	-0.06975028
204	0x3e87cc94	0.26523268
205	0xbc6da8c6	-0.014505571
206	0xbe421e87	-0.18956958
207	0xbe0a7fc2	-0.13525298
208	0xbe37a0c1	-0.17932416
209	0x3d6b91cb	0.057512086
210	0xbe51324c	-0.20429343
211	0x3e7cbd70	0.2468164
212	0x3c970263	0.018433755
213	0x3dc45c76	0.09587948
214	0xbe3fd718	-0.18734396
215	0xbcdb8532	-0.02679691
216	0xbd0d9319	-0.03456411
217	0xbe74440c	-0.23854083
218	0x3e3e832e	0.18604729
219	0xbd8ace27	-0.06777602
220	0x3e81e4d3	0.25369892
221	0x3e16e2c7	0.14734946
222	0xbd5dc056	-0.054138504
223	0x3e2c316f	0.16815732
224	0x3e9e378b	0.3090175
225	0xbdbd8cc2	-0.09255363
226	0xbe391d00	-0.18077469
227	0xbdbc8329	-0.09204704
228	0x3d1f9b41	0.03896642
229	0x3e9c69ef	0.3054957
230	0xbe5b9797	-0.21444546
231	0xbe6701ce	-0.22559282
232	0xbe58845a	-0.21144238
233	0xbb8f4795	-0.004372547
234	0x3e8f6df9	0.2801359
235	0xbe5e43e7	-0.2170559
236	0x3e96d5c4	0.29459965
237	0x3e774dce	0.24150774
238	0x3e6138b4	0.21994287
239	0xbd544795	-0.05182608
240	0x3e5b20af	0.21399187
241	0x3e1764e3	0.14784579
242	0x3de1fe3f	0.11034822
243	0x3e975892	0.2955976
244	0x3e10cd1a	0.1414074
245	0x3e702d10	0.2345469
246	0x3cbf92a7	0.023385359
247	0xbe059c18	-0.13047826
248	0x3e831a43	0.25605974
249	0xbc362901	-0.0111181745
250	0x3da08071	0.07836998
251	0xbe1aabb0	-0.15104556
252	0xbda97980	-0.082751274
253	0xbe725adf	-0.23667477
254	0xbe48cab5	-0.19608577
255	0xbdf7484c	-0.120743364

module.0.bias f4 [100]
0	0xbdaef5b9	-0.085429616
1	0x3e6a1fa8	0.22863638
2	0x3bb0c894	0.0053950045
3	0xbe871fc8	-0.26391435
4	0xbe2459e9	-0.16049923
5	0x3d063109	0.032761607
6	0x3da834a9	0.08213169
7	0x3e840068	0.2578156
8	0xbe3f4cc6	-0.1868163
9	0x3e7ad99d	0.24497075
10	0x3dc4e5f7	0.09614175
11	0x3da30526	0.07959966
12	0x3e6cd249	0.23127092
13	0x3e80ff74	0.25194895
14	0x3d89437d	0.067023255
15	0x3d886906	0.06660657
16	0x3e923024	0.28552353
17	0x3e477b62	0.1948066
18	0xbdbffdd6	-0.09374587
19	0xbd45aa7c	-0.04825829
20	0xbe3bb390	-0.18330216
21	0xbe330091	-0.17480685
22	0xbe991bf0	-0.29904127
23	0xbd8aa042	-0.06768848
24	0xbe160d77	-0.14653574
25	0x3d4e23d4	0.050327137
26	0x3e4139ea	0.18869749
27	0xbe5710d0	-0.21002507
28	0xbe60c54f	-0.21950267
29	0xbdaabf41	-0.0833726
30	0xbc9a6b0b	-0.01884987
31	0x3bdf06bd	0.006806223
32	0x3ea64ae0	0.32479
33	0x3e17fc0c	0.14842242
34	0x3d0c6535	0.034276206
35	0xbdc278d8	-0.09495705
36	0xbe12dc43	-0.14341836
37	0xbe3ae305	-0.18250664
38	0x3d9c959a	0.07645722
39	0x3e256c18	0.16154516
40	0x3e126cac	0.14299268
41	0xbdeb41fc	-0.11487195
42	0x3d402880	0.046913624
43	0x3e706f6d	0.23480006
44	0xbe5682c9	-0.20948328
45	0xbe24735c	-0.16059631
46	0x3e7c6f4f	0.24651836
47	0xbe4a5aac	-0.19761151
48	0xbe65f820	-0.22457933
49	0xbe0ac365	-0.135511
50	0x3e6b05c0	0.22951412
51	0xbe34d6f0	-0.17660117
52	0x3e24d1f7	0.1609572
53	0xbe8d3a01	-0.27583316
54	0xbccb7d7f	-0.024840115
55	0xbe542978	-0.20718944
56	0x3e964704	0.29351056
57	0x3ce0b300	0.027429104
58	0xbe563b34	-0.20921022
59	0xbd50aa78	-0.05094382
60	0x3e71026b	0.23536079
61	0x3e1bfc67	0.15233003
62	0xbced260d	-0.028948808
63	0x3ce2cfe2	0.027687017
64	0x3cde5be2	0.027143423
65	0x3dd1ea72	0.10249795
66	0xbe0fd5cc	-0.14046401
67	0x3e89fa14	0.26948607
68	0x3e9fadb0	0.311872
69	0x3e293936	0.1652573
70	0x3e488ec3	0.1958571
71	0x3e8c5841	0.27411082
72	0xbe1b1672	-0.15145281
73	0xbc5b4f49	-0.013385602
74	0x3e9b2eed	0.3030924
75	0x3dd676ec	0.10471901
76	0xbe829582	-0.2550469
77	0x3dec1051	0.115265496
78	0xbe42906e	-0.19000408
79	0xbdcc8dbe	-0.09987973
80	0xbe7eefb7	-0.24896131
81	0xbe8a3c40	-0.26999092
82	0x3eac8a26	0.3369915
83	0x3e612aa7	0.21988927
84	0x3e967fe7	0.29394457
85	0xbcb21347	-0.021737708
86	0x3de34dd3	0.11098828
87	0xbda28812	-0.079361096
88	0xbd7ce5e8	-0.061742693
89	0x3d49b0a7	0.049240734
90	0xbe4269d8	-0.18985689
91	0x3d2acff0	0.04170221
92	0x3eb33572	0.35001713
93	0x3e9a126b	0.30092177
94	0xbd260cb6	-0.040539466
95	0xbe401cf2	-0.18761042
96	0x3de620b8	0.11236709
97	0x3d19d8f6	0.037560426
98	0xbc7d1fc8	-0.015449472
99	0x3b996a05	0.004681828

module.2.weight f4 [1, 100]
0	0xbc594e38	-0.013263278
1	0x3d0e0820	0.034675717
2	0x3e4e16bf	0.20125864
3	0xbc7ac0a8	-0.015304722
4	0x3d37d70d	0.044882823
5	0x3d0f65d1	0.03500921
6	0xbe0e37be	-0.13888451
7	0xbe13c981	-0.14432336
8	0xbe07043c	-0.13185209
9	0x3dc954ed	0.098306514
10	0x3da135a9	0.07871563
11	0x3d48e8a0	0.049049973
12	0x3cd5dd19	0.026106404
13	0x3caa8774	0.020816542
14	0x3d877f9a	0.06616135
15	0x3daab282	0.08334829
16	0x3df1ba10	0.11803067
17	0xbd6dc656	-0.058050476
18	0xbe57a5a5	-0.21059282
19	0x3daab223	0.08334758
20	0xbd13217a	-0.035920598
21	0x3d3db5b2	0.046315856
22	0x3da05bbc	0.07829997
23	0x3d3fbea9	0.046812687
24	0xbd95ec71	-0.07320488
25	0x3dd8384d	0.105576135
26	0x3d9218cf	0.07133638
27	0xbd880586	-0.066416785
28	0xbdc6316a	-0.09677394
29	0xbe033112	-0.12811688
30	0x3cdb64f0	0.02678153
31	0xbcfa65aa	-0.030566055
32	0x3d981e11	0.0742761
33	0x3da00403	0.07813265
34	0x3cc4bd8b	0.024016162
35	0x3cd30b95	0.025762359
36	0xbd979c95	-0.074029125
37	0xbe4686f2	-0.19387415
38	0x3dbb465e	0.09144281
39	0xbd2ed17c	-0.04268025
40	0x3d05d71c	0.032675847
41	0x3e14be67	0.14525758
42	0x3dbb5e5b	0.09148856
43	0x3ce9e9ac	0.028553806
44	0x3d65941e	0.05604946
45	0xbcaf8f8b	-0.021430751
46	0xbd94c969	-0.072649784
47	0x3d9662bb	0.0734305
48	0x3c9a49d9	0.018834041
49	0xbbfbe528	-0.0076872297
50	0x3cfe3b23	0.031034058
51	0x3c93aa38	0.018025503
52	0xbd657e72	-0.05602879
53	0x3daa3064	0.08310011
54	0xbd2fef29	-0.04295269
55	0xbd59a9f9	-0.053140614
56	0x3dbfcdd5	0.09365431
57	0x3cd7ffcd	0.026367093
58	0xbdb75332	-0.08951415
59	0x3cd05ba5	0.025434325
60	0xbc5dd229	-0.013538876
61	0x3d8124c0	0.06305838
62	0x3d2dc02f	0.04241961
63	0x3da1dbfe	0.07903288
64	0x3d3eaf57	0.046553936
65	0x3d92692a	0.07148965
66	0x3d02f550	0.03197223
67	0x3dd082a1	0.101811655
68	0x3dc3a599	0.095530696
69	0x3d68a385	0.05679657
70	0x3d896024	0.067077905
71	0x3d9a0994	0.07521358
72	0x3c9ed2e8	0.019387677
73	0x3c9ba4fb	0.018999567
74	0x3d972d27	0.07381659
75	0xbd680046	-0.056640886
76	0xbe2dea73	-0.16983967
77	0x3d735c41	0.059414152
78	0x3d0d24ac	0.0344588
79	0xbd824722	-0.06361224
80	0xbdedcef8	-0.11611742
81	0x3d8b5e87	0.06805139
82	0x3d2db6f3	0.042410802
83	0x3d0f3a8d	0.034967948
84	0x3d1630ff	0.03666782
85	0xbce0423f	-0.027375339
86	0x3d2eb0cc	0.042649075
87	0xbe009955	-0.12558492
88	0x3e02824a	0.12745014
89	0xbc2e138d	-0.010624778
90	0xbda0c087	-0.07849222
91	0xbda87d70	-0.0822705
92	0x3d86b700	0.06577873
93	0x3da9987b	0.082810365
94	0xbc6af108	-0.014339693
95	0xbdaba3ad	-0.08380828
96	0x3e09ddb6	0.13463482
97	0xbcd0f5ac	-0.02550777
98	0x3d7097d0	0.05873853
99	0x3dad1694	0.08451572

exp_avg f4 [100, 12]
0	0xb8c37d0b	-9.321616e-05
1	0xb7b23e3e	-2.1248237e-05
2	0x3718b0f6	9.101108e-06
3	0xb81dd5b8	-3.7630758e-05
4	0x36886e1b	4.065934e-06
5	0xb7489ead	-1.19578735e-05
6	0xb817a931	-3.6158777e-05
7	0xb87637d7	-5.8702975e-05
8	0x3799cbb2	1.8333874e-05
9	0xb7961700	-1.7892104e-05
10	0x380d4d68	3.368911e-05
11	0xb7e6c3a8	-2.7509246e-05
12	0xb9a69b64	-0.00031777762
13	0xb9229cd0	-0.00015507941
14	0xb88a7a25	-6.603104e-05
15	0x3a502e61	0.00079414813
16	0xb9420b6e	-0.0001850554
17	0x393c89a4	0.00017980352
18	0xb91371f0	-0.00014061457
19	0xb9329bfd	-0.00017033513
20	0x38ce7fbc	9.846638e-05
21	0x3a44fd63	0.0007514564
22	0x381f82d9	3.8030415e-05
23	0x392428e6	0.00015655495
24	0x3af94416	0.0019017484
25	0x3aad3c9b	0.0013216914
26	0x38d2542a	0.00010029257
27	0x39aa082f	0.00032431024
28	0x3a933d94	0.0011233562
29	0xba78b6ad	-0.000948767
30	0xb82ad674	-4.0730883e-05
31	0x3ad7a7e1	0.001645323
32	0xb9e1b900	-0.0004305318
33	0x39324dd3	0.00017004395
34	0x393d58b4	0.00018057489
35	0xb9397897	-0.00017687898
36	0x00000000	0.0
37	0x00000000	0.0
38	0x00000000	0.0
39	0x00000000	0.0
40	0x00000000	0.0
41	0x00000000	0.0
42	0x00000000	0.0
43	0x00000000	0.0
44	0x00000000	0.0
45	0x00000000	0.0
46	0x00000000	0.0
47	0x00000000	0.0
48	0x00000004	6e-45
49	0x00000004	6e-45
50	0x00000004	6e-45
51	0x00000004	6e-45
52	0x00000004	6e-45
53	0x00000004	6e-45
54	0x00000004	6e-45
55	0x00000004	6e-45
56	0x00000004	6e-45
57	0x00000004	6e-45
58	0x00000004	6e-45
59	0x00000004	6e-45
60	0xba298617	-0.00064668193
61	0xb8619366	-5.3781456e-05
62	0xb85ddc38	-5.28956e-05
63	0x3a2db86c	0.0006626907
64	0xba045606	-0.0005048219
65	0xb90d4d68	-0.00013475644
66	0xb9f11afa	-0.000459872
67	0xb9ba005a	-0.00035476947
68	0x38dfa48b	0.00010664117
69	0x3a3233a5	0.0006797857
70	0xb8bbe9b1	-8.960383e-05
71	0xb92a2247	-0.00016225233
72	0x3a03699a	0.0005012989
73	0x3b289b4c	0.002572733
74	0x3ad45470	0.0016199481
75	0xba7e14d3	-0.0009692434
76	0x3b3ecf22	0.002911516
77	0x3ac54b26	0.0015052303
78	0x3b0043a5	0.001957157
79	0x3aa49906	0.0012557812
80	0x3a89cf23	0.0010514002
81	0xba098bee	-0.00052469864
82	0x3b04cd77	0.0020264068
83	0x3aba3c23	0.0014208596
84	0xb98d7520	-0.0002698088
85	0xb93e3e43	-0.00018143006
86	0xb7f9c816	-2.9776285e-05
87	0xb9002607	-0.00012221198
88	0x39fde85c	0.00048429042
89	0x38d9b569	0.000103811566
90	0xb8ae8719	-8.3221305e-05
91	0xb98fc190	-0.000274193
92	0x38e11522	0.00010732772
93	0xb8aa7899	-8.128695e-05
94	0x39d873bd	0.00041284962
95	0xb8e45e64	-0.00010889469
96	0x38ac8292	8.22592e-05
97	0x3b166b01	0.0022951963
98	0xba24bfb9	-0.00062846724
99	0xbb7aaea7	-0.0038251074
100	0xb9c04354	-0.00036671257
101	0xb9be62c7	-0.0003631322
102	0xbaa3f5d1	-0.0012509172
103	0x3a619e5a	0.0008606665
104	0xba4f64ea	-0.00079114607
105	0xbb3cf64f	-0.0028833335
106	0xb9eeb2c5	-0.0004552809
107	0xba13bed5	-0.0005636041
108	0xbb2a4946	-0.0025983616
109	0xbad82384	-0.0016490077
110	0xb962e0b3	-0.00021636747
111	0x3b0128da	0.0019708187
112	0xba52c5fe	-0.00080403674
113	0xb8563878	-5.1074167e-05
114	0xba9109ef	-0.0011065583
115	0xbb02f1b5	-0.0019980494
116	0x3a121f74	0.0005574145
117	0x3b0ca30b	0.0021459486
118	0x39b317c0	0.00034159236
119	0xb9573592	-0.00020523954
120	0xbaa043e6	-0.0012227267
121	0xba810f6d	-0.0009846516
122	0xb9e1ed60	-0.00043092202
123	0x3af1fd05	0.0018462247
124	0xba1db72f	-0.0006016371
125	0xb87d8ea4	-6.0452745e-05
126	0xba571abb	-0.0008205582
127	0xba744287	-0.00093177747
128	0x38e215ef	0.00010780605
129	0x3ae26fe1	0.0017275774
130	0x37660450	1.3710072e-05
131	0xb907e4bd	-0.00012959815
132	0xba3cd3fd	-0.00072032196
133	0xba1175f5	-0.0005548888
134	0xb9653f36	-0.0002186269
135	0x3a9d010c	0.0011978461
136	0xb9b82247	-0.00035120753
137	0xb81dff36	-3.76694e-05
138	0xb9f6449b	-0.0004697189
139	0xba0bcf18	-0.00053332886
140	0x38b7f737	8.772167e-05
141	0x3a9034e1	0.0011002087
142	0x379727e7	1.8019184e-05
143	0xb87b7c77	-5.995898e-05
144	0x00000004	6e-45
145	0x00000004	6e-45
146	0x00000004	6e-45
147	0x00000004	6e-45
148	0x00000004	6e-45
149	0x00000004	6e-45
150	0x00000004	6e-45
151	0x00000004	6e-45
152	0x00000004	6e-45
153	0x00000004	6e-45
154	0x00000004	6e-45
155	0x00000004	6e-45
156	0x00000000	0.0
157	0x00000000	0.0
158	0x00000000	0.0
159	0x00000000	0.0
160	0x00000000	0.0
161	0x00000000	0.0
162	0x00000000	0.0
163	0x00000000	0.0
164	0x00000000	0.0
165	0x00000000	0.0
166	0x00000000	0.0
167	0x00000000	0.0
168	0xbb22e17e	-0.0024853642
169	0xba499d43	-0.00076909753
170	0xbaaf298f	-0.0013363826
171	0xb938fd8b	-0.0001764206
172	0xbad9cd6d	-0.0016617008
173	0xba868b14	-0.0010264837
174	0xbb32719c	-0.002722836
175	0xbae7951f	-0.0017668343
176	0xba178601	-0.0005780161
177	0x39a3ea36	0.00031264283
178	0xba1485f8	-0.0005665715
179	0xbab78d73	-0.0014003947
180	0xba9f7305	-0.0012165016
181	0xba772cb5	-0.0009428964
182	0xb9c1a659	-0.00036935767
183	0x3b066008	0.0020504016
184	0xba1a7a17	-0.00058928266
185	0xb84d39c4	-4.8929607e-05
186	0xba4f448e	-0.0007906639
187	0xba6c4243	-0.00090125593
188	0x391d3a42	0.0001499439
189	0x3af60610	0.0018770117
190	0x380d0514	3.362175e-05
191	0xb8bdfbb5	-9.0591064e-05
192	0xbae3311f	-0.0017333365
193	0xbaaf0381	-0.0013352485
194	0xba09e94d	-0.00052609
195	0x3b3ce6f6	0.0028824187
196	0xba5d8b49	-0.0008451236
197	0xb8be198d	-9.064665e-05
198	0xba94269f	-0.0011303014
199	0xbaa836b2	-0.0012833683
200	0x395d5753	0.00021108733
201	0x3b2d8130	0.0026474707
202	0x3835ddec	4.3360444e-05
203	0xb9174a44	-0.00014428148
204	0x399d6dec	0.00030027272
205	0x3a168d07	0.00057430606
206	0xb8bf01d2	-9.107929e-05
207	0xba31d2ec	-0.0006783444
208	0x371d56b8	9.37812e-06
209	0x3a11cec0	0.0005562119
210	0xb97c5984	-0.0002406594
211	0x39130ead	0.0001402448
212	0xb98108d6	-0.0002461138
213	0xb9f1bd23	-0.0004610802
214	0xb8ef09eb	-0.000113982554
215	0x39d092ef	0.00039782326
216	0x3b3d573d	0.002889111
217	0x3bb53021	0.005529419
218	0x3b985c03	0.0046496405
219	0x3afdaf9d	0.0019354705
220	0x3b21a1e0	0.0024663135
221	0x3b6f6831	0.0036530609
222	0x3bfa7f57	0.0076445746
223	0x3b8d8b92	0.0043196166
224	0x3b62a071	0.0034580494
225	0x3a9d5b71	0.0012005401
226	0x3ae6c9e7	0.0017607779
227	0x3b735386	0.0037128641
228	0xbac23a36	-0.0014818374
229	0xba20d614	-0.0006135416
230	0xb99ff4f4	-0.00030509348
231	0x3ad93716	0.0016572203
232	0xba10fbc4	-0.000553068
233	0xb98201bb	-0.00024796822
234	0xba871571	-0.0010306073
235	0xba7c696f	-0.0009628748
236	0x393d3813	0.00018045334
237	0x3adc713e	0.0016818417
238	0x3874bb7e	5.834875e-05
239	0xb9a17128	-0.0003079262
240	0x3a011238	0.0004923674
241	0x39d7b2f6	0.00041141332
242	0x390c6783	0.00013390002
243	0xba641bc8	-0.00087016495
244	0x39867cd3	0.00025651473
245	0xb8407c31	-4.589203e-05
246	0x39844285	0.00025226563
247	0x39bac37b	0.0003562233
248	0xb8b48fcd	-8.609854e-05
249	0xba51fb09	-0.00080101244
250	0xb7b01eab	-2.0995116e-05
251	0xb8069d57	-3.2094624e-05
252	0x3a1b892c	0.0005933221
253	0x39bb61a2	0.00035740162
254	0x399c4a88	0.0002981017
255	0x3ab8c13c	0.0014095674

exp_avg_sq f4 [100, 12]
0	0x349942ef	2.854717e-07
1	0x34304121	1.6414971e-07
2	0x3481c454	2.417097e-07
3	0x3466f67c	2.151009e-07
4	0x358429b7	9.846907e-07
5	0x358e7584	1.0614026e-06
6	0x35c130fe	1.4393879e-06
7	0x3493fd8c	2.7565363e-07
8	0x3481f319	2.4205e-07
9	0x3425bdcf	1.5435874e-07
10	0x3535616e	6.7569533e-07
11	0x359400e7	1.1027122e-06
12	0x37b48771	2.1520742e-05
13	0x37e6ffc0	2.753723e-05
14	0x37e33ae6	2.7087935e-05
15	0x37d11bda	2.4927711e-05
16	0x37e5b8fb	2.7385066e-05
17	0x37e39eaa	2.7134392e-05
18	0x389c1ca6	7.443996e-05
19	0x37f3ccdc	2.9063252e-05
20	0x379877d2	1.8175608e-05
21	0x377bfadb	1.5019173e-05
22	0x379bb7a9	1.8562963e-05
23	0x380f6b23	3.4193636e-05
24	0x394a231a	0.00019277298
25	0x383f8291	4.5659548e-05
26	0x383cb779	4.4993565e-05
27	0x376ab7a3	1.3990243e-05
28	0x3935a3fa	0.00017322591
29	0x3996e905	0.00028783843
30	0x3a05ff8f	0.00051116286
31	0x39103b0a	0.00013754904
32	0x38325d1d	4.2525226e-05
33	0x36bc985d	5.620574e-06
34	0x38e49777	0.000109001
35	0x39ae2060	0.00033211987
36	0x00000000	0.0
37	0x00000000	0.0
38	0x00000000	0.0
39	0x00000000	0.0
40	0x00000000	0.0
41	0x00000000	0.0
42	0x00000000	0.0
43	0x00000000	0.0
44	0x00000000	0.0
45	0x00000000	0.0
46	0x00000000	0.0
47	0x00000000	0.0
48	0x0052c1c5	7.600022e-39
49	0x00f72a85	2.269862e-38
50	0x00afdbbc	1.6150038e-38
51	0x0092426e	1.3431813e-38
52	0x00ec5a80	2.1705642e-38
53	0x004b7e9f	6.933085e-39
54	0x01139db2	2.7112777e-38
55	0x00ad4384	1.5911761e-38
56	0x0077547e	1.0958734e-38
57	0x0064f859	9.27264e-39
58	0x009fa543	1.4661129e-38
59	0x00678757	9.507607e-39
60	0x37813e2c	1.540695e-05
61	0x37ea0139	2.7895543e-05
62	0x37e05115	2.6740638e-05
63	0x37cb0b9e	2.4204895e-05
64	0x37eac5c0	2.7987058e-05
65	0x37c59035	2.3551382e-05
66	0x388e8bf4	6.797156e-05
67	0x37da445a	2.6019454e-05
68	0x3799cf81	1.8335648e-05
69	0x377c21bf	1.5028228e-05
70	0x379eaa29	1.8914305e-05
71	0x37f8cc97	2.9659173e-05
72	0x398184b2	0.00024703663
73	0x38fede8a	0.00012153115
74	0x39161653	0.00014313431
75	0x38b15f40	8.4577594e-05
76	0x397cfdc6	0.00024127131
77	0x399aed83	0.0002955013
78	0x3a2652c3	0.000634473
79	0x396553da	0.00021870379
80	0x38c23013	9.2595954e-05
81	0x3827f9d1	4.0048562e-05
82	0x390f350c	0.00013657304
83	0x39c07241	0.0003670622
84	0x379237ee	1.74306e-05
85	0x35a2eb95	1.2138504e-06
86	0x370e700b	8.489947e-06
87	0x3579cd97	9.30589e-07
88	0x36bb0713	5.573858e-06
89	0x341246aa	1.3623017e-07
90	0x3818bf79	3.6417947e-05
91	0x3727fbc4	1.0012594e-05
92	0x36c01989	5.7250186e-06
93	0x34f232ff	4.5113117e-07
94	0x36903186	4.2972997e-06
95	0x36aa682d	5.0785225e-06
96	0x3943517c	0.00018627004
97	0x39105582	0.00013764764
98	0x3913b4cf	0.00014086369
99	0x391e112c	0.00015074451
100	0x37de6622	2.6512022e-05
101	0x3938397a	0.00017569019
102	0x39d98e0b	0.00041495296
103	0x3945b0fe	0.00018853319
104	0x389ce43b	7.481171e-05
105	0x38a9d789	8.0986945e-05
106	0x3783a757	1.569434e-05
107	0x396e05ae	0.00022699565
108	0x38f657ee	0.00011746572
109	0x3962dd0f	0.0002163539
110	0x3954a6b3	0.00020279996
111	0x393fe1f4	0.00018299354
112	0x393b8331	0.00017882582
113	0x390ce8d9	0.00013438183
114	0x39f4ca1c	0.0004668989
115	0x394f5b09	0.00019774972
116	0x390d079b	0.00013449641
117	0x38f029ec	0.000114519
118	0x38fe1055	0.00012114706
119	0x393e1dad	0.00018130867
120	0x39026950	0.00012436998
121	0x391cc9a0	0.0001495243
122	0x39160a1c	0.00014308881
123	0x39059337	0.0001273871
124	0x391ee7cb	0.00015154404
125	0x39175498	0.00014431996
126	0x39d0703a	0.00039756467
127	0x39290da4	0.00016122177
128	0x38c5e3c3	9.436116e-05
129	0x38a23a2a	7.735596e-05
130	0x38cbf703	9.725804e-05
131	0x39420aa6	0.00018505249
132	0x384fac87	4.9513324e-05
133	0x38750efa	5.84265e-05
134	0x386b101d	5.6043373e-05
135	0x38521ca3	5.009457e-05
136	0x3878316a	5.9173828e-05
137	0x386b09e5	5.603758e-05
138	0x39226b7f	0.0001548957
139	0x3884d29f	6.333482e-05
140	0x38198ed5	3.6611065e-05
141	0x37fcb247	3.0123758e-05
142	0x381e63ac	3.7762962e-05
143	0x3896f08f	7.197365e-05
144	0x01780d9d	4.5560173e-38
145	0x01594901	3.9908983e-38
146	0x00f148d0	2.2158475e-38
147	0x0014eed9	1.922392e-39
148	0x00024220	2.07392e-40
149	0x00359af3	4.922867e-39
150	0x018d9b43	5.201801e-38
151	0x01724f48	4.4505262e-38
152	0x0037ce54	5.124969e-39
153	0x00058ed9	5.10422e-40
154	0x00017e16	1.37067e-40
155	0x00c4e065	1.8080255e-38
156	0x00000000	0.0
157	0x00000000	0.0
158	0x00000000	0.0
159	0x00000000	0.0
160	0x00000000	0.0
161	0x00000000	0.0
162	0x00000000	0.0
163	0x00000000	0.0
164	0x00000000	0.0
165	0x00000000	0.0
166	0x00000000	0.0
167	0x00000000	0.0
168	0x3829a569	4.044679e-05
169	0x38c880c1	9.5607254e-05
170	0x38a9c404	8.095059e-05
171	0x3884ee3f	6.338627e-05
172	0x38cc57bf	9.743822e-05
173	0x38a7ecc9	8.007285e-05
174	0x395fcc66	0.00021343082
175	0x38a9e458	8.10108e-05
176	0x387d948f	6.0458256e-05
177	0x383cf04b	4.5046483e-05
178	0x388b6c2a	6.6481836e-05
179	0x38c8e207	9.578844e-05
180	0x39149db4	0.00014173129
181	0x3930e65f	0.00016870488
182	0x3929881a	0.00016167798
183	0x39177f58	0.00014447921
184	0x39326dc7	0.00017016298
185	0x39293155	0.00016135474
186	0x39e9b2d7	0.0004457447
187	0x393f2c05	0.00018231578
188	0x38dd9c6c	0.00010567237
189	0x38b64782	8.691756e-05
190	0x38e47604	0.00010893869
191	0x39593a33	0.00020716414
192	0x399650f9	0.0002867056
193	0x39b1608b	0.00033832
194	0x39aa2414	0.00032451807
195	0x399814b9	0.0002900714
196	0x39b3a53e	0.00034264656
197	0x39aa1fc6	0.000324486
198	0x3a6b20e0	0.00089694373
199	0x39c046b4	0.00036673772
200	0x395e4af1	0.00021199488
201	0x3936e763	0.00017443071
202	0x3965499e	0.00021866566
203	0x39da809d	0.00041676025
204	0x387944bb	5.9430236e-05
205	0x380d7ee8	3.373521e-05
206	0x37f8951c	2.9633338e-05
207	0x37cd8961	2.4501876e-05
208	0x37b7e3b6	2.1921336e-05
209	0x380bbf68	3.3318443e-05
210	0x38b8580a	8.790202e-05
211	0x385e137b	5.2947067e-05
212	0x37169fd3	8.977909e-06
213	0x37041c10	7.874347e-06
214	0x369c0df7	4.650788e-06
215	0x384edaf5	4.9318147e-05
216	0x3a32c620	0.0006819684
217	0x3a6037f3	0.0008553259
218	0x3a637255	0.00086763996
219	0x3a3e63a9	0.00072627753
220	0x3a8f0869	0.0010912541
221	0x3a643d6f	0.0008706664
222	0x3b1f3cba	0.002429767
223	0x3a6f1caf	0.00091214007
224	0x3a1cf379	0.0005987208
225	0x39ef24d0	0.0004561306
226	0x3a353c4c	0.0006913587
227	0x3a90961f	0.0011031068
228	0x38d2a659	0.00010044565
229	0x392bd044	0.00016385416
230	0x391ac006	0.00014758119
231	0x3901e015	0.00012385876
232	0x391c2377	0.00014890531
233	0x391cec57	0.00014965363
234	0x39d3f911	0.00040430625
235	0x3925452e	0.00015761398
236	0x38d898e0	0.00010328158
237	0x38ab9979	8.182502e-05
238	0x38dd86a5	0.00010563181
239	0x39415773	0.00018438492
240	0x37dbb186	2.61895e-05
241	0x380363b5	3.1325693e-05
242	0x37fbd164	3.0019037e-05
243	0x37e161f9	2.6867712e-05
244	0x38051512	3.1729294e-05
245	0x37fc151d	3.0050573e-05
246	0x38ad5c63	8.266491e-05
247	0x380d935a	3.375425e-05
248	0x37a4c7e0	1.9643398e-05
249	0x37878a3d	1.6157626e-05
250	0x37a9f510	2.0260486e-05
251	0x38215e96	3.847348e-05
252	0x36daee8e	6.5246777e-06
253	0x36907ccd	4.306063e-06
254	0x36d22454	6.262717e-06
255	0x36f79377	7.378341e-06

exp_avg f4 [100]
0	0xb817a931	-3.6158777e-05
1	0xb91371f0	-0.00014061457
2	0xb82ad674	-4.0730883e-05
3	0x00000000	0.0
4	0x00000004	6e-45
5	0xb9f11afa	-0.000459872
6	0x3b0043a5	0.001957157
7	0xb8ae8719	-8.3221305e-05
8	0xbaa3f5d1	-0.0012509172
9	0xba9109ef	-0.0011065583
10	0xba571abb	-0.0008205582
11	0xb9f6449b	-0.0004697189
12	0x00000004	6e-45
13	0x00000000	0.0
14	0xbb32719c	-0.002722836
15	0xba4f448e	-0.0007906639
16	0xba94269f	-0.0011303014
17	0xb97c5984	-0.0002406594
18	0x3bfa7f57	0.0076445746
19	0xba871571	-0.0010306073
20	0x39844285	0.00025226563
21	0x3a118fa2	0.0005552714
22	0x00000004	6e-45
23	0x39617285	0.00021500334
24	0xba8e1dbb	-0.0010842601
25	0xba1d9e2e	-0.00060126453
26	0xba3314da	-0.0006831415
27	0xb9d38a07	-0.00040347895
28	0xbaff8c2d	-0.0019496732
29	0x3b8b6458	0.0042539053
30	0xb98676a4	-0.00025646866
31	0x3ad52eec	0.0016264594
32	0xba1ef93c	-0.00060643605
33	0x00000004	6e-45
34	0xb995174b	-0.0002843685
35	0x00000004	6e-45
36	0x3a7eb383	0.00097160804
37	0xb9a96b53	-0.00032314155
38	0xba658e5f	-0.00087568717
39	0x3a112f21	0.0005538334
40	0xb9b9adc6	-0.0003541542
41	0x3a206bac	0.000611956
42	0x00000000	0.0
43	0xba47447f	-0.0007601454
44	0x00000004	6e-45
45	0x3974ec75	0.0002335774
46	0x3a3660eb	0.0006957191
47	0x00000004	6e-45
48	0x00000004	6e-45
49	0xb9318241	-0.00016928559
50	0xbab935c7	-0.0014130407
51	0x00000000	0.0
52	0xba19d05e	-0.0005867536
53	0x00000004	6e-45
54	0xb90fcb5f	-0.00013713304
55	0x399a1a9c	0.00029392994
56	0xba01cad9	-0.0004951186
57	0xba598dd1	-0.00082990254
58	0x00000000	0.0
59	0xb90d9272	-0.00013501363
60	0x3907f391	0.00012965339
61	0x380de0dd	3.382644e-05
62	0xb83db0de	-4.5225832e-05
63	0xba9cf651	-0.0011975263
64	0x3a81ba14	0.0009897375
65	0xba337758	-0.0006846092
66	0xba4b1024	-0.00077462406
67	0xbb7febf8	-0.003905056
68	0xba6fd17a	-0.0009148341
69	0xb9f2b367	-0.00046291502
70	0xb74e910c	-1.2312328e-05
71	0xba3cd090	-0.0007202709
72	0x00000000	0.0
73	0xb983d791	-0.00025146877
74	0xbad297f5	-0.0016067015
75	0x3a996f90	0.0011706222
76	0x3af34d6b	0.0018562501
77	0xba556350	-0.0008140104
78	0xba68c60b	-0.00088796084
79	0x3a876ab7	0.0010331486
80	0xbab788ee	-0.00140026
81	0x00000000	0.0
82	0xb9d5a693	-0.00040750633
83	0xbaa60133	-0.0012665152
84	0xb9b819a1	-0.0003511431
85	0xb78a9a70	-1.6522798e-05
86	0x35c6a23a	1.4799364e-06
87	0x3a34d8af	0.00068987434
88	0x3b4d9d42	0.003137425
89	0x393e75bc	0.00018163671
90	0x3a0fb69a	0.0005482227
91	0x00000000	0.0
92	0xbaecbf19	-0.0018062323
93	0xb9baec6e	-0.00035652838
94	0x37b171f3	2.1153106e-05
95	0xba01757f	-0.0004938468
96	0x3aee985c	0.0018203366
97	0x398dc2d8	0.00027038786
98	0xba8936ca	-0.0010468599
99	0xbad5b02a	-0.0016303111

exp_avg_sq f4 [100]
0	0x35c130fe	1.4393879e-06
1	0x389c1ca6	7.443996e-05
2	0x3a05ff8f	0.00051116286
3	0x00000000	0.0
4	0x01139db2	2.7112777e-38
5	0x388e8bf4	6.797156e-05
6	0x3a2652c3	0.000634473
7	0x3818bf79	3.6417947e-05
8	0x39d98e0b	0.00041495296
9	0x39f4ca1c	0.0004668989
10	0x39d0703a	0.00039756467
11	0x39226b7f	0.0001548957
12	0x018d9b43	5.201801e-38
13	0x00000000	0.0
14	0x395fcc66	0.00021343082
15	0x39e9b2d7	0.0004457447
16	0x3a6b20e0	0.00089694373
17	0x38b8580a	8.790202e-05
18	0x3b1f3cba	0.002429767
19	0x39d3f911	0.00040430625
20	0x38ad5c63	8.266491e-05
21	0x3811b14e	3.4735822e-05
22	0x02a71962	2.4553014e-37
23	0x38e2c2e1	0.00010812819
24	0x399e6761	0.00030213132
25	0x3a39922e	0.00070789724
26	0x39abc63a	0.00032763352
27	0x394af138	0.00019354082
28	0x3970bf9d	0.00022959565
29	0x3a2ff300	0.000671193
30	0x3841aff8	4.617867e-05
31	0x382efbd3	4.1719362e-05
32	0x39b657db	0.00034779203
33	0x020edb9f	1.049554e-37
34	0x375b9fc9	1.309062e-05
35	0x024f8262	1.5245376e-37
36	0x399dda9d	0.00030108253
37	0x389b4ab8	7.4048934e-05
38	0x3a0d2061	0.0005383548
39	0x380f4462	3.4157543e-05
40	0x37b9578a	2.2094482e-05
41	0x3783bcf6	1.5704409e-05
42	0x00000000	0.0
43	0x3831ac99	4.2360833e-05
44	0x00bbf612	1.7261511e-38
45	0x37f6dac5	2.9427358e-05
46	0x39b22892	0.00033981033
47	0x000fc374	1.447648e-39
48	0x004faedd	7.317733e-39
49	0x36113487	2.1637259e-06
50	0x3816c2ed	3.5944326e-05
51	0x00000000	0.0
52	0x3926b333	0.0001589775
53	0x02a55600	2.4293933e-37
54	0x37cc8ec8	2.4385183e-05
55	0x391609e7	0.00014308804
56	0x3a126199	0.0005584001
57	0x38091b39	3.26887e-05
58	0x00000000	0.0
59	0x37d62f03	2.553268e-05
60	0x3745fe70	1.1801356e-05
61	0x394f85e0	0.0001979093
62	0x38ae725a	8.318266e-05
63	0x39d20f37	0.00040065657
64	0x36d12dbe	6.2340105e-06
65	0x39ac8360	0.00032904278
66	0x37ed125f	2.8261156e-05
67	0x3a19ed44	0.0005871842
68	0x3a1a06d6	0.00058756524
69	0x3956f9f5	0.00020501747
70	0x35c1c4b8	1.4436873e-06
71	0x39bef460	0.00036421698
72	0x00000000	0.0
73	0x37bd7b7c	2.2588058e-05
74	0x39aed73d	0.0003334823
75	0x3938c768	0.00017621892
76	0x393bb062	0.00017899417
77	0x394fe6d1	0.00019827044
78	0x38527bc0	5.0183153e-05
79	0x39226442	0.00015486873
80	0x390b9e69	0.00013315085
81	0x00000000	0.0
82	0x38f251db	0.00011554706
83	0x38884e20	6.499537e-05
84	0x38b588f7	8.656264e-05
85	0x35b026e5	1.3124342e-06
86	0x3445eff0	1.8434343e-07
87	0x3a3dfdcb	0.0007247596
88	0x3a262623	0.000633808
89	0x36cfb976	6.1906712e-06
90	0x398cccc7	0.00026855452
91	0x00000000	0.0
92	0x3976fb24	0.00023553945
93	0x39d71df4	0.00041030312
94	0x3737477b	1.0924293e-05
95	0x39b994a1	0.00035396687
96	0x3a8e3d23	0.001085196
97	0x37a8fc97	2.0144782e-05
98	0x3718e86d	9.114022e-06
99	0x38d74d22	0.00010266366

exp_avg f4 [1, 100]
0	0xbb0e298b	-0.0021692242
1	0x3c06105c	0.008182611
2	0xbb86cff7	-0.004114147
3	0x00000000	0.0
4	0x00000004	6e-45
5	0x3ba4a87d	0.005024968
6	0xbabc2ba4	-0.0014356268
7	0x396c198b	0.0002251623
8	0x3ae5280a	0.0017483246
9	0x3b9011f5	0.004396672
10	0x39914725	0.00027709562
11	0xba84a69f	-0.0010120458
12	0x00000004	6e-45
13	0x00000000	0.0
14	0x3b26fa4b	0.0025478776
15	0xbab5d657	-0.0013873082
16	0xbbeb31ad	-0.0071775527
17	0xbb6c7db9	-0.0036085679
18	0xbae7b533	-0.0017677903
19	0x398dff04	0.00027083617
20	0x3b868f0e	0.004106409
21	0xbaedb8bb	-0.0018136719
22	0x00000004	6e-45
23	0x3b00060b	0.0019534852
24	0xb8683950	-5.5366487e-05
25	0xbbecf65b	-0.0072315163
26	0x3b7fbc8a	0.003902229
27	0x3b4fc3c6	0.0031702383
28	0x3bd5712d	0.0065137357
29	0xbb9825f8	-0.004643198
30	0xba115d35	-0.00055452
31	0xbad46f22	-0.0016207437
32	0x3c0f011e	0.008728294
33	0x00000004	6e-45
34	0x3a9392df	0.0011258981
35	0x00000004	6e-45
36	0x3a1b9302	0.00059346866
37	0x39234c6b	0.00015573359
38	0xba7a80a6	-0.0009555913
39	0xbb1f5d86	-0.002431722
40	0xbb517cda	-0.0031965286
41	0xb90f8bcf	-0.00013689625
42	0x00000000	0.0
43	0x3b718cbe	0.003685757
44	0x00000004	6e-45
45	0x3b2af28e	0.0026084515
46	0xbc585548	-0.013203926
47	0x00000004	6e-45
48	0x00000004	6e-45
49	0x3c289a17	0.010290644
50	0xbaa93889	-0.0012910526
51	0x00000000	0.0
52	0xbbac541c	-0.00525905
53	0x00000004	6e-45
54	0x3a2ca473	0.0006585784
55	0x3bf7493e	0.007546573
56	0xbbc469df	-0.005994066
57	0xbbd916b6	-0.006625022
58	0x00000000	0.0
59	0xbb8d9cc6	-0.0043216674
60	0xbb6fd4e2	-0.0036595394
61	0x3c0acba4	0.008471403
62	0x3b6279c7	0.0034557448
63	0x3ae4f455	0.0017467836
64	0x3b3fcea3	0.0029267452
65	0xbb904257	-0.0044024396
66	0x3af927f2	0.0019009097
67	0xbbab202b	-0.0052223406
68	0xbab062b1	-0.0013457147
69	0x3b1c34cb	0.0023835178
70	0xb93c40b3	-0.0001795318
71	0xbc86cf47	-0.01645626
72	0x00000000	0.0
73	0x3bbb6d28	0.0057197995
74	0xbba1419f	-0.0049211527
75	0xbc4b0528	-0.012391366
76	0xb7b09105	-2.1048365e-05
77	0x3b343a26	0.002750048
78	0x39c02a3e	0.00036652567
79	0xbc1b7b1d	-0.009489802
80	0x3a8f3193	0.0010924808
81	0x00000000	0.0
82	0x3a6b36f5	0.0008972728
83	0xbc0106e1	-0.007875175
84	0xbb848900	-0.004044652
85	0x3a03b6a4	0.0005024469
86	0xb5b282ee	-1.3300139e-06
87	0xbac69037	-0.001514918
88	0xbb45caa5	-0.00301806
89	0xbba63466	-0.0050721643
90	0x3917d4ed	0.00014479803
91	0x00000000	0.0
92	0x3c06f5c1	0.008237303
93	0x3c3b1494	0.01141848
94	0xbbebe4c9	-0.007198904
95	0x3c47f27a	0.012203807
96	0x3b1c59b5	0.002385718
97	0xbb77870a	-0.0037769699
98	0xba42fc41	-0.00074381015
99	0xbb1389d4	-0.0022512572

exp_avg_sq f4 [1, 100]
0	0x3924e747	0.00015726416
1	0x3c1b63cb	0.009484242
2	0x39a6c51c	0.00031808845
3	0x00000000	0.0
4	0x00dfcf4c	2.055368e-38
5	0x3b7c9753	0.0038542345
6	0x3a4c33d8	0.0007789708
7	0x36efc644	7.145836e-06
8	0x3a01f569	0.00049575284
9	0x3b8105df	0.0039374675
10	0x3bca3386	0.006170693
11	0x3c6583b9	0.014008456
12	0x01a697a8	6.1196385e-38
13	0x00000000	0.0
14	0x3b9511b0	0.0045492277
15	0x3c14e4ff	0.0090878
16	0x3cd39744	0.025828965
17	0x3a6294cb	0.00086433877
18	0x3a1a0e26	0.0005876742
19	0x3b90ea0f	0.004422433
20	0x3c245389	0.010029682
21	0x3a223299	0.0006187349
22	0x00ef671e	2.1985675e-38
23	0x3b9adf77	0.004726346
24	0x3bab3860	0.0052252263
25	0x3c06c07e	0.008224605
26	0x3ccd5184	0.025063284
27	0x3b37a05f	0.0028019173
28	0x3a6c4974	0.0009013631
29	0x3b02b3ce	0.0019943598
30	0x3c331e26	0.010932481
31	0x3b1b3a12	0.0023685736
32	0x3c182d47	0.009288139
33	0x0109f5de	2.5339327e-38
34	0x38b85fde	8.7916604e-05
35	0x0399b10a	9.033178e-37
36	0x3ac4442a	0.0014973928
37	0x3687b73b	4.0446444e-06
38	0x3d2a94d2	0.041645832
39	0x3a0ffabf	0.0005492381
40	0x3a095f50	0.0005240338
41	0x361f1145	2.3702898e-06
42	0x00000000	0.0
43	0x3b9e0b47	0.0048231217
44	0x005babef	8.418708e-39
45	0x3ca1f8fe	0.019772049
46	0x3c81c138	0.015839204
47	0x0001fa9a	1.81734e-40
48	0x00fa125f	2.2965464e-38
49	0x3b023d00	0.0019872785
50	0x3a6e2275	0.0009084114
51	0x00000000	0.0
52	0x3b5cb963	0.0033679835
53	0x01b40842	6.6133407e-38
54	0x39c68f81	0.00037872422
55	0x3b75439b	0.003742433
56	0x3bdcabcf	0.0067343484
57	0x3b9a8f43	0.004716785
58	0x00000000	0.0
59	0x3a9e226c	0.0012064702
60	0x3c5cb40b	0.01347066
61	0x3c08df71	0.008354054
62	0x3b21fe63	0.0024718277
63	0x3bc93687	0.0061405334
64	0x37d3bc9a	2.5240985e-05
65	0x3b76d835	0.003766549
66	0x3a357553	0.0006922085
67	0x3b2fc330	0.0026819222
68	0x3b916d91	0.00443811
69	0x3c431ae6	0.011908269
70	0x34c241b8	3.6183133e-07
71	0x3cfeeffb	0.031120291
72	0x00000000	0.0
73	0x3c287077	0.01028072
74	0x3b3316d2	0.0027326834
75	0x3bb40935	0.0054942616
76	0x38ad5b7a	8.266322e-05
77	0x3b23b402	0.002497912
78	0x3b2f3913	0.00267369
79	0x3b32fbb2	0.0027310667
80	0x37ef54a2	2.853043e-05
81	0x00000000	0.0
82	0x3c066268	0.008202173
83	0x3b417a8f	0.0029522514
84	0x3d20aea9	0.03922907
85	0x361d7c65	2.346723e-06
86	0x332454a5	3.826121e-08
87	0x3a95567e	0.0011393575
88	0x3a34a431	0.00068909215
89	0x3b2dad7b	0.0026501107
90	0x3b12a59c	0.0022376543
91	0x00000000	0.0
92	0x3b39a045	0.0028324288
93	0x3c5d26d0	0.013498023
94	0x3b59bd17	0.0033224279
95	0x3c0db918	0.008650087
96	0x3b2a9998	0.002603149
97	0x3ac542d8	0.0015049828
98	0x36a85ec4	5.0178223e-06
99	0x39872c67	0.0002578229
