mnc_ml_test/output/best/20221126-2101-model-test6.pth (torch, 34645 bytes, 15 tensors)

module.0.weight f4 [90, 18]
000000 53 3d b2 25 b5 d3 93 2c 06 d1 2e b0 54 5d ab ad
       3.0919633e-16 4.2014955e-12 -6.359787e-10 -1.9481895e-11
000010 2e a4 00 b0 05 27 b8 aa 34 54 39 b5 7e 41 81 2d
       -4.679944e-10 -3.271204e-13 -6.90404e-07 1.4694686e-11
000020 87 d1 d2 ad 28 67 45 a9 1b bd 94 ad 88 c0 1f af
       -2.3967285e-11 -4.383226e-14 -1.6909632e-11 -1.4529367e-10
000030 50 86 7a 22 58 3f 41 b1 7b 77 4f a2 7e 4e d6 a5
       3.3952422e-18 -2.8121203e-09 -2.8116984e-18 -3.717627e-16
000040 95 00 03 a8 01 2a 8f b0 8c 3d 5a 81 32 af c9 b6
       -7.272087e-15 -1.0416558e-09 -4.0084434e-38 -6.010662e-06
000050 b7 61 65 b6 3f 32 86 b4 78 08 13 af 95 97 56 b4
       -3.4180537e-06 -2.4996004e-07 -1.3372581e-10 -1.9985448e-07
000060 bc 47 1a b9 eb 0e 17 b5 57 aa b9 b6 8e f2 a0 b3
       -0.00014713308 -5.627359e-07 -5.53326e-06 -7.494701e-08
000070 c9 34 11 b4 91 09 89 b5 e5 b0 22 80 8e 6e 6c b8
       -1.352338e-07 -1.021008e-06 -3.185865e-39 -5.6369747e-05
000080 4b a2 88 9e 44 e4 c6 ac 40 2c 4e 81 1c 21 5e b7
       -1.4466683e-20 -5.652841e-12 -3.7867972e-38 -1.323994e-05
000090 ff ba dd bd 88 30 b3 be 76 a3 45 3f 4d e3 df bd
       -0.10826682 -0.34997964 0.77202547 -0.10932026
0000a0 db e0 df bd e0 73 bb 3e 1d 19 b2 be 91 f5 a6 be
       -0.1093156 0.36611843 -0.34784785 -0.32609227
0000b0 1b f3 ea 3e 02 47 07 bf 34 09 b9 bd b6 1e 25 bc
       0.458886 -0.52842724 -0.090349585 -0.010078123
0000c0 bc 27 d7 3d 13 17 28 bf 22 44 86 3f 2b 79 37 ba
       0.105056256 -0.6566021 1.0489542 -0.00069989514
0000d0 08 54 bb 3d 73 b6 a1 3e 45 e0 1a bc a7 31 2b bf
       0.09146887 0.3158451 -0.009452884 -0.6687264
0000e0 a6 e1 68 3e 2d c5 95 be ee 2f 08 be 57 93 9f 3e
       0.22742328 -0.29251996 -0.13299534 0.311671
0000f0 84 5b 15 3e 8b ef e7 be 6e 5d c5 3e 3f a5 78 be
       0.14585692 -0.45299944 0.38547844 -0.24281786
000100 00 09 67 3e 52 4c 78 3e b5 2c 4a 3e fd 8f 44 be
       0.22562027 0.24247864 0.19743617 -0.19195552
000110 71 ce 3d 3e 85 2c 0e bd 85 87 f3 bd 86 3e 18 3e
       0.18535782 -0.034710426 -0.11891083 0.14867601
000120 4f 31 95 3e 86 ae 06 bd 06 04 05 3e 64 0b 83 bd
       0.29139182 -0.032881282 0.12989816 -0.06398657
000130 ed 5c 26 bf cd 07 dc bb 87 9d 0c 3e 67 c4 c3 3d
       -0.64985543 -0.006714797 0.13731967 0.09558945
000140 d1 06 1e 3e ff 07 c5 bd d8 fc 0c bf 8f 78 a3 3c
       0.15432288 -0.09620666 -0.5507331 0.019954948
000150 7e 48 cd 3d 34 e1 27 be 61 bf d9 bd 0d 3b aa bc
       0.100235924 -0.16394502 -0.10632206 -0.02078011
000160 ba 87 33 be 73 91 f0 3d dd 88 9f 3d 1e 49 bf 3d
       -0.17532244 0.11746492 0.077897765 0.09340118
000170 ea 24 7b be 2d 1e c9 3e b1 36 15 3c 73 a7 a5 bd
       -0.245258 0.39280835 0.009107278 -0.08088579
000180 cd 94 a9 3e 16 ea 2b 3e 9f dd 88 bd 9f 90 a8 3c
       0.33121338 0.16788515 -0.06682896 0.020576773
000190 50 22 12 3e a7 57 77 3e d5 04 94 be 2a d0 95 3e
       0.14270902 0.2415453 -0.28909937 0.2926038
0001a0 bd 38 2d be 54 cf 96 3e f7 74 30 bd b8 49 99 bd
       -0.16916175 0.29455054 -0.043080296 -0.07484764
0001b0 a5 94 65 01 ba 86 26 09 48 f9 21 38 e1 02 cb b7
       4.2167304e-38 2.0044871e-33 3.8617552e-05 -2.4200826e-05
0001c0 35 c4 65 05 e7 dc 30 80 51 a6 94 b9 99 0f c5 02
       1.0803566e-35 -4.487349e-39 -0.00028352675 2.89555e-37
0001d0 f8 85 15 38 dc 08 e5 b7 56 66 81 37 f6 53 05 09
       3.5649136e-05 -2.7303053e-05 1.5425652e-05 1.604877e-33
0001e0 aa b1 57 01 e3 8f 43 38 42 db d0 34 72 24 9b 37
       3.961673e-38 4.6625628e-05 3.890255e-07 1.8494411e-05
0001f0 be 50 61 00 25 31 32 38 08 3e 08 3e 4b db 06 3f
       8.937008e-39 4.2484276e-05 0.13304913 0.52678365
000200 87 08 ec 3d 31 eb 0f be bd 2f 25 bd fe fb af be
       0.11525064 -0.14054562 -0.04032873 -0.34371942
000210 7d 5d 2a 3e 84 18 b4 3e 19 d0 24 be 6d f2 7d be
       0.16637225 0.35174954 -0.16095008 -0.2479951
000220 2d e7 c5 3d df 9c 4b be 9d e2 41 be 2d ad e0 3e
       0.09663234 -0.1988406 -0.18934102 0.43882123
000230 4c e7 99 bd fb 87 04 be 22 74 15 bc 21 88 57 be
       -0.075148195 -0.12942497 -0.0091219265 -0.21048023
000240 b8 e9 82 bd e2 f7 46 3e 55 a7 4d bf 3c 09 09 3d
       -0.063922346 0.19430497 -0.80333453 0.033456072
000250 4d 58 9b bd c6 53 09 be a4 93 55 3e fc e3 5e 3d
       -0.075852014 -0.13410863 0.20857102 0.05441664
000260 a9 18 f2 be 1b 68 e9 3d 2d ba 1e 3e a5 c5 f9 bd
       -0.4728444 0.1139681 0.15500708 -0.12195901
000270 a5 81 b5 bd f0 97 89 3e 4b cc 42 bf 3c 07 a7 bb
       -0.08862618 0.26873732 -0.76092976 -0.005097298
000280 bb 38 8e be 01 e5 59 3b 75 a7 66 3d 60 1e d4 bd
       -0.27777657 0.003324807 0.056312043 -0.10357356
000290 6e 55 d8 bd 45 ca 76 3e ee c8 91 bd 86 8c 26 be
       -0.105631694 0.24100597 -0.071184024 -0.16264543
0002a0 bb ff c2 3e 1a 54 69 3e a2 41 ee 3d 5e 6d d2 3d
       0.38085732 0.22785988 0.11633612 0.102747664
0002b0 ec e0 d7 bd 49 a4 9f bd 88 8b 81 be 7a 09 a9 3d
       -0.10540947 -0.07795007 -0.25301766 0.08253761
0002c0 36 97 88 be 3e f2 f6 3d 01 42 93 bd 66 eb 10 be
       -0.26677865 0.12057923 -0.071903236 -0.14152297
0002d0 c6 26 b5 3d 24 c9 2a 3f 83 f8 40 bf b3 27 27 3e
       0.08845286 0.66713166 -0.753792 0.16323738
0002e0 aa 87 17 3d 37 89 ad be 37 42 c7 bd 1b ea 90 3e
       0.036994614 -0.3389375 -0.09729426 0.28303608
0002f0 ef 0c 2c bf 9f 79 6e 3e b1 34 8b bd 42 f6 9d 3d
       -0.67207235 0.23288582 -0.067971595 0.077129856
000300 ff a8 75 bd cc c6 b7 3e c8 94 22 bf 58 a8 3b 3e
       -0.05997562 0.35893857 -0.6350827 0.18325937
000310 f7 72 3f 3d 5f 3b 90 be e3 15 d8 1b fa 64 c7 1c
       0.0467405 -0.28170297 3.5748346e-22 1.3194817e-21
000320 82 c5 61 24 a0 a8 8a aa e3 fd af 25 e9 26 31 1d
       4.8956393e-17 -2.4630731e-13 3.05297e-16 2.3445871e-21
000330 07 e9 01 b1 8b 84 96 1c 10 b4 3a 21 d6 84 c4 9f
       -1.8904431e-09 9.960429e-22 6.325756e-19 -8.322899e-20
000340 93 04 81 ab 2f 3e 93 1c e9 a9 c1 9b 35 b9 88 24
       -9.167271e-13 9.743718e-22 -3.2038974e-22 5.929435e-17
000350 c4 9d 2b 1d 9d df ea 9f 4e 82 26 1d d1 70 83 1b
       2.2713224e-21 -9.947279e-20 2.2037283e-21 2.1745038e-22
000360 15 41 b8 bc 7a e5 56 bc ea 2c 77 bc 9a fc 20 bc
       -0.022491971 -0.013116235 -0.015086392 -0.00982585
000370 0e b9 38 bc df 3a 24 bc a0 d1 a2 bc 66 a4 90 bc
       -0.011274589 -0.010023802 -0.019875348 -0.017656516
000380 ac fb 0b bc be 08 9a ba cd f4 a9 bb c5 b1 71 bc
       -0.00854389 -0.0011751873 -0.005186653 -0.014751856
000390 ac fe b4 bc d1 51 50 bc e7 91 89 bc e1 9e 46 bc
       -0.022094093 -0.012714819 -0.016793204 -0.012122841
0003a0 be ef 81 bc 1f de 4f bc ad a1 0c b9 f5 cd 25 ba
       -0.015861388 -0.012687235 -0.0001341167 -0.00063249405
0003b0 fd 65 12 ba 10 aa 20 b9 cb 1b 9c b9 57 12 02 ba
       -0.00055846554 -0.00015322142 -0.00029775346 -0.00049618393
0003c0 f7 f1 19 bb 32 e0 3d ba f0 83 2e b9 6f 9c 08 b8
       -0.002349017 -0.00072431855 -0.00016643084 -3.2570617e-05
0003d0 f7 26 e0 b8 e8 05 6e ba 28 f3 a5 b8 78 13 67 ba
       -0.0001068841 -0.00090798596 -7.9131045e-05 -0.0008814852
0003e0 56 7f 30 b8 7c 8d b3 b7 27 55 4b b8 c3 bf 7c ba
       -4.208026e-05 -2.1404347e-05 -4.8478276e-05 -0.0009641612
0003f0 43 81 b7 a3 79 08 80 01 70 9c 11 80 74 a4 41 80
       -1.9895644e-17 4.703193e-38 -1.617323e-39 -6.028302e-39

module.0.bias f4 [90]
000000 34 54 39 b5 bc 47 1a b9 a8 42 d8 be 1d 3e 16 bd
       -6.90404e-07 -0.00014713308 -0.42238355 -0.03668033
000010 cb fb 2a 3d 65 0f 9d 3d 51 a6 94 b9 b4 ba 66 3e
       0.041744035 0.07668952 -0.00028352675 0.22532159
000020 93 4d 56 3e 8f c0 cc 3e f0 cd d8 3d 07 e9 01 b1
       0.2092803 0.3999066 0.105861545 -1.8904431e-09
000030 a0 d1 a2 bc f7 f1 19 bb 6c 32 7b 9b 14 ee bd be
       -0.019875348 -0.002349017 -2.0778526e-22 -0.37095702
000040 8c 1c 30 b4 4d 0d e7 bc 7b cc ad 3e cd 63 4d 89
       -1.6401663e-07 -0.028204584 0.3394507 -2.4722904e-33
000050 60 31 c8 be 0f 17 49 3d 3a 41 6c a9 4e d6 0c be
       -0.3910017 0.049094256 -5.2459102e-14 -0.13753626
000060 fa aa ad b8 48 5f b2 3e 3f b4 0f 3e 14 b6 96 bc
       -8.28113e-05 0.3483832 0.14033602 -0.018397368
000070 70 91 79 3e 82 90 34 ba 24 8f 6a 3c b8 b9 2c bd
       0.24371886 -0.00068879884 0.014316354 -0.042169303
000080 4c af 97 3e 00 c8 68 b9 0a b1 10 bd cc 49 d2 3e
       0.29625928 -0.0002219975 -0.035325088 0.41071928
000090 ea d8 08 bc 2a eb d6 3d 8c 3f c4 bc ec 3b c3 bb
       -0.008352498 0.10494073 -0.023956083 -0.005958071
0000a0 9c 47 e7 bc e0 1f 90 a9 7b 65 e4 89 7e 27 25 ae
       -0.028232388 -6.400414e-14 -5.4984435e-33 -3.7551733e-11
0000b0 55 4d 0b 3a 48 cc a5 ac ea ef 85 3e e5 b7 0e a8
       0.00053139526 -4.712262e-12 0.26159602 -7.922459e-15
0000c0 21 dd 74 ba 4d 9c c3 3e 60 d9 d1 3e 04 13 29 ac
       -0.0009340812 0.38205186 0.40986156 -2.40269e-12
0000d0 a3 6c 13 3e 9c fb 2b bb 41 39 ed bd 43 20 1e ba
       0.1439691 -0.00262425 -0.11583186 -0.0006032029
0000e0 d2 50 f9 bd c9 82 2b be dc 6d 74 b7 7f d1 ce bc
       -0.121736184 -0.1674911 -1.4569112e-05 -0.02524638
0000f0 54 b6 86 3e 13 5b 96 bc 4b 6c 1e b7 c4 46 34 3e
       0.2631098 -0.018353974 -9.442748e-06 0.1760512
000100 ae 50 3f b4 a3 61 8f bb 31 da 8f bc c4 24 ab 3e
       -1.7817612e-07 -0.004375653 -0.017560096 0.33426487
000110 a7 12 f0 3d da df 47 b7 c7 2a 6c 38 eb 87 3f bb
       0.11722308 -1.1913444e-05 5.6306624e-05 -0.00292253
000120 21 73 af 3e 71 3d 80 bb 7e 00 0b 3e 91 a9 21 b6
       0.34267524 -0.0039135744 0.13574407 -2.408957e-06
000130 8e bf 2f b3 90 6e 98 b1 91 57 8a 3c fc 7b a5 bd
       -4.091958e-08 -4.4363517e-09 0.016887458 -0.08080289
000140 1c c9 c7 3d 30 77 5c 3e d1 46 c0 bc 59 67 20 3e
       0.097551554 0.21529841 -0.023471268 0.15664424
000150 83 2d d5 3e a3 a2 c4 ba 50 1a 42 3d 0e d5 27 bb
       0.41636285 -0.0015002083 0.047388375 -0.0025609168
000160 13 1a da b9 c5 79 4d 3e
       -0.00041599627 0.20065983

module.2.weight f4 [6, 90]
000000 56 e1 d1 80 bb c4 bd 80 c1 68 58 00 3e 62 f1 80
       -1.9274454e-38 -1.7427482e-38 8.119102e-39 -2.2167597e-38
000010 73 9b ad 00 a1 88 9b 93 39 e8 96 81 19 14 a6 00
       1.5943306e-38 -3.9262227e-27 -5.543452e-38 1.5251902e-38
000020 98 a3 5b 80 d7 60 0f 8a 8a ad 24 01 c4 02 2b 01
       -8.415717e-39 -6.903413e-33 3.024655e-38 3.1409724e-38
000030 4c ee 19 01 2b e3 9e 00 f5 a2 ff 00 83 8a 72 00
       2.8272631e-38 1.4591501e-38 2.347651e-38 1.0518935e-38
000040 36 7e 99 81 2e 9f 49 01 5b 6f 65 96 60 69 5f 80
       -5.638443e-38 3.7032075e-38 -1.853361e-25 -8.762174e-39
000050 7a 3e 7b 80 ac 8e 21 81 40 f6 af 01 65 1f 3f 00
       -1.1318178e-38 -2.9673392e-38 6.46382e-38 5.796898e-39
000060 f8 08 08 81 07 13 8a 00 27 83 86 80 9e 46 fa 00
       -2.498569e-38 1.2680124e-38 -1.2353005e-38 2.2984207e-38
000070 95 a3 d6 97 a7 d3 3a 01 36 6e 19 80 7a b7 85 00
       -1.387072e-24 3.4314658e-38 -2.335424e-39 1.227994e-38
000080 8e d0 19 05 b0 c7 2a 81 19 e0 70 00 30 34 6f 00
       7.232331e-36 -3.1367337e-38 1.0365967e-38 1.0212461e-38
000090 da 03 a6 00 79 b5 56 00 98 80 07 80 fc d9 7d 01
       1.5246074e-38 7.962953e-39 -6.88979e-40 4.6625157e-38
0000a0 e3 eb 07 81 60 d5 20 01 b5 28 39 01 50 a5 71 80
       -2.4964824e-38 2.9540448e-38 3.400834e-38 -1.0436714e-38
0000b0 38 0c 6e 00 92 60 90 01 3d a2 8e 89 98 2f 3d 81
       1.0106288e-38 5.303582e-38 -3.4337825e-33 -3.4747964e-38
0000c0 fc eb 72 00 45 ea 79 00 df ac 84 9d 21 10 98 81
       1.0553902e-38 1.1196135e-38 -3.5118854e-21 -5.5859126e-38
0000d0 5f 06 b2 8e 25 4d 8f 81 d1 e1 8f 01 7c 44 50 81
       -4.3886523e-30 -5.26406e-38 5.2853934e-38 -3.8252702e-38
0000e0 b1 61 1f 80 91 61 be 00 ba fa c4 00 48 ad 68 81
       -2.881945e-39 1.7483745e-38 1.8089701e-38 -4.2735993e-38
0000f0 c8 b4 c0 00 5f 29 a0 00 55 81 d4 00 45 08 76 00
       1.7697267e-38 1.470852e-38 1.9515521e-38 1.0839555e-38
000100 6a a4 84 81 44 db ec 00 5e e0 00 81 e0 10 38 8e
       -4.8725065e-38 2.1751835e-38 -2.3670863e-38 -2.2687876e-30
000110 53 96 82 00 00 9a bb 81 60 bc 72 00 49 4f bf 81
       1.199254e-38 -6.891393e-38 1.0536823e-38 -7.027609e-38
000120 bd 5c 7a 00 50 9c 95 81 7e 2e 84 00 a8 ef b0 00
       1.1237199e-38 -5.4958253e-38 1.2138964e-38 1.624902e-38
000130 ee e9 74 01 26 ad 17 80 78 01 5d 00 d6 34 cd 00
       4.4983558e-38 -2.17433e-39 8.541228e-39 1.884523e-38
000140 cc f3 24 81 46 f7 5e 01 b9 58 ab 00 38 5f 3d 80
       -3.0296958e-38 4.095237e-38 1.5735698e-38 -5.636123e-39
000150 9f b1 86 00 7a cc 57 00 c8 be 93 00 ac bc 66 01
       1.2369675e-38 8.06304e-39 1.3568257e-38 4.2379694e-38
000160 50 9a 75 81 93 83 26 81 d0 f3 09 80 a2 02 26 00
       -4.5110107e-38 -3.0583785e-38 -9.13983e-40 3.490693e-39
000170 68 31 52 80 9e 58 fa b4 b4 4b 25 b0 38 5c ab bb
       -7.548234e-39 -4.6630606e-07 -6.013423e-10 -0.005229499
000180 f4 b4 e2 80 90 39 c6 b7 ac 1e 38 80 fa f5 68 bb
       -2.0819736e-38 -2.3630244e-05 -5.153791e-39 -0.0035547004
000190 fe 5d de 00 ea ec a9 00 de ca 97 81 d8 9d 62 00
       2.0421198e-38 1.5605188e-38 -5.575974e-38 9.056502e-39
0001a0 77 59 b4 00 0d c3 45 b5 4a 2a b2 01 e8 c4 39 01
       1.6562483e-38 -7.3672055e-07 6.5447555e-38 3.4120407e-38
0001b0 dd 10 bb bb b8 b3 81 81 0d 64 e9 33 38 d9 64 01
       -0.0057087974 -4.7645e-38 1.0868107e-07 4.2032833e-38
0001c0 d4 cd 2c 81 97 e2 86 ae 49 8e 80 81 c4 b3 85 bb
       -3.1739085e-38 -6.133865e-11 -4.7223943e-38 -0.0040802676
0001d0 27 6a eb 00 40 ed 43 80 41 e5 ef bb 08 79 74 81
       2.1619422e-38 -6.238088e-39 -0.0073210304 -4.4902558e-38
0001e0 80 04 70 b3 61 eb 40 b2 b0 ca a8 bb 77 de 4f 01
       -5.5883447e-08 -1.122939e-08 -0.0051511154 3.8179506e-38
0001f0 14 57 6f b5 d3 f5 e9 ba d7 81 6c 00 f0 ad 83 b9
       -8.9161153e-07 -0.0017849751 9.964811e-39 -0.0002511586
000200 20 2c 0d 01 ea b7 9b 81 15 6c 9a 81 aa a0 c1 80
       2.5929268e-38 -5.720191e-38 -5.6725756e-38 -1.7781886e-38
000210 e8 f9 75 00 30 c6 4b 01 8c d5 24 81 be 36 02 00
       1.0834403e-38 3.7427404e-38 -3.0275255e-38 2.03309e-40
000220 7a bd 49 bb 8f 3a 8c 80 e8 21 b8 80 b9 99 59 ba
       -0.0030783103 -1.2877976e-38 -1.6909895e-38 -0.00083007995
000230 e0 5e fa bb 75 5a 98 80 a4 83 db bb d7 db 2a 81
       -0.0076407045 -1.3991445e-38 -0.0066990424 -3.1381796e-38
000240 d3 2e 07 80 d4 de 69 81 d2 af a0 8a cd 7b 4f 30
       -6.59646e-40 -4.2955213e-38 -1.5473576e-32 7.5482093e-10
000250 d2 02 e0 00 80 34 a8 01 37 3e e5 b3 89 7e bc 01
       2.0572163e-38 6.178879e-38 -1.067496e-07 6.924186e-38
000260 60 84 d2 00 15 9c 2a ba 10 61 4f 80 47 d9 9e 80
       1.9332941e-38 -0.00065082434 -7.289824e-39 -1.4587953e-38
000270 b1 cb 84 01 1e 2a c2 bb 35 c6 74 bb cc 86 7b 81
       4.8781425e-38 -0.005925431 -0.0037349586 -4.619813e-38
000280 63 1f 30 01 14 a3 0c 81 33 aa 14 bb f8 cd 81 80
       3.2348614e-38 -2.5830942e-38 -0.0022684454 -1.1920667e-38
000290 6c a4 8a ba ed 28 13 00 49 e1 b3 81 c6 8b 84 80
       -0.0010577566 1.759556e-39 -6.6077484e-38 -1.2172427e-38
0002a0 6a a4 2f 81 18 02 f8 80 2e a4 ec 13 1f 57 d9 00
       -3.2260385e-38 -2.2775954e-38 5.973667e-27 1.9959556e-38
0002b0 f5 a3 9e a5 af 8a 46 32 e4 5c ec ba a5 cc 9f 80
       -2.7519733e-16 1.155665e-08 -0.0018033055 -1.4675257e-38
0002c0 05 d2 db 2d 50 99 0b 81 aa 79 80 00 63 dc d6 00
       2.4990685e-11 -2.5640264e-38 1.1798588e-38 1.9731856e-38
0002d0 ca e0 8c 3b bd 06 80 b5 c1 99 94 3f 69 ed 2b 3e
       0.004299258 -9.538704e-07 1.1609422 0.16789784
0002e0 a2 0a bb bd ff bd 0a 3e 81 d2 b7 39 17 74 84 3e
       -0.091328874 0.1354904 0.00035061318 0.2586982
0002f0 45 9d 05 3f f3 31 ae 3d 34 70 e2 bf 7f ca 4e 3c
       0.521931 0.08505621 -1.7690492 0.012621521
000300 3a 1a d6 bc db 51 c7 3c 99 b0 41 36 bc fb 01 bf
       -0.026135553 0.024331024 2.8862034e-06 -0.5077474
000310 33 2d 29 ad 0f 4a c8 3c ba 6c 1b 3e cc f4 c4 80
       -9.616574e-12 0.024449376 0.15178195 -1.8087574e-38
000320 ca 58 dc be 25 58 27 be 9a 83 2e 3a 6b 7b 8a bd
       -0.4303649 -0.16342218 0.00066571834 -0.06761821
000330 48 a1 3f 3b e0 d0 12 3e 66 10 8c be c0 f8 9a bc
       0.0029240418 0.14337492 -0.2735626 -0.018917441
000340 ea f7 2d 3e fe 2d 59 3c 06 cd fc 3d 16 07 f2 bd
       0.16989103 0.013255594 0.123437926 -0.11817758
000350 4d 52 00 3e 8a 35 31 bc 48 60 9b 3d 75 e6 6a 3e
       0.12531395 -0.010815987 0.075867236 0.22939475
000360 e9 d2 0a 3d 17 8b 74 3d cb c2 fa 3c 42 86 aa 3a
       0.033892546 0.05970296 0.030610463 0.0013009983
000370 13 fd c7 3c fd 10 aa 93 fe f1 83 b9 13 f3 9f 39
       0.024412667 -4.2930785e-27 -0.00025166565 0.00030507948
000380 9e 1c 56 ba a6 28 2a a8 2f 8c ba 3d 4c bb cc 36
       -0.00081677164 -9.44571e-15 0.09108769 6.101478e-06
000390 0e fb c5 bc 2a 15 9e 3d 4c ce 94 3e 6d 91 83 37
       -0.024167564 0.077188805 0.29063642 1.5684136e-05
0003a0 3d d6 d9 3d 87 4a 31 3c 16 e3 cc bd 50 40 c9 3a
       0.10636566 0.010820991 -0.10004251 0.001535425
0003b0 64 58 16 bf e3 a7 9a be 39 d6 11 bc 2c 40 a2 3c
       -0.58728623 -0.30206212 -0.008901172 0.01980599
0003c0 c4 7f 97 be 23 15 ba 3c 16 f5 9e bb fc fa 1f 3d
       -0.29589665 0.022715157 -0.004850994 0.039057717
0003d0 8b 7f 86 3b e0 8e 6b 3c c2 3d a6 ba c2 83 03 3e
       0.00410456 0.014377326 -0.00126832 0.1284323
0003e0 be fd 24 3e 6e 98 82 bb e1 b5 a4 38 b0 7d 27 bc
       0.1611242 -0.003985456 7.854007e-05 -0.010222837
0003f0 ed 02 42 3e a8 fe c1 3c 0a a3 ce 3d c0 b5 6d 3c
       0.18946429 0.023681 0.10089691 0.014508665

module.2.bias f4 [6]
000000 14 e9 36 99 a0 5c 80 bb c6 73 c9 3e 2f f0 be ba
       -9.456249e-24 -0.0039172918 0.3934614 -0.001456743
000010 3b 70 b0 ba cc d8 46 a4
       -0.0013461182 -4.311804e-17

module.4.weight f4 [1, 6]
000000 3d a6 3b 21 35 fc 2f 3c 86 c9 63 3e 7e dd b1 23
       6.357808e-19 0.010741283 0.22244844 1.9284184e-17
000010 9c 8b 47 3c a3 85 ee bc
       0.012179282 -0.029116457

exp_avg f4 [90, 18]
000000 9b 2b 8c 1d 23 20 5a 24 35 01 fb a7 6c 5d 7c a5
       3.710278e-21 4.7298436e-17 -6.9667803e-15 -2.1889168e-16
000010 1e e2 b9 a7 13 15 88 a2 b4 91 ff ac 4f c0 3b 25
       -5.159297e-15 -3.6885187e-18 -7.263712e-12 1.6284821e-16
000020 57 b3 9a a5 af 6b 17 a1 8a 64 5b a5 0e 19 e6 a6
       -2.6836267e-16 -5.130331e-19 -1.9029286e-16 -1.5966247e-15
000030 15 51 4c 1a e4 4a 09 a9 70 09 28 9a 65 8a a9 9d
       4.225171e-23 -3.0485068e-14 -3.474921e-23 -4.4877024e-21
000040 9a e6 ca 9f 5b 59 4c a8 1d 01 00 80 48 8c 8b ae
       -8.5931826e-20 -1.1343651e-14 -4e-43 -6.345907e-11
000050 04 4f 1f ae 84 bb 3d ac 9d 7f db a6 0b ef 17 ac
       -3.6222594e-11 -2.6962607e-12 -1.5230767e-15 -2.1591086e-12
000060 27 19 d1 b0 e1 63 d4 ac e7 88 80 ae 0f 76 65 ab
       -1.52139e-09 -6.036491e-12 -5.845085e-11 -8.152098e-13
000070 d7 2b ce ab 37 e6 3f ad 18 00 00 80 21 36 21 b0
       -1.4649348e-12 -1.0908211e-11 -3.4e-44 -5.864838e-10
000080 0f 96 7d 96 81 27 98 a4 12 01 00 80 45 e5 18 af
       -2.0484527e-25 -6.5986414e-17 -3.84e-43 -1.3905772e-10
000090 96 1a ec 3a 87 ce 03 ba ab 31 36 39 ae ef 9f b9
       0.0018013294 -0.00050280284 0.00017375375 -0.00030505419
0000a0 ee 1d 00 b8 b2 32 e0 3a 56 1d eb 3a 39 13 87 3a
       -3.0545452e-05 0.0017104952 0.001793782 0.0010305411
0000b0 4a 02 96 38 31 a2 25 b9 f1 55 66 b7 f9 af e5 3a
       7.152984e-05 -0.00015796047 -1.3729078e-05 0.0017523757
0000c0 fb 7e ec 3a 30 96 b3 b9 34 d3 96 39 a1 d3 9e b9
       0.0018043214 -0.0003425344 0.00028767588 -0.00030293784
0000d0 a8 64 b1 39 38 0c e0 3a ab ce 1c 3a 2e cd 8a b9
       0.00033835066 0.0017093485 0.00059817237 -0.00026474282
0000e0 49 15 d5 b9 79 9c 2b 39 a8 cb 0a 37 35 88 01 3a
       -0.00040642385 0.00016366121 8.272858e-06 0.0004941256
0000f0 b0 a7 80 ba 2f 30 a2 38 27 09 2e ba 42 f2 ff 37
       -0.00098156 7.733737e-05 -0.0006638937 3.0511179e-05
000100 d0 64 e8 b9 64 f6 ca 39 be 7f 2a 3a 8c 3a 8c ba
       -0.000443256 0.00038712018 0.00065040204 -0.0010698601
000110 55 d2 28 39 f1 f8 63 39 3a 56 95 39 42 bf 36 b9
       0.00016100083 0.00021741145 0.00028483738 -0.00017428122
000120 e8 53 85 b9 01 08 bb 39 4a 7b e5 39 76 59 8f 38
       -0.00025430252 0.00035673383 0.0004377014 6.835435e-05
000130 c8 8c 10 37 64 cc a4 b7 12 35 42 3a c1 4b 41 39
       8.615847e-06 -1.96455e-05 0.0007408421 0.00018434135
000140 aa 5a fa 39 66 5b 97 38 85 88 53 39 dc f5 d1 38
       0.00047751266 7.2172654e-05 0.00020173386 0.000100116915
000150 e4 b1 b2 b9 2f e3 44 3a 9b f7 0c 38 40 ba 37 37
       -0.00034083345 0.00075106596 3.36092e-05 1.0951015e-05
000160 83 32 c9 b8 a4 f8 91 39 b9 6d 69 3a 69 c5 6b ba
       -9.5938354e-05 0.00027841807 0.00089045946 -0.0008993955
000170 12 f0 4b ba 75 a6 21 39 a8 12 b8 b8 28 59 d3 39
       -0.0007779609 0.00015416167 -8.777279e-05 0.00040311483
000180 80 09 95 ba ad 41 59 b9 66 f5 80 ba 63 29 58 b8
       -0.0011370629 -0.00020719199 -0.000983876 -5.1536957e-05
000190 90 83 23 ba a5 de 9f 39 46 42 87 3a f6 8a cf ba
       -0.0006237561 0.00030492726 0.0010319434 -0.001583426
0001a0 c3 a5 d0 38 64 21 a9 39 d5 63 d3 39 d5 80 b9 b9
       9.9490884e-05 0.0003225907 0.00040319437 -0.00035381937
0001b0 27 01 00 00 be 62 84 81 d0 61 71 2f 68 49 6a 2d
       4.13e-43 -4.863083e-38 2.1953572e-10 1.33176595e-11
0001c0 6f 42 03 00 22 00 00 80 fc e4 a9 b1 a9 f8 00 00
       2.99338e-40 -4.8e-44 -4.94458e-09 8.9202e-41
0001d0 c9 30 66 30 86 8e 5c ae b4 c0 90 2f 9d 8c d2 00
       8.374284e-10 -5.0148795e-11 2.633037e-10 1.9335897e-38
0001e0 13 01 00 00 a4 e2 a1 2f ed 86 03 2f a8 f6 d9 2e
       3.85e-43 2.9446767e-10 1.1962316e-10 9.9118325e-11
0001f0 37 00 00 00 8f 1d 29 30 dc 5d 3c 3a ee dc e4 ba
       7.7e-44 6.1523847e-10 0.0007185617 -0.0017460862
000200 d2 5c 09 bb 39 19 01 ba 7c 03 b7 ba 40 e2 ae ba
       -0.0020959866 -0.0004924718 -0.001396283 -0.0013342574
000210 86 07 84 bb 38 4e 8c ba 8a dd 1f bb e2 da 36 ba
       -0.004029217 -0.0010704463 -0.0024393522 -0.0006975365
000220 6e f6 09 bb 12 b8 b5 ba e0 a7 85 3a cf 0e 6f bb
       -0.0021051425 -0.0013864061 0.0010197125 -0.0036477332
000230 fc 18 0d b9 43 a3 6d 38 f0 02 09 b9 da 36 36 bb
       -0.00013456115 5.6657253e-05 -0.00013066432 -0.002780369
000240 e7 7d 7e b9 5f b3 1b ba b8 cc 8a ba 3f 00 84 b9
       -0.0002427023 -0.0005939509 -0.0010589575 -0.00025177185
000250 e1 ee 8f ba 1f c2 a7 ba 80 ec 70 bb a1 9a 24 ba
       -0.0010981226 -0.0012798941 -0.0036762059 -0.0006279145
000260 28 96 b7 ba 21 a1 78 b9 e9 29 c4 ba 9f 5a b4 ba
       -0.0014006542 -0.00023711148 -0.0014966103 -0.0013759917
000270 b6 11 3b b9 31 75 24 bb 4f 29 b9 b8 d6 f3 0c b9
       -0.00017840308 -0.0025094266 -8.829182e-05 -0.00013442276
000280 5d f2 05 ba eb a3 1e bb 21 06 14 3a e9 1b 12 ba
       -0.00051096623 -0.002420659 0.0005646665 -0.0005573617
000290 6b 07 fb b9 d8 4d d2 38 e1 12 47 b8 35 cc 87 39
       -0.00047879978 0.0001002808 -4.746288e-05 0.00025901353
0002a0 44 0b 37 ba c0 08 fc b8 4a c1 1f ba 0f 40 ee b7
       -0.00069825747 -0.00012017926 -0.0006094171 -2.840164e-05
0002b0 11 19 cb b9 44 e5 4e 39 2e f5 2a 3a 6c 1c 81 ba
       -0.00038737853 0.00019731099 0.000652152 -0.0009850389
0002c0 9a 46 8b 38 18 d3 55 39 52 bf 87 39 b0 c4 5f b9
       6.641187e-05 0.00020391901 0.0002589175 -0.00021340209
0002d0 c0 bd 15 3b ed 2c 64 3b d7 6b 7d 3b 35 3b d4 b9
       0.0022848696 0.0034816817 0.0038669014 -0.00040479904
0002e0 29 df 30 3b 97 1a 9d bb c8 ea 3d 3b 3b bf 58 3b
       0.0026988483 -0.0047944295 0.0028979052 0.0033072967
0002f0 fa 96 10 3b c1 49 68 b9 c2 cc e9 3a fa 11 32 bb
       0.0022062645 -0.0002215272 0.0017837512 -0.002717136
000300 ab 30 ff 3a f9 1f 16 3b e3 d3 38 3b bf 89 84 b9
       0.001946946 0.002290724 0.0028202466 -0.0002527963
000310 b8 12 ee 3a 4f e8 32 bb a5 8e 7e 13 53 68 15 15
       0.0018163538 -0.0027299111 3.2129636e-27 3.0172608e-26
000320 c5 cc b0 1c bc f8 a1 a2 d5 97 49 1d a6 07 52 95
       1.1699635e-21 -4.3902495e-18 2.6680624e-21 -4.2415196e-26
000330 fc 35 e5 a8 94 b4 d3 94 aa 06 1f 19 c0 ba 40 95
       -2.544752e-14 -2.1376781e-26 8.221453e-24 -3.892141e-26
000340 4e dc 8e a3 b7 50 f2 13 e0 8c 63 13 c4 79 cd 1c
       -1.5488974e-17 6.116898e-27 2.8720885e-27 1.3597238e-21
000350 4a 3f 8f 15 a6 55 8b 97 91 8c 16 15 76 3f 76 92
       5.785709e-26 -9.004285e-25 3.0403146e-26 -7.7702135e-28
000360 84 d1 73 b4 a8 ac 0e b4 e1 04 24 b4 f2 4f d7 b3
       -2.270736e-07 -1.3287593e-07 -1.5275465e-07 -1.002626e-07
000370 01 65 f6 b3 15 58 da b3 b6 ca 56 b4 82 56 3f b4
       -1.147364e-07 -1.0167438e-07 -2.0004049e-07 -1.7819733e-07
000380 e5 85 bb b3 c9 f2 55 b2 16 4c 65 b3 39 05 20 b4
       -8.732221e-08 -1.2453435e-08 -5.3387417e-08 -1.4903061e-07
000390 74 9e 6f b4 df 50 0a b4 41 10 37 b4 14 7b 04 b4
       -2.2316254e-07 -1.2881672e-07 -1.7049116e-07 -1.2338234e-07
0003a0 e4 0c 2d b4 df cd 09 b4 5b bd bd b0 10 2b de b1
       -1.611657e-07 -1.2834015e-07 -1.3805378e-09 -6.465946e-09
0003b0 b2 25 c4 b1 67 93 d8 b0 d3 ba 51 b1 7f 81 ae b1
       -5.7086362e-09 -1.5757963e-09 -3.05197e-09 -5.0787885e-09
0003c0 cc 6a cc b2 25 23 fe b1 80 57 eb b0 db d3 b9 af
       -2.3797291e-08 -7.3963684e-09 -1.7123369e-09 -3.3801836e-10
0003d0 dc 5b 97 b0 ef 17 1f b2 79 68 60 b0 8f 60 1a b2
       -1.1012804e-09 -9.26046e-09 -8.163919e-10 -8.985935e-09
0003e0 ab 2a f0 af ed f2 74 af 11 24 0a b0 70 c3 28 b2
       -4.3686063e-10 -2.2277975e-10 -5.025536e-10 -9.823324e-09
0003f0 16 7f be 9b 4f 01 00 00 50 01 00 00 23 00 00 80
       -3.151499e-22 4.7e-43 4.71e-43 -4.9e-44

exp_avg_sq f4 [90, 18]
000000 31 47 07 2b 10 57 87 2b 32 b4 d4 2b de 2e 8b 2b
       4.806043e-13 9.616492e-13 1.511352e-12 9.889552e-13
000010 49 01 bd 2b e2 48 84 2b 35 2c 9a 2c e6 98 ac 2b
       1.3429614e-12 9.399393e-13 4.3818512e-12 1.2263773e-12
000020 31 74 92 2b 78 e9 29 2b 8c 07 88 2b 5c 64 c8 2b
       1.0406174e-12 6.0364864e-13 9.665476e-13 1.423871e-12
000030 51 16 cf 2a 26 ff 03 2c 4f ca d8 2a c8 df 00 2b
       3.6786072e-13 1.8757856e-12 3.8509688e-13 4.5785294e-13
000040 c3 e7 1a 2b 97 69 ef 2b 3c 8f 61 27 14 36 88 2c
       5.5033425e-13 1.7011278e-12 3.130267e-15 3.8713564e-12
000050 11 ae 70 2c 51 fa 13 2c b3 56 67 2b 71 b5 0e 2c
       3.4202678e-12 2.102891e-12 8.2188005e-13 2.0280134e-12
000060 82 c6 29 2d 59 d5 29 2c 96 b0 85 2c a8 6e f5 2b
       9.650615e-12 2.4134776e-12 3.7996923e-12 1.743901e-12
000070 7a 2e 06 2c eb 37 3d 2c 18 93 d5 27 ee f4 f5 2c
       1.9068345e-12 2.6889556e-12 5.9278855e-15 6.9905115e-12
000080 c3 07 67 2a a0 9b 2e 2b 47 af 76 29 2f 6c a4 2c
       2.0519614e-13 6.203319e-13 5.4775e-14 4.673171e-12
000090 b4 b1 45 39 9b 26 9d 37 5d 9c 73 38 6c 85 85 38
       0.00018853584 1.8733836e-05 5.808134e-05 6.366786e-05
0000a0 dd 09 ab 38 5d a7 e1 38 5c c6 46 39 3b 18 db 38
       8.1557526e-05 0.0001076001 0.00018956646 0.00010447247
0000b0 9b ed 26 37 1e e9 86 37 80 bf 5b 37 c9 63 14 39
       9.949693e-06 1.6082598e-05 1.3098004e-05 0.00014151553
0000c0 6a 92 45 39 58 1d 0e 37 ad dc 85 38 b2 bd 84 38
       0.00018841928 8.470692e-06 6.383038e-05 6.329584e-05
0000d0 f3 86 c5 38 8f b4 e1 38 b7 d6 b9 37 50 7c 4a 37
       9.418828e-05 0.00010762468 2.2153703e-05 1.2069082e-05
0000e0 a9 e0 d8 37 0e 26 91 37 6a 1b 08 38 51 34 50 38
       2.5853822e-05 1.7303068e-05 3.2450458e-05 4.9639788e-05
0000f0 14 91 ea 38 83 94 ce 37 64 46 a8 37 f1 6a 37 37
       0.000111850124 2.462627e-05 2.0059939e-05 1.0932549e-05
000100 d5 59 c8 37 37 28 7c 38 48 97 a5 37 4a fc 20 38
       2.388369e-05 6.0118935e-05 1.9739979e-05 3.8381935e-05
000110 a6 f1 01 37 45 18 0d 37 87 8f 81 37 f2 22 8a 38
       7.745262e-06 8.409906e-06 1.5444833e-05 6.586862e-05
000120 e5 17 d7 36 ec 10 a9 36 14 b1 bb 36 33 da 9b 36
       6.410281e-06 5.0385624e-06 5.593649e-06 4.6447617e-06
000130 31 ff 17 35 d1 63 b7 36 bd c7 8a 37 75 48 f6 36
       5.6623236e-07 5.465445e-06 1.6543892e-05 7.3398064e-06
000140 d3 e4 35 36 8a fc 0f 36 48 1c c8 34 3b ef 06 37
       2.7104295e-06 2.1455658e-06 3.727348e-07 8.042723e-06
000150 3a db c5 36 36 ce c2 36 ec bf 48 36 2e 53 4e 36
       5.896579e-06 5.8056567e-06 2.9914036e-06 3.074481e-06
000160 0a 90 88 35 87 59 ef 36 40 27 3a 38 ca 71 8c 38
       1.017471e-06 7.1331774e-06 4.438241e-05 6.696915e-05
000170 45 51 aa 38 d0 0a 69 38 1a e0 8d 38 9a b5 8d 38
       8.121369e-05 5.55616e-05 6.765146e-05 6.75723e-05
000180 ca 74 71 39 77 56 a3 38 b7 e2 5e 38 ce b7 0b 38
       0.00023027058 7.788551e-05 5.314007e-05 3.3311364e-05
000190 56 cb 44 38 58 77 c6 38 37 9c 22 38 8a 59 d6 38
       4.6919413e-05 9.463605e-05 3.8769296e-05 0.00010220993
0001a0 04 b7 e4 37 52 04 ea 37 d1 83 0b 38 bf 39 dc 38
       2.7264941e-05 2.7896986e-05 3.3262946e-05 0.000105011735
0001b0 58 3e 56 29 eb 2b fc 29 c2 1a 9e 29 41 ad f1 28
       4.757162e-14 1.11986666e-13 7.021251e-14 2.6831512e-14
0001c0 ef 3d e0 29 62 53 98 29 8d 46 15 2a 56 25 da 29
       9.958342e-14 6.7646206e-14 1.3258336e-13 9.6876215e-14
0001d0 b1 0c 45 29 db 5f e6 28 4f 4b 60 29 98 40 f3 29
       4.3753795e-14 2.55767e-14 4.980331e-14 1.0802573e-13
0001e0 64 84 5d 29 8e 40 9c 29 b8 de 1e 29 50 2f 10 28
       4.9186688e-14 6.93899e-14 3.5276225e-14 8.003865e-15
0001f0 15 44 70 29 ee 86 73 29 33 56 0b 39 f7 5b 78 39
       5.3349757e-14 5.4073872e-14 0.00013288185 0.00023685383
000200 c8 e0 85 39 0d 7d 1c 39 ca a2 58 39 c8 06 39 39
       0.00025535212 0.00014923904 0.00020660009 0.00017645501
000210 b3 58 35 3a 49 66 85 39 cb 99 2c 39 f9 78 b9 38
       0.0006917819 0.00025443945 0.0001646049 8.84402e-05
000220 d5 00 15 39 a2 ec 87 39 13 6f f2 38 71 0c ac 39
       0.00014210057 0.00025925512 0.000115601484 0.00032815666
000230 53 ae b6 38 92 23 9f 38 92 63 d4 38 7f ec 98 39
       8.710907e-05 7.588336e-05 0.00010127494 0.00029167903
000240 2f 71 09 35 ad d3 20 37 54 25 c0 36 46 68 24 35
       5.120118e-07 9.586028e-06 5.7263915e-06 6.12465e-07
000250 89 ab 72 37 14 6a f7 37 5a 08 88 38 ac cb bd 36
       1.4464263e-05 2.9494091e-05 6.486541e-05 5.6563495e-06
000260 06 4f 2f 37 74 a0 1f 35 f8 de 97 37 f2 5e fe 37
       1.0449212e-05 5.9465606e-07 1.810443e-05 3.0323372e-05
000270 11 50 97 34 e2 20 1a 38 28 13 bb 33 2d 1e 2b 34
       2.8184198e-07 3.6747086e-05 8.7113506e-08 1.5936594e-07
000280 3c c8 29 36 7d 42 32 38 21 0a 95 37 bf 51 e2 37
       2.5299514e-06 4.250043e-05 1.77669e-05 2.6979365e-05
000290 a0 30 09 38 08 2c bc 37 75 f3 e3 37 40 9c e3 37
       3.270863e-05 2.243185e-05 2.7173877e-05 2.7133268e-05
0002a0 07 88 c2 38 8d 5a 03 38 16 d3 b3 37 ad a4 61 37
       9.275978e-05 3.1317166e-05 2.1436757e-05 1.3449387e-05
0002b0 bf a6 9e 37 2d 88 1f 38 a5 16 82 37 8e e7 2c 38
       1.8912715e-05 3.8035378e-05 1.5507752e-05 4.1223648e-05
0002c0 70 86 37 37 b5 ec 3c 37 5f 2a 5f 37 b6 2e 31 38
       1.0938951e-05 1.1260786e-05 1.3301701e-05 4.224359e-05
0002d0 9a 61 8c 39 c4 b9 38 3a dc e9 cd 39 26 dc 5f 39
       0.000267756 0.0007046724 0.00039274886 0.00021348949
0002e0 96 7c 8c 39 5f e5 15 39 d2 5f 4c 3a 49 0e 10 3a
       0.00026795705 0.00014295195 0.0007796261 0.0005495293
0002f0 46 1c 54 39 7d e8 f4 38 6e c0 15 39 19 a0 83 39
       0.00020228428 0.00011678131 0.00014281433 0.0002510555
000300 f7 d8 80 39 21 a8 09 3a 61 11 48 39 d8 53 04 39
       0.00024575714 0.00052511884 0.0001907996 0.00012619735
000310 6c 15 24 39 c8 e7 7a 39 65 4f 43 28 62 44 92 28
       0.00015648239 0.00023928203 1.08418904e-14 1.6238912e-14
000320 02 b9 e2 29 6c 64 19 2a 77 0d f6 29 4a a5 bd 28
       1.006851e-13 1.362397e-13 1.09269303e-13 2.1054898e-14
000330 cb 34 8a 2a 64 6e dc 28 6f e6 b7 29 c0 54 a9 29
       2.4550357e-13 2.447278e-14 8.1668064e-14 7.5198094e-14
000340 b7 35 22 2a 90 fe 99 28 62 69 32 28 06 9b e3 29
       1.4407126e-13 1.7096811e-14 9.903836e-15 1.01077173e-13
000350 34 e2 c5 28 ad ff a6 29 88 1d 5c 28 10 fa 4d 28
       2.1969494e-14 7.4162336e-14 1.2218857e-14 1.143401e-14
000360 c1 ca f5 2e 70 b4 85 2e 4d 05 91 2e f0 31 e1 2d
       1.11773264e-10 6.080192e-11 6.594778e-11 2.5601715e-11
000370 c8 d4 14 2e c1 44 5f 2e 69 e5 84 2f 59 ba 03 2f
       3.384029e-11 5.0765395e-11 2.4173666e-10 1.1980585e-10
000380 63 ed c1 2d 62 02 71 2c 8c d7 60 2d d4 0e d7 2e
       2.204698e-11 3.4249483e-12 1.2780787e-11 9.779702e-11
000390 32 50 df 2e 4c 8d 84 2e 2f 0f 46 2e 6b 02 13 2e
       1.01551115e-10 6.0277644e-11 4.5033473e-11 3.3426078e-11
0003a0 a8 3c 32 2e 78 9a a9 2e 1b 5e 60 2d 05 c1 bd 2d
       4.0526388e-11 7.7126694e-11 1.27538214e-11 2.157253e-11
0003b0 93 4a bf 2d a8 38 6e 2d eb 58 98 2d 66 87 aa 2d
       2.1747304e-11 1.3541314e-11 1.7319887e-11 1.9386891e-11
0003c0 af 81 85 2e 23 02 d2 2d d6 c4 67 2d 52 5a 0b 2d
       6.071176e-11 2.3875185e-11 1.3174536e-11 7.92129e-12
0003d0 61 a3 52 2d a0 5e ec 2d a5 09 42 2d fb d3 f7 2d
       1.1973395e-11 2.6872116e-11 1.1029765e-11 2.8174787e-11
0003e0 38 ea 08 2d cd 93 f1 2c 4a 99 13 2d 63 27 03 2e
       7.782712e-12 6.866041e-12 8.39002e-12 2.9820934e-11
0003f0 ea 05 32 2a e1 4b 48 28 b3 40 f8 28 a5 1f 71 27
       1.5811628e-13 1.1118684e-14 2.756159e-14 3.3462623e-15

exp_avg f4 [90]
000000 b4 91 ff ac 27 19 d1 b0 53 04 eb 3a f0 e4 80 ba
       -7.263712e-12 -1.52139e-09 0.0017930366 -0.0009833854
000010 ee f4 41 3a ec 5e 95 ba fc e4 a9 b1 93 02 84 bb
       0.0007398863 -0.0011396087 -4.94458e-09 -0.004028627
000020 61 ec 70 bb 7b fe 36 ba dc 0c 3e 3b fc 35 e5 a8
       -0.0036761987 -0.00069806696 0.0028999364 -2.544752e-14
000030 b6 ca 56 b4 cc 6a cc b2 7c 7a 0f 94 2a 43 6b 3b
       -2.0004049e-07 -2.3797291e-08 -7.243811e-27 0.0035898187
000040 3a 76 fa ab ee 5b 8c b4 01 30 a7 ba cd 3f ec 81
       -1.7796383e-12 -2.614392e-07 -0.0012755395 -8.678426e-38
000050 da a8 43 bb 22 2e 72 38 9b 3f 37 a1 0d de b3 39
       -0.0029855282 5.774026e-05 -6.2086993e-19 0.0003430698
000060 91 61 6f b0 c6 37 0e bb cc 7d c4 ba 86 cc 45 b4
       -8.7086344e-10 -0.0021700724 -0.0014991104 -1.842146e-07
000070 3d dd bb ba 78 ae f2 b1 97 24 bc ba 9c 05 fd 3a
       -0.0014332902 -7.0629618e-09 -0.0014354166 0.001930404
000080 e1 9c 89 ba 6f 19 1c b1 52 98 dc b7 98 bf 6c bb
       -0.0010499024 -2.2715445e-09 -2.6296973e-05 -0.003612494
000090 9d 14 b5 b3 e4 d8 aa b9 a3 21 82 b4 c6 1b 21 b5
       -8.432219e-08 -0.00032586523 -2.423886e-07 -6.001759e-07
0000a0 34 39 f1 37 93 a3 5d a1 fc 42 26 82 94 2d f1 a5
       2.8756076e-05 -7.50942e-19 -1.2214977e-37 -4.183772e-16
0000b0 ba dd b9 31 b1 66 81 a4 6b 36 61 ba 61 77 de 9f
       5.409416e-09 -5.61188e-17 -0.0008591178 -9.421815e-20
0000c0 de 1c 24 b2 d1 96 5e ba 62 d5 21 bb 7b 04 fd a3
       -9.55262e-09 -0.00084911013 -0.0024693836 -2.7432213e-17
0000d0 a9 a6 5f ba 9b e7 e4 b2 5b 25 47 38 0e 19 d4 b1
       -0.0008531609 -2.6648015e-08 4.7480087e-05 -6.1728604e-09
0000e0 94 19 50 ba 62 4e e0 3a 8f d1 26 af 57 93 88 b4
       -0.0007938382 0.0017113204 -1.5172062e-10 -2.5439178e-07
0000f0 e5 02 25 3b e2 4c 46 b4 a8 5a d9 ae 9e 9e b3 b9
       0.0025178727 -1.8468157e-07 -9.884121e-11 -0.0003425972
000100 e9 ac 04 ac 64 58 3d b3 d0 05 3d b4 5d fc 8e ba
       -1.8854313e-12 -4.4085382e-08 -1.7604111e-07 -0.001090895
000110 c2 9b 0a bb fd cd 08 af ec 46 1f 30 99 75 fe b2
       -0.0021149968 -1.244231e-10 5.794465e-10 -2.9622969e-08
000120 ea 8a 07 bb 1f dc 29 b3 c3 51 03 bb 64 2b df ad
       -0.0020682164 -3.9548578e-08 -0.0020037747 -2.5371434e-11
000130 48 1a f8 aa 77 1a 65 a9 43 3a c1 37 a5 58 00 3a
       -4.4071886e-13 -5.087117e-14 2.3034523e-05 0.00048960216
000140 fa 3c c0 3a ae ca a6 3c 10 23 d8 3a 5d 37 b5 bb
       0.001466661 0.020360317 0.0016489942 -0.0055302815
000150 e8 cd 92 bb ef 28 81 b2 56 55 c5 ba 10 21 dc b2
       -0.0044801123 -1.5036191e-08 -0.0015055339 -2.5626406e-08
000160 60 59 93 b1 0c 5c ee ba
       -4.288424e-09 -0.0018185391

exp_avg_sq f4 [90]
000000 35 2c 9a 2c 82 c6 29 2d 5d c6 46 39 22 91 ea 38
       4.3818512e-12 9.650615e-12 0.00018956648 0.000111850226
000010 a8 c7 8a 37 d2 74 71 39 8d 46 15 2a b6 58 35 3a
       1.6543854e-05 0.0002302707 1.3258336e-13 0.0006917821
000020 5b 08 88 38 04 88 c2 38 c3 5f 4c 3a cb 34 8a 2a
       6.486542e-05 9.275976e-05 0.0007796252 2.4550357e-13
000030 69 e5 84 2f af 81 85 2e 50 f9 01 2a 41 3a ae 3a
       2.4173666e-10 6.071176e-11 1.1543999e-13 0.0013292508
000040 6c 68 01 2c f1 84 cf 2e 9a dc 96 39 34 ef 01 2a
       1.8389968e-12 9.436885e-11 0.0002877459 1.1540492e-13
000050 84 42 0d 3a 58 25 20 35 e9 a7 18 2b 8a f5 d9 36
       0.0005388635 5.9658987e-07 5.423427e-13 6.4956885e-06
000060 0d c0 9c 2c a8 2d 61 39 88 1c 6a 38 41 5b c7 31
       4.4551086e-12 0.0002147468 5.581652e-05 5.8020366e-09
000070 86 c7 bc 39 5d c1 93 2d db aa 8c 38 c3 2d 41 38
       0.0003600681 1.6797836e-11 6.7075445e-05 4.6057405e-05
000080 36 9a 4e 39 88 59 af 2d 28 62 fa 37 2b 9a e0 39
       0.00019703139 1.9934956e-11 2.984803e-05 0.00042839473
000090 37 65 f7 2e 02 bf 24 38 eb 0d a3 2e 99 1c 0b 32
       1.1250239e-10 3.9278537e-05 7.414854e-11 8.097367e-09
0000a0 d6 3e 40 30 02 e1 25 2b b1 df 08 2a 95 30 9e 2b
       6.993849e-10 5.8932037e-13 1.2156835e-13 1.1240059e-12
0000b0 f6 e5 0f 2e 59 58 10 2b eb 36 d8 38 dc 21 12 2b
       3.2718682e-11 5.1281684e-13 0.00010309912 5.191661e-13
0000c0 49 aa b7 2d 55 d8 98 38 46 ae 89 3a d4 5b 60 2b
       2.0880313e-11 7.28822e-05 0.0010504208 7.9708224e-13
0000d0 dc d0 13 39 f7 c3 40 2e ed 8c dc 36 ff a7 ad 2d
       0.00014096819 4.3829797e-11 6.572917e-06 1.9742428e-11
0000e0 d4 0e 00 39 f1 8b 5e 3a 6c 6f eb 2c ff eb 3f 2f
       0.00012212555 0.0008489481 6.691472e-12 1.7455191e-10
0000f0 57 31 8c 39 3e dd 8f 2f ed 03 bc 2c 09 c9 96 37
       0.00026739642 2.616875e-10 5.3437172e-12 1.7975008e-05
000100 15 68 7c 2c 21 11 46 2f 57 9e da 30 e7 a9 55 39
       3.586913e-12 1.801408e-10 1.590659e-09 0.00020376556
000110 ad bf 8d 39 d3 c2 ce 2c 01 42 64 2d 46 fd 76 2e
       0.00027036425 5.876502e-12 1.2974955e-11 5.6158876e-11
000120 bc ac e3 39 42 42 cb 2e 35 d0 be 38 a0 56 94 2c
       0.0004342551 9.243141e-11 9.0986876e-05 4.2160303e-12
000130 18 7f 19 2c d7 ca 54 2b 57 f6 65 32 25 d4 b1 35
       2.181316e-12 7.5599027e-13 1.33855655e-08 1.324927e-06
000140 23 a7 a9 38 6e 0b 03 3c 3a d9 0b 38 69 46 49 3a
       8.0896796e-05 0.0079983305 3.334249e-05 0.00076780334
000150 e6 61 ac 3a c5 be 04 31 91 98 fd 38 0e 1b bc 32
       0.0013151735 1.9316968e-09 0.00012092398 2.1898384e-08
000160 12 d7 4b 2d 60 10 18 38
       1.1586969e-11 3.6254874e-05

exp_avg f4 [6, 90]
000000 90 00 00 80 73 00 00 80 37 00 00 00 a4 00 00 80
       -2.02e-43 -1.61e-43 7.7e-44 -2.3e-43
000010 72 00 00 00 77 26 9d 8b 94 01 00 80 72 00 00 00
       1.6e-43 -6.0532076e-32 -5.66e-43 1.6e-43
000020 37 00 00 80 56 9b 49 82 e0 00 00 00 d7 00 00 00
       -7.7e-44 -1.4811727e-37 3.14e-43 3.01e-43
000030 cc 00 00 00 68 00 00 00 a5 00 00 00 54 00 00 00
       2.86e-43 1.46e-43 2.31e-43 1.18e-43
000040 8b 01 00 80 ff 00 00 00 c2 4f 5c 8e 37 00 00 80
       -5.54e-43 3.57e-43 -2.7155496e-30 -7.7e-44
000050 54 00 00 80 cd 00 00 80 c7 01 00 00 2c 00 00 00
       -1.18e-43 -2.87e-43 6.38e-43 6.2e-44
000060 b8 00 00 80 5e 00 00 00 55 00 00 80 9b 00 00 00
       -2.58e-43 1.32e-43 -1.19e-43 2.17e-43
000070 e8 9d c9 8f fe 00 00 00 0f 00 00 80 5e 00 00 00
       -1.9880954e-29 3.56e-43 -2.1e-44 1.32e-43
000080 e4 bc 00 00 e0 00 00 80 4a 00 00 00 4a 00 00 00
       6.7761e-41 -3.14e-43 1.04e-43 1.04e-43
000090 69 00 00 00 40 00 00 00 0e 00 00 80 4e 01 00 00
       1.47e-43 9e-44 -2e-44 4.68e-43
0000a0 af 00 00 80 d6 00 00 00 f4 00 00 00 4a 00 00 80
       -2.45e-43 3e-43 3.42e-43 -1.04e-43
0000b0 4a 00 00 00 77 01 00 00 93 61 d1 81 f5 00 00 80
       1.04e-43 5.25e-43 -7.6914487e-38 -3.43e-43
0000c0 54 00 00 00 54 00 00 00 fe 87 66 95 94 01 00 80
       1.18e-43 1.18e-43 -4.655541e-26 -5.66e-43
0000d0 36 78 ca 86 77 01 00 80 77 01 00 00 09 01 00 80
       -7.616059e-35 -5.25e-43 5.25e-43 -3.71e-43
0000e0 18 00 00 80 86 00 00 00 86 00 00 00 31 01 00 80
       -3.4e-44 1.88e-43 1.88e-43 -4.27e-43
0000f0 86 00 00 00 69 00 00 00 90 00 00 00 54 00 00 00
       1.88e-43 1.47e-43 2.02e-43 1.18e-43
000100 59 01 00 80 a4 00 00 00 ae 00 00 80 c2 8e 54 86
       -4.83e-43 2.3e-43 -2.44e-43 -3.997765e-35
000110 5e 00 00 00 e5 01 00 80 54 00 00 00 ef 01 00 80
       1.32e-43 -6.8e-43 1.18e-43 -6.94e-43
000120 54 00 00 00 8a 01 00 80 5e 00 00 00 73 00 00 00
       1.18e-43 -5.52e-43 1.32e-43 1.61e-43
000130 3b 01 00 00 18 00 00 80 40 00 00 00 86 00 00 00
       4.41e-43 -3.4e-44 9e-44 1.88e-43
000140 d7 00 00 80 1d 01 00 00 72 00 00 00 2c 00 00 80
       -3.01e-43 4e-43 1.6e-43 -6.2e-44
000150 5e 00 00 00 40 00 00 00 68 00 00 00 27 01 00 00
       1.32e-43 9e-44 1.46e-43 4.13e-43
000160 44 01 00 80 e0 00 00 80 0e 00 00 80 22 00 00 00
       -4.54e-43 -3.14e-43 -2e-44 4.8e-44
000170 36 00 00 80 2c 4a af ac f5 77 ef a7 3e d3 62 b3
       -7.6e-44 -4.982034e-12 -6.6465883e-15 -5.281185e-08
000180 91 00 00 80 9d 77 84 af 23 00 00 80 94 6c 1a b3
       -2.03e-43 -2.409565e-10 -4.9e-44 -3.595467e-08
000190 91 00 00 00 69 00 00 00 8b 01 00 80 4a 00 00 00
       2.03e-43 1.47e-43 -5.54e-43 1.04e-43
0001a0 7c 00 00 00 47 1b 0a ad d1 01 00 00 f4 00 00 00
       1.74e-43 -7.850449e-12 6.52e-43 3.42e-43
0001b0 2b 43 77 b3 58 01 00 80 2d 45 a6 2b 30 01 00 00
       -5.7570258e-08 -4.82e-43 1.181421e-12 4.26e-43
0001c0 ea 00 00 80 a3 38 4a a6 58 01 00 80 73 3f 31 b3
       -3.28e-43 -7.0159585e-16 -4.82e-43 -4.126873e-08
0001d0 9a 00 00 00 2d 00 00 80 95 82 9e b3 3b 01 00 80
       2.16e-43 -6.3e-44 -7.381201e-08 -4.41e-43
0001e0 fa c3 2a ab ce cb 0a aa df 8c 5f b3 09 01 00 00
       -6.0668105e-13 -1.2327571e-13 -5.2049355e-08 3.71e-43
0001f0 dd 1a 25 ad 3e ce 9b b2 4a 00 00 00 6f 91 31 b1
       -9.385129e-12 -1.8138163e-08 1.04e-43 -2.583956e-09
000200 b9 00 00 00 95 01 00 80 9e 01 00 80 7d 00 00 80
       2.59e-43 -5.68e-43 -5.8e-43 -1.75e-43
000210 54 00 00 00 09 01 00 00 d7 00 00 80 04 00 00 80
       1.18e-43 3.71e-43 -3.01e-43 -6e-45
000220 e0 ac 05 b3 55 00 00 80 73 00 00 80 ac 89 11 b2
       -3.1123705e-08 -1.19e-43 -1.61e-43 -8.471414e-09
000230 8f 36 a5 b3 68 00 00 80 0f 3f 91 b3 d7 00 00 80
       -7.6933354e-08 -1.46e-43 -6.763559e-08 -3.01e-43
000240 0e 00 00 80 3a 01 00 80 a5 16 a9 82 12 17 18 28
       -2e-44 -4.4e-43 -2.4845315e-37 8.4426976e-15
000250 9a 00 00 00 b3 01 00 00 f1 02 a2 ab e5 01 00 00
       2.16e-43 6.1e-43 -1.1511609e-12 6.8e-43
000260 87 00 00 00 36 b4 e4 b1 36 00 00 80 5f 00 00 80
       1.89e-43 -6.656161e-09 -7.6e-44 -1.33e-43
000270 59 01 00 00 4f 7f 80 b3 d7 8d 22 b3 45 01 00 80
       4.83e-43 -5.983622e-08 -3.7847567e-08 -4.55e-43
000280 ea 00 00 00 b8 00 00 80 01 98 c5 b2 55 00 00 80
       3.28e-43 -2.58e-43 -2.3002942e-08 -1.19e-43
000290 91 bf 39 b2 0e 00 00 00 da 01 00 80 55 00 00 80
       -1.0811974e-08 2e-44 -6.64e-43 -1.19e-43
0002a0 ea 00 00 80 a4 00 00 80 56 26 0c 0c 90 00 00 00
       -3.28e-43 -2.3e-43 1.0796744e-31 2.02e-43
0002b0 0f 31 83 9d f1 33 0e 2a 7f 6f 9d b2 69 00 00 80
       -3.4726137e-21 1.2630154e-13 -1.8327908e-08 -1.47e-43
0002c0 4b 02 a4 25 b8 00 00 80 54 00 00 00 90 00 00 00
       2.845102e-16 -2.58e-43 1.18e-43 2.02e-43
0002d0 74 b0 39 33 3c 78 31 ad 2b df 00 3a d3 43 04 3a
       4.3234152e-08 -1.00879825e-11 0.0004916067 0.0005045507
0002e0 ee e0 eb 39 5e 6a db bb 12 ee 75 31 8d 5b 3b bc
       0.0004499028 -0.0066960296 3.578752e-09 -0.011435402
0002f0 28 72 5f ba 1a eb 0a bc 01 2c ff b8 0c 61 09 34
       -0.00085237855 -0.008478904 -0.00012167544 1.2794425e-07
000300 46 84 8c b4 fc ca 82 34 f1 6d 0a 2e c8 e9 9c bb
       -2.6173274e-07 2.4362078e-07 3.1475215e-11 -0.004788611
000310 6b cd 00 a5 0a db 1f 34 38 75 45 bc 86 00 00 80
       -1.1171829e-16 1.4887715e-07 -0.012051873 -1.88e-43
000320 d1 bb 86 3b fb 5b 01 35 ac 75 e9 31 6e 19 da b8
       0.004111745 4.8190094e-07 6.7945702e-09 -0.00010399787
000330 53 d9 fd 32 4b 36 fb bb b7 fb e7 3a c0 26 4b b4
       2.9551904e-08 -0.0076663843 0.0017698918 -1.8919945e-07
000340 c6 58 3e bc 3e ee 0e 34 53 ca 1d bb 96 a9 58 bb
       -0.011617845 1.3311453e-07 -0.0024076893 -0.0033060065
000350 b5 48 21 bc a6 ce e8 b3 b5 28 79 3a cb 58 18 bc
       -0.009843995 -1.0840931e-07 0.0009504662 -0.009298514
000360 f3 25 b6 34 54 8c 03 39 c0 7a a4 34 df 84 f4 b6
       3.3927753e-07 0.0001254541 3.0636693e-07 -7.287235e-06
000370 6f 7f da b8 66 c3 ac 8b 34 ea 30 b1 26 e6 55 31
       -0.000104187864 -6.6545993e-32 -2.57445e-09 3.1126404e-09
000380 5e 89 0c b2 22 9b 0a a0 85 52 38 bc dd cb 8b 2e
       -8.180306e-09 -1.1740384e-19 -0.011250143 6.3572016e-11
000390 77 0b 82 b4 4f 27 11 bc 5e 84 4e bc 44 e3 2f 2f
       -2.422273e-07 -0.00885947 -0.012604801 1.5996898e-10
0003a0 53 4e 31 bc 02 82 e9 33 21 62 0d ba 6a 48 85 32
       -0.010821897 1.0873556e-07 -0.00053933455 1.5516168e-08
0003b0 6e 3f a4 3a 7c eb c7 ba d3 48 c0 b3 aa ee 54 34
       0.001253111 -0.0015252675 -8.9539434e-08 1.9830864e-07
0003c0 f4 3c 4c bb 69 1a 74 34 d5 37 52 b3 46 c3 b2 bb
       -0.003116426 2.2733879e-07 -4.8945214e-08 -0.0054554073
0003d0 76 37 31 33 ca 7c 1a 34 19 fc 59 b2 26 c8 3d bc
       4.1261465e-08 1.4387766e-07 -1.2688383e-08 -0.011583364
0003e0 14 59 59 bc bc d8 2c b3 1c 2b 58 30 1b d6 dc b3
       -0.013265867 -4.024399e-08 7.8641604e-10 -1.0283494e-07
0003f0 d7 c6 48 bc 12 8e 7e 34 bc 60 cc bb 86 85 1c 34
       -0.012254438 2.3707278e-07 -0.0062371176 1.4577208e-07
