mnc_ml_test/output/best/20221127-1517-model-test7.pth (torch, 21397 bytes, 15 tensors)

module.0.weight f4 [60, 12]
-4.570189e-23 3.2383225e-22 2.1902755e-38 -4.814109e-31 1.3613035e-36 -9.4085825e-36 -7.3899643e-13 5.18918e-40
5.3080275e-31 4.304548e-22 5.907126e-30 -6.2573664e-22 -0.19913208 -0.32235622 0.13043587 0.09775858
0.020431355 0.2633225 -0.056752767 0.08434777 0.25118452 -0.1311595 -0.068020634 -0.2310587
-0.09365146 0.34148267 0.31566 0.15252809 0.2533004 -0.11696694 0.37974408 0.0049108984
0.2118426 0.3244463 -0.13582306 -0.24078645 -0.27580866 -0.3010483 0.009370228 -0.18650532
0.07741863 0.18855871 -0.21592285 -0.1407292 0.13010074 -0.07105618 -0.118977726 0.116614155
1.6161722e-10 8.393899e-21 -8.3910856e-18 -1.9155342e-11 1.7548056e-17 -3.280336e-09 -3.0109774e-08 -1.3097546e-17
1.8818406e-26 3.641115e-14 1.3568078e-14 -3.637036e-11 0.07108883 -0.5632971 0.8950565 -0.1740581
0.06626774 0.31623945 -0.14739433 0.36507338 0.49656352 -0.23799925 -0.20905271 -0.09825593
0.14958724 -0.31845915 0.55275947 -0.15127538 0.08860854 0.20747621 -0.18471485 0.22249185
0.19565961 0.032172743 -0.0037225662 -0.10187543 -0.39667016 -0.17737742 -0.23486054 0.20705266
0.04556553 0.08532637 0.49021208 0.0057468168 -0.0076148314 -0.20062163 -0.2360032 0.0026368229
-0.49530447 0.33288458 -0.5573502 0.14879769 0.06919118 -0.17265788 -0.0020692144 0.13198565
-1.4184304 0.41784114 -0.033553816 -0.118221454 0.033170696 -0.2775203 -0.29729924 -0.2561064
0.11488545 0.12792358 -0.13343729 -0.12399189 -0.36160296 -0.058928236 -0.28767052 0.11136865
0.009308181 -0.2823477 0.3773966 -0.23355728 0.2726215 0.173043 -0.07541211 0.22188915
0.15198602 0.081902556 0.04573733 0.030574545 0.2082401 -0.46482816 0.038101323 -0.27369055
0.21390845 0.29980555 -0.24516712 -0.29073963 0.08429323 -0.036620304 -0.26396674 -0.007753715
0.03707945 0.0010398213 -0.6828402 0.24731389 0.22060227 0.26284134 -0.23981166 -0.11962154
-0.39636314 0.090371795 0.11111535 -0.32010564 -0.20394796 -0.35246906 -0.0164254 0.11844956
0.07614956 0.19635938 -0.036846448 0.20154501 0.011045818 -0.05043043 -0.15241233 -0.07127546
0.65215003 -0.4708536 0.9107324 -0.15133077 -0.06607444 0.48200732 -0.4583842 -0.07053978
0.4481161 -0.16104364 0.045077987 -0.24180377 -0.03434275 0.34869546 -0.44006255 -0.04278423
-0.17005417 -0.08000043 -0.24313611 0.108535156 -0.16141805 0.07849039 0.1307887 0.17027482
7.387957e-08 -2.673034e-08 -9.92063e-21 9.000979e-10 -1.4636595e-09 -3.720793e-13 -1.7183199e-06 -3.3284864e-11
-4.733412e-12 5.8662306e-09 -5.1611696e-14 -9.048712e-11 -6.8704035e-14 3.1433964e-22 -9.787061e-26 -1.4572309e-19
-5.008867e-18 -1.0965671e-18 -2.6903821e-09 -1.9816684e-33 -3.354779e-38 1.4339528e-20 -2.170943e-28 -1.3747914e-24
0.13171434 0.33113775 0.03000923 0.30940974 0.09053577 -0.26285854 0.09949163 -0.021393104
-0.03333458 0.15237726 -0.11318505 -0.013888733 0.32028133 -0.54419047 0.6479634 -0.15832675
-0.032679 0.3542685 0.22477412 0.15764341 1.0733439 -0.32505044 0.04476517 -0.06795061
-0.5334799 0.17273268 -0.26118743 -0.069950335 0.006313252 -0.08976462 0.21350951 0.089329556
-0.088362604 0.039710794 0.029860118 -0.02390973 0.6058523 -0.5468881 0.1535635 -0.19009277
00000000: 3300 5d9a 9dbe c31b f87f ee00 0e3a 1c8d
00000010: 219d e703 3219 4885 4e02 50ab 88a6 0500
00000020: 5e41 2c0d d418 021c 1b9f ef0e 071e 3d9c
00000030: 48e9 4bbe e00b a5be fb90 053e a735 c83d
00000040: a85f a73c 35d2 863e 9775 68bd 86be ac3d
00000050: 429b 803e ad4e 06be 674e 8bbd a79a 6cbe
00000060: 56cc bfbd d1d6 ae3e 309e a13e 5330 1c3e
00000070: 97b0 813e 5d8c efbd d16d c23e 9aeb a03b
00000080: 44ed 583e d31d a63e 3315 0bbe b990 76be
00000090: cb36 8dbe 0123 9abe 9685 193c 40fb 3ebe
000000a0: a98d 9e3d 8915 413e e11a 5dbe 511b 10be
000000b0: 2139 053e e785 91bd 98aa f3bd 67d3 ee3d
000000c0: 34b3 312f 688e 1e1e c8c9 1aa3 ff7d a8ad
000000d0: 2dda a123 486c 61b1 0c52 01b3 6a9b 71a3
000000e0: 545e ba14 33fb 2329 b76b 7428 63f5 1fae
000000f0: 0597 913d 3d34 10bf 6c22 653f 493c 32be
00000100: 62b7 873d 23ea a13e 8aee 16be e6ea ba3e
00000110: 933d fe3e 13b6 73be ea11 56be 683a c9bd
00000120: 662d 193e 140d a3be a581 0d3f efe7 1abe
00000130: 6578 b53d a574 543e e425 3dbe e7d4 633e
00000140: fe5a 483e 91c7 033d 4cf6 73bb 11a4 d0bd
00000150: 5a18 cbbe 6da2 35be 487f 70be 9d05 543e
00000160: eca2 3a3d 98bf ae3d 14fd fa3e cb4f bc3b
00000170: d685 f9bb c26f 4dbe d3aa 71be 8cce 2c3b
00000180: 8c98 fdbe d96f aa3e 81ae 0ebf 6c5e 183e
00000190: 1bb4 8d3d 3acd 30be a89b 07bb 3f27 073e
000001a0: 218f b5bf 46ef d53e ba6f 09bd 171e f2bd
000001b0: ffdd 073d 2417 8ebe 9b37 98be 6120 83be
000001c0: 1049 eb3d 66fe 023e c9a3 08be 76ef fdbd
000001d0: 0624 b9be bc5e 71bd 8d49 93be 3f15 e43d
000001e0: 5781 183c e18f 90be 213a c13e a429 6fbe
000001f0: 0c95 8b3e 2f32 313e aa71 9abd e936 633e
00000200: 39a2 1b3e 87bc a73d 1157 3b3d 7877 fa3c
00000210: e53c 553e f5fd edbe 2210 1c3d 2b21 8cbe
00000220: d10a 5b3e 1d80 993e 170d 7bbe d3db 94be
00000230: eea1 ac3d 2cff 15bd a626 87be e012 febb
00000240: 9fe0 173d 9d4a 883a 9ece 2ebf da3f 7d3e
00000250: 90e5 613e 2493 863e 3091 75be 23fc f4bd
00000260: 1cf0 cabe d914 b93d 7290 e33d e3e4 a3be
00000270: bcd7 50be d376 b4be 8f8e 86bc af95 f23d
00000280: 4df4 9b3d 6f12 493e 4dec 16bd d161 4e3e
00000290: 85f9 343c 2390 4ebd fa11 1cbe def8 91bd
000002a0: 4ef3 263f b913 f1be c225 693f 74f6 1abe
000002b0: 0952 87bd aac9 f63e 55b1 eabe 2977 90bd
000002c0: 796f e53e a0e8 24be b2a3 383d 689b 77be
000002d0: fcaa 0cbd 3688 b23e e14f e1be 843e 2fbd
000002e0: ae22 2ebe 44d7 a3bd acf8 78be ae47 de3d
000002f0: c64a 25be 92bf a03d 79ed 053e 865c 2e3e
00000300: b9a7 9e33 a49c e5b2 3965 3b9e c26a 7730
00000310: f129 c9b0 4776 d1aa 06a1 e6b5 6d63 12ae
00000320: c98a a6ac e98f c931 3c70 68a9 b8fb c6ae
00000330: 2eb5 9aa9 b401 be1b de50 f295 1a0a 2ca0
00000340: 69cb b8a2 22d3 a1a1 b4e1 38b1 6da1 2489
00000350: cba6 3681 da6e 871e 9099 8991 19bd d497
00000360: 20e0 063e e38a a93e ebd5 f53c f46a 9e3e
00000370: d16a b93d 6595 86be 45c2 cb3d 9740 afbc
00000380: d789 08bd c908 1c3e 90cd e7bd 928d 63bc
00000390: eafb a33e 1150 0bbf eee0 253f 6820 22be
000003a0: 6ada 05bd ae62 b53e 302b 663e 466d 213e
000003b0: 5563 893f 036d a6be af5b 373d b029 8bbd
000003c0: 2492 08bf d6e0 303e 5cba 85be 1f42 8fbd
000003d0: 65df ce3b 83d6 b7bd 3da2 5a3e 6af2 b63d
000003e0: 74f7 b4bd c9a7 223d 359d f43c 57de c3bc
000003f0: 2319 1b3f dc00 0cbf c03f 1d3e aea7 42be

module.0.bias f4 [60]
-7.3899643e-13 0.017770197 0.29434884 -0.1841981 -3.0109774e-08 -0.14463675 0.018175822 0.5450022
-0.25687632 -0.17276058 -0.18417375 -0.2306584 -0.30266505 0.09197575 -0.10231741 -0.13121054
-1.7183199e-06 -2.6903821e-09 0.024061963 -0.14459147 0.43114161 -0.37949112 -0.06781857 -2.0789107e-10
-0.28200877 0.15293346 -0.035391413 -0.07373413 -0.12655134 -0.054189287 -2.946385e-16 -1.2456242e-15
0.51250076 -1.580245e-06 -0.056484245 -0.034359723 -0.3972999 -0.13747083 -0.03183435 -0.11256234
-0.21934956 -0.063578896 -0.10199847 -0.013135795 -5.4415132e-08 -0.012117485 -0.31782374 -0.21889932
-0.043321975 0.41256878 0.27136308 -0.017593516 -0.03522874 -0.40304708 -0.32181606 -0.09035592
-0.05485745 -0.2905048 -9.2978774e-17 -0.023953034
00000000: 4e02 50ab ce92 913c e4b4 963e 6d9e 3cbe
00000010: 0c52 01b3 a81b 14be 76e5 943c 4485 0b3f
00000020: 4b85 83be 26e8 30be 0b98 3cbe b731 6cbe
00000030: eaf6 9abe c85d bc3d ca8b d1bd 0e5c 06be
00000040: 06a1 e6b5 b4e1 38b1 981d c53c c90f 14be
00000050: 98be dc3e a94c c2be 76e4 8abd 2294 64af
00000060: 7463 90be 979a 1c3e 96f6 10bd eb01 97bd
00000070: ad96 01be 96f5 5dbd f8d8 a9a5 6c83 b3a6
00000080: 4033 033f ce18 d4b5 065c 67bd c8bc 0cbd
00000090: e46a cbbe 27c5 0cbe bc64 02bd 1687 e6bd
000000a0: 2c9d 60be a735 82bd 93e4 d0bd 8437 57bc
000000b0: 12b6 69b3 6a88 46bc cbb9 a2be 2527 60be
000000c0: 6272 31bd 373c d33e 1af0 8a3e 4720 90bc
000000d0: 034c 10bd 305c cebe 13c5 a4be 860c b9bd
000000e0: 35b2 60bd 0cbd 94be fb64 d6a4 2739 c4bc

module.2.weight f4 [6, 60]
-1.0018861e-38 0.049876183 -0.06617886 -0.09358713 2.7178e-40 -0.30693617 -0.29749653 0.021650437
0.036758844 0.103102 -0.03983051 0.0987111 0.029066352 -0.12140734 -0.6046569 -0.068570286
6.8034096e-28 -1.3751888e-38 0.048261125 -0.30902767 0.031739037 -0.11453185 0.14514123 -1.8918296e-27
0.08135018 -0.10512503 -0.00069462147 -0.10148282 -0.44366446 -0.00015493603 1.3688871e-38 2.3617856e-33
0.07137778 1.8211194e-38 -0.007826172 0.003148126 -0.049663983 0.0838336 -0.0065733925 -0.4309175
-0.21946926 0.13215418 -0.12292207 1.6066793e-05 1.0568876e-38 0.00011664986 -0.39476028 -0.0022227864
0.026514847 -0.1274383 -0.020607146 -4.0958884e-17 -0.11271132 -0.2415597 0.123202346 -0.23821378
-0.21949115 0.2008536 -8.848925e-39 -0.0008044864 -6.3788896e-08 0.10739404 0.052596737 0.022081451
4.5213974e-07 -0.19148467 -0.0620202 0.20719354 -0.67931515 -0.14016843 -0.061101966 0.087725125
-0.22011873 0.064871214 0.50269437 0.027169233 -6.5526265e-06 -2.6485118e-06 -0.053409565 -0.24037121
0.07846463 0.0384618 -0.7811016 -0.0011137339 -0.15914759 0.10310244 -0.0023313195 0.08462826
-0.009198793 5.4329983e-05 1.5529566e-14 2.6368068e-06 0.21029824 2.168667e-07 0.005879323 0.0048873015
-0.13260125 0.121331096 0.0024295917 -0.27204335 0.055466987 -0.034766853 0.09566581 -0.00089447416
-4.144589e-08 0.0035263451 -0.5886684 -0.025636926 -0.08250024 0.194206 0.08951656 -0.0051683392
-0.054673083 -0.11020366 -0.07806825 0.04728162 -0.07652764 0.065343864 2.0495725e-09 -0.010536506
-1.0668528e-38 0.00018789938 -0.0056733303 0.0010700907 5.590939e-38 -0.0018468066 -6.913428e-06 -0.008064622
3.1493104e-07 0.004434635 -0.00015047967 -0.00026847128 -8.4960787e-29 -0.0018372738 -4.707644e-10 -6.154601e-24
2.3068642e-38 5.383994e-38 -0.0013490461 -0.01078799 -0.0016816733 -0.00011370749 6.861523e-33 -8.736556e-39
1.430911e-07 -0.012869805 1.4410359e-38 2.5337414e-09 6.5943377e-13 -5.1569885e-38 -2.7907759e-38 9.726669e-39
-0.0071210666 9.434564e-39 1.0189972e-38 2.5825073e-38 -0.00069413526 1.9371804e-05 1.3171847e-38 2.2853688e-07
-0.00069908676 -1.2478242e-10 0.0066043017 1.8890095e-38 3.5064876e-38 -5.712101e-38 9.091386e-11 -0.0001318852
1.6359273e-08 -0.0036336605 -0.0040363558 1.7621695e-38 4.329325e-05 -1.5653556e-38 -1.7804051e-18 -1.382315e-07
1.486323e-05 1.327153e-09 9.257273e-39 4.1797028e-38 -6.728564e-09 -0.036977608 0.16853638 0.06883912
3.530333e-08 -0.06393897 -0.043558467 0.19339608 -0.7142757 -0.07003398 0.01842751 0.027236197
-0.20059025 0.029627893 0.48298886 0.0070376922 -1.7544154e-06 -5.107095e-07 -0.07580051 -0.3893581
0.16896875 0.15299466 -0.70816517 0.0007664774 -0.1184638 0.1165722 -0.0022395249 -0.104881875
0.013012009 4.8875434e-05 2.3207454e-17 3.9483203e-07 0.1403476 1.5906991e-08 0.005772399 0.004637894
-0.020741463 -0.06941739 0.0021909482 -0.15176137 0.037134107 0.029037116 0.09311517 -0.00072730886
-3.84373e-09 0.003040792 -0.45612764 -0.022795172 0.039641086 0.16288619 0.025627056 -0.0037843173
-0.020849396 -0.0957127 -0.120982364 0.024770567 -0.061864488 0.062206265 4.889605e-11 -0.0100304065
5.3532595e-38 -3.219246e-14 -0.0018684167 -5.6680098e-11 -2.0269075e-38 -3.859163e-16 -1.3845246e-27 -0.0060723326
-1.3490307e-38 -8.3600635e-06 3.4088244e-38 -7.1433e-14 6.037807e-38 -1.5768446e-08 -1.4974791e-38 3.1577131e-38
00000000: 8218 6d80 f84a 4c3d c888 87bd 9caa bfbd
00000010: 9df5 0200 bd26 9dbe 7751 98be 425c b13c
00000020: 7190 163d 2427 d33d 5125 23bd 0c29 ca3d
00000030: 8f1c ee3c 69a4 f8bd cbca 1abf 946e 8cbd
00000040: d19b 5712 abbe 9580 75ad 453d e038 9ebe
00000050: cb00 023d ad8f eabd e79f 143e dde2 1593
00000060: ec9a a63d cb4b d7bd 4217 36ba 3ad6 cfbd
00000070: fd27 e3be 5376 22b9 010f 9500 a035 4409
00000080: 832e 923d 664d c600 5839 00bc ca50 4e3b
00000090: 766c 4bbd f3b0 ab3d 9d65 d7bb 38a1 dcbe
000000a0: 8dbc 60be 6d53 073e 91be fbbd 2dc7 8637
000000b0: ba15 7300 eba1 f438 051e cabe 2bac 11bb
000000c0: aa35 d93c 307f 02be 51d0 a8bc b7e3 3ca4
000000d0: 31d5 e6bd 6d5b 77be 8351 fc3d 50ee 73be
000000e0: 4ac2 60be 91ac 4d3e 345b 6080 2be4 52ba
000000f0: 51fc 88b3 68f1 db3d ad6f 573d 29e4 b43c
00000100: 9dbd f234 8f14 44be e508 7ebd 8b2a 543e
00000110: 99e7 2dbf 5088 0fbe 0e46 7abd 3ba9 b33d
00000120: ce66 61be 33db 843d 94b0 003f 0392 de3c
00000130: a2de dbb6 16bd 31b6 fdc3 5abd df23 76be
00000140: 10b2 a03d 1f8a 1d3d 46f6 47bf b5fa 91ba
00000150: 96f7 22be 5f27 d33d 0dc9 18bb 9551 ad3d
00000160: 89b6 16bc 60e0 6338 bee0 8b28 fff3 3036
00000170: 6c58 573e dddb 6834 56a7 c03b a825 a03b
00000180: 9fc8 07be 707c f83d c939 1f3b 4449 8bbe
00000190: 5a31 633d b067 0ebd 70ec c33d 257b 6aba
000001a0: 3d02 32b3 411a 673b f9b2 16bf 8804 d2bc
000001b0: e3f5 a8bd f0dd 463e 7554 b73d 2c5b a9bb
000001c0: e2f0 5fbd 75b2 e1bd 3fe2 9fbd 5faa 413d
000001d0: 86ba 9cbd 01d3 853d 76d8 0c31 4fa1 2cbc
000001e0: 842b 7480 db06 4539 58e7 b9bb 4942 8c3a
000001f0: 2833 9801 8c10 f2ba e5f9 e7b6 7a21 04bc
00000200: cb13 a934 6a50 913b 14ca 1db9 9bc1 8cb9
00000210: b466 d790 aed0 f0ba 1a67 01b0 3718 ee98
00000220: fd31 fb00 f690 9201 7ad2 b0ba 1cc0 30bc
00000230: 986b dcba 3e76 eeb8 1d82 0e0a f721 5f80
00000240: 95a4 1934 e0db 52bc 38ea 9c00 0d1e 2e31
00000250: 369d 392b f762 8c81 bdf1 1781 ffe9 6900
00000260: d657 e9bb babb 6600 7ff5 6e00 e69a 0c01
00000270: a1f6 35ba a280 a237 c06d 8f00 bd63 7534
00000280: eb42 37ba 2133 09af e668 d83b e6b1 cd00
00000290: 4ee9 3e01 897f 9b81 f4eb c72e aa4a 0ab9
000002a0: 6c86 8c32 b522 6ebb 6843 84bb 1ee2 bf00
000002b0: c695 3538 bf73 aa80 e75e 03a2 c96c 14b4
000002c0: 165d 7937 0c67 b630 83cd 6400 8e90 6301
000002d0: 1331 e7b1 d575 17bd cd94 2c3e 86fb 8c3d
000002e0: 6ca0 1733 6ff2 82bd 5d6a 32bd 9f09 463e
000002f0: c6da 36bf fa6d 8fbd 4af5 963c 721e df3c
00000300: 8867 4dbe 32b6 f23c 514a f73e 719c e63b
00000310: 4179 ebb5 b117 09b5 4c3d 9bbd f259 c7be
00000320: 2506 2d3e a2aa 1c3e 504a 35bf 6ded 483a
00000330: 269d f2bd 68bd ee3d fec4 12bb 4fcc d6bd
00000340: 5230 553c 99ff 4c38 0d0d d623 4df9 d334
00000350: 48b7 0f3e d8a3 8832 6426 bd3b 7af9 973b
00000360: 00ea a9bc b42a 8ebd 0396 0f3b 5567 1bbe
00000370: ef19 183d 3fdf ed3c 2bb3 be3d dfa8 3eba
00000380: ce11 84b1 0648 473b 9089 e9be f1bc babc
00000390: b15e 223d a3cb 263e d5ef d13c 4f02 78bb
000003a0: 5acc aabc 0505 c4bd 9ac5 f7bd a5eb ca3c
000003b0: 9e65 7dbd ffcb 7e3d 0f0c 572e 9356 24bc
000003c0: c6ba 9101 61fb 10a9 a9e5 f4ba 1e48 79ae
000003d0: efb5 dc80 3277 dea5 fd62 db92 6bfa c6bb
000003e0: 7de5 9280 3342 0cb7 1498 3901 52da a0a9
000003f0: 605d a401 2e73 87b2 a00f a380 19ec 2b01

module.2.bias f4 [6]
0.33438644 0.4513855 -0.010372967 0.32782295 -0.007041991 0.043085333
00000000: b334 ab3e 001c e73e 61f3 29bc 69d8 a73e
00000010: 81c0 e6bb 3f7a 303d

module.4.weight f4 [1, 6]
0.047460224 0.27642354 0.0056000683 0.22261411 -0.00407733 0.08858798
00000000: a765 423d 6387 8d3e c780 b73b f4f4 633e
00000010: 209b 85bb 9d6d b53d

exp_avg f4 [60, 12]
-6.3057065e-28 4.3985313e-27 2.3e-43 -8.70193e-36 2.5923e-41 1.97293e-40 -8.510206e-18 6e-45
9.759649e-36 5.796269e-27 9.953363e-35 -8.350637e-27 0.0005865606 -9.7113654e-05 0.00012143953 1.566802e-05
0.0015964461 -0.00073570653 -0.0004020471 0.00023067478 -0.00015508976 -6.7773624e-05 0.0008263681 -0.00050137506
0.0030201506 0.000736222 0.0022112909 0.0008095316 0.0024767194 -0.004408815 0.0033186765 0.0029003643
-0.0011534571 -0.0013120904 -0.0007613047 -0.0012425175 0.0005489477 0.00043456972 3.6554644e-05 -0.0004465497
0.0005210989 0.0001228459 -0.00022036966 0.0005718351 -0.00020748065 -0.0005441825 0.0001322546 6.835032e-05
1.7889863e-15 1.0793632e-25 -1.0485773e-22 -2.1297599e-16 2.1538435e-22 -3.572888e-14 -3.2602168e-13 -1.6178472e-22
2.8321127e-31 4.2833325e-19 1.6005672e-19 -4.0793692e-16 -0.0015209448 -0.0020727296 -0.0028536504 -0.0016712428
-0.0029464446 0.0028389178 -0.0026318713 -0.002431256 0.0001179045 0.00035541566 -8.1871476e-05 0.00039202927
5.6036773e-05 -0.0005555357 -0.001527756 -0.0011936929 -0.0018787646 0.0015364982 -0.0021429795 -0.00078767503
-0.00014107687 2.6165138e-05 -0.00032820608 0.00024149498 0.0064327987 0.0031708332 0.003801628 0.0012421589
0.005880101 -0.0066671995 0.007622109 0.006965893 -0.0029146287 -0.0032858176 -0.0013447417 -0.0003896537
-0.004574447 -0.005317157 0.000515032 0.00036953745 0.0056903455 -0.0040935846 0.002295511 -0.004559659
0.00081084424 0.0007862311 0.004844943 -0.0022909432 -0.00015409118 -0.00013055374 -3.5796213e-05 0.001047798
-1.194668e-05 -0.000946967 -0.0021987318 -0.0006315813 0.00066425314 0.0014874431 0.00069684396 -0.0012078594
-0.00013413196 -0.0001030017 -0.00030023482 -7.386765e-05 -0.0004556612 0.00054873474 -0.00029057192 -0.00021121767
-1.61741e-05 0.00012762092 -3.354925e-05 0.00027417592 8.754566e-05 0.00028451878 0.0002658168 0.00013262317
0.000532475 -0.00016776999 -0.00016212172 0.0001772264 0.00018085295 0.00013239782 0.00027122104 -7.2024945e-05
-0.0012129198 0.00018396576 7.151128e-05 4.172763e-05 -0.0001817033 -0.00042535883 -0.00018518396 -0.000770111
0.0004483338 0.00032443937 0.00067475677 -0.0004439878 0.0008157473 -0.00017122873 6.175689e-05 -0.00019213922
0.0005760604 -0.00075660663 0.0005780826 0.00061365095 -0.0005337263 -0.00052926503 -0.00022047278 -0.00020626416
-0.00059278245 0.0018362683 3.0300353e-05 0.002275906 0.0006224205 0.0019798796 -0.00052340206 0.00023129699
0.00034049313 0.0014233413 0.0005717098 0.00072570064 -0.000116533694 -1.2768802e-06 6.987702e-05 7.350755e-05
-6.716279e-05 -0.0001288378 -7.504772e-05 -5.8911162e-05 8.882689e-05 6.847599e-05 2.6140999e-05 -0.00010405828
7.8930807e-13 -2.8806292e-13 -1.2863214e-25 9.777732e-15 -1.6035304e-14 -4.2312733e-18 -1.8145301e-11 -3.740746e-16
-5.3403796e-17 6.332197e-14 -5.997917e-19 -1.0013143e-15 -7.917627e-19 4.2240817e-27 -1.4205324e-30 -1.8659387e-24
-6.209816e-23 -1.3822698e-23 -2.946188e-14 -4.3137628e-38 -3.42e-43 1.8499098e-25 -3.4051955e-33 -1.9823824e-29
-0.0005914481 5.9165297e-05 -0.0011805258 -0.0012570033 -0.0007322695 0.0023591688 -0.0022869336 -0.0008258771
0.00026398702 -4.4970984e-05 0.00042223049 0.0006725912 -0.0060001723 -0.0028618474 -0.0057191784 -0.0028647264
-0.013010578 0.008703393 -0.0058410345 -0.0067815445 0.0018585267 0.0019527713 -0.0029211415 0.0019613977
0.004204871 0.0017549971 0.0021538138 0.000449195 0.0036588095 -0.0037112923 0.0048088315 0.00435809
-0.0019594876 -0.0022401984 -0.0009251885 8.978375e-05 2.630372e-05 -0.0001347921 -0.00018853549 5.1735147e-05
00000000: f8d5 4792 683e ae13 a400 0000 d011 3985
00000010: 4348 0000 f925 0200 50fc 1ca3 0400 0000
00000020: 9590 4f05 279d e513 8a4d 0407 c366 2594
00000030: 6ac3 193a 7fa9 cbb8 5aad fe38 d16e 8337
00000040: d83f d13a 6edc 40ba d9c9 d2b9 4ae1 7139
00000050: 979f 22b9 b021 8eb8 a0a0 583a b66e 03ba
00000060: b8ed 453b 06ff 403a 4eeb 103b bf36 543a
00000070: 7550 223b d277 90bb 277e 593b 0a14 3e3b
00000080: 992f 97ba 73fa abba 4b92 47ba f8db a2ba
00000090: 42e7 0f3a f6d6 e339 4052 1938 e31e eab9
000000a0: 5b9a 083a 32d0 0039 0813 67b9 34e7 153a
000000b0: 2a8f 59b9 78a7 0eba d3ad 0a39 4c57 8f38
000000c0: f9e8 0027 639e 0516 cb87 fd9a 6b8b 75a5
000000d0: 1d31 821b 98e8 20a9 ad88 b7aa f295 439b
000000e0: 8bd0 b70c e4d7 fc20 2df6 3c20 dd28 eba5
000000f0: 705a c7ba a2d6 07bb 4f04 3bbb 9a0d dbba
00000100: 2319 41bb 230d 3a3b 797b 2cbb b555 1fbb
00000110: 7f43 f738 1557 ba39 6ab2 abb8 4789 cd39
00000120: 0709 6b38 5fa1 11ba fc3e c8ba b075 9cba
00000130: e140 f6ba 5364 c93a 3b71 0cbb fa7b 4eba
00000140: 09ee 13b9 357d db37 1313 acb9 d139 7d39
00000150: 3aca d23b c1cd 4f3b bc24 793b f0cf a23a
00000160: ddad c03b 8678 dabb e2c2 f93b 2542 e43b
00000170: 5b03 3fbb df56 57bb 0b42 b0ba 6f4a ccb9
00000180: 3ee5 95bb 8c3b aebb 3603 073a 7abe c139
00000190: 1476 ba3b 7a23 86bb 4970 163b 3169 95bb
000001a0: d68e 543a 131b 4e3a 54c2 9e3b a623 16bb
000001b0: 8993 21b9 41e5 08b9 e423 16b8 4456 893a
000001c0: 9a6e 48b7 e13d 78ba 9918 10bb b490 25ba
000001d0: 4621 2e3a 4ff6 c23a 68ac 363a 0951 9eba
000001e0: c6a5 0cb9 9e02 d8b8 d668 9db9 65e9 9ab8
000001f0: d0e5 eeb9 f7d8 0f3a e757 98b9 507a 5db9
00000200: 9ead 87b7 fbd1 0539 3cb7 0cb8 45bf 8f39
00000210: b898 b738 772b 9539 545d 8b39 c310 0b39
00000220: cb95 0b3a 6aeb 2fb9 38ff 29b9 d9d5 3939
00000230: 58a3 3d39 45d4 0a39 ac32 8e39 190c 97b8
00000240: d6fa 9eba efe6 4039 53f8 9538 b404 2f38
00000250: 9c87 3eb9 b202 dfb9 f12d 42b9 46e1 49ba
00000260: 580e eb39 8419 aa39 29e2 303a 09c7 e8b9
00000270: e0d7 553a dd8b 33b9 7a83 8138 fb78 49b9
00000280: c202 173a 0357 46ba 778a 173a 6bdd 203a
00000290: c4e9 0bba 60be 0aba b62e 67b9 9d48 58b9
000002a0: f564 1bba f1ae f03a 832d fe37 5e27 153b
000002b0: ef29 233a dec0 013b eb34 09ba 5088 7239
000002c0: 3784 b239 698f ba3a ccde 153a f23c 3e3a
000002d0: 8d63 f4b8 4561 abb5 f18a 9238 1128 9a38
000002e0: c0d9 8cb8 a218 07b9 f062 9db8 6117 77b8
000002f0: 9348 ba38 c49a 8f38 5e49 db37 dd39 dab8
00000300: a42b 5e2b 3e2a a2aa 273d 1f96 d423 3028
00000310: e56e 90a8 3f1b 9ca2 969b 9fad aba3 d7a5
00000320: 1348 76a4 a196 8e29 fb06 31a1 fa4d 90a6
00000330: e6af 69a1 4755 a713 9b7e e68d b95e 1098
00000340: e624 969a 58af 8599 3caf 04a9 14dd 6a81
00000350: f400 0080 fb01 6516 4072 8d89 9709 c98f
00000360: 690b 1bba 4128 7838 dfbb 9aba 08c2 a4ba
00000370: c6f5 3fba 499c 1a3b 61e0 15bb ad7f 58ba
00000380: bd67 8a39 3a9f 3cb8 d15e dd39 d550 303a
00000390: 189d c4bb d58d 3bbb f267 bbbb 22be 3bbb
000003a0: 522a 55bc ad98 0e3c 2666 bfbb b837 debb
000003b0: cf99 f33a 22f4 ff3a 9f70 3fbb cb8a 003b
000003c0: 04c9 893b ee07 e63a 0027 0d3b ef81 eb39
000003d0: a3c8 6f3b 2739 73bb 6793 9d3b 4fce 8e3b
000003e0: bf6a 00bb 4bd0 12bb 5988 72ba 494a bc38
000003f0: cfa6 dc37 fb56 0db9 9cb1 45b9 31fe 5838

exp_avg_sq f4 [60, 12]
2.2356307e-13 2.369213e-13 2.8111677e-14 1.3460492e-13 1.0323866e-13 1.11917826e-13 7.1906386e-13 5.3951926e-14
1.327993e-13 2.4519175e-13 1.4455646e-13 2.5449852e-13 2.3023234e-05 8.832857e-06 3.16907e-06 1.2183509e-05
9.9038425e-06 9.902619e-06 4.027258e-05 4.552526e-06 2.8756297e-06 9.949712e-06 6.011985e-06 9.382541e-06
0.00013982844 8.185442e-05 4.390802e-05 9.3975344e-05 8.969773e-05 7.893824e-05 0.00040001972 6.1663166e-05
2.3086232e-05 8.122796e-05 6.194736e-05 7.0216905e-05 1.0951977e-05 7.772336e-06 1.8711897e-06 1.0390272e-05
5.7357784e-06 7.298318e-06 1.9149895e-05 4.977187e-06 1.4134488e-06 1.0725058e-05 3.374691e-06 7.796527e-06
1.2507352e-12 3.0360304e-13 3.5819492e-13 1.1619494e-12 4.0397088e-13 1.6952794e-12 1.9261277e-12 3.864877e-13
1.7478022e-13 5.7429994e-13 5.5922465e-13 1.0144385e-12 0.00012838427 9.512136e-05 3.89318e-05 0.00013421268
0.00010185392 9.597063e-05 0.00038490322 9.668934e-05 4.461068e-05 0.00015092987 9.42196e-05 0.000105546285
2.0083355e-05 1.0505899e-05 5.0464255e-06 1.3383097e-05 1.5600095e-05 1.0272233e-05 3.5108664e-05 1.2559459e-05
6.145909e-06 1.16061965e-05 5.583063e-06 1.0028756e-05 0.00071565865 0.00041532688 0.0001859363 0.0005560891
0.0004614462 0.00041413456 0.0021473826 0.00031403758 0.0001609275 0.0005848316 0.00034598773 0.00043481842
0.00058158365 0.000375717 0.00016365893 0.00066640944 0.00053650356 0.00042702907 0.0011142183 0.00020843527
0.0002415793 0.00062395673 0.0003747844 0.00041023086 2.3810348e-05 1.5757289e-05 2.6162897e-06 2.0317832e-05
1.6940012e-05 1.6079723e-05 4.9144888e-05 9.671697e-06 1.0209931e-05 2.5610338e-05 1.6047663e-05 1.9842724e-05
3.956126e-06 3.0659387e-06 8.235748e-07 4.345569e-06 6.6310367e-06 2.8670077e-06 8.7287735e-06 2.1585881e-06
1.3603196e-06 4.801444e-06 1.6404084e-06 2.925534e-06 1.2833983e-05 1.6886317e-05 4.156243e-06 1.5891586e-05
9.1024185e-06 1.0749618e-05 2.6274973e-05 6.0748084e-06 6.6641414e-06 1.7760576e-05 6.141983e-06 1.2627576e-05
4.4777867e-06 4.509396e-06 8.969675e-07 1.2555548e-06 4.0940254e-06 3.3148524e-06 5.0073127e-06 1.4662234e-06
2.1422159e-06 1.2242571e-06 1.5649972e-06 3.7161583e-06 2.057506e-05 9.8075225e-06 3.2027697e-06 1.3872328e-05
1.2837983e-05 1.2596838e-05 5.212045e-05 5.8292826e-06 3.4110226e-06 1.0977799e-05 8.59361e-06 1.40814855e-05
0.00021934386 9.330124e-05 1.6720529e-05 9.115166e-05 9.878363e-05 9.995555e-05 0.00022255721 6.974853e-05
7.175222e-05 9.139336e-05 9.795577e-05 0.00012873244 4.5833164e-07 1.9524315e-07 8.887803e-08 4.9588533e-07
3.4677265e-07 3.8117392e-07 6.116889e-07 2.5106473e-07 1.7522072e-07 5.1746815e-07 3.2438078e-07 4.1499646e-07
2.6894019e-12 2.1508685e-12 2.908683e-13 1.7932295e-12 1.5081955e-12 8.383561e-13 3.844565e-12 9.852427e-13
9.323256e-13 2.0684032e-12 6.499919e-13 1.2574362e-12 7.130933e-13 2.4724336e-13 1.9106129e-13 3.105534e-13
3.7707457e-13 3.395676e-13 1.5210559e-12 1.2227432e-13 9.4539705e-14 2.984769e-13 1.6086159e-13 1.9453716e-13
2.2337836e-05 1.6551501e-05 1.1314338e-05 2.1335276e-05 1.5756821e-05 1.4692501e-05 5.8910224e-05 1.2475709e-05
5.35736e-06 1.0206436e-05 1.189359e-05 1.1109123e-05 0.001282484 0.0008024074 0.00034398746 0.0011185831
0.00087225897 0.0008383838 0.0038998707 0.00060195336 0.00031191527 0.001207701 0.00063094497 0.00090606854
0.00026010236 0.000153503 6.745706e-05 0.0002144202 0.0001696925 0.00015268064 0.0007885748 0.00011694203
5.9238075e-05 0.00023354548 0.00012403922 0.00015931095 5.3133494e-06 3.680669e-06 7.7903735e-07 2.6778466e-06
00000000: abb5 7b2a f55f 852a 1d35 fd28 3a8d 172a
00000010: 0979 e829 3c04 fc29 0366 4a2b 56fa 7229
00000020: cb84 152a db07 8a2a 90c1 222a 1a45 8f2a
00000030: 0522 c137 d530 1437 35ac 5436 c667 4c37
00000040: ae28 2637 6d23 2637 5aea 2838 e7c1 9836
00000050: f1fa 4036 b0ed 2637 8fba c936 b569 1d37
00000060: e99e 1239 42a9 ab38 e129 3838 a114 c538
00000070: 1a1c bc38 a58b a538 bdb9 d139 2951 8138
00000080: 4ea9 c137 ee58 aa38 bce9 8138 6a41 9338
00000090: 62be 3737 ee65 0237 9725 fb35 e151 2e37
000000a0: f675 c036 13e4 f436 16a4 a037 b601 a736
000000b0: bbb5 bd35 c6ef 3337 c078 6236 d4cd 0237
000000c0: 7c06 b02b cfe9 aa2a 54a5 c92a a487 a32b
000000d0: 576a e32a e196 ee2b 088a 072c bf92 d92a
000000e0: f8c8 442a aca6 212b 6268 1d2b 00c5 8e2b
000000f0: e49e 0639 e47b c738 b44a 2338 71bb 0c39
00000100: 689a d538 d743 c938 d6cc c939 b2c5 ca38
00000110: 5a1c 3b38 ee42 1e39 c397 c538 bb58 dd38
00000120: ad78 a837 7e42 3037 7754 a936 f787 6037
00000130: f3dc 8237 e856 2c37 a441 1338 77b6 5237
00000140: f538 ce36 3cb8 4237 2556 bb36 2e41 2837
00000150: 0a9b 3b3a 3bc0 d939 e5f7 4239 82c6 113a
00000160: 43ee f139 3320 d939 1abb 0c3b 69a5 a439
00000170: a6be 2839 624f 193a b065 b539 57f8 e339
00000180: 6b75 183a e2fb c439 dc9b 2b39 fbb1 2e3a
00000190: 25a4 0c3a dfe2 df39 f60a 923a 6b8f 5a39
000001a0: 7350 7d39 0791 233a b67e c439 4114 d739
000001b0: 55bc c737 852e 8437 8493 2f36 3670 aa37
000001c0: 661a 8e37 f1e2 8637 ec20 4e38 9f43 2237
000001d0: 524b 2b37 c8d5 d637 189e 8637 ed73 a637
000001e0: ddbe 8436 6dc0 4d36 a113 5d35 27d0 9136
000001f0: 2c80 de36 d166 4036 cc71 1237 43dc 1036
00000200: 3a94 b635 171c a136 012c dc35 4b54 4436
00000210: 8a51 5737 17a7 8d37 db75 8b36 ec4e 8537
00000220: 97b6 1837 4259 3437 1369 dc37 35d6 cb36
00000230: 8a9c df36 8cfc 9437 3b17 ce36 07db 5337
00000240: e53f 9636 6b4f 9736 23c7 7035 8984 a835
00000250: 695f 8936 bb74 5e36 7d04 a836 0dcb c435
00000260: fdc2 0f36 2751 a435 e50c d235 1d63 7936
00000270: 9b98 ac37 fd8a 2437 2aef 5636 32bd 6837
00000280: b862 5737 0257 5337 e89b 5a38 2899 c336
00000290: ece8 6436 4a2d 3837 462d 1037 853f 6c37
000002a0: abff 6539 b9aa c338 1043 8c37 ad28 bf38
000002b0: 0f2a cf38 3a9f d138 3f5e 6939 f545 9238
000002c0: ae79 9638 70aa bf38 9b6d cd38 5afc 0639
000002d0: 9f10 f634 07a4 5134 37dd be33 fb1c 0535
000002e0: 122c ba34 25a4 cc34 f132 2435 13ca 8634
000002f0: 4e24 3c34 24e8 0a35 8e26 ae34 aecc de34
00000300: f53f 3d2c 9a5a 172c 8abe a32a e75f fc2b
00000310: 7842 d42b ecf9 6b2b c344 872c 1ca9 8a2b
00000320: 9236 832b 0a8d 112c daf4 362b eaf7 b02b
00000330: cab7 482b 862f 8b2a ab1d 572a 76d3 ae2a
00000340: 2c46 d42a d928 bf2a d011 d62b 2cab 092a
00000350: 6ee2 d429 0e07 a82a 321d 352a 8507 5b2a
00000360: 2362 bb37 14d8 8a37 b6d2 3d37 28f9 b237
00000370: 842d 8437 d07f 7637 5f16 7738 c34e 5137
00000380: 5fc3 b336 4f3c 2b37 958a 4737 5261 3a37
00000390: 0619 a83a a658 523a 3759 b439 6c9d 923a
000003a0: 4fa8 643a fcc6 5b3a f994 7f3b 68cc 1d3a
000003b0: 8f88 a339 b94b 9e3a 0066 253a 3b85 6d3a
000003c0: 595e 8839 a6f5 2039 bc77 8d38 fcd5 6039
000003d0: 7cef 3139 e618 2039 5cb8 4e3a c63e f538
000003e0: 6676 7838 e3e3 7439 8610 0239 b50c 2739
000003f0: 5349 b236 6901 7736 0a1f 5135 0eb5 3336

exp_avg f4 [60]
-8.510206e-18 -0.00040130186 0.0033178222 -0.00022005223 -3.2602168e-13 -0.002631843 -0.0021409506 0.007622657
0.002292963 -0.0021991248 -0.00029165953 -0.0001619767 -0.0001858124 0.0005793706 -0.00051984104 -7.3928306e-05
-1.8145301e-11 -2.946188e-14 -0.002287688 -0.0058447295 0.0048110075 0.00017115056 -0.008731367 -2.3274485e-15
5.294639e-05 0.0037450483 -3.5461863e-07 -6.9328e-07 -0.00046733668 -5.4300494e-07 -3.5815604e-21 -1.5016467e-20
0.007008562 -1.6801298e-11 -5.65523e-07 -3.4462508e-07 0.00063017407 0.00085589854 -3.1886086e-07 -0.0004391761
0.00012830485 -2.750705e-05 0.0014869821 -1.3223048e-07 -5.8491314e-13 -1.2232512e-07 -0.011264717 -0.00073386444
6.842108e-05 0.0070734276 0.0013732391 -1.7771372e-07 -0.0013719581 -0.0007440328 0.00014031059 -0.00015774237
-0.00053005037 0.0005244195 -1.1419193e-21 -2.399581e-07
00000000: 50fc 1ca3 d365 d2b9 d26f 593b d2bd 66b9
00000010: ad88 b7aa 007b 2cbb 314f 0cbb 7bc7 f93b
00000020: 8945 163b 311f 10bb e1e9 98b9 4ad8 29b9
00000030: a3d6 42b9 e7e0 173a f145 08ba f509 9bb8
00000040: 969b 9fad 3caf 04a9 09ed 15bb 2585 bfbb
00000050: a8a5 9d3b e176 3339 020e 0fbc d9b5 27a7
00000060: c112 5e38 7c6f 753b 6a62 beb4 d719 3ab5
00000070: de04 f5b9 04c3 11b5 ba4e 879d 97d3 8d9e
00000080: 14a8 e53b 29c9 93ad 72ce 17b5 e904 b9b4
00000090: 4432 253a 615e 603a e72f abb4 3841 e6b9
000000a0: 9289 0639 f1be e6b7 d7e6 c23a 3dfb 0db4
000000b0: 6fa3 24ab 7958 03b4 a68f 38bc cf60 40ba
000000c0: 4a7d 8f38 36c8 e73b 42fe b33a 93d1 3eb4
000000d0: 46d3 b3ba 320b 43ba 5620 1339 a567 25b9
000000e0: 14f3 0aba 3279 093a dd8f ac9c 97d3 80b4

exp_avg_sq f4 [60]
7.1906386e-13 4.0272505e-05 0.0004000187 1.9149858e-05 1.9261277e-12 0.00038490328 3.5108533e-05 0.0021473842
0.0011142181 4.914485e-05 8.728811e-06 2.6274953e-05 5.0073013e-06 5.2120464e-05 0.00022255753 6.1168265e-07
3.844565e-12 1.5210559e-12 5.8910293e-05 0.003899869 0.0007885745 5.526849e-06 0.00067941105 1.042779e-12
4.000292e-06 0.00052771 2.5175104e-09 2.484621e-08 2.802445e-06 2.36893e-09 4.3372258e-13 4.627689e-13
0.0018114789 3.0919475e-12 6.8508963e-09 1.1186945e-09 4.919903e-05 1.8895522e-05 3.7717967e-09 0.00019927113
1.5671705e-05 4.9384664e-07 0.0002757454 2.2989705e-10 2.2905536e-12 1.1371808e-10 0.00082106335 1.4659667e-05
1.9941012e-06 0.0015117073 0.00016729589 1.0049243e-10 2.476334e-05 1.8182722e-06 9.918806e-07 5.0281806e-06
1.2540304e-05 1.9016825e-05 4.0221656e-13 3.124946e-09
00000000: 0366 4a2b 46ea 2838 9ab9 d139 02a4 a037
00000010: 088a 072c d8cc c939 8041 1338 21bb 0c3b
00000020: f50a 923a e220 4e38 f571 1237 0869 dc37
00000030: 6404 a836 ec9b 5a38 555e 6939 8332 2435
00000040: c344 872c d011 d62b 7216 7738 f294 7f3b
00000050: 57b8 4e3a 4573 b936 811a 323a 13c2 922b
00000060: 3f3a 8636 0556 0a3a 8300 2d31 656d d532
00000070: a311 3c36 a8ca 2231 032a f42a 0342 022b
00000080: 256f ed3a 9393 592c 1f65 eb31 90c0 9930
00000090: 0e5b 4e38 d381 9e37 1399 8131 70f3 5039
000000a0: bb76 8337 e290 0435 ec91 9039 44c6 7c2f
000000b0: f22e 212c 9611 fa2e a13c 573a caf2 7537
000000c0: 66d2 0536 7b24 c63a 266c 2f39 35fc dc2e
000000d0: deba cf37 5b0b f435 c220 8535 beb7 a836
000000e0: 3264 5237 5286 9f37 846d e22a a2be 5631

exp_avg f4 [6, 60]
-1.04e-43 -6.159873e-05 0.0019093395 7.9163474e-05 -6e-45 7.5141514e-05 8.995148e-05 0.002534624
8.7983775e-05 8.6350236e-05 7.9615e-05 -0.00018880938 1.9328454e-06 -2.367166e-05 -4.3698852e-05 0.0001009165
1.078214e-32 -1.46e-43 0.00094326085 4.615796e-05 0.0015684769 -0.00019246577 5.2979238e-05 -3.012387e-32
3.8999235e-05 0.0016609213 -7.049031e-09 -1.0157726e-06 3.7130278e-05 -1.5910688e-09 1.46e-43 5.1233546e-38
0.0027995748 1.88e-43 -7.88314e-08 3.188549e-08 -0.00017408897 0.0002474362 -6.611983e-08 2.592702e-05
-8.849123e-05 7.7156636e-07 0.0005818908 1.6676137e-10 1.18e-43 1.1936339e-09 0.00013561314 0.00024366856
5.6166802e-05 0.0018963144 0.0004241628 -5.6281043e-22 0.00050669524 -3.3784347e-06 -1.2634878e-05 -4.4762335e-05
0.00018229992 7.851687e-05 -9e-44 -8.135275e-09 -6.7144906e-13 -0.0021934588 0.021507462 -0.0011929785
4.7913834e-12 0.0025688342 0.0015678972 0.013320923 0.0004136541 0.0014750711 0.0012936573 -0.00077464385
-6.5401946e-05 -0.0006779672 -0.0006396991 0.00052744197 -6.7512766e-11 -2.7505973e-11 0.014810112 0.00076133816
0.00629705 -0.000877084 0.00045502637 -1.1326299e-08 1.5122609e-05 0.009196349 -2.3340712e-08 -5.7988505e-06
0.0039283955 5.451776e-10 1.812101e-19 2.753624e-11 0.017480277 2.3064437e-12 5.883613e-08 4.8937224e-08
-0.0019200805 0.005878342 2.4314646e-08 -0.00013402193 -0.0008759285 -3.4998718e-06 -0.0011249061 -8.987451e-09
-4.3788898e-13 3.5379557e-08 0.0007416909 0.0051019555 0.00043437807 0.0105587905 -0.001783116 -5.2199045e-08
0.003757988 0.0003721713 -6.906633e-05 1.4607148e-05 0.00092104974 0.00060115795 2.2350757e-14 -1.0550983e-07
-1.05e-43 1.9215016e-09 -5.7012763e-08 1.0844372e-08 5.54e-43 -1.8807448e-08 -7.2625024e-11 -8.0757225e-08
3.3866844e-12 4.456598e-08 -1.5503532e-09 -2.718348e-09 -1.5109825e-33 -1.8492832e-08 -5.2568275e-15 -9.257165e-29
2.44e-43 5.38e-43 -1.3737736e-08 -1.08772255e-07 -1.6861454e-08 -1.1795412e-09 8.92413e-38 -7.7e-44
1.5293338e-12 -1.2897104e-07 1.46e-43 2.8019482e-14 7.6756e-18 -5.11e-43 -2.86e-43 1.04e-43
-7.1323434e-08 1.04e-43 1.04e-43 2.45e-43 -7.1162383e-09 1.9933402e-10 1.32e-43 2.4638265e-12
-7.120139e-09 -1.400401e-15 6.640382e-08 1.89e-43 3.56e-43 -5.8e-43 1.0268123e-15 -1.359144e-09
1.7806854e-13 -3.6424893e-08 -4.0469043e-08 1.75e-43 4.3714296e-10 -1.47e-43 -2.3321193e-23 -1.4823787e-12
1.5559967e-10 1.4583339e-14 1.04e-43 4.13e-43 -7.1725015e-14 -0.0017659536 0.017345756 -0.00095953594
3.795895e-13 0.0020713198 0.001263543 0.01075781 0.00033165747 0.0011903032 0.00104345 -0.0006239754
-5.2944342e-05 -0.0005430279 -0.0005144636 0.0004248107 -1.8202991e-11 -5.3512984e-12 0.011936411 0.0006151165
0.005091539 -0.0007051731 0.00036583474 7.824212e-09 1.2292224e-05 0.0074268254 -2.2427859e-08 -6.402728e-06
0.0031657314 4.908465e-10 2.834925e-22 4.1661197e-12 0.014106511 1.718804e-13 5.777612e-08 4.6454275e-08
-0.0015446551 0.004736524 2.193036e-08 -0.0001071819 -0.00070422573 -2.2484355e-06 -0.00089560193 -7.3159434e-09
-4.1162142e-14 3.0531282e-08 0.00059776235 0.004112993 0.00035116094 0.008527843 -0.001425641 -3.8312216e-08
0.0030305947 0.0002997864 -5.6215267e-05 1.2422816e-05 0.00074199407 0.0004844407 5.452649e-16 -1.00474495e-07
5.38e-43 -3.835723e-19 -1.8849155e-08 -6.398022e-16 -2.16e-43 -4.774992e-21 -2.3261229e-32 -6.1393294e-08
-1.46e-43 -8.763237e-11 3.42e-43 -8.4529483e-19 5.96e-43 -1.7159161e-13 -1.47e-43 3.28e-43
00000000: 4a00 0080 912e 81b8 cd42 fa3a 9104 a638
00000010: 0400 0080 4b95 9d38 55a4 bc38 ef1b 263b
00000020: ee83 b838 ee16 b538 faf6 a638 22fb 45b9
00000030: 08b6 0136 8192 c6b7 4949 37b8 22a3 d338
00000040: b0ef 5f0a 6800 0080 2a45 773a bb99 4138
00000050: 5a95 cd3a a3d0 49b9 0636 5e38 7e69 1c8b
00000060: 1c93 2338 45b3 d93a ef33 f2b1 ae55 88b5
00000070: 55bc 1b38 c2ac dab0 6800 0000 9278 8b01
00000080: 1279 373b 8600 0000 054a a9b3 78f2 0833
00000090: a78b 36b9 53ba 8139 c3fd 8db3 da7d d937
000000a0: 5e94 b9b8 a31d 4f35 088a 183a 275b 372f
000000b0: 5400 0000 420d a430 6033 0e39 4881 7f39
000000c0: a594 6b38 c18d f83a 2b62 de39 5919 2a9c
000000d0: bed3 043a 11b9 62b6 63fa 53b7 31bf 3bb8
000000e0: c327 3f39 6ca9 a438 4000 0080 51c3 0bb2
000000f0: 01ff 3cab 22c0 0fbb 6b30 b03c b75d 9cba
00000100: f294 a82c e359 283b e681 cd3a 0040 5a3c
00000110: b7df d839 2c57 c13a f08f a93a 7811 4bba
00000120: 6728 89b8 9cb9 31ba 7bb1 27ba 0844 0a3a
00000130: 4f76 94ae f2f1 f1ad 1da6 723c 8a94 473a
00000140: 7c57 ce3b 1cec 65ba 9b90 ee39 9795 42b2
00000150: 1cb7 7d37 49ac 163c c57e c8b2 bf93 c2b6
00000160: c5b9 803b 77db 1530 64ef 5520 1a36 f22d
00000170: cc32 8f3c 324d 222c 02b3 7c33 0c2f 5233
00000180: 36ab fbba 1b9f c03b 79dc d032 3d88 0cb9
00000190: 919e 65ba 57df 6ab6 9671 93ba 3a67 1ab2
000001a0: 7482 f6aa 3cf4 1733 096e 423a 4e2e a73b
000001b0: 3dbd e339 c7fe 2c3c 72b7 e9ba 7531 60b3
000001c0: 9448 763b fc1f c339 b4d7 90b8 3911 7537
000001d0: 9a72 713a 0797 1d3a 5651 c928 a494 e2b3
000001e0: 4b00 0080 6a0b 0431 32de 74b3 0d4e 3a32
000001f0: 8b01 0000 048e a1b2 41b4 9fae c16c adb3
00000200: 1551 6e2c d068 3f33 3414 d5b0 afcd 3ab1
00000210: 160e fb88 2bda 9eb2 ad65 bda7 70b2 ea90
00000220: ae00 0000 8001 0000 3403 6cb2 2e96 e9b3
00000230: bbd6 90b2 6b1d a2b0 1cf0 f201 3700 0080
00000240: 0f3c d72b 4a7b 0ab4 6800 0000 8760 fc28
00000250: ff96 0d23 6d01 0080 cc00 0080 4a00 0000
00000260: 792a 99b3 4a00 0000 4a00 0000 af00 0000
00000270: 1883 f4b1 8a2b 5b2f 5e00 0000 5a60 2d2c
00000280: 68a5 f4b1 add1 c9a6 e399 8e33 8700 0000
00000290: fe00 0000 9e01 0080 b0fa 9326 a1cc bab0
000002a0: c37c 482a 9871 1cb3 2fd0 2db3 7d00 0000
000002b0: 6752 f02f 6900 0080 7a8c e199 52a0 d0ab
000002c0: 6a15 2b2f e45a 8328 4a00 0000 2701 0000
000002d0: a882 a1a9 9277 e7ba b018 8e3c 5e89 7bba
000002e0: 9db0 d52a fbbe 073b 789d a53a 8741 303c
000002f0: 50e2 ad39 f303 9c3a 5fc4 883a 4892 23ba
00000300: 8e10 5eb8 fc59 0eba 11dd 06ba 21b9 de39
00000310: 7e1d a0ad 3648 bcac f090 433c c53f 213a
00000320: edd6 a63b 5edb 38ba 82cd bf39 406b 0632
00000330: b33a 4e37 ba5c f33b 62a7 c0b2 04d7 d6b6
00000340: 2978 4f3b 40ec 0630 575c ab1b 1295 922c
00000350: ff1e 673c 2785 412a 8425 7833 0485 4733
00000360: 0676 caba d834 9b3b 5f61 bc32 d8c6 e0b8
00000370: ca9b 38ba d4e3 16b6 d4c6 6aba b85f fbb1
00000380: b860 39a9 8021 0333 27b3 1c3a 49c6 863b
00000390: 061c b839 5eb8 0b3c 93dc baba ba8c 24b3
000003a0: f19c 463b a62c 9d39 afc8 6bb8 976b 5037
000003b0: 6182 423a 88fc fd39 7329 1d26 70c4 d7b3
000003c0: 8001 0000 cf6b e2a0 bbe9 a1b2 1269 38a6
000003d0: 9a00 0080 e464 b49d f48e f18a 52d7 83b3
000003e0: 6800 0080 a3b4 c0ae f400 0000 ac7c 79a1
000003f0: a901 0000 ea31 41aa 6900 0080 ea00 0000

exp_avg_sq f4 [6, 60]
3.4486045e-14 1.402575e-06 0.000118801545 3.7083994e-06 6.6832885e-14 1.0019967e-06 2.6582725e-07 0.00031413458
9.506959e-08 1.7598342e-05 3.5112302e-07 2.6017537e-06 1.6611862e-08 7.892889e-06 1.2141686e-08 9.558111e-08
1.5798574e-13 4.080278e-14 2.1219013e-05 3.5719995e-06 0.00012210653 3.12115e-07 3.2310275e-08 1.5673855e-13
1.3127818e-07 0.00012827893 4.766075e-11 1.1476044e-08 4.1910326e-07 1.5037865e-11 1.2223727e-14 1.224021e-13
0.00023520988 5.0403787e-14 1.9187292e-10 6.289574e-11 1.6479831e-06 4.4167987e-06 2.9350447e-10 1.1441674e-07
1.3910693e-06 2.1866855e-08 3.6312456e-05 7.8731015e-12 7.018511e-15 1.9881933e-11 8.4229626e-08 4.5731567e-06
1.8481093e-07 0.00018296513 6.176478e-05 2.2688107e-13 4.971563e-06 2.6779285e-09 1.9280636e-08 3.5658967e-08
4.2941676e-07 1.388484e-07 2.7841306e-14 8.1639195e-11 4.304156e-12 0.0002513434 0.009060851 0.00020025235
3.4234735e-12 0.00012030053 2.7230983e-05 0.022575391 3.6091235e-06 0.00069663284 3.699532e-05 0.00011763363
6.5219734e-07 0.0006486574 1.0791441e-05 3.461571e-06 1.1998971e-11 7.638715e-12 0.0011252117 0.0005865733
0.009918794 2.0236675e-05 1.142389e-06 3.6554055e-11 5.675058e-06 0.0100202635 7.136684e-09 2.1062815e-06
2.8868724e-05 8.395014e-10 6.2277543e-13 5.8986665e-12 0.019582525 3.064043e-12 1.8648528e-08 5.762739e-09
0.000107216 0.00029132783 1.6705185e-08 6.382663e-06 0.0001637076 8.688185e-07 0.0040020472 4.4190418e-10
3.7783e-12 9.2450714e-10 2.9251516e-06 0.00026047538 9.140713e-06 0.014297113 0.005225868 1.0311844e-10
0.0004091855 4.907932e-07 7.374708e-07 2.6425043e-05 1.7374472e-05 4.95639e-06 1.6533013e-12 5.272071e-09
7.569332e-37 2.0974542e-11 4.1549175e-10 5.780754e-11 7e-43 3.1314205e-11 4.63909e-12 5.2511826e-09
2.2659663e-12 4.1106055e-10 1.2030555e-11 6.5993336e-11 1.3652083e-13 2.373111e-10 1.0848685e-12 1.750048e-13
7e-43 7e-43 3.147059e-11 1.4911844e-10 1.4139521e-09 8.102661e-12 1.07548505e-13 2.3609372e-18
2.6609888e-12 2.2179367e-09 4.6356825e-30 1.2717387e-12 6.391559e-13 7e-43 7e-43 7e-43
3.9718357e-09 1.7540699e-34 7e-43 9.85512e-40 1.7064225e-11 1.3060832e-11 7e-43 2.130598e-12
3.0939203e-11 1.0057372e-12 3.3842204e-10 7e-43 7e-43 2.2973674e-32 9.186337e-13 1.1825148e-11
1.7180753e-12 1.6925648e-09 1.4639554e-09 7e-43 1.08429495e-10 4.4835957e-15 2.7675242e-13 2.4320533e-12
5.3157587e-12 1.4251419e-12 7e-43 4.494938e-39 2.8646775e-12 0.00016360031 0.005897731 0.0001303573
2.2738786e-12 7.83058e-05 1.7722796e-05 0.014694721 2.3491057e-06 0.00045344816 2.4077875e-05 7.656696e-05
4.2456753e-07 0.00042225487 7.024099e-06 2.2530635e-06 8.019684e-12 5.1253346e-12 0.0007324286 0.00038182453
0.0064564175 1.3173218e-05 7.434312e-07 2.4649002e-11 3.6945878e-06 0.006522582 4.6965836e-09 1.3865209e-06
1.878971e-05 5.4894433e-10 4.1812316e-13 3.9496496e-12 0.01274698 2.0196611e-12 1.2180086e-08 3.7755488e-09
6.978487e-05 0.00018963614 1.0942798e-08 4.153942e-06 0.000106573665 5.657125e-07 0.0026050813 2.9137937e-10
2.5230902e-12 6.1061783e-10 1.903941e-06 0.00016954732 5.948183e-06 0.009306081 0.003401775 6.739566e-11
0.0002663622 3.1947428e-07 4.79942e-07 1.719483e-05 1.1309457e-05 3.2262224e-06 1.1079698e-12 3.4514323e-09
7e-43 5.106136e-13 1.3110557e-10 9.258553e-13 7e-43 3.821013e-13 1.4507525e-13 8.464092e-11
5.254674e-15 5.0457668e-12 2.4243477e-14 5.4317006e-13 3.0548725e-24 1.7277493e-12 2.4188356e-20 2.338316e-14
00000000: b44f 1b29 1c40 bc35 1825 f938 d1dd 7836
00000010: 897e 9629 587c 8635 05b7 8e34 6eb2 a439
00000020: 0f29 cc33 27a0 9337 fb81 bc34 ca99 2e36
00000030: dfb1 8e32 b36b 0437 b397 5032 4542 cd33
00000040: 4ae0 312a 67c2 3729 7cff b137 7cb6 6f36
00000050: b909 0039 c290 a734 86c5 0a33 d078 302a
00000060: 79f5 0c34 9d82 0639 3c9d 512e 2d28 4532
00000070: 1d01 e134 4346 842d fe33 5c28 01d0 092a
00000080: aca2 7639 9cff 6229 6df7 522f 274f 8a2e
00000090: 4530 dd35 0334 9436 155b a12f 45b5 f533
000000a0: c7b4 ba35 b9d5 bb32 344e 1838 4c81 0a2d
000000b0: 57de fc27 22e2 ae2d bae1 b433 1e73 9936
000000c0: 7170 4634 54da 3f39 b787 8138 0472 7f2a
000000d0: 67d1 a636 9e06 3831 919e a532 7327 1933
000000e0: 978a e634 5c16 1534 aec5 fa28 c886 b32e
000000f0: 6470 972c bdc6 8339 f773 143c d5fa 5139
00000100: d1e7 702c db49 fc38 176e e437 07f0 b83c
00000110: 4534 7236 3d9e 363a 6c2b 1b38 13b2 f638
00000120: a912 2f35 a90a 2a3a e30c 3537 564d 6836
00000130: 9016 532d b761 062d d77b 933a 45c4 193a
00000140: 7082 223c eec1 a937 3054 9935 35c4 202e
00000150: 616c be36 082c 243c f036 f531 a459 0d36
00000160: 1d2b f237 a9c2 6630 b34b 2f2b 778a cf2c
00000170: 886b a03c e49c 572c 8c30 a032 9701 c631
00000180: 27d9 e038 5cbd 9839 177f 8f32 a82a d636
00000190: eda8 2b39 c138 6935 9b23 833b 7cf0 f22f
000001a0: e7ef 842c 6820 7e30 b94d 4436 6a90 8839
000001b0: 105b 1937 703e 6a3c c23d ab3b 85c2 e22e
000001c0: f387 d639 0dbf 0335 9cf6 4535 59ab dd37
000001d0: 65bf 9137 114f a636 75ae e82b a025 b531
000001e0: 17c9 8003 787e b82d 446b e42f 813d 7e2e
000001f0: f401 0000 a9b8 092e 3539 a32c e46d b431
00000200: 0574 1f2c a1fb e12f cea4 532d f21e 912e
00000210: 73b5 192a 9176 822f 82ae 982b b309 452a
00000220: f401 0000 f401 0000 bc68 0a2e 1cf5 232f
00000230: 0455 c230 248b 0e2d 7e2d f229 d834 2e22
00000240: 1d40 3b2c 5b6a 1831 ae0b bc0e 37fb b22b
00000250: 09e8 332b f401 0000 f401 0000 f401 0000
00000260: a378 8831 e827 6907 f401 0000 35bb 0a00
00000270: 3819 962d c2c4 652d f401 0000 71ed 152c
00000280: 7212 082e 808b 8d2b ab0c ba2f f401 0000
00000290: f401 0000 8092 ee0a 4449 812b bb07 502d
000002a0: 30cc f12b d49f e830 5a34 c930 f401 0000
000002b0: 6170 ee2e df89 a127 3acc 9b2a fa23 2b2c
000002c0: 1908 bb2c 2692 c82b f401 0000 0ff2 3000
000002d0: 7195 492c 208c 2b39 c141 c13b 85b0 0839
000002e0: 8e02 202c 1b38 a438 6aab 9437 21c2 703c
000002f0: 54a5 1d36 c8bc ed39 d8fa c937 9392 a038
00000300: 1ef0 e334 1762 dd39 8db0 eb36 5633 1736
00000310: 7215 0d2d e954 b42c 7400 403a 9f2f c839
00000320: 5b90 d33b 8a02 5d37 3490 4735 9ed0 d82d
00000330: 89f0 7736 62bb d53b 965f a131 7f18 ba35
00000340: 989e 9d37 86e4 1630 e661 eb2a 48f7 8a2c
00000350: b6d8 503c fb1e 0e2c 9640 5132 14ba 8131
00000360: 7859 9238 10d9 4639 effe 3b32 1762 8b36
00000370: 4d80 df38 78db 1735 03ba 2a3b 0030 a02f
00000380: f48b 312c 69d8 2730 ea8a ff35 83c8 3139
00000390: 8196 c736 8878 183c 50f0 5e3b 6234 942e
000003a0: 88a6 8b39 3684 ab34 5dd5 0035 9e3d 9037
000003b0: bfbd 3d37 1482 5836 d2ee 9b2b 3d2e 6d31
000003c0: f401 0000 96b9 0f2b f026 102f 744d 822b
000003d0: f401 0000 9a1a d72a 1857 232a 9a20 ba2e
000003e0: d051 bd27 3a88 b12c a75d da28 87e3 182b
000003f0: fc5b 6c18 bb28 f32b db73 e41e e59d d228

exp_avg f4 [6]
0.0028149085 0.020700295 -1.0390326e-07 0.016698677 -7.114882e-08 0.0009035709
00000000: 547a 383b aa93 a93c 6c21 dfb3 aacb 883c
00000010: 7aca 98b3 9edd 6c3a

exp_avg_sq f4 [6]
0.00024610767 0.016153878 3.5577208e-09 0.010514749 9.593501e-11 0.00018229205
00000000: 0308 8139 2355 843c 167c 7431 0e46 2c3c
00000010: 9cf6 d22e a625 3f39

exp_avg f4 [1, 6]
0.011542314 0.062270682 5.6036495e-08 0.05671828 -4.0929e-08 0.003802274
00000000: f91b 3d3c 8b0f 7f3d c7ac 7033 6d51 683d
00000010: e9c9 2fb3 922f 793b

exp_avg_sq f4 [1, 6]
0.0017934724 0.3599511 2.4255876e-08 0.2793567 6.8861616e-10 0.0005377391
00000000: f312 eb3a 834b b83e 3c5b d032 d707 8f3e
00000010: 0e49 3d30 0ff7 0c3a
