mnc_ml_test/output/best/20221128-0110-model-test11.pth (torch, 67229 bytes, 21 tensors)

module.0.weight f4 [60, 12]
000000 e8 9f 45 bd ec b5 13 bf cc a8 5c bf fb fc bd 3e
       -0.0482482 -0.57699466 -0.86195064 0.3710707
000010 ca 1a dd bb 26 1a 74 3e 5c a3 47 bd f5 3f 07 3c
       -0.0067475783 0.238381 -0.048739776 0.008254995
000020 26 ef 24 bf 29 e6 ed 3d b8 24 14 be 1a 26 fe bd
       -0.6442741 0.11616165 -0.14467132 -0.12409611
000030 a5 e9 1c be 82 8d 0d bd 99 fe 34 3e bd 46 df bc
       -0.15323503 -0.03455878 0.17675246 -0.02725541
000040 e4 f6 d1 3c 94 f7 c1 3d 26 d7 dd bd 72 38 e3 3d
       0.025630422 0.0947105 -0.10832052 0.110947505
000050 12 01 b6 be 75 45 b3 3d 9c 72 35 bd 27 56 1f be
       -0.35547692 0.08753482 -0.044298753 -0.15560208
000060 73 28 95 3e f5 48 a6 be cb b3 17 3f 8a 38 30 bc
       0.29132423 -0.32477537 0.5925872 -0.010755667
000070 02 26 69 be 02 f9 34 3c d8 32 b7 bd c8 a8 52 3b
       -0.22768405 0.011045696 -0.089452446 0.0032144058
000080 45 f7 26 3e 9f ff 23 be 75 5f c5 3b f9 80 87 3d
       0.16305263 -0.1601548 0.0060233423 0.066163965
000090 59 ce 44 be 9e d8 59 3e bd 3a 80 be 11 f5 f7 bd
       -0.1921934 0.21274039 -0.25044814 -0.121072896
0000a0 23 bf a0 3e 0c ac a1 be 37 9e 27 bd 86 fe 59 be
       0.31395826 -0.31576574 -0.04092237 -0.21288499
0000b0 80 14 39 be 17 06 cb 3e bd 6a 10 bf 41 37 99 3e
       -0.18074226 0.39653084 -0.5641287 0.29924968
0000c0 9a 5e b1 3e f8 c3 05 bf 8e 37 1c 3f 8e b7 72 bd
       0.34642488 -0.5225215 0.6102227 -0.059257083
0000d0 ed 55 27 bd 45 c6 74 3e 2c 20 ba bd 71 11 d4 3d
       -0.04085343 0.23903759 -0.090881675 0.10354889
0000e0 ed bc 03 3e 9d 9e 96 bd 62 0d 8c be 12 2e b3 bd
       0.12865038 -0.07354472 -0.2735396 -0.087490216
0000f0 2d 83 58 3e 4c 08 38 3f 20 0c 99 be 04 ff 20 3e
       0.2114379 0.7188766 -0.29892063 0.1572228
000100 55 85 40 bd 90 42 aa be 09 5d e5 be 0b 8a 95 3e
       -0.047002155 -0.33253908 -0.44797543 0.2920688
000110 c5 1b fb 3d 2d 0c 23 be 58 80 51 3e 03 c1 02 3d
       0.12261156 -0.15922613 0.20459116 0.03192235
000120 40 08 01 bf 94 ea 8d 3e 2d fe f1 bd 55 48 85 bd
       -0.50403214 0.2771803 -0.11816058 -0.06507937
000130 57 46 6d bd 45 27 1e be 9d be 58 3e 09 e3 c8 be
       -0.05792841 -0.15444668 0.21166463 -0.39235714
000140 fd b4 e7 3e a7 45 35 be 77 01 82 3d cf a0 83 3d
       0.4525527 -0.17702352 0.06347936 0.06427156
000150 43 fb 43 3e 26 f2 53 3f f1 95 d6 be dc c3 0b 3d
       0.19138817 0.82791364 -0.4191127 0.034122333
000160 89 f9 f7 bd 32 ae 90 be ee ce a3 be a1 0c 3b 3e
       -0.12108142 -0.282579 -0.31993812 0.18266536
000170 2e 43 ab be 67 87 3c 3e 0f c9 82 3e 25 2e 84 be
       -0.33449692 0.18411027 0.2554402 -0.25816455
000180 1e f0 b0 be 03 eb 0c 3e 7c 3f 1c bf ca 05 ed 3e
       -0.34558195 0.13761525 -0.6103437 0.4629348
000190 df 67 05 3e 64 a9 57 be 84 ed 2d bd 3c 07 3b 3e
       0.13027905 -0.21060711 -0.04246284 0.18264478
0001a0 2f 0c 31 bf 4d 7f 91 bd ae c1 bd bd cb d0 92 3c
       -0.69159216 -0.07104359 -0.09265457 0.017921826
0001b0 d1 4a d6 3d 82 ef 7a 3d 36 90 cf bd 87 0c e8 3d
       0.10463489 0.06126357 -0.10134928 0.113305144
0001c0 d4 08 5c 3d 99 c2 59 3e af 33 30 be ba a9 c0 bd
       0.053719357 0.2126564 -0.17207216 -0.09407373
0001d0 59 4c a6 3d d8 da e3 bd e1 c3 be bd c4 9f 9a be
       0.08120031 -0.111257255 -0.09314705 -0.30200016
0001e0 09 49 d2 3d fa 69 ef 3d 8a ab 24 3e bf fd a0 be
       0.102678366 0.11690135 0.16081062 -0.31443593
0001f0 a5 65 a2 bd 0c 6d 1b bd 1d 8a 18 bd 15 50 61 be
       -0.079295434 -0.037945792 -0.03724109 -0.22003205
000200 57 0b 91 3e 8b b1 a9 be 5b c2 ce 3d ee 41 7d 3e
       0.28328964 -0.33143267 0.10095664 0.24732181
000210 c3 88 6b be 7b 0b 0b 3e 5b 92 ec be dd 97 fc 3d
       -0.23001389 0.13578598 -0.4620541 0.12333653
000220 f4 8e fa bd 60 29 de 3c d4 8f 45 3e 98 1d a4 3e
       -0.122342974 0.027119339 0.19293147 0.32053828
000230 ac 1d 15 bf 44 d6 11 3e 8d 0d 66 3e 0f 0a 76 be
       -0.582484 0.14241892 0.22466107 -0.24027275
000240 84 c7 10 3f 2c eb bb be 44 21 86 3e 61 d8 69 3e
       0.56554437 -0.3670286 0.26197255 0.22836448
000250 21 6a 5a bd 6d d3 a1 3e 74 9b 26 be a8 c4 23 3e
       -0.05332387 0.31606618 -0.16270238 0.15992987
000260 a2 bd 71 3e 72 f2 c5 be c3 06 93 3e 53 c5 84 be
       0.23607495 -0.38661534 0.28716096 -0.25931796
000270 3c 95 84 3e af d0 60 bd 5a c7 2c 3d 44 9a 5e bc
       0.25895107 -0.054886516 0.042182304 -0.0135865845
000280 83 80 80 be dd c7 85 3d d6 13 00 3e 04 7e a8 38
       -0.25098047 0.065322615 0.12507567 8.0343365e-05
000290 15 34 63 3e c8 8a aa bd 68 8b e7 3e 60 27 0d bc
       0.22187836 -0.08327252 0.45223546 -0.008615345
0002a0 a1 2b 13 bf d2 a2 71 be 6c 5d 68 bf 62 2d 35 3e
       -0.5748845 -0.23597267 -0.9076755 0.17693093
0002b0 c8 55 25 3d c0 85 e4 3c 85 d8 ad bb b1 47 d2 bd
       0.04036501 0.027895808 -0.005305352 -0.1026758
0002c0 67 48 15 bf de 90 71 3e d2 e6 e2 bd a0 e5 e6 bd
       -0.583136 0.23590419 -0.11079182 -0.11274266
0002d0 07 96 4b bf 25 f9 54 3e b9 26 0e be 5f c4 be bd
       -0.795258 0.20798166 -0.13881959 -0.093147986
0002e0 26 a7 c2 be d2 8b 4b 3e 6e 28 36 be c7 0a 61 bf
       -0.3801815 0.19877556 -0.1778886 -0.8790707
0002f0 72 14 0d 3f 4f f8 9d 3c 76 86 09 3f 43 a8 39 3d
       0.5510932 0.019283442 0.53720796 0.045326483
000300 5c f5 2d 3e 8f ea 7b be 8f 64 9b 3e b7 26 a3 bd
       0.16988128 -0.24601196 0.30350158 -0.07966369
000310 6e 11 f8 bd 41 3e 44 3e 2e 01 65 3e cf 01 10 3e
       -0.121126994 0.19164373 0.22363731 0.1406319
000320 37 92 c4 3e 2c 1f 1e be 5e 92 55 3e fb 64 dd bd
       0.38392803 -0.15441579 0.20856616 -0.10810276
000330 e0 d6 41 bd de 72 b9 bd b4 32 eb bd e0 7c 8d 3c
       -0.04732406 -0.09055112 -0.1148428 0.01727146
000340 35 45 4f be 6f 43 b1 bd f0 0f 00 be 4d 97 a3 3e
       -0.20241244 -0.0865544 -0.1250608 0.3195137
000350 66 c2 c5 bd d6 4a 50 3d 2d 1c c3 3e 77 71 d0 3d
       -0.09656219 0.05085262 0.38107434 0.10177892
000360 05 7b 8a be 5b 87 da 3d cc cf 4d be 6b 43 8d 3d
       -0.2704698 0.10670348 -0.200988 0.068976246
000370 fe 8e 51 3e 16 69 90 be 3a 15 71 3d c3 dd 83 bc
       0.20464703 -0.28205174 0.058858134 -0.016096955
000380 49 11 68 be ff f7 95 3d 7a 2a b1 be 7a fe 8b 3e
       -0.22662844 0.07322692 -0.3460272 0.27342588
000390 cb fb dd 3d 08 cf 84 be 00 55 ed 3e 6d 4a 27 bc
       0.10839041 -0.25939202 0.46353912 -0.010210616
0003a0 40 87 66 3d 29 c9 05 3e 5e 48 6a be c0 f1 cd 3e
       0.05628133 0.13065018 -0.22879168 0.40223503
0003b0 37 d0 15 3e 55 70 8d be 9b de af be 10 23 c1 3b
       0.14630209 -0.27624765 -0.34349522 0.0058940724
0003c0 fb c7 98 3d 8a a1 0f be 66 d4 94 bd f7 21 8c be
       0.07460018 -0.14026466 -0.07267074 -0.27369663
0003d0 c6 b7 e4 3d fc 47 4a 3d fb fb 6f 3d fa 0d 09 3e
       0.111678645 0.049385056 0.058589917 0.13384238
0003e0 68 4d c0 3e 30 9b 8a 3e fa da 37 be 45 e5 cb bd
       0.37559056 0.27071524 -0.17954627 -0.09955839
0003f0 da ff 36 be 26 44 86 be a6 80 42 3f ac cf 35 be
       -0.17871037 -0.26223868 0.7597755 -0.17755002

module.0.bias f4 [60]
000000 4c b6 aa 3d e5 0a 49 3d 8d 00 2c be ff 31 99 bd
       0.083355516 0.049082655 -0.16797085 -0.07480239
000010 8b 63 9b be af c1 f6 be a6 93 ef 3d bb 3b e6 be
       -0.30349383 -0.48194644 0.116980836 -0.44967446
000020 a2 ee 36 be b6 3b 83 3e f5 be 56 be 8b 9d 47 be
       -0.17864469 0.25631493 -0.20971282 -0.19493692
000030 82 aa 77 be ee 07 9d 3c bd 76 e6 bc d6 e4 3a be
       -0.24186137 0.01916882 -0.02813279 -0.18251356
000040 cd 3b 1e be 60 fe 0f 3e 85 b0 80 be 8c e6 69 bd
       -0.154525 0.1406188 -0.25134674 -0.057104632
000050 09 d7 c8 3c c0 09 c7 3d 31 57 6b be b3 f4 a0 3d
       0.0245166 0.097186565 -0.2298248 0.07859173
000060 c7 a6 9b 3d f8 df e0 bd b1 06 60 be 5b b4 a5 bd
       0.0760017 -0.10980219 -0.21877553 -0.08091041
000070 d0 61 00 bf bc 84 70 3d fa 3c 5a be 11 9c 31 be
       -0.5014925 0.058720335 -0.21312323 -0.17344691
000080 21 78 5b be 5f a5 70 be 3f 60 0e 3d 9c 37 89 be
       -0.21432544 -0.23500584 0.034759756 -0.2680024
000090 ac 7d 50 be 97 b4 ee 3d ac cd 9b 3d 0c 81 04 be
       -0.2036044 0.116555385 0.07607588 -0.12939852
0000a0 28 82 a1 bd c0 fe fa 3d b9 d5 05 bd c7 79 49 3e
       -0.078861535 0.12255621 -0.032674525 0.1967536
0000b0 3c c9 12 be e8 d3 d2 bd 9d b4 3e be 4b 92 d6 3d
       -0.14334577 -0.10294324 -0.18623586 0.10477122
0000c0 e4 0d 87 be bc 65 aa be 54 57 9e bd 81 d8 ad 3e
       -0.26377785 -0.33280742 -0.077315 0.33954242
0000d0 ef 71 84 bd 15 fc 9d be ae e1 75 3e ea a1 77 3e
       -0.064670436 -0.30856386 0.24011871 0.24182859
0000e0 94 21 51 3e c6 b9 8d be 44 5e e2 bd dd ff a7 be
       0.20422965 -0.27680796 -0.11053136 -0.32812396

module.2.weight f4 [60, 60]
000000 47 41 27 bc b2 34 ca 3b f3 1a 9e bd 27 22 2f bd
       -0.010208434 0.0061708326 -0.07719984 -0.04275718
000010 9b ae 76 3d 2e 38 8f bd 57 02 6b 3d cd f7 3a bc
       0.06022511 -0.06993137 0.05737528 -0.011411619
000020 fe a3 09 3d ad 58 17 3d ab 95 99 bd 8d 68 15 be
       0.03360366 0.036949802 -0.0749925 -0.14590664
000030 a5 a1 f9 3d 3e 65 70 bd 80 fd 95 3d e0 9c ba bc
       0.121890344 -0.058690302 0.07323742 -0.022779882
000040 cc 24 6d bd d1 bc 7a 3c c5 ed 8f bc b7 83 60 ba
       -0.05789642 0.015303806 -0.017569432 -0.0008564549
000050 a1 49 ac bd 53 0d 5c 3d 33 a5 7f ba a5 38 79 bd
       -0.08412481 0.053723644 -0.00097520946 -0.060845036
000060 fe 12 3c bd a8 16 a3 bb 71 ab 77 bc 94 bf 47 bd
       -0.04591655 -0.004977066 -0.015116558 -0.048766688
000070 45 a0 15 bc 11 d7 b7 3c 5c 97 ce bd f1 63 14 3d
       -0.0091324495 0.022441419 -0.10087463 0.036228124
000080 c1 a7 3c 3d 32 d1 4f bd de 75 71 3d eb ea f7 bc
       0.04605842 -0.050736614 0.058950298 -0.030263385
000090 f7 2f 3f 3d 38 98 23 3d 5b 3b c0 39 d3 91 18 3d
       0.046676602 0.03994009 0.00036665317 0.037248444
0000a0 5d 4d ce bd e9 99 f9 bc 2d f6 93 bc 2d 5c d9 3c
       -0.100733496 -0.030468898 -0.018061722 0.02653321
0000b0 7a 06 be bc cf 4f cb bc eb 3c cd bc de a0 c4 3c
       -0.023196448 -0.02481833 -0.025053462 0.024002489
0000c0 dd 06 ab 3d a0 31 2c 3e e2 d5 90 3d ae c7 0a bd
       0.083509184 0.16815805 0.07072045 -0.033881836
0000d0 b3 dd 90 bb 9c 01 8a 3c 54 6e 8a 3d 65 a0 18 3c
       -0.00442096 0.01684647 0.06759325 0.009315585
0000e0 db b1 74 3c fb c7 1f 3d a2 ed 23 3d 61 9f a6 bc
       0.014934982 0.039009076 0.040021546 -0.02033967
0000f0 dd c8 c5 be 21 0d cb bd 9a 78 17 3e 22 bb 88 bd
       -0.3862981 -0.099146135 0.147921 -0.06676318
000100 43 0e bf 3d e8 19 69 bc 9a 5a a0 bd a1 4f f0 3b
       0.09328892 -0.014227368 -0.07829781 0.0073337113
000110 f8 d9 94 be 45 41 22 be 19 84 9f bd d2 17 a0 bc
       -0.29072547 -0.15845211 -0.077888675 -0.019542608
000120 42 a7 8c be b6 86 f8 3d 91 bf e0 3a 8a 61 ef be
       -0.27471358 0.12135069 0.0017146935 -0.46754104
000130 48 72 41 3e 3e 56 c1 bd 78 22 4c bc d7 49 03 be
       0.18891251 -0.094402775 -0.01245939 -0.12821136
000140 4e 34 99 3e 34 b1 06 be 64 74 f2 bd 98 8a 53 3d
       0.29922718 -0.13153535 -0.11838606 0.051645845
000150 82 f1 20 3e f0 ff 08 be 38 a6 8d be 8e 4a 5b 3d
       0.15717128 -0.13378882 -0.27665877 0.053537898
000160 d9 df 99 bc f4 e9 69 3e a5 4b 46 3e e7 42 b3 be
       -0.018783497 0.22843152 0.19364794 -0.3501198
000170 fb 50 51 bd 15 a1 37 be 43 62 c2 3e df 2f 7b be
       -0.05110262 -0.17932542 0.37965593 -0.2452998
000180 b1 24 4b 3e 14 42 82 3d 2d 93 34 be e0 19 d6 3e
       0.19838215 0.0636026 -0.17634268 0.41816616
000190 c3 15 5d be 26 e4 65 3d e9 d3 c8 3b 1c ba b4 3e
       -0.21590333 0.056125782 0.0061287773 0.3529824
0001a0 bb 23 82 be ce 40 51 bd 67 eb 60 3d 95 5a 03 be
       -0.25417885 -0.051087193 0.054911997 -0.12827523
0001b0 b7 2e 56 be 96 a4 82 3c 11 a3 fd 3d 00 66 b9 be
       -0.20916258 0.015947621 0.12384618 -0.36210632
0001c0 f1 49 e3 3d fd a2 54 be a7 d9 1f be 8c a9 9f 3d
       0.110980876 -0.207653 -0.15610372 0.077960104
0001d0 fa a2 c8 bd 15 12 67 3c 72 47 49 3e b0 6b 60 bd
       -0.0979671 0.014103432 0.1965616 -0.0547902
0001e0 2d 00 b1 bd 96 76 4f 3c ae 63 37 bc c5 91 a6 ba
       -0.08642612 0.01266255 -0.011193199 -0.0012708238
0001f0 76 04 26 3d 63 33 81 3d bf e2 85 3c 61 a1 a9 bc
       0.040531598 0.06308629 0.016343473 -0.020706834
000200 5d 18 f4 bd 3b 59 99 bc 1d 89 7c bd 02 30 41 3d
       -0.119187094 -0.018719306 -0.0616542 0.047164924
000210 ec 79 c8 3c 7f fe 74 bd aa 4f c3 3d 25 0f 0c 3d
       0.0244722 -0.05981302 0.09536679 0.03419413
000220 4b 0c 9e 3d e7 68 32 bd 32 0c ec 3d bc cf dd bd
       0.077171884 -0.043557074 0.115257636 -0.10830638
000230 4c 01 78 bd 93 26 b8 3c fc 64 ea bc 40 c2 bc bd
       -0.06054811 0.022479331 -0.028612606 -0.09216738
000240 2a 73 5f bd b0 38 91 3d 13 23 4f 3d fe db ab 3d
       -0.05455319 0.070908904 0.05057056 0.083915696
000250 d0 8f 47 bc 8b 17 09 3d 1c a9 81 3d 38 79 5b bc
       -0.012180284 0.033469718 0.06331083 -0.0133956
000260 f5 7e 82 3d 40 e9 3b bd 80 cb ba bd 14 5c 9c 3c
       0.063718714 -0.04587674 -0.09120846 0.019086875
000270 61 71 54 3e a4 19 eb bc 2f df 75 3d 03 ea bc 3c
       0.20746376 -0.02869875 0.060027298 0.023060804
000280 f9 c9 26 be b8 4d 22 bd 76 34 0e bd c6 94 d0 bd
       -0.16287984 -0.0396249 -0.034718 -0.10184626
000290 2d 83 b8 3c 8a 07 8b 3c 31 b4 d6 3d 58 d0 2c be
       0.022523487 0.016971368 0.104835875 -0.16876352
0002a0 ee 8f 91 3d 78 6e 1f 3d f8 45 a1 bd ec f6 ec bd
       0.071075305 0.03892371 -0.078746736 -0.11570534
0002b0 4c 86 62 bd a9 1e 38 bd 80 ce 20 3d 70 9d 2f bd
       -0.055303857 -0.044951115 0.039259434 -0.042874753
0002c0 3f 3a 06 3e 1f 8d 92 3d 47 61 f0 3c a7 4d 09 3d
       0.13108157 0.07155823 0.02934326 0.03352132
0002d0 12 4f 13 be dc 7c a2 3d 8c 7a 81 3e 5c ba 88 3c
       -0.14385632 0.07933971 0.25288808 0.016690426
0002e0 b1 69 6e 3e 45 0e f0 bd 6d d0 14 be ff 2a 6c be
       0.23282506 -0.11721472 -0.14532633 -0.23063277
0002f0 89 af a6 be 32 fb 91 bd b3 51 50 bb 64 f2 3d 3e
       -0.32555798 -0.0712799 -0.0031786978 0.18549496
000300 72 aa 51 3e 16 35 66 bd 4e 34 e6 be 19 90 a7 be
       0.20475176 -0.05620297 -0.4496178 -0.32727125
000310 a2 6e d8 3d fd c9 4c 3d d0 82 2c be 71 92 9e 3e
       0.105679765 0.04999732 -0.16846776 0.309711
000320 9f 52 46 be 92 b0 9b 3d 4a 47 25 bd 80 77 30 be
       -0.19367455 0.076020375 -0.04035119 -0.17233086
000330 ec 27 97 be 0b 63 a8 bd 59 c8 63 3e be a8 55 bb
       -0.29522645 -0.08222016 0.22244395 -0.00326018
000340 e2 94 66 3e fa 6e 21 3d 68 04 89 3e 77 1b 23 bd
       0.22517732 0.039412476 0.26761174 -0.039821114
000350 76 7d 93 3e dc b2 96 bd ad 4a 26 be fc 9b e0 bd
       0.28806657 -0.073583335 -0.16239424 -0.10967252
000360 a2 ca a8 be 73 9b 51 bc 45 28 dd 3d 1d da cc bd
       -0.32967097 -0.01279341 0.107986964 -0.10002539
000370 47 28 a7 3e a9 05 a5 be ef 26 3a 3d 41 18 3c bb
       0.32647917 -0.3223088 0.045447286 -0.002870098
000380 67 e7 7d be b1 8c 6e bd 91 4a b2 be c1 84 af be
       -0.24795304 -0.058239643 -0.34822515 -0.3428097
000390 b3 d4 12 3e 58 01 8b 3e 52 1b 95 be 07 93 83 3d
       0.14338951 0.27149463 -0.29122406 0.064245276
0003a0 4c 57 1b 3d 99 95 01 be e4 62 bc be a6 7d b0 bc
       0.03792505 -0.12654723 -0.36794198 -0.021544289
0003b0 11 ad 00 3f bc 41 0c bd c0 b0 30 be 54 6f 6e 3e
       0.5026408 -0.034242377 -0.17254925 0.23284656
0003c0 d8 46 22 3d 1e 9a f3 bb b6 12 0f be 84 f6 dd bd
       0.039618343 -0.0074341437 -0.13971981 -0.10838035
0003d0 97 46 d0 ba f2 24 01 be e2 68 5f 3d 76 c7 34 bc
       -0.0015890178 -0.1261175 0.054543383 -0.011033883
0003e0 06 17 c4 3d 06 3c 0c bd dd c8 e8 3c e4 f1 05 3d
       0.09574704 -0.03423693 0.028416092 0.032701388
0003f0 b2 ad f0 bd 62 11 ac bc cc bf 4f bd 94 a5 00 3c
       -0.1175188 -0.021004383 -0.05072002 0.007851977

module.2.bias f4 [60]
000000 51 bc ed 3b fe d1 2f be 11 0f 7a 3d 67 47 89 be
       0.007255115 -0.1716995 0.061049525 -0.26812288
000010 e9 b7 b7 bd 65 75 1b 3d 5e 7e 99 bd 38 22 32 3d
       -0.08970625 0.037953753 -0.07494806 0.043489665
000020 32 50 b0 bc 33 db 49 3d 86 39 d3 bb 0b 4c 01 bd
       -0.021522615 0.04928131 -0.0064460663 -0.03156666
000030 af 09 c9 bd 65 d3 a1 bc 89 ff 49 bc 7a cb a6 be
       -0.098163 -0.019754121 -0.012328991 -0.32577115
000040 09 69 a1 3d dc c5 ad bd 02 bd 40 be b2 11 81 bd
       0.07881362 -0.08485004 -0.18822101 -0.06302203
000050 94 76 04 be d4 b8 29 bc 2b 2b c6 bd 29 a2 54 bd
       -0.12935859 -0.010359008 -0.096762024 -0.05191246
000060 f9 fa 8a 3c 82 a7 82 3d 83 62 3f bc b5 39 a4 be
       0.016965376 0.06379606 -0.011681202 -0.32075277
000070 fe 2b d1 3d 3d 0a 16 3e af aa 1a be 05 b4 0d bf
       0.10213469 0.14652343 -0.15104173 -0.55352813
000080 c9 e3 f1 3b 30 03 44 3d 23 35 6a be 45 11 75 be
       0.0073818904 0.047854602 -0.22871833 -0.23932369
000090 08 64 aa 3d 8b 7d 97 3d cf 33 2a bd fe 4a 98 3d
       0.08319861 0.07396992 -0.041553315 0.074361786
0000a0 2d 67 98 be b8 4a dd bd b0 39 14 be 53 07 41 3c
       -0.29766217 -0.10805267 -0.14475131 0.011781531
0000b0 61 c7 f4 bd 9c 12 79 bc 44 44 43 3d bc 27 17 bb
       -0.11952091 -0.015202191 0.047672525 -0.0023064455
0000c0 0d a0 97 3d d5 84 a9 3d 39 2e 9c 3d bc 42 43 bb
       0.07403574 0.08277289 0.07626004 -0.0029794415
0000d0 2f e6 01 3d 5b d2 26 3d 46 32 25 3d 6c 53 88 bd
       0.03171366 0.040727954 0.040331148 -0.066565365
0000e0 be 6b 1e be fa c5 8b 3d 9b 04 c6 be 30 81 2e 3d
       -0.15470788 0.068248704 -0.3867539 0.04260367

module.4.weight f4 [6, 60]
000000 39 60 fa bb 44 41 80 be a0 79 21 3d 60 f5 18 3e
       -0.007640865 -0.25049794 0.03942263 0.14937353
000010 1e c6 3a bb e4 7e f0 3d 28 64 ba 3a 10 06 c2 bd
       -0.0028499435 0.117429525 0.0014220523 -0.094738126
000020 47 a0 8f bd 2f c4 47 bc 82 e6 a9 3b 41 72 f7 3c
       -0.07012992 -0.01219277 0.0051849494 0.030205848
000030 49 3b 69 3e d4 a8 87 bb d7 64 10 3c 26 ce 22 3d
       0.22776522 -0.004139999 0.008813105 0.03974738
000040 02 29 9f bb 70 b3 3c 3d dd 61 8a bd 23 af 65 bd
       -0.0048571834 0.046069562 -0.06756947 -0.056075227
000050 9a 29 a5 3d 70 0a 97 39 01 88 0d ba 74 3a c2 3d
       0.080645755 0.0002880874 -0.00053989893 0.09483805
000060 b2 ba 52 3d cb f5 a1 bb 53 93 4d bc a0 7e dc 3d
       0.051447578 -0.004942631 -0.012547332 0.10766339
000070 4a e8 91 bb 13 9f 84 3c 6a 96 96 bb 3a 41 13 3e
       -0.00445274 0.016189134 -0.0045955675 0.1438035
000080 7c f0 2c 3a 00 1e b2 bc 9a 87 20 3e ce 45 87 bd
       0.0006597114 -0.02174282 0.15676728 -0.06605111
000090 1d a9 15 be a1 35 81 bc 04 f7 b9 ba cf 04 24 3b
       -0.14615293 -0.015772643 -0.0014187996 0.002502728
0000a0 3d 8b 8d bd 6e 97 e4 3c f5 ac 97 3d ca d7 c0 3b
       -0.06911323 0.027904239 0.07406036 0.005885099
0000b0 11 ca aa 3b 90 16 80 bb a2 67 ad bb 78 7a 1c ba
       0.0052120765 -0.0039089397 -0.005291895 -0.0005969177
0000c0 45 f6 ca bd 92 8c 31 3c 65 98 df bd c5 e2 7f bc
       -0.099102534 0.010836737 -0.10917739 -0.015618031
0000d0 43 cb 13 3e f8 12 ee ba 68 6c bd 3a ea eb 20 bd
       0.14433007 -0.0018163612 0.0014451863 -0.039287485
0000e0 b3 cc 95 3a c2 17 84 bb e4 c1 2f 3d 0d a8 1a bc
       0.0011428803 -0.0040311525 0.042909518 -0.0094394805
0000f0 0f 8f 83 ba e9 45 fd 3c 32 63 7f 3a 52 82 fd 3d
       -0.0010037142 0.030917125 0.0009742259 0.12378372
000100 c5 f5 0e 3b 70 3f b8 3c 7b 46 29 3b 53 18 c1 3a
       0.002181397 0.022491187 0.0025829363 0.0014731981
000110 c4 3b 36 3d 7a 56 ab 3a d0 e9 83 3b 99 3c 68 3b
       0.04449059 0.0013072037 0.0040256754 0.003543651
000120 14 cb 2d 3c ec 30 a4 bb 52 d7 76 3d be e2 36 3d
       0.0106075 -0.0050107148 0.06026394 0.044649832
000130 8e ec 15 bb 25 32 84 3d 3c 24 24 be 71 0d 9c 3d
       -0.0022876593 0.06454877 -0.16029447 0.07619751
000140 1e 78 80 3e 5c 0a 38 ba c2 97 85 b9 88 62 c4 bd
       0.25091642 -0.00070205866 -0.00025480805 -0.09589106
000150 6a 1e 86 bb 4b 2f ce 3a 98 18 69 3d 4a 0e 57 3d
       -0.004092981 0.0015730647 0.05690822 0.05250386
000160 30 b8 96 ba 5a 23 a8 bc 06 c9 00 3b b0 56 45 3e
       -0.0011498984 -0.02052467 0.001965107 0.1927135
000170 dc 07 9c 3a 89 4e 52 ba b5 ff 8e 3d fd fa 6a be
       0.0011904198 -0.0008022567 0.06982366 -0.22947307
000180 40 cf 0d 3b ce 0e 77 bb bc 32 65 39 5c a9 dc b8
       0.0021638423 -0.0037698033 0.00021858042 -0.00010521963
000190 b4 4e 16 3e 82 37 e4 3a 76 8b c2 bd dd 64 c2 3a
       0.1467846 0.0017411562 -0.09499256 0.0014831085
0001a0 0a fa b0 3b 43 bc 86 b9 23 ab 7f bb 32 eb 0b 3e
       0.0054009007 -0.00025698738 -0.0039011918 0.13663939
0001b0 92 80 d9 bb 79 6d e4 bb 79 ca f7 bb 5a 41 6d bb
       -0.006637641 -0.006971058 -0.0075619784 -0.0036202283
0001c0 67 fc f9 3b d3 dc 50 bb 61 5c 1b 3e 49 29 3e be
       0.0076289657 -0.0031869903 0.15171959 -0.18570437
0001d0 96 37 91 bd dd 67 bb b9 1e 95 8d bc 46 62 87 ba
       -0.0709068 -0.00035744804 -0.017283019 -0.001032897
0001e0 00 56 6f b5 b4 da b7 3d f4 81 15 3b 7a d6 bb be
       -8.9159585e-07 0.08977261 0.0022813054 -0.3668707
0001f0 c4 0b c5 ba a4 b9 4d bd c2 c3 6e bb de 0b 0b be
       -0.0015033414 -0.05022587 -0.0036432599 -0.13578746
000200 7e a5 78 be 06 fa 90 bb ef f0 84 3a db 61 16 3b
       -0.2428188 -0.0044243364 0.0010142605 0.002294651
000210 4d d9 07 be 9d bb 8b b9 59 e3 cf 3c 5c e9 bd bd
       -0.13266487 -0.0002665193 0.025376962 -0.092730254
000220 bb 5d b3 3a 29 ff 89 3d 9b d2 9c 3d 61 78 88 bd
       0.001368455 0.06738121 0.07657357 -0.066635855
000230 8f fb 07 bd de d1 91 b7 6f cc f4 3a 48 46 9a bd
       -0.03319889 -1.7383074e-05 0.0018676649 -0.07532936
000240 f0 10 4e 3b e8 50 75 ba 67 1f 81 be ae 7d 27 be
       0.00314432 -0.0009358064 -0.2521927 -0.16356537
000250 a8 3c 35 bb c8 44 0a bd 13 6a d6 3a 8f e2 a2 be
       -0.0027654562 -0.033757 0.0016358517 -0.31813475
000260 af 2d cc ba f6 85 7d 3b a2 4e 01 be 34 5c 8f be
       -0.001557758 0.0038684583 -0.12627652 -0.28000033
000270 bd af d8 3d 17 27 41 bb d9 f4 92 ba fd 95 d7 b9
       0.105803944 -0.0029472762 -0.0011211886 -0.00041119746
000280 e6 9b 12 3e bd ac 38 3b a2 02 3a be 01 da dc 3a
       0.14317283 0.0028179132 -0.18165067 0.0016849638
000290 a6 73 21 3b 73 ed 92 b9 48 14 cc b7 77 39 92 be
       0.0024635582 -0.00028024203 -2.432814e-05 -0.28559467
0002a0 60 ef 84 bb 32 d9 52 3a 82 5d bf bb 60 f7 2c bb
       -0.004056856 0.0008043229 -0.0058400044 -0.0026392564
0002b0 99 e7 55 3d e8 0f 1d 3a e3 13 16 3e 6b a5 57 bc
       0.05222282 0.0005991445 0.14656024 -0.013161997
0002c0 05 c3 a5 be 14 fc 60 bb 6f e2 81 be f5 c3 89 ba
       -0.3237535 -0.0034329938 -0.25368068 -0.001051067
0002d0 8d 38 e7 3a 29 66 60 bd 30 87 4b 3b e3 d4 4d 3e
       0.0017640755 -0.054784928 0.003105592 0.20100741
0002e0 80 45 11 3b 05 17 ac bd 5a 40 84 3a 4e 67 07 3d
       0.002216667 -0.08402828 0.0010089979 0.033057503
0002f0 ba 40 2a 3d a4 b1 f7 3b b8 f3 a3 39 a7 13 cf 38
       0.041565634 0.007559018 0.00031271367 9.87419e-05
000300 5e 86 90 3c b0 37 fe ba 06 1a 97 be 5d a6 d2 3c
       0.017642196 -0.0019395258 -0.29512042 0.025714094
000310 fc c1 9f 3b a4 57 cb 3e fa 49 dd 3d e0 43 53 be
       0.0048754197 0.39715302 0.108051255 -0.20631361
000320 b2 4a b7 3e 9f e9 7d 3a 94 fd 95 bb 02 3b e1 bd
       0.35799176 0.00096859963 -0.004577348 -0.10997583
000330 c3 50 25 b9 b8 55 a1 3a ef 2b ea be 9a 98 88 3e
       -0.00015765712 0.0012308871 -0.45736644 0.26678926
000340 f4 75 b6 b9 79 46 39 3d 32 4d bd 3c ec 83 b7 3c
       -0.00034801627 0.045233224 0.023108099 0.022401772
000350 5b 10 8a b9 ca 95 82 bb 66 18 16 3e 5f 41 da be
       -0.00026333597 -0.0039851414 0.14657745 -0.42628
000360 ee 36 43 be 3a 77 06 ba 04 5d 9e b9 4c c7 83 3a
       -0.19063923 -0.00051294605 -0.0003020541 0.0010053902
000370 0f f8 aa 3e b2 90 e2 bb f6 76 b5 3c 43 e7 f2 3a
       0.3339238 -0.0069142217 0.022151452 0.0018532056
000380 18 30 7b bc 9b 76 9b 3a 18 29 2c 3a c2 cf 93 bc
       -0.015331291 0.0011860909 0.0006567403 -0.018043403
000390 51 1e 8b 3b d2 7e a4 3b 82 5c 31 bc 94 9e 87 b9
       0.0042455574 0.005020001 -0.010825278 -0.00025867356
0003a0 ad 65 a5 3c 7d 3d da 3a b7 3e 7b bd 4e 2c 22 be
       0.020190084 0.0016650405 -0.061339106 -0.15837213
0003b0 97 4e 36 3e 05 9d df b9 40 d8 9f be ea 93 25 ba
       0.17803417 -0.00042650863 -0.31219673 -0.00063162914
0003c0 4c 8d 09 3b 7a db 2f be 58 69 3d bc f2 2e ca ba
       0.002098876 -0.17173567 -0.01156076 -0.0015425368
0003d0 1a 75 e1 3a ad 7b c4 3d db e1 48 bb 69 af 1e 3e
       0.0017201037 0.09593902 -0.0030652198 0.15496601
0003e0 71 f7 57 3e 92 77 a7 3b 92 33 ae bb 5c 4c 09 bc
       0.21090485 0.0051106894 -0.0053162063 -0.008380022
0003f0 1d 8f c0 3b 76 3a da 3b 68 4d 25 be 82 01 23 be
       0.0058764354 0.006659801 -0.1614281 -0.15918544

module.4.bias f4 [6]
000000 b7 54 ed 3d 80 7a 32 3d 4e 37 94 3c 67 16 9d bd
       0.11588424 0.043573856 0.018092778 -0.076702885
000010 8a 90 64 3e a6 b1 c0 bd
       0.22320762 -0.09408884

module.6.weight f4 [1, 6]
000000 e4 b6 b8 3c 62 ec 12 3e 10 00 d2 3d 4a af 8e bd
       0.022548147 0.14347985 0.10253918 -0.069670275
000010 f2 f3 de 3d 0d df de 3a
       0.108863726 0.001700373

exp_avg f4 [60, 12]
000000 f9 61 13 b6 2e 9b 6d b6 a3 56 28 b5 85 07 b9 b5
       -2.1961735e-06 -3.5406078e-06 -6.271095e-07 -1.3785763e-06
000010 31 0f de b3 02 69 33 b6 c8 80 b4 36 61 7d f5 b5
       -1.0340444e-07 -2.67342e-06 5.37941e-06 -1.8290413e-06
000020 70 c8 be b5 c3 a0 36 b6 c0 9b 97 b5 06 d3 9d b5
       -1.4214438e-06 -2.721369e-06 -1.1295706e-06 -1.1758827e-06
000030 76 88 37 b4 45 cb 84 b3 77 d7 2f b3 94 67 35 b4
       -1.7092847e-07 -6.1837035e-08 -4.0941327e-08 -1.689462e-07
000040 3b 83 2c b3 85 b1 e0 33 24 d0 60 34 ee 65 77 b3
       -4.0166224e-08 1.04631035e-07 2.0937347e-07 -5.7601873e-08
000050 20 e9 48 b2 48 af 56 b4 41 0b 74 32 78 08 be 33
       -1.1694539e-08 -1.999407e-07 1.4205228e-08 8.849105e-08
000060 90 4a 3a b5 2b 59 a7 35 47 22 48 34 39 fb bd b4
       -6.93989e-07 1.2468421e-06 1.8638922e-07 -3.5386782e-07
000070 6d 77 c9 35 e6 d9 ad 35 fc 67 be b5 34 41 4e 33
       1.5010424e-06 1.2952921e-06 -1.4186367e-06 4.8022414e-08
000080 34 b1 88 35 07 74 d3 34 b9 a6 04 36 91 9c e1 34
       1.0184363e-06 3.9386234e-07 1.9766578e-06 4.2023433e-07
000090 df 58 d9 b3 54 98 44 35 4d 61 32 34 62 fe 42 34
       -1.01210155e-07 7.3237356e-07 1.661294e-07 1.8160202e-07
0000a0 42 00 07 35 40 c6 d9 34 98 27 9b b5 10 d4 0b 33
       5.0291794e-07 4.0563646e-07 -1.1559923e-06 3.255633e-08
0000b0 c2 e2 fb 34 f6 98 08 35 48 0e 32 35 db 96 f9 b0
       4.691738e-07 5.0886536e-07 6.633095e-07 -1.816001e-09
0000c0 6f 40 8b b5 5a 68 0a 35 b0 b5 d1 33 ea 37 90 b4
       -1.037506e-06 5.156086e-07 9.76537e-08 -2.6862773e-07
0000d0 6b 17 b2 35 f4 f6 50 35 2d 9e 55 b5 dd 50 c3 b4
       1.3268849e-06 7.78454e-07 -7.957886e-07 -3.6380416e-07
0000e0 fb 7f 52 35 10 85 86 34 ef a7 e3 35 8c 22 b7 33
       7.841733e-07 2.505626e-07 1.6961693e-06 8.5278856e-08
0000f0 f3 0f 2f b4 cb 92 c8 35 7e 20 fb 35 e3 97 16 36
       -1.6303947e-07 1.4943884e-06 1.8710414e-06 2.2440151e-06
000100 e8 91 bb 35 a2 3a b1 b5 fd b4 67 36 f6 b7 c7 35
       1.397505e-06 -1.3204592e-06 3.4527031e-06 1.4880195e-06
000110 e1 a9 94 b4 84 ed 41 b4 dc 39 fa b4 e3 bd 3b 33
       -2.769075e-07 -1.8060933e-07 -4.6608227e-07 4.371203e-08
000120 90 6b a2 36 81 12 b5 35 94 48 e8 33 db f8 5c 36
       4.840498e-06 1.3490936e-06 1.0816544e-07 3.2927408e-06
000130 3c d7 55 b6 bb a5 96 35 19 3e c9 b6 36 a8 cf 35
       -3.1864756e-06 1.1224105e-06 -5.997496e-06 1.5471658e-06
000140 1c 1b da b2 57 e8 85 36 9b 1b 1c b6 c7 e4 ac 34
       -2.5390868e-08 3.990757e-06 -2.326188e-06 3.2203954e-07
000150 2b 89 ba 34 92 cd 4f 35 08 9a b2 35 1e a0 08 36
       3.4745003e-07 7.7412653e-07 1.3306862e-06 2.035878e-06
000160 0c ea fb 34 4b b1 a3 b5 49 ee 08 36 e3 24 88 35
       4.6922685e-07 -1.2196045e-06 2.040428e-06 1.0143525e-06
000170 a9 a1 b7 b4 cb ce 7d 34 a1 47 5e b5 9d ea 63 b4
       -3.420403e-07 2.3637692e-07 -8.280568e-07 -2.1226374e-07
000180 19 a7 1b b5 8a 3b e8 b5 4d dd e1 33 13 6d 85 34
       -5.798516e-07 -1.7302675e-06 1.0517633e-07 2.4852542e-07
000190 d9 72 06 b4 94 46 22 b6 d6 dc 55 36 07 de 1d b5
       -1.2521504e-07 -2.4180963e-06 3.1868017e-06 -5.881015e-07
0001a0 32 37 97 b5 ad cf 91 b5 c9 06 bd b5 1e 9a 91 b5
       -1.1266441e-06 -1.0863783e-06 -1.4083572e-06 -1.0848196e-06
0001b0 d0 ec 31 b4 d1 60 40 b4 8c 23 85 b3 9a ac 2b b4
       -1.6570561e-07 -1.7916615e-07 -6.199761e-08 -1.5988408e-07
0001c0 8d bc 8f b2 45 f6 d3 b2 3f f6 5a 34 a7 dc f5 b3
       -1.6733134e-08 -2.4675623e-08 2.0392416e-07 -1.1448838e-07
0001d0 50 6a 03 b3 50 a3 37 b4 bc cc fd 31 54 b3 b6 b2
       -3.0597505e-08 -1.7102616e-07 7.3865447e-09 -2.1269138e-08
0001e0 85 3f 16 36 3e e7 90 35 9d 7f 97 34 d1 a6 1c 36
       2.2388715e-06 1.0796136e-06 2.8218793e-07 2.3342911e-06
0001f0 76 0e 12 b5 82 30 82 35 e9 aa 57 b6 a6 55 66 35
       -5.441028e-07 9.699872e-07 -3.213698e-06 8.580631e-07
000200 12 3a 89 34 c2 48 31 36 15 10 e3 b4 2d 88 ca 34
       2.556049e-07 2.6417406e-06 -4.2293746e-07 3.7724513e-07
000210 67 ff 3f b4 f1 45 0b b4 90 b5 46 34 5c f8 3c 34
       -1.7881176e-07 -1.2970828e-07 1.8506239e-07 1.7599217e-07
000220 70 a3 91 b3 a5 08 bf b4 33 a5 2e 35 a6 9b 74 b3
       -6.781818e-08 -3.5582812e-07 6.506045e-07 -5.695224e-08
000230 a3 d3 34 b4 e5 9c 64 b4 1e b0 ca b4 a4 79 f4 b3
       -1.68408e-07 -2.1291233e-07 -3.7753574e-07 -1.1384262e-07
000240 ae 2a ab b5 2f 37 2d 35 6b f4 bb 34 bd 4a 59 b5
       -1.2752914e-06 6.4527825e-07 3.5009302e-07 -8.094756e-07
000250 35 a8 9b 35 b7 2c 75 35 18 34 5d b4 d2 b0 9d b4
       1.1597355e-06 9.133468e-07 -2.060118e-07 -2.9372183e-07
000260 34 e9 5c 35 4d 18 93 b4 8a d9 c1 35 8e 8b cd 34
       8.229574e-07 -2.7398565e-07 1.4442933e-06 3.8285765e-07
000270 71 1c 33 34 08 e2 b0 b4 11 70 81 b3 3c 29 a1 33
       1.6681021e-07 -3.2947014e-07 -6.0274154e-08 7.504647e-08
000280 a4 5d b7 b4 29 c2 86 b4 5b 21 bf 34 36 77 62 31
       -3.415454e-07 -2.5100715e-07 3.5600792e-07 3.2955092e-09
000290 ce 2d 77 b4 26 77 36 b3 06 4b e6 b4 92 cd 68 b3
       -2.3020331e-07 -4.2483542e-08 -4.2895425e-07 -5.4203674e-08
0002a0 3b 12 0b b4 6a 51 9e b6 d2 d5 c3 b5 66 cf 71 b5
       -1.2952016e-07 -4.718245e-06 -1.4590862e-06 -9.00813e-07
0002b0 af 04 24 b6 c2 21 6e b6 13 d4 6c 36 6e ea f9 b5
       -2.444063e-06 -3.5484413e-06 3.5290184e-06 -1.8620174e-06
0002c0 84 ea 1d b6 51 a0 05 b6 f2 b9 54 b6 c3 38 ea b5
       -2.353133e-06 -1.991186e-06 -3.1698696e-06 -1.7450878e-06
0002d0 cc c3 16 37 a2 c9 a4 36 44 54 ca 35 dd bb 15 37
       8.986284e-06 4.911054e-06 1.5074697e-06 8.924832e-06
0002e0 46 11 3f b6 2b 35 55 36 4d d8 4f b7 95 e1 80 36
       -2.8471272e-06 3.1770421e-06 -1.2388523e-05 3.8409585e-06
0002f0 b0 c0 83 35 f6 eb 22 37 65 ad 18 b6 ac 13 91 35
       9.81634e-07 9.710891e-06 -2.2750694e-06 1.0809067e-06
000300 ee ab 2e b4 b0 66 4b 32 5e 5f 92 b1 b5 d6 f1 b4
       -1.626756e-07 1.1839504e-08 -4.2600012e-09 -4.5045968e-07
000310 86 44 28 b4 26 76 f2 b2 ce 75 49 35 24 a2 01 34
       -1.5671148e-07 -2.8226236e-08 7.5049763e-07 1.2073048e-07
000320 69 08 9a b3 92 0c 14 b5 30 49 01 b4 27 a7 2c 34
       -7.1727136e-08 -5.515259e-07 -1.2040687e-07 1.6079558e-07
000330 b4 a1 bb b3 31 9d 8f b4 e5 00 88 b3 82 b2 3d b4
       -8.73728e-08 -2.6750197e-07 -6.333156e-08 -1.7666937e-07
000340 be 2c e4 b3 e5 9a 37 b4 eb 90 25 35 9c a8 0b b3
       -1.0625216e-07 -1.7099553e-07 6.1678173e-07 -3.251681e-08
000350 a5 fb 67 b4 5d d3 b9 b4 42 9c 89 b4 70 13 93 32
       -2.1605099e-07 -3.4612722e-07 -2.563193e-07 1.7121891e-08
000360 45 a4 bd 34 3f 18 fc 34 ea 40 1f 34 f3 be 28 35
       3.5323515e-07 4.69563e-07 1.4831645e-07 6.2862745e-07
000370 95 f2 d3 34 6f 72 bc 34 aa bb 97 b5 91 c5 0e 34
       3.9478314e-07 3.510099e-07 -1.1304994e-06 1.3296655e-07
000380 39 be 7f 34 86 0a 5a 35 7f ff b2 34 33 63 67 33
       2.3817928e-07 8.122664e-07 3.3340982e-07 5.38741e-08
000390 d4 c4 5a b6 5d e3 b1 34 0d ef c3 b3 17 fb 49 b6
       -3.25991e-06 3.3134248e-07 -9.123878e-08 -3.0097488e-06
0003a0 59 c1 21 36 27 c6 45 35 68 39 19 36 ff cc 4c b5
       2.4103413e-06 7.367657e-07 2.2832191e-06 -7.629423e-07
0003b0 42 f3 61 35 e7 cc 25 b6 d9 6a 32 36 ce b3 fb 34
       8.417302e-07 -2.4706185e-06 2.658626e-06 4.6883218e-07
0003c0 77 9d f1 b2 f2 e3 a3 b3 2d 94 ee b3 35 4f ab b3
       -2.81277e-08 -7.631742e-08 -1.1109692e-07 -7.977216e-08
0003d0 26 59 f3 b3 d0 4a f4 b3 af d8 87 b4 00 ff e6 b3
       -1.1331785e-07 -1.1375744e-07 -2.5303368e-07 -1.0756594e-07
0003e0 44 a2 88 32 ee 48 60 33 cd 05 b9 32 57 f8 2b b4
       1.5906274e-08 5.2220393e-08 2.1539472e-08 -1.6015962e-07
0003f0 85 4d 3f 36 10 1d 5c 36 80 38 f2 34 db 9e d7 35
       2.850634e-06 3.2799471e-06 4.5117122e-07 1.6064981e-06

exp_avg_sq f4 [60, 12]
000000 d5 4b b2 2f ab 6b 5c 2f d5 a1 d7 2e 34 dd cc 2f
       3.2431893e-10 2.0047135e-10 9.805815e-11 3.7264558e-10
000010 c8 9f 83 2f 9d bd 51 2f 0c 36 69 30 8a 35 1b 2f
       2.3942293e-10 1.9075803e-10 8.484171e-10 1.4116189e-10
000020 06 95 17 2f 77 20 e1 2f 0c 66 38 2f c1 d8 62 2f
       1.3786314e-10 4.095033e-10 1.6770957e-10 2.0631587e-10
000030 13 89 7b 2b 4c 24 43 2b 9d b9 71 2a d2 8a 22 2b
       8.936334e-13 6.932829e-13 2.1469497e-13 5.7746613e-13
000040 64 31 07 2b 9d f3 df 2a 15 02 04 2c 46 9f ee 2a
       4.803018e-13 3.9781798e-13 1.8759484e-12 4.238781e-13
000050 1c 0d 31 2a ec ca 26 2b 00 87 bb 2a 97 9b bc 2a
       1.5725306e-13 5.925666e-13 3.3311548e-13 3.350347e-13
000060 06 20 85 2f 34 7c 19 2f 75 00 b8 2e 4f 23 5a 2f
       2.4215313e-10 1.3959395e-10 8.3674324e-11 1.9839529e-10
000070 62 69 12 2f d9 15 f9 2e b0 17 4a 30 e5 6f 38 2f
       1.3316062e-10 1.132709e-10 7.3520834e-10 1.6774455e-10
000080 86 89 b9 2e c6 1a 8a 2f 08 3b 30 2f d9 ec 0f 2f
       8.437255e-11 2.5121077e-10 1.6028079e-10 1.308992e-10
000090 43 78 e5 2d 88 4f 6d 2d cf c8 de 2c 0c b0 ac 2d
       2.6087693e-11 1.348955e-11 6.3319137e-12 1.9632317e-11
0000a0 4b 4d 7e 2d a0 ba 5f 2d e3 ec 41 2e 63 1f 43 2d
       1.4455391e-11 1.27175215e-11 4.4093517e-11 1.1091436e-11
0000b0 4f 63 46 2d 87 9e c0 2d c3 8a 5d 2d ff 70 5c 2d
       1.1277048e-11 2.1898273e-11 1.2593207e-11 1.2530642e-11
0000c0 7b d2 ae 2f b4 09 29 2f 3f 9b c4 2e 19 5a 5e 2f
       3.179997e-10 1.5373908e-10 8.940625e-11 2.0222791e-10
0000d0 27 22 1a 2f 11 f6 00 2f 1f 20 6d 30 63 8e 7a 2f
       1.4018352e-10 1.1728953e-10 8.6265745e-10 2.2787953e-10
0000e0 30 28 f7 2e ee 4d 9d 2f 5a ac 69 2f fa cb 2e 2f
       1.1239398e-10 2.8613506e-10 2.1252458e-10 1.5897675e-10
0000f0 28 13 f4 2f e1 cf 53 30 38 e6 ba 2f 4f ca 16 30
       4.4396953e-10 7.7056767e-10 3.3996783e-10 5.485718e-10
000100 3b 55 12 30 2d 05 f0 2f b7 8c b6 30 1a 85 2c 30
       5.323561e-10 4.3659423e-10 1.3282236e-09 6.2762384e-10
000110 ba d6 35 2f ab 79 fe 2f 9e ad 88 2f 7f 21 6d 2f
       1.653814e-10 4.628878e-10 2.4861618e-10 2.1566925e-10
000120 ef ea 41 30 fa a2 e0 2f aa bd 57 2f 40 df e2 2f
       7.054685e-10 4.0861164e-10 1.9621518e-10 4.126779e-10
000130 b0 b5 c5 2f 58 4b 9d 2f 9c b5 10 31 f6 ca cf 2f
       3.5963188e-10 2.8611669e-10 2.105799e-09 3.7797293e-10
000140 ed 68 2c 2f 79 b8 19 30 26 96 c0 2f 2c b2 a7 2f
       1.5680586e-10 5.5923227e-10 3.5031283e-10 3.0503722e-10
000150 0a 8a 8d 2f a2 60 e5 2f c2 b6 58 2f bd 14 ba 2f
       2.5745833e-10 4.172352e-10 1.9710014e-10 3.3847938e-10
000160 1a 56 a5 2f 8a 28 92 2f 20 84 50 30 6c af bd 2f
       3.0074504e-10 2.658605e-10 7.585772e-10 3.4503544e-10
000170 fe 2a e6 2e 14 03 9d 2f 2b 8f 22 2f d7 f9 0c 2f
       1.0466826e-10 2.856032e-10 1.4784678e-10 1.2821687e-10
000180 5e f6 93 2f f0 d9 a9 2f b8 0c 3d 2f e1 2e f3 2f
       2.69142e-10 3.0895775e-10 1.7193968e-10 4.4234752e-10
000190 ac 35 b6 2f ce b3 89 2f d8 8e 82 30 e1 5d 70 2f
       3.3143743e-10 2.5047914e-10 9.499344e-10 2.1861225e-10
0001a0 21 65 1e 2f d0 c4 f2 2f 53 bb 37 2f ee fb 68 2f
       1.4405944e-10 4.4159387e-10 1.6710304e-10 2.118978e-10
0001b0 a0 e4 45 2c 12 14 a2 2b 27 c7 e4 2a 0e 53 bc 2b
       2.8122296e-12 1.1516363e-12 4.0639126e-13 1.3381256e-12
0001c0 76 d8 97 2b dd b6 8a 2b 0e 33 87 2c 92 0a 87 2b
       1.0789275e-12 9.856245e-13 3.842599e-12 9.595261e-13
0001d0 db c4 23 2b b9 8a b1 2b e3 e4 79 2b 5c cb 8d 2b
       5.8182425e-13 1.261511e-12 8.8780215e-13 1.0075096e-12
0001e0 48 b8 bc 2e 39 f6 06 2e 0d c7 2b 2d 13 a2 46 2e
       8.581985e-11 3.0686762e-11 9.764423e-12 4.516394e-11
0001f0 3c 2a e2 2d f3 a3 f3 2d 76 c4 1c 2f 1a f9 a7 2d
       2.5711981e-11 2.769871e-11 1.4257914e-10 1.9096325e-11
000200 a5 ef 86 2d c6 d9 66 2e 71 8f cb 2d 8c ca fb 2d
       1.534046e-11 5.2489367e-11 2.3142129e-11 2.8625345e-11
000210 ee 26 57 2e 25 95 14 2e 09 2e 88 2d e6 09 54 2e
       4.8919917e-11 3.378377e-11 1.5481854e-11 4.821201e-11
000220 40 33 14 2e 7f 90 ee 2d a5 38 08 2f 84 55 e7 2d
       3.3696823e-11 2.7121637e-11 1.2389252e-10 2.6299636e-11
000230 bd 2f d0 2d 0b e0 71 2e 19 19 df 2d 52 75 0f 2e
       2.3668062e-11 5.4996046e-11 2.536331e-11 3.2618637e-11
000240 5b bb 71 2f 9a 05 04 2f 6a 2e 44 2e a6 9d 06 2f
       2.1985384e-10 1.200732e-10 4.4606464e-11 1.2243237e-10
000250 b9 e7 ba 2e 41 4d dc 2e 6f df ec 2f 19 0d f0 2e
       8.499463e-11 1.0018165e-10 4.308691e-10 1.0916263e-10
000260 37 87 b1 2e 0b b2 26 2f d5 5a c9 2e 25 ce 08 2f
       8.073047e-11 1.5160866e-10 9.156557e-11 1.2442365e-10
000270 53 c8 82 2c 31 a6 27 2c 8d 73 96 2b e2 89 5c 2c
       3.7170627e-12 2.3824382e-12 1.0690213e-12 3.134042e-12
000280 7d 86 3d 2c 05 3e 20 2c be 77 ec 2c 39 11 0f 2c
       2.6933171e-12 2.2771795e-12 6.7208175e-12 2.0331083e-12
000290 83 8b b7 2b fe 87 60 2c f1 e4 19 2c a0 05 17 2c
       1.3041654e-12 3.1907805e-12 2.1869696e-12 2.1461513e-12
0002a0 eb c7 e3 2f ab d4 ae 2f eb 97 27 2f f1 e2 1e 30
       4.143311e-10 3.1801525e-10 1.5242534e-10 5.780257e-10
0002b0 f3 9a ca 2f 16 d8 ad 2f b4 84 bb 30 0f 73 3a 2f
       3.6853684e-10 3.1622055e-10 1.3643757e-09 1.6957478e-10
0002c0 ad 85 50 2f d8 4a 2f 30 5c 90 71 2f d8 da b1 2f
       1.8964981e-10 6.377099e-10 2.1970109e-10 3.235161e-10
0002d0 d4 3d f1 30 bc a0 fb 2f 93 eb 74 2f 9a 6b 32 30
       1.755263e-09 4.5770843e-10 2.2275363e-10 6.4908934e-10
0002e0 6d 7d 07 30 cf 90 f9 2f 8a 5e 62 31 22 5c 98 2f
       4.9290955e-10 4.539573e-10 3.2941068e-09 2.7714103e-10
0002f0 1f 9a 27 2f 8b 98 45 30 fc 9d ae 2f 66 85 df 2f
       1.5243316e-10 7.188496e-10 3.176267e-10 4.065825e-10
000300 ce 58 70 2d 9e 65 ff 2c 4b d3 94 2c 9f 2e 76 2d
       1.3662139e-11 7.2588177e-12 4.2298712e-12 1.3993833e-11
000310 4d d9 21 2d 0b 6b f0 2c de 04 0f 2e a7 49 cb 2c
       9.200041e-12 6.8330944e-12 3.251876e-11 5.777784e-12
000320 38 e3 d0 2c 67 a0 8c 2d dd 5c c8 2c 55 a0 db 2c
       5.936942e-12 1.598739e-11 5.6946518e-12 6.242155e-12
000330 12 6e 6d 2c ba 01 04 2c 8e ac 3e 2b 01 3a 00 2c
       3.3740827e-12 1.8759287e-12 6.774103e-13 1.8222093e-12
000340 88 fa 06 2c 05 b0 dc 2b 9f 1b c1 2c 4b 93 c7 2b
       1.9181618e-12 1.5680795e-12 5.4884565e-12 1.4180682e-12
000350 d5 5d 8f 2b 8d 2d 14 2c 86 cc a7 2b a4 ad e9 2b
       1.0186805e-12 2.105735e-12 1.192283e-12 1.6603841e-12
000360 9f 83 f5 2c cf ca a7 2c cc 01 23 2c 6c a5 10 2d
       6.9779317e-12 4.7689418e-12 2.316469e-12 8.222183e-12
000370 d9 23 ef 2c 11 09 9c 2c 1b a0 8a 2d d7 db 4f 2c
       6.7967684e-12 4.4347932e-12 1.5759885e-11 2.9538505e-12
000380 fc 7a 6e 2c 78 f3 16 2d 84 88 99 2c 4d e6 8e 2c
       3.3890104e-12 8.580574e-12 4.363678e-12 4.0614513e-12
000390 be 63 9f 2f 30 42 24 2f 50 fb bc 2e be 55 72 2f
       2.8992803e-10 1.4939228e-10 8.593892e-11 2.2040234e-10
0003a0 c9 55 1c 2f a2 db 07 2f d1 c7 8f 30 97 77 0f 2f
       1.4218594e-10 1.2356208e-10 1.0461411e-09 1.3048261e-10
0003b0 1d 1c 9c 2e 4e 46 a1 2f 18 8d 0d 2f 3f cd 2d 2f
       7.0990526e-11 2.9335684e-10 1.2874002e-10 1.5807176e-10
0003c0 f7 b4 b8 2c 73 eb f5 2b 14 c8 3f 2b d6 e3 1f 2c
       5.2496857e-12 1.7473647e-12 6.8134495e-13 2.2721733e-12
0003d0 95 ed 14 2c 23 1e b8 2b 1d c5 02 2d e1 de 02 2c
       2.116395e-12 1.3082351e-12 7.433412e-12 1.8597834e-12
0003e0 c3 2c 67 2b da 45 2a 2c 49 5a 9f 2b 35 20 da 2b
       8.2129805e-13 2.4197228e-12 1.1322689e-12 1.5498771e-12
0003f0 10 74 0d 30 c3 57 33 30 0e 69 a6 2f 55 03 3b 30
       5.1460436e-10 6.524454e-10 3.026987e-10 6.803494e-10

exp_avg f4 [60]
000000 c8 80 b4 36 24 d0 60 34 f7 67 be b5 98 27 9b b5
       5.37941e-06 2.0937347e-07 -1.4186361e-06 -1.1559923e-06
000010 33 9e 55 b5 fc b4 67 36 1b 3e c9 b6 4a ee 08 36
       -7.9578894e-07 3.452703e-06 -5.997497e-06 2.0404282e-06
000020 d4 dc 55 36 3d f6 5a 34 e9 aa 57 b6 31 a5 2e 35
       3.1868012e-06 2.0392413e-07 -3.213698e-06 6.5060436e-07
000030 20 34 5d b4 5a 21 bf 34 12 d4 6c 36 4d d8 4f b7
       -2.0601192e-07 3.560079e-07 3.5290182e-06 -1.2388523e-05
000040 cf 75 49 35 eb 90 25 35 aa bb 97 b5 69 39 19 36
       7.504977e-07 6.1678173e-07 -1.1304994e-06 2.2832194e-06
000050 af d8 87 b4 e4 2c f3 b6 cd 0d 9b b5 e7 8c 00 33
       -2.5303368e-07 -7.2471903e-06 -1.1552416e-06 2.9930472e-08
000060 6a f2 67 36 67 e4 4d 36 38 06 0a b6 a4 66 7d b5
       3.4562786e-06 3.0680328e-06 -2.0567222e-06 -9.4399206e-07
000070 63 58 db b5 4a 7b 8f b4 38 ea 91 35 c2 88 b0 b4
       -1.6342495e-06 -2.672553e-07 1.0871508e-06 -3.288206e-07
000080 69 e7 27 b5 4e 28 a3 b4 f9 3b 18 b5 5b 87 4b 36
       -6.2549094e-07 -3.0390441e-07 -5.6711684e-07 3.0328144e-06
000090 49 da d3 36 8b 47 40 34 b6 f6 39 34 cd 47 ff b4
       6.3137018e-06 1.790742e-07 1.731922e-07 -4.7549693e-07
0000a0 fb a6 32 b6 5e a0 77 36 bb 2a 9c 34 90 c2 62 b6
       -2.6621262e-06 3.6899214e-06 2.9088355e-07 -3.3789875e-06
0000b0 38 74 b2 b4 e5 be 4a 32 31 1c e1 36 a4 9e ca 36
       -3.3239644e-07 1.1801352e-08 6.7088044e-06 6.0385373e-06
0000c0 40 cb d6 32 38 5a c3 33 17 38 80 36 73 af 01 b7
       2.5005306e-08 9.096806e-08 3.821227e-06 -7.729849e-06
0000d0 cc a7 74 36 fa c3 6a 36 d8 91 97 b6 06 82 22 34
       3.6456504e-06 3.498279e-06 -4.517129e-06 1.5134728e-07
0000e0 fa 67 22 b6 34 00 e2 35 83 19 0c b5 a0 12 10 b4
       -2.4200403e-06 1.6838371e-06 -5.219119e-07 -1.3417821e-07

exp_avg_sq f4 [60]
000000 0c 36 69 30 16 02 04 2c b1 17 4a 30 e3 ec 41 2e
       8.484171e-10 1.8759486e-12 7.352084e-10 4.4093517e-11
000010 20 20 6d 30 b7 8c b6 30 9c b5 10 31 20 84 50 30
       8.626575e-10 1.3282236e-09 2.105799e-09 7.585772e-10
000020 d8 8e 82 30 0d 33 87 2c 75 c4 1c 2f a2 38 08 2f
       9.499344e-10 3.8425985e-12 1.4257913e-10 1.2389248e-10
000030 6d df ec 2f be 77 ec 2c b4 84 bb 30 8a 5e 62 31
       4.3086903e-10 6.7208175e-12 1.3643757e-09 3.2941068e-09
000040 de 04 0f 2e 9f 1b c1 2c 1b a0 8a 2d d2 c7 8f 30
       3.251876e-11 5.4884565e-12 1.5759885e-11 1.0461412e-09
000050 1c c5 02 2d 48 a1 e0 30 8a aa 04 30 a4 3f e5 2f
       7.4334115e-12 1.6343984e-09 4.826367e-10 4.1700077e-10
000060 08 05 7b 30 f3 e8 07 30 99 07 22 30 4c 80 2a 2e
       9.132042e-10 4.9443755e-10 5.8946054e-10 3.8767475e-11
000070 b5 7e fa 2f 74 b5 67 2c 8d 41 76 30 58 a8 5d 2c
       4.5564766e-10 3.2927801e-12 8.958743e-10 3.1499438e-12
000080 3b c2 87 30 20 1c 85 2c c7 f1 1e 2c 9a 3e 06 30
       9.877746e-10 3.78321e-12 2.2587364e-12 4.883788e-10
000090 ae 10 20 31 01 01 b7 2e c8 49 1f 2c 10 7f 91 2d
       2.3292546e-09 8.322055e-11 2.2636216e-12 1.6541019e-11
0000a0 a5 a0 ce 30 41 d8 81 30 5b ca 0e 2c a7 00 41 30
       1.5034131e-09 9.447448e-10 2.0291744e-12 7.021392e-10
0000b0 71 0f 2a 2f 4f 59 83 2d ad c5 0d 31 06 28 28 31
       1.5466896e-10 1.4932637e-11 2.0630566e-09 2.4469968e-09
0000c0 e0 85 11 30 85 fe 89 30 78 8e ac 30 45 b7 00 31
       5.294094e-10 1.0040401e-09 1.2555139e-09 1.8730628e-09
0000d0 78 68 e7 30 87 7d 67 30 d2 bd 5b 31 fb 26 3c 2c
       1.6837154e-09 8.4215696e-10 3.1976595e-09 2.6738045e-12
0000e0 f1 ec a7 31 c6 09 92 2f 03 78 b9 30 09 8a 8f 2f
       4.887277e-09 2.656419e-10 1.3494631e-09 2.6109628e-10
