mnc_ml_test/output/best/20221127-2127-model-test8.pth (torch, 67293 bytes, 21 tensors)

module.0.weight f4 [60, 12]
00000000: 08ea 7a3e d62d dd3c 6ae2 6c3e aec1 1c3d
00000010: f1c8 17bb 7565 bdbe fda1 75be 134c 903c
00000020: d690 0d3d caa9 35bd 1a60 f0bd 824f aabd
00000030: 254c 78be d05d 9d3d eaff 17bf 35b0 5d3e
00000040: 12b2 943d 3770 88bd 6af2 97bd ebc3 213d
00000050: 84e2 99be 64f3 5d3c 173a 14be 2aab 18bc
00000060: 9a45 86be ed52 6ebd fb48 22bf 25c5 ad3e
00000070: d2a7 f33d 1fd8 b2bb 75b5 fcbd b4c9 d5bd
00000080: a53a 12bf d6a2 f43c cdb0 733d 767d 94bc
00000090: dcae 6c3c 0cc1 4e3c fc5d 53be 4cde 81bc
000000a0: a53d 7ebe c0a4 643d 18e8 1dbe 58b9 9bbd
000000b0: 31a2 44bd 7deb 9abc 5400 9abd b863 a0bd
000000c0: 580f acbc 1e1b 843e 7f5a f7be e130 0d3e
000000d0: 36e1 a23a 65d0 07be e645 ab3d 3ed3 d93c
000000e0: bbc6 70be 19af 413d c4df 5f3d 1475 66bd
000000f0: fb53 0abe bc69 213f bc77 b0be 6cb7 c93c
00000100: d92e c93d 4f99 a0be b37c 3fbe a719 903e
00000110: 0752 52be 6d02 5e3d 3aa3 bbbd 855a eabc
00000120: f30c c7be dd6b 753e 85e3 e9be d5f7 f13d
00000130: fa62 d73d aaa2 cfbd 1724 8b3e daa2 82bd
00000140: 8ae8 b5be 8190 3f3e 6547 cebd 0c78 933d
00000150: f17f 2bbe 0f9d 213f bb6e 9ebf a316 743e
00000160: 8438 b33c cf75 d6be b45f 263e 360b 013e
00000170: 5217 82bf 55c3 c93e 0760 f23c 6c59 b9bc
00000180: 9878 503e d667 203c db0c ef3c 09d7 713e
00000190: c59a 1ebd 24fc 923c 4770 30be bd40 d4bb
000001a0: 15a1 4abc c393 ae3d 4c1f a53c 9c99 4bbc
000001b0: e3fc 203f 7b14 23bf 5ae8 013f 5093 0a3e
000001c0: 95e0 153e 45f9 e23e 0158 68be ce5b 613c
000001d0: 4182 e33d 005e c93d 1ee8 ef3d 0a6c 443e
000001e0: f1b8 93be e1f1 083d 252b 4fbe 6921 2c3e
000001f0: 47c7 aa3d 6d85 c4bd 8ab9 10be 6b76 263d
00000200: b0ff dabd f942 04be ca52 91bd 5169 32bd
00000210: 7034 ca37 9640 5e37 0dc7 07b9 4ed7 e7b8
00000220: ba95 6eb9 f3a6 06b9 7bfe 1eba 6f64 03b9
00000230: c2bb 0f38 61d5 21b9 56db 8f38 471f 5eb9
00000240: 2198 d33c bc8e 703e 7a18 bebd 144c 50be
00000250: 4d43 293d 183f e1bc 0e82 cebd 4334 03be
00000260: 94eb 47bd ad97 adbd 627c 60bd c6c9 b5bc
00000270: 0dbb 5a3c 9693 99bd bbc6 ebbd 84f6 3ebe
00000280: c6a4 54be 6b30 433e b146 63be dff8 3fbe
00000290: 28ff aa3d 4db4 81be c6e6 2c3e 1044 f93c
000002a0: 00a4 1b3e 71d7 e0bd 5075 eb3e 01db 0ebe
000002b0: 28e7 a13e d862 e5bb 555c 3fbe f80b 1fbd
000002c0: 409a ab3d cdad 79bd 7840 0e3d 2067 ed3d
000002d0: 4209 e23e 443e a9be 9e66 4d3f 0c3e d9bd
000002e0: 6d70 7ebd 45c0 263e a8c3 b7bd ee1c 553e
000002f0: ce5c 053e 29cb 54be 0023 4d3d 42fa 0cbc
00000300: 45eb fcbd 38ca 29be 95a1 4b3e 60c7 c3bc
00000310: d3b7 cf3d bf05 0abe 6a44 3bbd 106a b13c
00000320: 056c 3d3e 8fb2 0ebe b047 3fbe e7b8 053d
00000330: 6dc2 153c 70fb e43b 2fd6 0dbb 0a42 59bb
00000340: 6bf6 4b3b 8573 de3b ad6d a5bc 5a2a 693b
00000350: 967b 6439 353f b03a 4ae8 a03b 9197 d1b9
00000360: 618c 8ebd 2e02 7abd 718f a13d cd10 79be
00000370: 027f 90bc 4033 a53d 367e 5bbd 8825 31be
00000380: 84eb 9a3e 2384 ea3c 2a21 99bd b964 e6bd
00000390: 5920 3bb9 b34f 7ab8 55d3 0639 9d47 7138
000003a0: fa22 1e38 bbfb d0b8 c4ba 43b9 02db 9738
000003b0: 7822 83b8 9785 46b9 2147 beb8 b6ed 4e39
000003c0: 2127 0dbf 016b e4bd 7759 bcbd 29be 33be
000003d0: 397e 2abc 913e 623c ce3c ad3e 6007 4ebe
000003e0: eb55 923e eaf1 273e 55f7 033d 2dcc 1a3e
000003f0: 566d dabd 26a6 a2be a154 bbbd 1aab 4b3e
0.24503338 0.026999395 0.23133245 0.038270645 -0.0023160542 -0.36991468 -0.23987575 0.0176144
0.034561954 -0.044351377 -0.1173708 -0.08315946 -0.24247797 0.07683909 -0.5937487 0.21649249
0.07260527 -0.06662028 -0.07419284 0.039493483 -0.3005563 0.013546798 -0.14475285 -0.009318152
-0.26224977 -0.058184553 -0.6339261 0.33939472 0.118972436 -0.0054578925 -0.12339298 -0.104388624
-0.57120734 0.029862802 0.059494782 -0.01812623 0.014445987 0.012619268 -0.20641321 -0.01585307
-0.24828203 0.05582118 -0.15420568 -0.07603711 -0.04800624 -0.018911118 -0.07519594 -0.0783152
-0.02100341 0.2580194 -0.4831123 0.13788177 0.0012426737 -0.1326309 0.083629414 0.026589986
-0.2351331 0.047286127 0.05465676 -0.056264 -0.13508599 0.6305196 -0.3446635 0.024623595
0.098233886 -0.31366965 -0.18699913 0.2814457 -0.20539103 0.054201532 -0.09161992 -0.028607616
-0.38877067 0.23966928 -0.45681396 0.11814848 0.10516925 -0.101384476 0.27175972 -0.06378718
-0.35528976 0.18707468 -0.10072211 0.072006315 -0.16748025 0.6313028 -1.2377542 0.2383676
0.021877535 -0.41886756 0.16247445 0.12601933 -1.0163367 0.3940684 0.029586805 -0.022625647
0.20358503 0.009790381 0.029180935 0.23617186 -0.03872182 0.017942496 -0.1723033 -0.006477444
-0.0123675065 0.08524277 0.020156525 -0.01242676 0.62885875 -0.63703126 0.50745165 0.13532758
0.14636452 0.44330803 -0.22689821 0.013754798 0.11108828 0.09832382 0.11714195 0.19181839
-0.28852037 0.0334338 -0.20231302 0.1680962 0.083387904 -0.095957614 -0.14133278 0.040640276
-0.106933 -0.12916173 -0.07095869 -0.04355747 2.4104695e-05 1.3247269e-05 -0.00012948755 -0.00011055042
-0.00022753226 -0.00012841429 -0.0006065142 -0.00012530548 3.426872e-05 -0.00015433646 6.859626e-05 -0.00021183222
0.025829377 0.23491949 -0.09282012 -0.20341522 0.04132395 -0.027495906 -0.100834 -0.12812905
-0.04880865 -0.084761955 -0.05480612 -0.02219094 0.01335026 -0.07498853 -0.11512514 -0.18648726
-0.20765981 0.19061439 -0.22194935 -0.1874728 0.083494484 -0.2533287 0.16884908 0.030427963
0.1519928 -0.10978592 0.4598794 -0.13950731 0.3162167 -0.0070003085 -0.18687566 -0.038829774
0.0837903 -0.060956765 0.03472945 0.11591935 0.44147688 -0.33055317 0.80234706 -0.106075376
-0.062118936 0.16284283 -0.08972865 0.20811817 0.13023683 -0.20780624 0.050082207 -0.008604588
-0.123495616 -0.16581047 0.19885857 -0.02389878 0.101424836 -0.13478754 -0.04571954 0.02165702
0.18498237 -0.13935302 -0.1867969 0.03264704 0.009140593 0.0069879815 -0.0021642556 -0.0033150935
0.0031122218 0.0067886733 -0.020193899 0.0035578222 0.00021789814 0.0013446572 0.0049105035 -0.00039976512
-0.06960369 -0.061037235 0.078886874 -0.24322815 -0.017638687 0.08066416 -0.05358716 -0.17299473
0.3025781 0.02862746 -0.07477029 -0.1124968 -0.0001784576 -5.967887e-05 0.00012857963 5.7525573e-05
3.770271e-05 -9.965101e-05 -0.00018666225 7.2410345e-05 -6.252987e-05 -0.00018932518 -9.073155e-05 0.00019734245
-0.5513783 -0.11153222 -0.091967516 -0.17553009 -0.01040607 0.013808862 0.33835453 -0.20120001
0.28581175 0.16400877 0.032218296 0.1511695 -0.106653854 -0.31767386 -0.09147001 0.19889489

module.0.bias f4 [60]
00000000: 82cb 84be 0ad8 333e 23b2 b5bd f2d3 10be
00000010: ae0d 7e3d dae7 933c b679 373c 4afc b0bd
00000020: 8b50 32be 2db7 35be 1746 6c3e 7cfe 1eba
00000030: 91a9 e2bd 4898 66be 46e5 5b3a ea80 493e
00000040: eb36 563d ac6d a5bc 3f23 1a3d dfba 43b9
00000050: cb92 e03e 0148 02be 79d4 7cbe 2ec8 7dbc
00000060: cd2c 43bd 698f 30bc ce88 52bc ca1e a0be
00000070: 2a31 dd3d 2964 f33d e0d3 13be 2398 58be
00000080: 388e 3cbe 7754 523e 1682 4abe 63ec cbb8
00000090: 0faa 85bc d99e b2bd 49dc d13e 5ef5 30be
000000a0: 0121 afbe a601 39be f866 32be c92b 00be
000000b0: e6ae 10bc 8677 df3e c045 5abd 8392 9bbe
000000c0: cf61 823e 02c3 2b3d bc54 3a3d cd64 24bd
000000d0: c589 5cbe 55cd 753d 5667 cabd 7ac2 d8bc
000000e0: 897b 3fbd df19 32be af94 82be 5cb5 4fbe
-0.25936514 0.17562881 -0.088718675 -0.1414335 0.062024765 0.018054891 0.011198452 -0.0864187
-0.17413537 -0.17745657 0.23073612 -0.0006065143 -0.110674985 -0.22519028 0.00083883514 0.19678083
0.052298468 -0.020193897 0.03763127 -0.00018666264 0.43861994 -0.1272278 -0.24690427 -0.015489621
-0.047650147 -0.010776379 -0.01285 -0.3127349 0.10800393 0.118843384 -0.14436293 -0.21151786
-0.18413627 0.20540033 -0.19776186 -9.723825e-05 -0.016316442 -0.08721704 0.40988377 -0.172811
-0.34204867 -0.18067035 -0.17422092 -0.12516703 -0.008830762 0.43645877 -0.053289175 -0.30385217
0.25465247 0.04193402 0.045490965 -0.040135194 -0.2153693 0.060010273 -0.09882991 -0.026459921
-0.04674867 -0.17392682 -0.25504062 -0.20284027

module.2.weight f4 [60, 60]
00000000: 9df8 66bc 0ea0 b1bb f447 94bb 2d28 9939
00000010: 03df fabb 45f1 1abc e286 b8bb d691 abbb
00000020: 549b 6abc 21a6 54bc 9105 25bb ca79 3ab7
00000030: 7d76 b5ba 5d12 c43a 0661 6dbc ebc8 63bc
00000040: b39a e3ba a062 2bb9 1077 ce3a 7439 aab5
00000050: f749 9dbb 96af a3bb ca0a 1fbb 4919 dcbb
00000060: 8639 b53a 0c5d b8b8 39a5 96bb f1c2 2bbc
00000070: 0ee8 5fbb 7738 59bc 0214 8ebb 2c20 42bc
00000080: 0ef5 98b8 c81c e0bb 0423 0838 5457 81b5
00000090: 1141 07b9 cb27 26bc ea40 9bbb 951f 38bc
000000a0: b09f 4cbb 8d41 a33b fd6c 2cbc 6112 d4bb
000000b0: 9134 01bc 5f37 b6bb 9215 26ba 8c7c 33bc
000000c0: 60bb 6fbb 6acb b9bb 2c5c aebb d6d2 17ba
000000d0: 9ca6 b53a 1711 75bc 572d e2bb 1846 94b9
000000e0: 445c 87bb 852e a3bb 56e7 44bc f03c 79bc
000000f0: 85ce 42b8 e5d7 163a 1c6f b339 84dc ee39
00000100: 8d6a 003a 9061 173a a1be 18bb 6f65 f639
00000110: 98bf a238 a2f9 cb39 ab28 843a 995a 54b4
00000120: 0b34 8a38 66be a538 0839 e839 fb74 d139
00000130: e849 733a 25db 70b6 5404 4d3a 4a50 abb3
00000140: e272 98bb c6ad 4d39 3e64 1d38 1989 083a
00000150: bbf2 01b8 5520 1ab6 9089 9239 7d15 3739
00000160: 4314 123a 2b50 213a b94b f038 7846 b639
00000170: 98ba b6b9 1119 1dbb a1fb 7039 6add b1b2
00000180: 5619 54b6 0d71 8539 0b8f 30bb 0cd6 db39
00000190: c00c 0139 b47a 8038 c9b4 c739 57a6 aa39
000001a0: e04e 0a3a ec0a 97bb e0af a6b6 8afa ea39
000001b0: 9362 f6ba 8008 343a 41d9 e7ba bc11 59b7
000001c0: c75b f138 a04c 8839 63b2 3db8 bd56 a0b6
000001d0: 0102 9a3a 7431 013a 2c5e 0e39 00bb ec39
000001e0: 80ec 313a 3448 9d3a 00b4 1636 e9fc 50ba
000001f0: 12b2 763a edb1 0dbb 3487 ba3a af43 3a39
00000200: ac8d 9db9 eaff edba c278 303b 979a 5e35
00000210: 63cb 073a 2c59 4539 c64e aeb9 bb35 86bc
00000220: bf65 d23a e251 9e36 b386 3e3a 3df7 fb33
00000230: b4f5 9239 8a75 b439 863a 06bb 8938 273a
00000240: 70a8 e9b9 da07 2a36 8236 52b7 e205 153a
00000250: a55b d43a 37d5 1fbc 9f3d 053a dc4d 6bba
00000260: aa3d 733a 0855 4f3a 06fc 2dba ecd0 5e33
00000270: 6e4e d836 f167 493a e980 69b9 f76b 983a
00000280: 1a9f 0dbc 58fb 1937 7da7 9ebb f788 1cb8
00000290: 83f7 16bb 25f7 97bb 20ec 7c35 ca15 97b9
000002a0: aef0 0dbb a83f 63bb 4a0c 13bb 800a f734
000002b0: 4c1c b0b5 2462 f1bb b1cc 0d3a 96cb 9eb6
000002c0: 07a0 073b b2e3 193a 5dcd ad3a 0e81 b4ba
000002d0: 537a 20bd 41ce 773d 1f8c ddbc 4269 1c3d
000002e0: 3f9d 673d fc5b 2ebd 0b12 06bc 8067 9bbc
000002f0: 3640 8b3c 302b c33e ce7d bd3d b0a2 5cb8
00000300: ad78 09be f4d4 163e d016 bf3c 3686 cfbd
00000310: bae5 71bd acea 293b 2bbd 7f3c a287 7637
00000320: bd30 833e 70f9 a33c 575e ee3d 8b31 0f3a
00000330: d342 7a3b a559 3fba 972b 0dbd 8dd6 2e3c
00000340: 8e27 9dbc 5274 203c e0f8 8ebd 0e4d 42bc
00000350: 27e8 633d f395 b03d ca57 22bd 1785 0b37
00000360: 0be1 ef39 adfa 7d3c c9a7 853e 48ca 4d3b
00000370: 7670 643d 7d45 05bb ee95 873d dd74 1dbe
00000380: f896 d2bc 06e2 653e a3d7 d0bc ebab a3bd
00000390: 2191 583e 575a 1cbd 618c 2dbb f59a 03bb
000003a0: 9d9b cebc fe3b 193d d0d2 fbbc 508e c33a
000003b0: 3428 663d fe56 1e3e 9b43 c23b e8a9 c5bc
000003c0: 4baa 3fb7 cc2a 0038 bc7e d036 6486 3d36
000003d0: 5e66 8837 1930 3538 094e 3839 b851 1133
000003e0: 5032 2036 730b 04b7 74fc aa38 a848 96b0
000003f0: 73ea 1337 7d07 7537 fbc8 5b37 80db 8638
-0.01409736 -0.0054206913 -0.004525179 0.00029212367 -0.0076559796 -0.009456937 -0.0056313137 -0.005235891
-0.01431926 -0.012979061 -0.002518032 -1.111482e-05 -0.0013844516 0.0014959086 -0.014488464 -0.013902883
-0.001736483 -0.00016344571 0.0015752036 -1.2682708e-06 -0.004800077 -0.0049952967 -0.0024267905 -0.0067168814
0.0013826347 -8.791135e-05 -0.004597333 -0.010483489 -0.0034165415 -0.013258091 -0.004335881 -0.011848491
-7.29357e-05 -0.0068393685 3.2457538e-05 -9.636665e-07 -0.00012898842 -0.010141323 -0.004737963 -0.0112379985
-0.003122311 0.0049821795 -0.010524032 -0.0064719175 -0.007886068 -0.0055608 -0.00063356117 -0.010954987
-0.003658019 -0.005670001 -0.0053210463 -0.000579161 0.0013858858 -0.014957688 -0.0069023776 -0.00028280984
-0.004130872 -0.004979911 -0.012018045 -0.015212283 -4.644554e-05 0.00057542167 0.00034224323 0.00045559194
0.000489869 0.0005774731 -0.0023306983 0.0004699635 7.760449e-05 0.00038905168 0.0010082921 -1.9776998e-07
6.5900465e-05 7.9032776e-05 0.0004429298 0.00039950744 0.0009280727 -3.5890346e-06 0.00078207743 -7.9774125e-08
-0.004652367 0.00019615059 3.7525075e-05 0.00052084174 -3.0982057e-05 -2.2966608e-06 0.00027949782 0.00017460245
0.0005572477 0.00061536086 0.00011458196 0.00034766248 -0.00034852768 -0.002397124 0.00022981923 -2.07062e-08
-3.160521e-06 0.00025451966 -0.002694073 0.00041930412 0.00012307148 6.126371e-05 0.00038090933 0.0003254886
0.00052760355 -0.0046094563 -4.96766e-06 0.00044818624 -0.0018797688 0.00068677217 -0.0017688648 -1.2938337e-05
0.000115088704 0.00025997031 -4.5227247e-05 -4.7784692e-06 0.0011749865 0.00049283286 0.00013577257 0.00045152754
0.00067872554 0.0011999668 2.2456516e-06 -0.0007972257 0.000941069 -0.0021620945 0.0014230967 0.00017763556
-0.00030050927 -0.0018157933 0.0026927446 8.29264e-07 0.00051801483 0.00018820603 -0.00033246557 -0.016383043
0.0016052051 4.7182994e-06 0.00072679966 1.1733071e-07 0.00028030353 0.0003441985 -0.002048166 0.0006378969
-0.0004456672 2.5336544e-06 -1.25296665e-05 0.00056847755 0.0016201629 -0.009755424 0.00050827296 -0.00089761405
0.0009278903 0.0007909094 -0.00066369807 5.1878416e-08 6.446432e-06 0.000768303 -0.00022268634 0.0011628856
-0.00864389 9.178031e-06 -0.0048417435 -3.7320857e-05 -0.0023035712 -0.004637616 9.422092e-07 -0.00028817198
-0.002165835 -0.0034675393 -0.0022437745 4.6014975e-07 -1.3121257e-06 -0.0073664356 0.00054092245 -4.7324675e-06
0.002069475 0.0005870416 0.0013260056 -0.0013771371 -0.039179157 0.060499433 -0.027044354 0.03818632
0.056546446 -0.042568192 -0.008183013 -0.018970251 0.016998392 0.38118887 0.09252511 -5.2603602e-05
-0.1342494 0.14729673 0.023326308 -0.101330206 -0.059056975 0.002592723 0.015609066 1.4694322e-05
0.25623122 0.020016402 0.11639088 0.00054623996 0.0038186803 -0.000729943 -0.0344654 0.01067127
-0.0191839 0.009793358 -0.06981063 -0.011859192 0.05564132 0.086223505 -0.039634503 8.316033e-06
0.00045753302 0.01550166 0.26104572 0.0031401087 0.055771314 -0.0020335608 0.06620394 -0.15376611
-0.025706753 0.22449502 -0.025493449 -0.07991775 0.21149112 -0.038172092 -0.0026481377 -0.0020081375
-0.025220687 0.03741073 -0.030740172 0.0014919732 0.056190684 0.15462872 0.0059284694 -0.02412887
-1.1424137e-05 3.0557436e-05 6.213637e-06 2.824142e-06 1.6260132e-05 4.3198557e-05 0.00017576678 3.3834766e-08
2.3871144e-06 -7.870479e-06 8.153255e-05 -1.0934587e-09 8.81647e-06 1.46048815e-05 1.3100212e-05 6.430503e-05

module.2.bias f4 [60]
00000000: 0df5 1bbc 6df9 98bb 867a 96bc a403 053e
00000010: 9a36 dbb9 2c9a 40bb 7423 cbbb 69f0 893e
00000020: 8996 e2ba 92f1 f5ba 820a 10be a7e5 86bc
00000030: e3d2 763e e04f 10bc 5697 6dba 393e dbbe
00000040: 701e c0bb 9bb8 8ebc 48cc 1ebc d441 a4be
00000050: 2ab6 10b9 770e 73ba 123b fabb ffbb 89be
00000060: 1789 d1bc 26f1 9f3e d3a1 45ba 1dc0 133e
00000070: db44 8dbc b6a1 613e d137 a4bc a828 b93d
00000080: e78b fcbc 5ca9 16be 6607 63bc b0e9 363e
00000090: cb61 3d3e e22f dcbd 6b37 d2bd f179 e3ba
000000a0: e9cc 06bb 4353 86bb d792 59be fd34 993e
000000b0: 5ca8 78bc e1cd 983e 2ad4 2eb9 c2b0 6cbc
000000c0: 9f3c b7ba 3517 cfba f4d1 febc d2ac dbbc
000000d0: f502 9ab9 257a aebb 51ca b13e d5cd 1a3d
000000e0: 27de 07bb b14c 13ba b65b 33bb 5945 bcba
-0.009518874 -0.0046684057 -0.01836897 0.1298967 -0.00041811616 -0.0029388769 -0.0061992947 0.2694123
-0.0017287295 -0.001876401 -0.14066508 -0.016466929 0.24103884 -0.008808106 -0.00090633833 -0.4282091
-0.0058630034 -0.017422011 -0.009692259 -0.32081473 -0.00013800772 -0.000927187 -0.0076364363 -0.26901242
-0.025578065 0.3123867 -0.00075390673 0.14428754 -0.017244747 0.22034344 -0.020046147 0.09040958
-0.03082843 -0.14713043 -0.013856744 0.17862582 0.18494336 -0.107513204 -0.102644764 -0.0017355067
-0.0020568913 -0.004099281 -0.21247421 0.2992324 -0.015176859 0.29844573 -0.0001667297 -0.014446439
-0.0013979858 -0.0015799763 -0.031105973 -0.026815806 -0.00029375372 -0.0053246194 0.34724668 0.037793953
-0.0020731778 -0.0005619033 -0.0027367896 -0.0014363929

module.4.weight f4 [6, 60]
00000000: 5863 0a37 58c1 b4b3 20e7 0e36 0061 abba
00000010: ba2a 5e33 f619 7a35 6090 e433 eb9c a639
00000020: 00fa d7b2 e869 50b2 b3e9 4139 784c 1d34
00000030: f745 0e3a a146 bd35 6148 0bb4 3834 c7b8
00000040: 6053 3b35 cc26 6935 7cfa 6bb3 5bf6 8039
00000050: debd a1b1 a090 2431 8847 a335 8e58 6e38
00000060: 0801 b335 d30b c239 d88e 88b3 6e61 9b3a
00000070: d061 3cb6 8e62 6539 601f 7d34 263c 6239
00000080: a8af 80b5 1304 e238 b362 3738 8fd1 a7ba
00000090: 11ec d6b9 dafc c737 baac 0cb9 4ab7 3d34
000000a0: b082 0c35 8ec1 cdb4 ab65 e3b5 4a81 443a
000000b0: d08d a6b5 7f87 92ba db6a 9732 40ea 4eb4
000000c0: 00ae 95b2 c63e a834 b8c2 ccb5 8022 1db4
000000d0: 604a 14b5 6028 b233 269b d83a f9d0 003a
000000e0: 3828 9232 c4aa 4832 3eb5 4035 e274 0d34
000000f0: ee71 723c f581 d4b9 d069 4f3c 4c30 e1bd
00000100: ba00 3c38 7342 4639 70d0 ce38 4273 523d
00000110: 077e 0439 f904 5239 0de2 afbd 378e d33a
00000120: 1662 af3b bec6 e9b8 accf 47b9 4830 b93b
00000130: 069e 953a aac1 573c a4f2 0539 f6fe 2f3d
00000140: 9c15 6236 99e9 fe37 2fd6 55bb 16f1 003f
00000150: 4765 0e3b 1281 6d3e d4a6 aeb8 7f92 2bbe
00000160: 7594 e3bb 0d32 083e 63d7 6a3a 8016 7f3e
00000170: a66a bbbc 9c4e 1bba dfd7 a3bb 7a65 ef3d
00000180: 21d6 47be 4670 ab3b 3244 443e eb14 9537
00000190: 94e1 d839 a7b3 14bb f177 a43e 35de 6a3e
000001a0: 5fdc c03b 156a da3d 64ca efb7 959f 08bc
000001b0: f972 9c3a d729 4ab8 f145 e53a bf07 48bc
000001c0: 99ca 1cb9 f80a fb3a 92d2 8fbe b8b2 0ebc
000001d0: 8299 8e39 fc9d 12b7 37d3 203a caf4 47ba
000001e0: 6add 47ba ef31 a9b9 7c3e 3fba 2659 3a3c
000001f0: e988 b8b9 1349 de39 3be6 bc3a eab8 9a3d
00000200: a516 8f39 b94b 4fba d734 5abe 9002 a73a
00000210: 262d 253d cd7f 143b 38fc 6cba 5711 793e
00000220: b332 1d3b d1db 81bc f5b0 9339 0043 04be
00000230: 66ae 58b9 a116 9dba 55bc 27bb 6d67 42be
00000240: c462 bf3c 92ae 243e e5f0 b539 c1a5 673c
00000250: e2f8 7dbc 98b9 d03d af4b babc 05a4 dd3c
00000260: af35 823c e916 52be 5ded 29bd 7542 6f3d
00000270: 1ac1 0a3c 5cb8 3e3d acab dc3b c5be 8ab7
00000280: 6be1 8a39 d6ac 58ba e39a dcbd be60 9d39
00000290: c7c5 253c 762c a73d 8a6b c439 d2ca 843a
000002a0: d19d d439 df23 553a 94fe cf3c 87f6 dbbc
000002b0: 9da5 5239 fcc6 f83a e311 fb3d 57d2 06be
000002c0: bc07 d5ba 66ec b03a b172 87b9 b0d3 4bb9
000002d0: 4a05 753a 7f43 3937 8e6f 31b8 8469 00bc
000002e0: 78a0 3db4 2769 9bb6 fa60 60b7 f09b debb
000002f0: e0af 46b5 82fb 2f36 7147 23bc 6f19 b137
00000300: 9f09 afba eacf d537 9cfb 6036 63a4 bfbb
00000310: e61d a237 5e5f 4eb8 8014 dcb6 f6f8 64bc
00000320: eeb7 5c35 2415 5e36 8e3f 0937 7b0b 0abb
00000330: 413c bb38 cef1 c9bb b83f 9434 f021 bf3b
00000340: 802b e8b7 f209 4cbb 6398 88b7 0f0c 97b8
00000350: 0a98 8e38 8c6c 73bb ef9a 59bb 1e89 01bc
00000360: 13c7 e5bb 6061 46bb 5673 d7ba 6624 5637
00000370: 9ec4 0538 5010 3db6 f3f4 d7b9 1770 15bb
00000380: ffff f138 cd00 31bc 441d 1936 2020 d435
00000390: c0eb 0f38 5893 9037 ccbb 8138 2d2e 7bb8
000003a0: b0f6 58b8 825d 2738 d596 0d3c 9558 04bd
000003b0: 62ed 0d36 d87c 3e36 807c aab3 1091 ddb5
000003c0: 19c7 01ba d109 923a 9e4e 67ba f1a7 0c3e
000003d0: 12ff 2939 3f59 46ba 831c 8fbb a5e2 0e3e
000003e0: 2f44 f2b8 bee9 113a a70c 61be 75e1 593b
000003f0: cfe1 d33c d3b2 9c3b deba a939 53b0 d23e
8.248571e-06 -8.417072e-08 2.1294181e-06 -0.0013075173 5.1727262e-08 9.3170036e-07 1.0643339e-07 0.000317789
-2.5142981e-08 -1.2131274e-08 0.00018492974 1.4649584e-07 0.00054272957 1.4102153e-06 -1.2971715e-07 -9.498786e-05
6.9784255e-07 8.685572e-07 -5.4943015e-08 0.00024597612 -4.707302e-09 2.394735e-09 1.2165265e-06 5.6826095e-05
1.3336839e-06 0.00037011373 -6.3589766e-08 0.0011854598 -2.8071117e-06 0.00021875856 2.3573875e-07 0.00021575447
-9.587866e-07 0.00010777279 4.372252e-05 -0.0012803542 -0.00040993144 2.3840392e-05 -0.00013415786 1.7668677e-07
5.234424e-07 -3.8325055e-07 -1.6942407e-06 0.0007496072 -1.2409237e-06 -0.0011179297 1.7627306e-08 -1.9270465e-07
-1.7425009e-08 3.1338112e-07 -1.5255855e-06 -1.4634315e-07 -5.5242526e-07 8.296115e-08 0.001652573 0.0004913952
1.7014926e-08 1.168036e-08 7.1789316e-07 1.317417e-07 0.014797671 -0.00040532617 0.012659505 -0.1099554
4.482337e-05 0.00018907506 9.86167e-05 0.05137945 0.0001263545 0.00020029013 -0.08588038 0.0016140406
0.005352269 -0.000111473244 -0.00019055483 0.0056515075 0.0011414893 0.013168732 0.00012774259 0.04296776
3.3689203e-06 3.0387937e-05 -0.0032628884 0.5036787 0.0021727846 0.23193768 -8.328041e-05 -0.16755103
-0.0069451877 0.13300343 0.0008958487 0.24910927 -0.022878002 -0.00059244945 -0.005000099 0.11689277
-0.19515277 0.00523189 0.1916664 1.7771925e-05 0.000413668 -0.002269009 0.32122758 0.22936328
0.0058856453 0.10664765 -2.8585266e-05 -0.008338829 0.001193612 -4.819952e-05 0.0017492158 -0.012208878
-0.00014952793 0.0019153049 -0.2809034 -0.008709602 0.00027198723 -8.739062e-06 0.0006134989 -0.0007627724
-0.0007624241 -0.00032271395 -0.00072953827 0.011373794 -0.0003519722 0.00042397584 0.0014411876 0.07554801
0.00027291957 -0.0007907707 -0.2130922 0.0012741853 0.04032626 0.0022659183 -0.0009040269 0.24323021
0.0023986518 -0.015851887 0.00028169868 -0.12916183 -0.00020664334 -0.0011984893 -0.0025594432 -0.18984766
0.023362525 0.16082218 0.0003470249 0.01413864 -0.015501233 0.10191649 -0.022741167 0.02705575
0.015894739 -0.20516552 -0.041486133 0.058412988 0.008468891 0.046562538 0.006734332 -1.6539716e-05
0.0002648936 -0.00082655007 -0.1077173 0.00030017452 0.010117955 0.08162777 0.00037464156 0.0010131246
0.00040553373 0.00081306504 0.025389947 -0.026850952 0.00020088856 0.00189802 0.12259271 -0.13166176
-0.0016252915 0.0013498187 -0.00025834658 -0.00019438448 0.00093467964 1.1042574e-05 -4.2303982e-05 -0.007837657
-1.7660375e-07 -4.6316013e-06 -1.33740195e-05 -0.0067934915 -7.401668e-07 2.622343e-06 -0.009965763 2.1111888e-05
-0.0013354308 2.5488396e-05 3.3525057e-06 -0.005848454 1.9325827e-05 -4.9203045e-05 -6.5588974e-06 -0.013975373
8.222404e-07 3.3092883e-06 8.180634e-06 -0.0021063972 8.928078e-05 -0.0061628586 2.761351e-07 0.005832903
-2.7676811e-05 -0.0031133858 -1.6283424e-05 -7.202487e-05 6.799407e-05 -0.0037143556 -0.003320392 -0.007906226
-0.007012257 -0.0030270442 -0.0016437571 1.2763869e-05 3.1892785e-05 -2.817269e-06 -0.00041190497 -0.0022802406
0.000115394585 -0.010803414 2.2815811e-06 1.580458e-06 3.4313416e-05 1.723475e-05 6.186179e-05 -5.9886068e-05
-5.172816e-05 3.990299e-05 0.008641918 -0.03231104 2.1148812e-06 2.8384875e-06 -7.938888e-08 -1.6508002e-06
-0.00049506273 0.0011141842 -0.00088236656 0.1373594 0.00016212117 -0.0007566399 -0.0043674125 0.13953646
-0.000115521594 0.00055661413 -0.21977483 0.0033245955 0.02586451 0.0047820597 0.0003237342 0.4115015

module.4.bias f4 [6]
00000000: 774b 4dbb 03c0 a2be a0f0 633e 7624 ddbc
00000010: 9fbd 3c3e 5c07 17bd
-0.0031325498 -0.31787118 0.2225976 -0.026994925 0.1843171 -0.036872253

module.6.weight f4 [1, 6]
00000000: e170 38b9 3807 00be fe70 bd3d f1c0 4cbc
00000010: 76be 593e eb12 fdbc
-0.00017589658 -0.12502754 0.09250067 -0.012497173 0.21264061 -0.03089281

exp_avg f4 [60, 12]
00000000: 46df 2d39 3aca 7f39 c4aa 1438 cf73 2e39
00000010: 4dbe 60b7 2f06 7439 b539 f4b8 1246 cb38
00000020: df9a be36 37d6 d038 6213 3eb6 e5fd 1339
00000030: 1e9b ac39 3bd9 5b39 1e2c 01b9 a7e6 e2b9
00000040: cc16 0aba 2ad1 8f39 1919 c939 7a6d f139
00000050: 0a00 a9b9 48b3 2cba 30df 2bba e11c ae39
00000060: a129 13b9 51a2 18b9 f364 c2b9 48d8 04ba
00000070: 92c0 9738 663b 0c3a 2e55 4d3a 6f37 dd37
00000080: d188 aab9 c3f1 36ba 162a 3938 1aa0 243a
00000090: fcf5 14b9 a9d4 d3b6 36a4 dab7 5cda e5b8
000000a0: fad4 87b8 38a5 8138 5df3 8e38 deab 88b8
000000b0: 6351 0537 5abf b1b8 df80 d2b7 c6cd 1838
000000c0: ac76 4c38 bdd1 6439 500a b4b8 36e1 d0b8
000000d0: 596f 17ba 4e45 2739 82a3 02ba 80e4 f836
000000e0: bc41 3738 cb92 8b37 70ef aab9 344d a3b8
000000f0: 2ef2 d5b8 b9be 1837 caf7 7439 1729 8b39
00000100: caa0 0438 3ad7 25ba 8167 8ab6 efd2 55b8
00000110: 7f99 2e39 1c85 2f39 e727 e5b6 8d6e 1fba
00000120: 3b56 4f3a 7978 1cb8 32c7 90b9 bcab abb9
00000130: 2705 b1ba 6a1a 7839 e309 02ba 8b26 d639
00000140: 8c76 d2b9 b518 1aba 6780 a4ba d7fa 4339
00000150: 4c3a f7ba 7cc7 58b9 b93a 61ba 4483 75ba
00000160: 804d 2c39 1f30 b43a 9b3f 643b 4b2e 9bb9
00000170: 17e8 41ba d496 ffba e6fe 0b3a a7e6 b43a
00000180: 66ea 4538 d8c1 a138 5b17 6d38 a49d 7538
00000190: a19e 13b7 e1ec d7b7 3174 5d38 ad5a 7438
000001a0: a1d9 a1b6 ef6d cb36 99d2 02b8 5f8d 4b37
000001b0: db7e cdba 2f59 083a 5d02 3637 ab4a 1939
000001c0: 36b8 3cba dc0d 8fba f170 deba e3cc 70ba
000001d0: 574c 7e3a bfc1 6d3a 7a16 383a d9e5 b6ba
000001e0: b573 8538 d9f4 2eb9 f2c1 68b9 4146 e9b9
000001f0: facf 04ba 0b97 cf38 45ed c5b8 4207 07b8
00000200: 41b9 26b9 0e2f c3b9 10e5 bdb9 646e 5438
00000210: 3c8b a131 10ee 1730 f513 c6b0 7b4d 4231
00000220: 6c40 b6b1 f3c0 52b1 7dd8 86b2 9a88 cdb0
00000230: 8bd0 f930 9d60 9731 161b 282f 956f a5b1
00000240: a123 3038 4594 7eb8 ae75 92b6 1a73 bf38
00000250: f151 6ab9 390d f038 f3fb 18b9 205d 11b8
00000260: 01cd d737 33eb d038 0949 15b9 3aca 6d38
00000270: 7708 abb8 7add d037 5186 1038 ae6b 7d36
00000280: 2154 93b8 3bc2 9c38 9c36 f637 38b7 49b7
00000290: c459 3738 3a30 db36 d931 45b8 2454 8c38
000002a0: 5a89 ceb9 8deb cbb8 d2f0 3a39 7cdf db39
000002b0: d002 5238 8906 9cb9 d16f 0239 0f57 37b9
000002c0: 6289 9539 531d 033a e7dd 7039 f878 6bb9
000002d0: 47c5 1e3a 1b4b 873a 773e 1f3a dcb1 733a
000002e0: 27d3 033b 19b4 00ba 0561 6eba aad2 053a
000002f0: 04b4 e839 50cd 8e3a 6057 8d3a 957f 1aba
00000300: c325 7439 94d6 3b39 8a6c 1c39 3d7c 5e39
00000310: eb8e 1539 454c b5b9 3a4e 47b9 c3cf 3039
00000320: 7b73 7f38 a587 4d39 7d41 3638 6e2e 96b9
00000330: 3de7 3734 d132 1e34 1c0d 3bb3 5691 3fb4
00000340: 2e26 13b4 9df3 b732 2658 09b5 f111 4e33
00000350: a2b8 8d32 6fc9 41b3 4fe5 92b3 97a5 d1b3
00000360: 1698 cc39 dc3c 1939 a857 e737 8d35 0138
00000370: a603 39b9 9a68 1e39 f442 dfb9 dfa9 5339
00000380: 99d5 ecb7 728e 9b38 c8bb 7eb9 74c6 f438
00000390: 344b 60b1 5f98 b02f fc61 dc30 6dd8 ab30
000003a0: 2c22 2a31 c085 91b0 13dc 8ab1 500d 26af
000003b0: 000a 1c30 916e ecaf c129 c030 b736 9b30
000003c0: 2a43 973a e96e 1b39 86d6 48b9 47c1 76ba
000003d0: 6510 95bb 47bb 03ba bd88 7bbb b5c2 0ab8
000003e0: 1a31 4338 343f cdb9 649c 49bb ad1c 63ba
000003f0: eba5 1739 80cc 32b7 6688 5db8 34d5 3eb9
0.00016581742 0.0002439403 3.5444988e-05 0.00016637075 -1.3395748e-05 0.00023271957 -0.000116455754 9.692846e-05
5.6804706e-06 9.9581135e-05 -2.8323489e-06 0.00014113596 0.00032921968 0.00020966392 -0.00012318834 -0.00043277928
-0.0005267679 0.00027430925 0.00038356407 0.00046048668 -0.0003223422 -0.0006587994 -0.000655639 0.00033209383
-0.0001403452 -0.00014556317 -0.00037077777 -0.0005067629 7.23611e-05 0.0005349427 0.0007832822 2.6371066e-05
-0.00032526863 -0.00069787743 4.4146633e-05 0.00062799605 -0.00014206016 -6.313047e-06 -2.6064092e-05 -0.000109602435
-6.4769716e-05 6.181974e-05 6.8164176e-05 -6.516998e-05 7.946367e-06 -8.47566e-05 -2.5093961e-05 3.6431265e-05
4.8747912e-05 0.00021821908 -8.58499e-05 -9.960162e-05 -0.0005776785 0.00015952179 -0.0004983471 7.417577e-06
4.369182e-05 1.6638447e-05 -0.00032603322 -7.786826e-05 -0.00010201741 9.104312e-06 0.00023361962 0.0002654276
3.1621e-05 -0.0006326322 -4.12477e-06 -5.0979605e-05 0.00016651115 0.00016738888 -6.829377e-06 -0.0006081842
0.00079092727 -3.7305497e-05 -0.00027614232 -0.00032743614 -0.0013505564 0.00023660963 -0.00049605797 0.00040845977
-0.00040142646 -0.00058783154 -0.0012550474 0.00018690094 -0.0018861978 -0.00020673679 -0.0008591819 -0.00093655684
0.00016432069 0.0013747251 0.003482795 -0.00029598395 -0.000739695 -0.0019499906 0.0005340412 0.001380165
4.718676e-05 7.7131845e-05 5.6526955e-05 5.8559366e-05 -8.798816e-06 -2.5740303e-05 5.2798718e-05 5.825858e-05
-4.8235092e-06 6.0626694e-06 -3.119055e-05 1.2132658e-05 -0.0015678065 0.00052012777 1.0848596e-05 0.00014619033
-0.00071990804 -0.0010914165 -0.0016970915 -0.0009185804 0.00097007066 0.0009069703 0.0007022392 -0.0013953998
6.363486e-05 -0.00016685146 -0.00022197494 -0.00044493566 -0.00050663913 9.898663e-05 -9.437887e-05 -3.2193268e-05
-0.00015900006 -0.00037228357 -0.00036219554 5.0647548e-05 4.701546e-09 5.5271787e-10 -1.4412068e-09 2.8274758e-09
-5.304221e-09 -3.06687e-09 -1.56981e-08 -1.4954538e-09 1.8176406e-09 4.405662e-09 1.5289134e-10 -4.8148174e-09
4.1994852e-05 -6.0696406e-05 -4.364839e-06 9.129029e-05 -0.00022346505 0.00011446555 -0.00014589708 -3.4657423e-05
2.572546e-05 9.962022e-05 -0.00014236955 5.669354e-05 -8.155492e-05 2.4898665e-05 3.4457367e-05 3.7762616e-06
-7.0251765e-05 7.474838e-05 2.9350915e-05 -1.20231925e-05 4.37142e-05 6.532323e-06 -4.7014884e-05 6.6913926e-05
-0.00039393717 -9.723669e-05 0.00017828055 0.00041937444 5.007052e-05 -0.00029759508 0.00012439421 -0.00017484672
0.00028521853 0.0005001623 0.00022970849 -0.00022456411 0.00060566183 0.0010322066 0.00060746766 0.00092962175
0.002011487 -0.0004909649 -0.00090934365 0.0005104939 0.0004438461 0.0010894928 0.0010783486 -0.0005893645
0.0002328372 0.00017913646 0.00014917753 0.00021217852 0.00014262988 -0.00034579835 -0.0001900726 0.00016862065
6.0904287e-05 0.00019600855 4.3453172e-05 -0.00028644822 1.7127327e-07 1.4733384e-07 -4.3551253e-08 -1.7841134e-07
-1.3704332e-07 2.1414786e-08 -5.116475e-07 4.797943e-08 1.6498522e-08 -4.5119517e-08 -6.840366e-08 -9.7624415e-08
0.00039023225 0.00014613889 2.7578164e-05 3.080587e-05 -0.00017644334 0.00015107021 -0.00042583758 0.0002018581
-2.8232856e-05 7.4175085e-05 -0.00024293282 0.000116717914 -3.2639038e-09 3.212248e-10 1.6034956e-09 1.2503399e-09
2.475768e-09 -1.0588153e-09 -4.041348e-09 -1.5102342e-10 5.676668e-10 -4.3006712e-10 1.3981706e-09 1.1293285e-09
0.0011540402 0.00014823269 -0.00019153403 -0.0009412956 -0.0045490735 -0.000502516 -0.0038381063 -3.30831e-05
4.6537352e-05 -0.00039147737 -0.0030763382 -0.0008663636 0.00014462291 -1.0657241e-05 -5.2817537e-05 -0.00018199236

exp_avg_sq f4 [60, 12]
00000000: e522 a735 1e4d ef35 20cd 9f35 384b ae35
00000010: ac66 8635 30e7 1436 1a8f 3736 7ed3 e035
00000020: 5f4f 7134 33cc 4335 9af4 7f35 7cd2 6534
00000030: 1910 ef36 ec36 2836 0034 8d35 b0b2 6336
00000040: d390 7e36 a64f 5736 2ae9 8237 78d8 be35
00000050: 9a23 8e35 d026 4436 1dfb 1d36 0f01 5a36
00000060: 1652 f536 dc52 ac36 0cc5 0236 52cd f836
00000070: f25f 9a36 907c 8c36 0f41 6d37 2131 2a36
00000080: ffbe 0a36 b786 fa36 d07e 3636 bd04 8e36
00000090: cc35 8434 2017 1034 f4a7 b033 555a be34
000000a0: e0e1 c634 a80a 2334 fdc3 fc34 65f8 b933
000000b0: 7f76 ee33 b96c c734 66b8 8534 17dd 0834
000000c0: 80f5 c236 3d96 7436 4358 0036 ff56 8036
000000d0: 2209 5c36 e89c 4736 9b3f 8e37 7726 5036
000000e0: 32d0 ca35 a670 8f36 2579 3a36 6b2a 2536
000000f0: d957 f836 2c46 1237 ea38 5b36 2036 f736
00000100: 5825 cb36 ef6f cc36 afad 9037 2706 0337
00000110: 3ec8 0b36 239a fa36 c746 9536 830d 6d36
00000120: 273c 2738 22b7 4337 2299 e136 13d0 8137
00000130: 2ed0 6537 5d38 5437 44fc bc38 9876 db36
00000140: f10f 9536 09a8 8337 47e7 0f37 d072 4e37
00000150: aa14 5e39 2674 5639 7207 9c38 6166 7e39
00000160: 6d9b 3c39 ebb6 2939 a8ae 203a c990 1739
00000170: 5639 8e38 d7c3 7a39 e17d 0839 c77a ea38
00000180: 9b91 0234 d4ed b333 c9cf 2f33 88e2 0234
00000190: 4ceb 8d33 d7b8 a933 0113 1134 da47 ab33
000001a0: 961a ba32 1205 0e31 4c6d 9933 0b5f 6233
000001b0: 6ba7 4137 cbf9 bd36 d97b 9135 c993 8b36
000001c0: 2eaa a736 83ab bc36 3d25 4b37 3221 5436
000001d0: d881 9036 5c41 8f36 ed98 7236 f002 0037
000001e0: 6261 3836 4912 9035 4458 1535 ced0 b435
000001f0: f3b1 9435 ee0f 8e35 e774 0b37 9c92 f434
00000200: 556f 9f34 0dcf af35 bc4a 3635 28dc 9235
00000210: a27a 5b2d 86c1 3f2d 8c5e b92c 2426 3d2d
00000220: 68c5 222d 05e6 3d2d 8ae3 db2d 0f7d af2c
00000230: e819 882c cab7 d52c ec51 e12c bd0b d42c
00000240: d57f b434 1ebd 3834 35ed 5a33 1242 fc34
00000250: cdb6 5c34 f8b0 3d34 955b 1835 843b 5134
00000260: e2ea 5733 6b72 0435 200d 2934 836b 0d34
00000270: c51c 8835 47bc ce34 92dc 9d34 d808 c135
00000280: a776 2735 cfc8 3935 c24e fb35 2eea 8b34
00000290: 86ef 7334 2416 c635 60f0 e734 8e38 4a35
000002a0: 8654 3136 da1b c235 658b 2535 9494 0736
000002b0: ad97 7e36 e4d8 cb35 80fc dd36 a837 ab35
000002c0: 11b0 1f35 6d28 1936 f43b b235 6e52 b535
000002d0: 119e c737 cfb0 c637 5b02 4237 711a 1038
000002e0: 45ca f037 d5bf d837 12ed 1039 2373 a337
000002f0: 93ff 3437 bbaf 3338 ca10 cd37 2f06 f537
00000300: 2e51 8435 fa59 2f35 f9ed a534 cc63 9835
00000310: 0613 5a35 ff44 1e35 6179 0a36 57b2 1035
00000320: c32a 9534 5e33 8635 4636 3335 df49 af34
00000330: 2d5f 9f2f 6394 912f d546 002f b2b6 962f
00000340: 3dd8 2f2f 4daa 6e2f 1fa2 3230 ffde 6e2f
00000350: 923d b52e 4bbd 8c2f da12 2d2f 5ccf 162f
00000360: b969 1a36 f147 5c35 7c33 a934 4637 de35
00000370: ee80 7935 0b69 6835 975f 7536 e59f 0835
00000380: 62d0 5334 d605 e535 9399 1535 4c48 3035
00000390: 17c4 022e 123c aa2c 9bf8 e52c c5af 512d
000003a0: 9651 8b2c df5a a92d 41cd 392e 0b78 b52c
000003b0: 8ea3 fc2c f91a 502d c85f a72c 63b4 932d
000003c0: 89a6 9439 14c0 df38 8601 4638 03c4 1239
000003d0: 592f da38 d7c2 d338 e170 5a3a 4876 4638
000003e0: c00b f637 8cf4 2239 6fe5 8a38 8ee0 dc38
000003f0: 2f0f a035 3821 db35 15c0 7e34 32a0 7d35
1.2452625e-06 1.7829332e-06 1.1906122e-06 1.2985902e-06 1.001366e-06 2.2188287e-06 2.735242e-06 1.6750853e-06
2.2473749e-07 7.294031e-07 9.5350845e-07 2.1403861e-07 7.124629e-06 2.506592e-06 1.0520453e-06 3.3929646e-06
3.7933248e-06 3.2083858e-06 1.5605783e-05 1.4219104e-06 1.0590186e-06 2.9228868e-06 2.354099e-06 3.2485148e-06
7.311125e-06 5.1356456e-06 1.9486206e-06 7.4148784e-06 4.600727e-06 4.186826e-06 1.4141448e-05 2.536057e-06
2.0674777e-06 7.4662635e-06 2.7193928e-06 4.2324814e-06 2.4626058e-07 1.3419458e-07 8.226189e-08 3.5455983e-07
3.704472e-07 1.5184435e-07 4.7081258e-07 8.6599165e-08 1.1104293e-07 3.7145745e-07 2.4907348e-07 1.2746419e-07
5.8102305e-06 3.6446284e-06 1.9124861e-06 3.824825e-06 3.278787e-06 2.9744642e-06 1.6957338e-05 3.1016805e-06
1.5110766e-06 4.274846e-06 2.7786675e-06 2.4611606e-06 7.4012028e-06 8.718616e-06 3.2666671e-06 7.3674746e-06
6.054219e-06 6.0927046e-06 1.7247015e-05 7.809641e-06 2.082917e-06 7.4685245e-06 4.4487856e-06 3.5323617e-06
3.9871924e-05 1.1665545e-05 6.7233495e-06 1.547489e-05 1.3697934e-05 1.2649308e-05 9.011527e-05 6.5405147e-06
4.442402e-06 1.5694664e-05 8.577313e-06 1.2305289e-05 0.00021179268 0.00020451899 7.4400465e-05 0.00024261467
0.00017986978 0.00016185238 0.00061295414 0.00014454419 6.781767e-05 0.00023914814 0.00013016864 0.000111808586
1.2160164e-07 8.378598e-08 4.0934342e-08 1.2189605e-07 6.6086244e-08 7.903298e-08 1.3511091e-07 7.975878e-08
2.166534e-08 2.0666602e-09 7.144499e-08 5.2706167e-08 1.15426765e-05 5.6617187e-06 1.0839386e-06 4.1597273e-06
4.9967994e-06 5.622803e-06 1.2108413e-05 3.1609784e-06 4.30665e-06 4.269341e-06 3.6149825e-06 7.6300785e-06
2.747482e-06 1.0734158e-06 5.563527e-07 1.3471815e-06 1.1078649e-06 1.0584461e-06 8.312264e-06 4.5555214e-07
2.9697063e-07 1.3098776e-06 6.7909036e-07 1.0941922e-06 1.2475939e-11 1.0900064e-11 5.268513e-12 1.0751875e-11
9.252467e-12 1.0794481e-11 2.4998465e-11 4.9876834e-12 3.8682287e-12 6.074229e-12 6.4039798e-12 6.0267056e-12
3.3620623e-07 1.7205136e-07 5.097282e-08 4.698673e-07 2.0555599e-07 1.7666378e-07 5.675768e-07 1.9486293e-07
5.0272213e-08 4.934033e-07 1.5744126e-07 1.3170761e-07 1.0141163e-06 3.850748e-07 2.9404015e-07 1.4382194e-06
6.238501e-07 6.9210085e-07 1.8723879e-06 2.6061156e-07 2.2718277e-07 1.4758593e-06 4.3202e-07 7.533316e-07
2.6424254e-06 1.4462232e-06 6.1670136e-07 2.0203051e-06 3.7937236e-06 1.5187802e-06 6.615708e-06 1.2756691e-06
5.9488326e-07 2.2822308e-06 1.3279482e-06 1.3509541e-06 2.3796254e-05 2.3685772e-05 1.15638495e-05 3.43569e-05
2.8704419e-05 2.5838535e-05 0.00013821226 1.9484729e-05 1.0788342e-05 4.2840587e-05 2.4445722e-05 2.9209155e-05
9.858393e-07 6.5323513e-07 3.0906793e-07 1.1353927e-06 8.123901e-07 5.895999e-07 2.0634254e-06 5.39037e-07
2.7784526e-07 9.998728e-07 6.6761675e-07 3.2650038e-07 2.8989558e-10 2.6480781e-10 1.1666697e-10 2.7414654e-10
1.599298e-10 2.1706477e-10 6.498641e-10 2.1725198e-10 8.241864e-11 2.5600352e-10 1.5740956e-10 1.371609e-10
2.3009327e-06 8.2061075e-07 3.1516163e-07 1.6556376e-06 9.2947346e-07 8.657959e-07 3.6563486e-06 5.0896625e-07
1.9726716e-07 1.7063528e-06 5.5730305e-07 6.5670315e-07 2.973274e-11 4.8383597e-12 6.536172e-12 1.1919303e-11
3.9596755e-12 1.925343e-11 4.2246432e-11 5.157657e-12 7.180429e-12 1.182942e-11 4.7570593e-12 1.6792073e-11
0.00028352838 0.00010669246 4.7208297e-05 0.00013996665 0.00010403869 0.00010097556 0.00083328603 4.7317037e-05
2.9330957e-05 0.00015540625 6.623088e-05 0.00010532244 1.1925348e-06 1.632644e-06 2.3725472e-07 9.448296e-07

exp_avg f4 [60]
00000000: 62a2 f4b8 6d68 ca39 756c 4d3a f237 8f38
00000010: ffb1 02ba 3632 0bb6 bdb8 02ba d915 643b
00000020: 8560 5d38 5a60 deba b91f beb8 7ed8 86b2
00000030: 5f16 19b9 23f1 f537 bb67 0439 c1a0 6dba
00000040: 1847 46b9 2558 09b5 82c8 deb9 1cdc 8ab1
00000050: eb77 7bbb 5f13 f4b7 2d65 83b9 3b4a 98b9
00000060: 6c08 ff37 a476 ddb3 979e 8f3b ba7e 24b7
00000070: d37e ad38 a8ae 5dba 8a8a 90b8 05dd 1239
00000080: 5101 04b9 9238 2eba be50 0738 6fa8 25b1
00000090: 135a 4434 9918 8ab8 76de 77ba 5801 9a39
000000a0: 62ac e639 a579 05b9 79e0 14ba da07 fab8
000000b0: d06f d239 6989 43bb 7ed7 4736 e363 0aba
000000c0: 5cdc 15bb a60c feb9 24e1 0abb 8300 fc34
000000d0: 5454 75b9 02ed d3ba 8ff7 4939 a047 95b5
000000e0: 1112 f9b9 ea28 41ba 491b 5839 dc83 9e39
-0.00011665073 0.00038606246 0.0007836291 6.829192e-05 -0.000498563 -2.074184e-06 -0.00049866346 0.0034803061
5.2780397e-05 -0.0016965971 -9.065815e-05 -1.5698102e-08 -0.00014599551 2.9318564e-05 0.00012627144 -0.0009064787
-0.00018909236 -5.1164744e-07 -0.0004249253 -4.041352e-09 -0.0038371037 -2.9096087e-05 -0.0002506165 -0.00029047005
3.040229e-05 -1.0312695e-07 0.004382919 -9.804668e-06 8.272906e-05 -0.0008456507 -6.89226e-05 0.00014005981
-0.00012588991 -0.0006646003 3.2261705e-05 -2.4106404e-09 1.8286691e-07 -6.5849345e-05 -0.00094554515 0.0002937417
0.00043997454 -0.00012729185 -0.0005679201 -0.000119223914 0.00040137628 -0.0029836542 2.9778744e-06 -0.00052791665
-0.002286694 -0.0004845608 -0.0021191323 4.693903e-07 -0.00023396435 -0.0016168656 0.00019261077 -1.1122211e-06
-0.00047506441 -0.00073684624 0.0002060953 0.0003023435

exp_avg_sq f4 [60]
00000000: 1a8f 3736 32e9 8237 1941 6d37 31c4 fc34
00000010: 9d3f 8e37 b9ad 9037 50fc bc38 a7ae 203a
00000020: f312 1134 3825 4b37 1b75 0b37 8ae3 db2d
00000030: 9c5b 1835 bb4e fb35 41fc dd36 0ded 1039
00000040: 6c79 0a36 1ca2 3230 785f 7536 41cd 392e
00000050: de70 5a3a 8bb5 1d36 0887 ed35 04ca be37
00000060: 7057 8633 111c 302f f7ab 9139 f014 9b37
00000070: d048 0837 11fd 1138 db5d 0c35 1f1d 5936
00000080: a818 b234 7da8 5239 436b 1f34 5953 012e
00000090: 6081 f22f 210d b834 530a f539 f184 2f37
000000a0: 1778 c836 9780 df34 0656 1638 272b ca35
000000b0: e03d d336 d04e 7f3a 8339 ef31 00b1 c437
000000c0: 15ba 353a 13fa e637 ffa4 4f39 2252 cd30
000000d0: 628c 6034 9a24 8e38 4afd 8235 bcab 6e31
000000e0: 7ca0 2f37 1086 1937 48db a036 45f0 3b39
2.735242e-06 1.5605798e-05 1.41414575e-05 4.7081406e-07 1.6957341e-05 1.7247034e-05 9.0115354e-05 0.0006129541
1.3511071e-07 1.2108409e-05 8.312311e-06 2.4998465e-11 5.675772e-07 1.8723871e-06 6.6156795e-06 0.00013821218
2.063428e-06 6.4986394e-10 3.6563415e-06 4.2246432e-11 0.00083328586 2.3500495e-06 1.7697175e-06 2.2743836e-05
6.255766e-08 1.6017078e-10 0.0002778468 1.848719e-05 8.123185e-06 3.480638e-05 5.229064e-07 3.235247e-06
3.3173023e-07 0.00020089927 1.484705e-07 2.940523e-11 4.411147e-10 3.4282223e-07 0.00046737734 1.0461766e-05
5.974445e-06 4.1630548e-07 3.5842902e-05 1.5062732e-06 6.295493e-06 0.0009739222 6.962354e-09 2.3447443e-05
0.00069323304 2.7534586e-05 0.00019802524 1.4939057e-09 2.0912697e-07 6.777905e-05 9.759472e-07 3.4731178e-09
1.04681785e-05 9.1507245e-06 4.7938993e-06 0.00017923217

exp_avg f4 [60, 60]
00000000: 87c1 f033 e1ae d832 f40c 1232 adb8 deb1
00000010: 906d 6f33 fcdc 8c34 1134 0734 9bec 8c32
00000020: 163e 01b3 0c38 1f34 7bef 0033 135a 392b
00000030: 86d4 c1b2 0ffd 41b0 8a12 af32 9587 4e35
00000040: ed2c 2133 7654 f52f 605d 02b2 391b c52a
00000050: 3e07 b434 41f8 b430 ecb4 ad31 ed18 5034
00000060: ad7d a132 5a47 372f 2f8a c6b2 8ceb 5334
00000070: 382b ec32 d10f b334 fbdc 06b3 8494 cf33
00000080: 669c 35b2 a0be 7934 8d9e 01b1 3ec5 ea29
00000090: 25cc 002f bfbc 6a33 e0dd 4f34 9318 a134
000000a0: b4a1 cbb2 e646 8f32 8c99 7a34 dbd9 a9b2
000000b0: 3474 8433 9e6e f234 0fc1 4330 456b b133
000000c0: 5d90 3934 1fcd 5834 0210 9b34 755d f92f
000000d0: 1451 d130 7c40 a134 d2dc cab2 41d6 a430
000000e0: 4f19 2133 007a 6f32 9457 ca34 d823 1434
000000f0: 108e b7b0 00de 6bb2 1c46 24b2 ce3a 8d31
00000100: bf29 4ab2 e510 79b1 c5ef b3b3 8182 64b2
00000110: 53bd 32b0 97e8 16b3 f0f2 a6b2 5600 8b2c
00000120: 51a8 d231 b496 7832 b8d2 9ab2 9e13 14b3
00000130: fb3a 77b1 77dd 852e a269 5932 c4da 202b
00000140: bd49 3eb4 f59e 37b0 3192 c0b1 b965 21b2
00000150: 16ab feaf f00c 272e c9c8 a3b2 7428 6db1
00000160: 9b6f 93b2 155d 6db2 06cd ccb1 fc04 9eb0
00000170: b296 d730 9364 03b4 0aa7 67b0 f0ff b12a
00000180: 73d3 742e ddc7 6ab2 1870 02b4 e70a 11b2
00000190: 7959 a0b2 79ae d1af 7206 2cb1 d5cc d331
000001a0: 4594 78b2 8194 53b4 317c 272f 3781 2332
000001b0: acb9 d6b3 7cf0 bc32 b2ad bbb3 ed83 322f
000001c0: 1e9c 03b0 3394 74b2 7cf6 d9b1 92e8 722e
000001d0: 23de 10b3 5992 2732 110d efb0 37b5 1bb2
000001e0: 4f53 5732 171b c932 bc8f 5232 7cb4 9cb1
000001f0: 2317 7b32 fd7e 2ab3 ff66 7333 aa4d e5b0
00000200: ff8f c631 6357 8a32 af94 3f33 cc07 02ad
00000210: 598f a0b2 b82b 60b2 f618 2c32 d406 29b4
00000220: 2d58 3032 b9aa 11af 0b96 8eaf 1352 8dab
00000230: 3035 be33 a997 c531 d48b a5b2 92de 4432
00000240: b015 f6af ec31 b0ae d30f 6831 196f 9132
00000250: 5ea5 1333 65c9 e6b3 336b 9a2f 0956 7231
00000260: fae7 c5b1 1fdb 9b33 f0af 8f31 8732 60ab
00000270: bff9 edae 42d7 1f33 3f36 6233 cc3c 1e33
00000280: 17b3 cab3 01df 9b31 011a 3cb3 b961 6ab2
00000290: 06ec 0fb3 2135 0633 84e7 b7af f07e adb1
000002a0: a78d 6331 c0ed 57b3 a73d 1733 34fd b5af
000002b0: bfb5 402f 5655 97b3 deca 7332 7c7f 37af
000002c0: 7a61 8333 2d73 d2b0 70d5 1b33 4d82 dfb1
000002d0: f660 1237 e516 77b9 2281 40b9 5a9e cf37
000002e0: 5cf3 55b9 0182 2db8 6d3a 3fba 86f5 62b9
000002f0: 1267 9ab7 b0ef 0fba 4ce8 b9b9 cd5f de32
00000300: 26b8 9638 2a96 4a39 92f1 98b9 072e f1b9
00000310: d2a7 04b9 22b8 3235 e6d4 b638 07c6 be31
00000320: d213 c6ba 7c5e 0db8 a08a a9b8 fd71 1db9
00000330: aad1 73b5 47dc d734 2fd6 92b9 49e8 88b7
00000340: f2cf 92b9 1712 80b9 a05a b3b8 c9a0 9db7
00000350: 6aeb 8138 e4ca a0ba 7d83 97b7 ce55 6c31
00000360: 5f44 3235 7710 5db9 0b83 95ba 13e8 0bb9
00000370: 4508 8eb9 76d7 13b7 ef93 7cb8 7ffc 9a38
00000380: 5c48 77b9 5d5b e6ba 5bf1 9e35 e2dd e038
00000390: fe0f 6eba 0d8a 8c39 e06d 5bba 1593 cb35
000003a0: 9d18 1fb7 7fe8 65b9 a366 98b8 9cda 1035
000003b0: 36da 15ba 3432 a738 54ac d8b7 aba5 1ab9
000003c0: 5814 93ae 3d79 76ae c123 1baf 0848 122e
000003d0: 2320 7bae 021c a02f c57e 5b30 98f6 98af
000003e0: d4f0 812e 0f36 1db0 0392 ab2f 5a57 a728
000003f0: 50e5 812e d8e5 8e2f 42b7 d3ae ba3f db2e
1.1211073e-07 2.5225235e-08 8.501264e-09 -6.4820456e-09 5.574617e-08 2.623782e-07 1.2591796e-07 1.640574e-08
-3.009162e-08 1.4828419e-07 3.002013e-08 6.5850206e-13 -2.2564802e-08 -7.057261e-10 2.0381112e-08 7.693828e-07
3.7526593e-08 4.4625253e-10 -7.588227e-09 3.501312e-13 3.3532882e-07 1.3167282e-09 5.055531e-09 1.9380577e-07
1.8800018e-08 1.6669102e-10 -2.3113072e-08 1.9736598e-07 2.749367e-08 3.3352856e-07 -3.1400287e-08 9.6662035e-08
-1.05711475e-08 2.3259281e-07 -1.8862096e-09 1.04259036e-13 1.1714059e-10 5.4654034e-08 1.9359095e-07 3.0006467e-07
-2.3705844e-08 1.6679632e-08 2.3338924e-07 -1.9773259e-08 6.167866e-08 4.5156497e-07 7.121494e-10 8.261717e-08
1.7281987e-07 2.019119e-07 2.8882647e-07 4.535924e-10 1.5229795e-09 3.0035505e-07 -2.3616312e-08 1.1993465e-09
3.750875e-08 1.39393705e-08 3.7689153e-07 1.3796614e-07 -1.3355379e-09 -1.3729277e-08 -9.561997e-09 4.1103254e-09
-1.17674395e-08 -3.6243872e-09 -8.378951e-08 -1.330102e-08 -6.502507e-10 -3.5136136e-08 -1.9435419e-08 3.950655e-12
6.1309398e-09 1.4469766e-08 -1.8023783e-08 -3.4476777e-08 -3.5976757e-09 6.08748e-11 1.26550805e-08 5.7147017e-13
-1.7721955e-07 -6.6800904e-10 -5.6045555e-09 -9.3945625e-09 -4.6323895e-10 3.7982895e-11 -1.9067004e-08 -3.4511034e-09
-1.7163805e-08 -1.381638e-08 -5.96049e-09 -1.149743e-09 1.5686139e-09 -1.2236914e-07 -8.427469e-10 3.1619108e-13
5.566698e-11 -1.3666036e-08 -1.2147973e-07 -8.44259e-09 -1.8667139e-08 -3.814085e-10 -2.5032958e-09 6.164195e-09
-1.44692125e-08 -1.9704932e-07 1.5232683e-10 9.517229e-09 -9.998925e-08 2.199544e-08 -8.739461e-08 1.6235875e-10
-4.787938e-10 -1.4236366e-08 -6.3435532e-09 5.5230993e-11 -3.3729645e-08 9.753955e-09 -1.7393252e-09 -9.063391e-09
1.2533589e-08 2.3411799e-08 1.225629e-08 -4.5607162e-09 1.4615384e-08 -3.9696705e-08 5.667152e-08 -1.6684016e-09
5.778929e-09 1.6105053e-08 4.460588e-08 -7.391376e-12 -1.8691638e-08 -1.30484565e-08 1.0017393e-08 -1.5741836e-07
1.0264597e-08 -1.3248326e-10 -2.5936261e-10 -1.0041433e-12 8.857239e-08 5.7506964e-09 -1.9272115e-08 1.1459308e-08
-4.476255e-10 -8.012421e-11 3.3769438e-09 1.6930743e-08 3.4376505e-08 -1.0746843e-07 2.8088606e-10 3.526454e-09
-5.7598273e-09 7.257608e-08 4.1818495e-09 -7.9650907e-13 -1.0821876e-10 3.7215848e-08 5.2669062e-08 3.6842536e-08
-9.438934e-08 4.5364463e-09 -4.379581e-08 -1.3642812e-08 -3.3509444e-08 3.1247627e-08 -3.3452008e-10 -5.049394e-09
3.3113368e-09 -5.027482e-08 3.52135e-08 -3.310362e-10 1.7526867e-10 -7.047008e-08 1.4190588e-08 -1.6689045e-10
6.117894e-08 -1.5312246e-09 3.628287e-08 -6.5049677e-09 8.724854e-06 -0.00023564284 -0.00018358653 2.4750061e-05
-0.00020403921 -4.136749e-05 -0.0007294778 -0.00021644504 -1.8406226e-05 -0.00054907333 -0.00035459024 2.5887767e-08
7.186858e-05 0.00019320162 -0.00029171683 -0.00046001395 -0.00012651019 6.6578116e-07 8.718092e-05 5.552241e-09
-0.0015112108 -3.3705015e-05 -8.084369e-05 -0.0001501515 -9.0829656e-07 4.0207144e-07 -0.0002800687 -1.632063e-05
-0.0002800222 -0.0002442754 -8.552265e-05 -1.879073e-05 6.1950486e-05 -0.0012267497 -1.8061832e-05 3.4391294e-09
6.640966e-07 -0.00021082336 -0.0011406852 -0.00013342527 -0.00027090512 -8.812049e-06 -6.0219256e-05 7.390323e-05
-0.00023582712 -0.0017574836 1.1842161e-06 0.00010722481 -0.00090813625 0.00026805737 -0.00083705597 1.5167485e-06
-9.482869e-06 -0.00021925753 -7.2670424e-05 5.39623e-07 -0.0005716415 7.9725316e-05 -2.5829453e-05 -0.000147483
-6.6884e-11 -5.6041605e-11 -1.410987e-10 3.3260533e-11 -5.7099336e-11 2.912373e-10 7.9851886e-10 -2.7823854e-10
5.9090205e-11 -5.719309e-10 3.1208466e-10 1.8578607e-14 5.906975e-11 2.5992963e-10 -9.627722e-11 9.970287e-11
