mnc_ml_test/output/best/20221128-0204-model-test12.pth (torch, 62813 bytes, 21 tensors)

module.0.weight f4 [60, 6]
00000000: 7e0f 793e e0e8 e0bd 49a3 5f3f 4f82 9dbe
00000010: 70fc 933e 563d 043e 0278 993e 88eb 2cbf
00000020: 0e6a 603e 77d8 c93c 4e41 883e 53e2 3b3d
00000030: 03bb 633a 152e 11bb 14a7 de39 809a fab9
00000040: a3dd 673a f851 fb39 4c78 3abe 51da 04bf
00000050: f772 94bf 77ce 21bd 3ee6 143e 819f 483e
00000060: a7d9 d23e add7 71be 5582 143f 8d88 fe3d
00000070: 4684 833e 34b8 10bc 4633 77be 3e37 af3d
00000080: 33a0 d83e 7bf6 213e 3bdf 52be c11b 253e
00000090: 24c3 40bc 0d65 783b 9bf1 92bc f7dd 2d3c
000000a0: c9b4 233b ec2f 85bb 534b 263f 2208 56be
000000b0: 5891 2d3f 3186 4ebe 2579 af3e 4143 133e
000000c0: ec04 0f3f 89df 533e 8774 75bf 1867 833e
000000d0: 6e80 063e d50a b0be 2548 80bf 0123 8c3e
000000e0: 752f e83e b54f b63d c06a 4b3b d31b d1bc
000000f0: 0c84 913e ac88 aebd bbfd 1e3f 85d0 a8be
00000100: 63b5 b1be 4885 c73b 7030 05bf b8cf 823e
00000110: 1371 5fbf 4234 17bd 646b 6a3e 759f 18be
00000120: e7e3 423e 6f57 e6bd c919 a63e c560 48bd
00000130: d558 8d3d 9ca4 47bb 858c 9d3d 584f 82be
00000140: 1730 23bf 864a 2e3e ae27 9e3e d478 b03d
00000150: cf1d 963e 56ee bb3e db9c 203d 7720 ca3a
00000160: 6d77 06be 60ee 94be 4459 013f 755e 92be
00000170: c695 2d3f 5ca0 4fbe a009 613e e790 8ebe
00000180: 5268 1cbc 286b ab3b 7454 43bc 7f3c ad3b
00000190: b033 a3ba 7436 8abb f8cb 203f a831 ee3e
000001a0: c631 b53e fce2 863e fea2 e03c 8308 92bd
000001b0: 57d2 243c 2c1b 9bbb 4ba3 433c e8fa 16bc
000001c0: 489e 8d3a 461c 50ba b662 99be 4464 583f
000001d0: bd8c 0dbf 03cc ca3d 59c9 d13b d319 bdbe
000001e0: a43c 4f3d 96e2 1ebd 6278 cb3d 2635 f4bc
000001f0: 4a82 ecbb 038f 3a3c d3a0 e53e 9080 bebe
00000200: dbbb f9be 4f28 b63e 11ad 96be 0701 a63e
00000210: ccd8 a03d 07e4 fa3e cbae 64bf bbdb 0a3f
00000220: 4a8e aabd 4dd5 b3be aa32 873e b9ac 43be
00000230: c2a3 163f a6ff 02be 5523 b5bc fd69 993d
00000240: b4db 54be ca61 3a3f 8a29 163d 22f7 603d
00000250: 3634 13be 4ded 07be 0f86 c23e ac25 62be
00000260: 5294 4f3f 3d42 403e 15dd 43bf 0942 3dbd
00000270: 9d04 37be 51e5 103f 1fd4 1fbf 4cc8 d73e
00000280: 6358 aa3e f2c9 29bd 36b2 833e 4f29 1d3c
00000290: 8030 81bf dd07 013e d761 38be a8b8 13be
000002a0: 70cb d13e c3ab 013f 0d8e f83e d472 89bd
000002b0: b1b5 bd3d 77a5 753e fff9 613d fe82 26bd
000002c0: 5075 d53d 45fd d2bc ee63 fabb 9444 883c
000002d0: 40d4 1cb6 0e2d 37bb faf6 95b9 44e1 853a
000002e0: e4a2 64ba a652 df3a 7f38 2f3f c9e9 493f
000002f0: 1f4a 95bf cceb 323e dcbc e43d e05a 0dbe
00000300: 485c d2be 7b07 67be 94a3 c03e 6ed0 79be
00000310: a00c 86be c0db a03d c20e fdbe 8a9a 133f
00000320: 0f7d 58bf 6c17 683e 1b39 293e 6121 e8ba
00000330: 4b72 f43e b1bc 89bd caa1 1e3f 7676 21be
00000340: 2042 743f 2554 943d f898 c3be 8a2a 0f3f
00000350: 67e9 4cbf f1d4 acbc 30ea c0bd 5a37 4ebe
00000360: c9b8 9f3e 84ca 4fbe 479a 6e3f 42fd a8be
00000370: e1c9 c8bd 07f5 a13e 4a16 8b3d 49be 47bd
00000380: 100f 053e de90 0dbd 1190 b4bb dea3 c83c
00000390: e27e 0ebf e112 c03e 4fda 3abf 46ce a73e
000003a0: 0d38 373e 1839 38bc c77e 96be 99c8 9a3e
000003b0: adcf 2bbf 77e0 843e 41ed 81be 1432 623d
000003c0: 118a 963e 4129 fbbe 1a96 66bd cd88 b33d
000003d0: d10d 973b 6fd8 983d e0d4 1b3e 859f 99be
000003e0: d155 da3e 7404 02bf 84e0 b0be 10d1 3f3e
000003f0: 6ddf b5be d62b 4d3e 51b6 023f 09b0 3cbd
0.24322316 -0.109819174 0.8735853 -0.3076348 0.28903532 0.12914023 0.2997437 -0.6754689
0.21915457 0.024639351 0.26612324 0.045870136 0.000868723 -0.0022152711 0.00042467623 -0.00047798827
0.0008844977 0.00047935522 -0.18209952 -0.51895624 -1.1597584 -0.03950354 0.14540955 0.19592096
0.4118168 -0.2361743 0.5801137 0.12428389 0.25686854 -0.00883298 -0.24140653 0.085554585
0.42309722 0.15816681 -0.20592968 0.16123869 -0.011765275 0.0037902028 -0.017937472 0.010612003
0.0024979583 -0.0040645506 0.64958686 -0.2090154 0.677999 -0.20168377 0.34272113 0.14381124
0.55866885 0.2069074 -0.9588093 0.25664592 0.1313493 -0.34383264 -1.0022017 0.27370456
0.45348707 0.08901922 0.003103897 -0.025525963 0.28421056 -0.08522162 0.6210591 -0.32971588
-0.347087 0.0060888864 -0.52027035 0.25549102 -0.8728191 -0.03691507 0.22892529 -0.14904578
0.1903225 -0.112471454 0.32441548 -0.04892041 0.06901709 -0.0030463105 0.076928176 -0.2545116
-0.63745254 0.17020616 0.30889648 0.08616796 0.29319617 0.36705273 0.03921209 0.0015421052
-0.13131495 -0.29088116 0.50526834 -0.2858769 0.6780666 -0.20276016 0.21976328 -0.27844927
-0.009546356 0.00523128 -0.011921991 0.0052867527 -0.0012451317 -0.004217917 0.6281123 0.4652226
0.35389537 0.2634505 0.02742147 -0.0713053 0.010059915 -0.0047334637 0.011940788 -0.009215094
0.0010804618 -0.00079387834 -0.29958123 0.84527993 -0.55292875 0.099021934 0.0064021763 -0.36933765
0.05059494 -0.038790308 0.099350706 -0.0298105 -0.00721768 0.011386636 0.44849262 -0.3720746
-0.48776135 0.35577628 -0.29428914 0.3242266 0.07853851 0.49002096 -0.8932921 0.5424153
-0.08327921 -0.35123673 0.2640584 -0.19108857 0.58843625 -0.12792835 -0.022111574 0.07490919
-0.20786935 0.72805464 0.03666071 0.054923184 -0.14375386 -0.13274117 0.37992904 -0.22084683
0.81085694 0.18775268 -0.7650922 -0.046205554 -0.17872854 0.5659991 -0.62433046 0.42145002
0.3327056 -0.041452356 0.25721902 0.009592368 -1.0092926 0.12600656 -0.18006073 -0.1442591
0.40975523 0.5065271 0.48545876 -0.06711355 0.092631705 0.23988901 0.055170055 -0.040652268
0.10422766 -0.025755534 -0.007641307 0.016634263 -2.3369357e-06 -0.0027950439 -0.00028603507 0.0010214229
-0.00087217824 0.0017038181 0.6844558 0.7887235 -1.1663245 0.17472762 0.111688346 -0.13804197
-0.4108603 -0.22561447 0.376248 -0.24395916 -0.26181507 0.07854414 -0.49425322 0.5765768
-0.84565824 0.22665185 0.1652569 -0.0017710143 0.4774345 -0.06725443 0.6196562 -0.15767846
0.954134 0.07242612 -0.38202643 0.55924284 -0.80043644 -0.021097632 -0.09419668 -0.20138302
0.31195667 -0.20292097 0.9320416 -0.3300572 -0.0980413 0.31632254 0.06791361 -0.048765454
0.12994027 -0.034561984 -0.005510338 0.0244922 -0.5566236 0.37514403 -0.7298936 0.32774562
0.17892475 -0.011244081 -0.29393598 0.3023117 -0.67113763 0.25952503 -0.25376323 0.05522354
0.2940221 -0.49054912 -0.05629549 0.08766327 0.0046098013 0.074631564 0.15217924 -0.30004516
0.42643598 -0.50788045 -0.34546292 0.18732095 -0.35522023 0.20036253 0.5105944 -0.046066318

module.0.bias f4 [60]
00000000: 78c2 a33e 358d 133f eec4 12ba 53b5 d3be
00000010: 5111 8b3e f37f a53e 11fe b7ba 0b75 20be
00000020: 9cb9 80be c56d eebe 8539 99be 1a1b 6b3b
00000030: ac70 de3d 4789 733d e8e6 1abf f51f 233e
00000040: c5ad bcb8 d1b4 06bf ecc2 cbba 37e5 6dbe
00000050: 627f 243c c77f c1be 2b82 703d abc7 d53d
00000060: c44b d6be e94b 29be 1d89 5a3d 33ff 4abe
00000070: 5274 eebe ef3f 643c c721 103a b28b c2be
00000080: 0cf8 d43e 9668 04bd f69d ad3e 3057 aebe
00000090: 0980 ca3d 5d94 933c 694c a0be edbd d1be
000000a0: de11 793d 284f 9cbe 3a30 833e 2548 03be
000000b0: 8cc3 bb3d 9575 653d 2e0d 5fbd 3582 93bc
000000c0: 85b0 85be 285a a4be 8227 483e 5a6c f53e
000000d0: 662b 6c3c bdd3 dbbd a16c 283d ab1b 92be
000000e0: 8907 81be 0d4c 24bf 826f 10bf acea abbe
0.31984305 0.5763734 -0.0005598803 -0.41349277 0.2716165 0.3232418 -0.001403751 -0.15669648
-0.2514161 -0.46568123 -0.29926696 0.0035874308 0.10861334 0.05945709 -0.60508585 0.1593016
-8.996906e-05 -0.52619654 -0.0015545762 -0.2323197 0.010040136 -0.377928 0.058717888 0.10438474
-0.4185468 -0.16532864 0.053353418 -0.19823913 -0.4657312 0.013931259 0.0005498197 -0.37997204
0.41595495 -0.032326303 0.33909577 -0.34050894 0.09887702 0.018015081 -0.31308296 -0.40965214
0.060808055 -0.3052914 0.2562273 -0.1282049 0.09168157 0.056020338 -0.05445593 -0.018006423
-0.26111236 -0.32100034 0.19546321 0.47934228 0.014414644 -0.10733745 0.04111922 -0.28536734
-0.2520106 -0.64178544 -0.5642015 -0.33577478

module.2.weight f4 [60, 60]
00000000: 2370 d7be 378d cdbb 63d4 ecbb a06d 6e3e
00000010: 1212 58be 750b adbb 19b2 92bd 1246 8bbe
00000020: 737e 363e b1d8 f7bb 6cc3 b0be d4af e53e
00000030: 73e2 a5be 557f f9bb e571 38bd a6a2 58be
00000040: b3bc 743d 9b86 9ebe 010e 41bd f8b6 a53e
00000050: a684 3ebe 4d4d fb3c 1e3b eebd 73a0 afbe
00000060: 17d7 03be f895 24be 74a6 2dbe 1a86 063e
00000070: 1645 83be 5719 94bd 6256 0b3d fb41 2a3e
00000080: b0fa cfba 7cc9 133f 707e 01bf 9203 2a3f
00000090: f430 36bf 4238 c8bd 1ccf bf3e 34e3 933e
000000a0: ffd8 553e 60d6 63be 1dee 223d 6f5f 0fbf
000000b0: ac85 c63d 181b 15be b5c0 7d3d 0304 6f3e
000000c0: df4a 94bd c3fd 45bd 6e76 373e a6fd 5d3e
000000d0: 30eb aebe f281 333d e95b 9bbe 2328 8a3f
000000e0: 995c 003e 645a 683e 2ad8 06bb 0312 9a3b
000000f0: cbc1 4dbd b34a 2c3d 4b60 0a3d dc8f f1bc
00000100: ea2b c13d 6ca0 b7bc 7e9b 083e 3985 e93d
00000110: 4b9d 64b9 3967 8ebc f092 413c 04f7 1fbc
00000120: 22ae 54be 71b5 d23d 8442 933c ea17 a0bd
00000130: 0a44 03bd 7253 423a ac82 853b 72d1 463d
00000140: 4d1a 46bc 2988 e53c e936 883c 7e19 193d
00000150: f135 4cbc b8bc bd3c 9240 053d 927e 2a3c
00000160: a246 47bd df0c d23d ee0c c43c 271c 48bd
00000170: 8222 49bd 3e21 413c 40e7 3f3d acdf 7d3d
00000180: 063a d03d c4b7 bbbd c539 fe3c a0ed 7cbd
00000190: 1aee 08be 5241 073d 4fba f1bd f019 e33d
000001a0: 516b a03d 721e 37bb e379 8c3d f359 86bc
000001b0: 4b36 bd3c 2590 d7bd 97bd 993d 44a3 a0bd
000001c0: 0479 a93c 2c18 4d3d fc15 61bc a9e6 ee3c
000001d0: b402 f53b 32c4 9ebd 0df5 153d 49fe b43d
000001e0: 7494 8d3d 3028 26be 2ede e13c 7ffd 8cbe
000001f0: 7937 353e ea29 f7bd 7e59 e9bc 3aad 653e
00000200: 5b5c 8fbe 2a8d 13bf 0350 783e 3394 bdbe
00000210: a260 003e bfc0 ca3d bbe0 343e 2201 bd3d
00000220: 0658 8abc b657 ec3d f9eb 383d a699 c8be
00000230: dbc0 1d3d 171f 51be eb45 27bf 9f69 c7bd
00000240: 4fa3 603e 02a0 873e 3a2c 0cbf 06be 91be
00000250: 07bd 113d e07a 9fbd 75ee d23b 64d0 56bf
00000260: c73e 24be 1931 38bf 303f 9e3e 4bef cebe
00000270: 6585 8abd e7a8 123d 57ce ffbc 7506 c2bd
00000280: 3372 503e 6efa 583d 940b f33d 4435 70be
00000290: 7e60 5e3d 4f14 173c c189 30bf bf3e 51be
000002a0: ee66 083e 876f 283e 9d27 e0be c3b9 febe
000002b0: a98d 77bc 8f61 56be 33e6 853d ce2f 30bf
000002c0: 65c2 89bd 3c40 2e3c 22fa 1abf e989 153e
000002d0: ac3d 903d 9fae b63c 981d 2dbb cc8d 3e3e
000002e0: 05ba dbbc 57a0 c2bc a3f3 963d bfc7 033e
000002f0: cd7d c4be 7311 d5be ad49 c6bc c931 8abe
00000300: 8482 963c 8c32 9bbc e4c8 d7bd 4ea1 903e
00000310: 4afd bf3c 8c82 af3d b516 b2bd c203 15bf
00000320: 2841 c3bd f3f9 803e 66fd b1be 407c 24be
00000330: ba72 18be c50b 293e 73e0 623d 1b92 11be
00000340: 59ce 84bd f13b 913b dc82 3abc 4c51 15bf
00000350: 32e5 a6bd 008e fabe cb6b 953d 04fd edbe
00000360: c617 883e bf25 c5bd 3793 94be 3e29 f03d
00000370: 6574 e3bc 5c7a 313e aa3e aebe f898 05be
00000380: 89b7 503e 0254 033e ba2a bcbe bca2 25bf
00000390: 1011 cdbe 2184 993e 0cc9 96be 7957 0fbf
000003a0: 0709 bc3e 40a0 4abe a2e0 7cbe f597 7cbf
000003b0: af97 1c3e a769 afbe 2d64 38bf e6a8 9b3d
000003c0: 0e31 72bf 9870 2ebe 25fe e53a 0f18 023f
000003d0: 195b ad3c edc0 a4be 1c4e f43c 2925 f3bd
000003e0: f608 0b3f 2c22 cc3e 824d 50be c8ff a03e
000003f0: e0b2 8ebd a20f 1e3d 743f 16bc 5367 c8be
-0.4207774 -0.0062729376 -0.007227467 0.23284006 -0.21100643 -0.005280907 -0.07162876 -0.27201897
0.17821674 -0.0075636734 -0.34524095 0.4486071 -0.3239933 -0.007614056 -0.045030493 -0.21155795
0.05975027 -0.3096207 -0.047132496 0.32366157 -0.18605289 0.030676508 -0.116323695 -0.343021
-0.12875019 -0.16072834 -0.16958028 0.13137093 -0.25638646 -0.07231396 0.034017928 0.16626732
-0.0015867557 0.57729316 -0.50583553 0.664117 -0.71168447 -0.09776355 0.374627 0.2888428
0.20883559 -0.22249746 0.039777864 -0.56004995 0.09693465 -0.14561117 0.061951358 0.23341374
-0.07240843 -0.04833771 0.17916271 0.2167879 -0.3416381 0.043825097 -0.3034356 1.0793499
0.12535323 0.22690731 -0.0020575621 0.004701854 -0.050233644 0.042063426 0.03378324 -0.029487543
0.09432204 -0.022415362 0.13340566 0.11402363 -0.0002180237 -0.017383205 0.011814818 -0.009763483
-0.20769551 0.102885135 0.017976053 -0.07817061 -0.03204731 0.0007412947 0.004074415 0.048539586
-0.0120912315 0.028019028 0.016627746 0.037377827 -0.0124640325 0.023161277 0.032532282 0.010406153
-0.048651345 0.10256361 0.023931947 -0.048854973 -0.049105175 0.011787711 0.046851397 0.06198089
0.10167317 -0.0916591 0.031033406 -0.061750054 -0.13372079 0.03302128 -0.11803114 0.110889316
0.07832969 -0.002794173 0.068591855 -0.016400313 0.023097178 -0.1052554 0.075068645 -0.078436404
0.020687588 0.05007188 -0.013738152 0.029162722 0.007477129 -0.07752265 0.03661065 0.088375635
0.06913081 -0.16226268 0.027571764 -0.27537152 0.17696942 -0.12068541 -0.028485056 0.22429362
-0.2800015 -0.57637274 0.24249272 -0.3702713 0.12536862 0.09900045 0.17663853 0.09228732
-0.016887676 0.11540167 0.045146916 -0.39179724 0.038514 -0.20422016 -0.6534106 -0.097369425
0.21937297 0.26489264 -0.54754984 -0.2846529 0.03558066 -0.077871084 0.0064371177 -0.8391173
-0.16039573 -0.7194992 0.30907583 -0.4041694 -0.06763724 0.03580561 -0.03122632 -0.09473888
0.20356064 0.052973203 0.11867443 -0.23457819 0.05429124 0.009221151 -0.68960196 -0.20434092
0.13320515 0.16448794 -0.43780223 -0.497511 -0.015109458 -0.20935653 0.06538048 -0.68822944
-0.06726531 0.010635432 -0.6053792 0.1460339 0.07043013 0.022300063 -0.0026415344 0.18608779
-0.0268221 -0.023758097 0.07370689 0.12869166 -0.38377228 -0.41614875 -0.024205053 -0.26991108
0.018372782 -0.018945001 -0.10536364 0.28248066 0.023436207 0.08569822 -0.08695737 -0.5820886
-0.09533912 0.25190696 -0.3476364 -0.16063023 -0.14887515 0.16508396 0.055389833 -0.14215891
-0.0648467 0.0044321944 -0.011383738 -0.58327174 -0.08149184 -0.48936462 0.072959505 -0.46482098
0.26580638 -0.0962634 -0.29018566 0.11726616 -0.027765462 0.17331833 -0.34032184 -0.13046634
0.20382513 0.12825015 -0.36751348 -0.6470144 -0.4005208 0.2998362 -0.29450262 -0.5599285
0.36725637 -0.19787693 -0.24695066 -0.9866937 0.15292238 -0.34260294 -0.72027856 0.07600574
-0.946061 -0.17035139 0.0017547054 0.5081796 0.021161603 -0.3217844 0.029822402 -0.11872322
0.5431055 0.3986982 -0.20342067 0.31445146 -0.069677114 0.038589127 -0.009170402 -0.3914133

module.2.bias f4 [60]
00000000: adc7 68bd 7565 813d 9b39 56be ad60 81bd
00000010: e226 e8be a91b 3a3d 2e17 553d b50b a93d
00000020: 36b7 f43c 4ec5 90bd bcd4 a3be 5a1c 803d
00000030: cf96 753d 9bf1 0fbf 2c91 0ebd 8b00 5dbe
00000040: 7059 903d 34a1 0f3d 0894 3ebe f98d 213e
00000050: f908 1abe e2cf 83be 6c41 9cbd 84da f4bd
00000060: 6cbb 87bc b12f c23d 5b29 03bd b561 ebbe
00000070: 684c 99bc ee90 eb3d 12a8 973d 3161 cb3d
00000080: 3f4d 88bd e7c5 3dba a8ec 6bbf d1ff ddbe
00000090: 2f14 443d 3d9f 013d 5251 903d 24bc 043d
000000a0: c92e 1ebd 2b6a 8fbd 3d81 e2bd c0f4 243e
000000b0: d68d c13d 7060 abbe 7211 85bd 6fba 363d
000000c0: 3a86 b0be 4564 06bd f6f3 8d3d 5e52 673d
000000d0: ac35 11bf 9fff 313e cd1f 923c 4aa1 2e3d
000000e0: 52c2 e0bd 540e 12bd ca95 1e3e 784f 32bf
-0.05683105 0.063181795 -0.20920412 -0.063172676 -0.45342165 0.045436535 0.05202406 0.08254186
0.029872518 -0.07068883 -0.3199824 0.06255408 0.059958275 -0.56228036 -0.034806415 -0.21582238
0.07048309 0.035065845 -0.18611157 0.15776815 -0.15042485 -0.2574454 -0.07629666 -0.11955741
-0.016568862 0.09481753 -0.03202186 -0.45972982 -0.018713191 0.115022525 0.07405104 0.09930647
-0.066553585 -0.00072392676 -0.92157984 -0.43359235 0.04787081 0.031646002 0.070467606 0.032405987
-0.038618837 -0.07002672 -0.110598065 0.1610899 0.09450881 -0.33472013 -0.06497468 0.04461139
-0.34477407 -0.03281047 0.069312975 0.056475036 -0.5672252 0.17382668 0.01783743 0.042634286
-0.10974564 -0.035658196 0.15486827 -0.6965251

module.4.weight f4 [6, 60]
00000000: f521 34bd b79d 34bb 9d3a a63e dd7b 53bd
00000010: cdd7 abbe d41d e9ba 0966 903a 8ca1 a4bb
00000020: e0a4 263e 5ebb ab3a e726 883e 4268 573b
00000030: 600e 27be 584b 75bd 4416 dfb9 6d43 10bd
00000040: 02b9 05ba ce97 c739 c95e c6be b9ff 05be
00000050: bd13 323b 26b5 7fbe 9180 0dbb 5553 1ebb
00000060: 8e8b ab3a ce47 a93d 703c ff39 4342 4abe
00000070: 554e 2d3b af8f e038 cd1b 01bb 6aae 90bc
00000080: efa8 25bb cf2d 4bbb 4164 3e3d 58b2 3f3e
00000090: 704a 17bc 19be 073b cd9b 683b 8062 50ba
000000a0: 544f 973e 1ab1 07bb 7fe6 8739 e3cc 0bbe
000000b0: 7595 0a3b 6896 103e b791 7dbb 6b80 61bb
000000c0: fea3 0dbf 69cc 43bb b9f6 f43a a721 a2bb
000000d0: e1ab 35be a062 823b d907 11bb 57ad d23b
000000e0: 35f9 37be aec6 cfbc d5be 203e d319 073e
000000f0: cc91 353e ffc4 043b bb27 0ebe 785f adbe
00000100: 62f3 c1bd 4e72 1d3b 9470 eeb9 591f dc3a
00000110: 147f 2b3e 3293 a639 4b61 5fbd 1a6f c5b9
00000120: 693e 673e 4ab6 bebe 4d9c 4b3b 1ec6 7bbe
00000130: 1bd6 e8b9 4112 9a3b b338 1c3e 1f6c 6e3e
00000140: 2d30 b33d 4263 aabd daa8 c83a 1c51 88ba
00000150: 623f bc37 36e5 cd3d 3af5 763b 0ca0 873d
00000160: aab1 adb8 3223 f039 fdad be3a 8c53 c3bd
00000170: ab6e 5cba 7e35 863b 693e a7be 1908 08be
00000180: b9b4 0f3a 6307 b03a f76d 3dbb 79f3 203b
00000190: 1b58 0e3e c29b 33bb 7c58 31bb 20d7 473e
000001a0: 058e c539 f3f1 f7bd 9217 a4b9 062e 063b
000001b0: 6142 2d3d 1c18 b0b9 23c8 cfba 8e23 1f3b
000001c0: cba4 75be ae6f 483b 1a1a 5a3b 6cbc da3a
000001d0: 317f 3cbe 61ad 97be eafa d0bd 8346 863d
000001e0: 1de9 963e d6ac f639 2050 66be 3b1e 61be
000001f0: e384 2d3f 2668 953a 6d8a 00ba f74f 82ba
00000200: ba48 be3d 85d3 5f3a bc62 f03b 1b23 2c3b
00000210: 43d2 453e 7b75 14bc a694 1f3b 1f25 723c
00000220: 5ec2 eeba 81a3 143b 1a54 663f d7b9 debc
00000230: ec6b 893e bb4d 343e 8826 043a ac2c c439
00000240: 436c d8ba be85 403d 6814 e53a f181 0a3f
00000250: 4cfd de37 7e96 0cba 98e0 4eba 63d3 8abe
00000260: 3f02 29ba 2e38 b53a a034 cd3d 957c 15be
00000270: 8e77 6e3b fa4f 523a 40eb 37b9 c4d1 8db9
00000280: ab6b e23d 0651 f1b9 ab39 c83a 22d9 d8bc
00000290: 7428 41b9 e77a c1bd ce57 c339 14b1 91b9
000002a0: f7b0 733f da58 8a39 324c 8e3a b02f 633b
000002b0: 556a 51be 9fdb 653b 7f2d 823b 8412 9db7
000002c0: c7f3 03be a942 f1be bc47 1bbf 8412 223e
000002d0: 35e7 96bd aa5b 2fbd 95c0 35bc e092 a9bd
000002e0: b297 113d 3caa a1bc 24b6 a5bc bf27 80bd
000002f0: ccdc b1bc 944f be3c 49f4 86bd c4ef 143d
00000300: 72be de3b 11e9 853d 9317 493d 4d1a bebc
00000310: 7fc6 8ebd 2f52 1dbd 4d41 353d 133c 2bbd
00000320: 2ef8 01bc 5f68 2bbd 0acd 193c 1cfe 393d
00000330: 583d 3439 e9ac 0ebd 0f56 143d f0fc db3c
00000340: 7d57 7e3d 90bc 23bd 188d 223c 3c59 023d
00000350: 6b76 a63a 84e0 0dbb dcec afb9 2775 343d
00000360: 05be cf3c 8584 64bc d98f f5bc 41b9 093c
00000370: f92d 8dbb 4bc1 0fbd aa4e 523c 3c9f b03b
00000380: afb3 42bb c205 373d fcf9 e339 c768 21bd
00000390: c762 e1bc af62 29bd 052a 63bd 889a db3c
000003a0: 3653 b3bc e8c4 b43b d203 243d d809 1e3d
000003b0: d1b9 b63b 21eb 3d3c 08b7 50bc b596 333c
000003c0: bef6 cf3c a8f4 233c 41b9 2b3d d8ac 6c3b
000003d0: 9036 ef3b 261e 853b a919 ad3c c4ec 243d
000003e0: 3af9 023d c197 123d a464 0fbc f31b 043d
000003f0: e0f2 0a3c a770 93bc 42b5 edbb 83d0 5dbb
-0.043977696 -0.0027559826 0.32466593 -0.051631797 -0.3356308 -0.0017785379 0.0011016737 -0.0050241407
0.16273832 0.0013102104 0.2659218 0.003286854 -0.16314077 -0.059886307 -0.00042550464 -0.035220552
-0.00051011157 0.0003806934 -0.3874419 -0.13085832 0.002717241 -0.24971446 -0.0021591524 -0.0024158556
0.0013087855 0.08265649 0.0004868242 -0.1975184 0.0026444395 0.000107079155 -0.0019700408 -0.017661292
-0.0025277694 -0.0031002646 0.04648233 0.18720376 -0.009234056 0.0020712672 0.0035493255 -0.0007949248
0.2955271 -0.0020704926 0.0002592094 -0.13652377 0.0021146212 0.14119875 -0.003869159 -0.0034408818
-0.5532836 -0.0029876477 0.0018689252 -0.0049478593 -0.17741348 0.003979042 -0.0022129922 0.006429355
-0.17966159 -0.025363293 0.15697797 0.13193445 0.17731398 0.002025902 -0.13882343 -0.338619
-0.0947025 0.002402443 -0.00045478775 0.001679401 0.16747695 0.00031771656 -0.054536145 -0.00037657545
0.22582401 -0.3724845 0.0031068504 -0.24587294 -0.0004441001 0.004701883 0.15256004 0.23283432
0.08749423 -0.08319713 0.0015309111 -0.0010400149 2.2440861e-05 0.10053484 0.0037682788 0.066223234
-8.282375e-05 0.0004580259 0.0014547702 -0.0953742 -0.0008408825 0.0040957322 -0.32664803 -0.13284339
0.0005481947 0.0013429936 -0.0028904655 0.0024559184 0.13900797 -0.0027406071 -0.0027060797 0.19515657
0.0003768058 -0.12106695 -0.0003129808 0.002047421 0.042299632 -0.000335873 -0.0015852492 0.0024282667
-0.23988645 0.0030584144 0.0033279718 0.0016688234 -0.18407895 -0.29624465 -0.10204108 0.06556418
0.29474726 0.0004704955 -0.22491503 -0.21984188 0.67780894 0.0011398837 -0.00049034395 -0.0009942044
0.09291215 0.0008538294 0.007335989 0.0026266042 0.1931849 -0.009061213 0.0024350076 0.014779358
-0.0018215885 0.0022680464 0.8997208 -0.027188225 0.2684015 0.17607777 0.0005041142 0.00037417316
-0.0016511757 0.047002546 0.0017477395 0.54104525 2.6582413e-05 -0.0005363001 -0.00078917434 -0.271144
-0.0006447173 0.0013825947 0.10019803 -0.14598306 0.0036387178 0.00080227817 -0.00017539877 -0.00027049903
0.11055692 -0.0004602747 0.0015275975 -0.026470724 -0.00018420984 -0.0944727 0.00037258718 -0.0002778849
0.951919 0.0002638761 0.0010856448 0.0034665875 -0.20450719 0.0035073531 0.0039727087 -1.872448e-05
-0.12885962 -0.4712117 -0.6065633 0.15827376 -0.07368318 -0.042812027 -0.011093278 -0.08279967
0.03554506 -0.019734494 -0.020228453 -0.06257581 -0.02171173 0.023231305 -0.065895624 0.03636147
0.006797605 0.065385945 0.049094748 -0.0232059 -0.06971454 -0.038408455 0.04425173 -0.041805338
-0.007932706 -0.041847583 0.009387264 0.045408353 0.0001718899 -0.03483287 0.036214884 0.026854008
0.062095154 -0.03997475 0.009921335 0.03182338 0.0012700086 -0.0021648714 -0.00033555075 0.044057038
0.025359163 -0.013947611 -0.029975818 0.008405984 -0.004308459 -0.035096448 0.012836138 0.005390076
-0.002970915 0.044683225 0.00043483067 -0.039406564 -0.027512921 -0.041353878 -0.055459995 0.026807085
-0.021890264 0.005516637 0.040042706 0.038583606 0.0055763503 0.011591704 -0.012738951 0.010961224
0.02538621 0.010007061 0.04192472 0.0036113765 0.0073002055 0.004062432 0.0211304 0.04026486
0.031975962 0.035789255 -0.008752022 0.032253217 0.0084807575 -0.017998053 -0.0072542736 -0.0033846206

module.4.bias f4 [6]
00000000: b96b 92be d49d 4b3e cf43 0bbe a0b2 da3d
00000010: 1be9 c23c 4bcf 8f3d
-0.2859781 0.19884425 -0.13600086 0.10678601 0.023792794 0.0702196

module.6.weight f4 [1, 6]
00000000: 5c06 27bd 20e6 c03d aadd c6bd 18d5 ccb9
00000010: e4f5 d8b9 8197 4f3d
-0.04077755 0.09418893 -0.09710248 -0.0003906868 -0.00041381933 0.050681595

exp_avg f4 [60, 6]
00000000: d03f 4037 857a 7f36 1a23 19b6 4ed7 ed36
00000010: e68f 0a36 18e5 2935 c0d1 1137 558f 1137
00000020: 7fca acb5 0848 6d35 6364 eab5 6ad3 a4b5
00000030: 8c43 8832 16d0 a9b1 27a3 a92f a843 1132
00000040: c567 b031 809b a4b2 7bc0 0fb7 f2f8 12b6
00000050: 5db9 1e36 2b61 84b6 76fe 25b5 4cfb a9b5
00000060: 734c d635 25a8 9135 f39e 5833 f0ab bd35
00000070: fd0f ba34 49b9 13b5 3d70 7a35 c052 2035
00000080: fd19 b8b5 0459 98b5 fae7 0eb5 ea88 9a35
00000090: 926c fd32 ca82 e6b2 d010 a232 709b 2f33
000000a0: 5812 9433 17a0 2432 86fe 1736 fb4b f234
000000b0: 9cee c3b3 2e69 e135 f92a 8334 4abf 95b4
000000c0: 6cf0 1fb7 8ca6 9cb6 803e 7b36 c608 2433
000000d0: 1482 8d35 fc52 33b6 bd88 6ab6 be66 c1b5
000000e0: eb20 4cb5 5761 4db6 87b6 fab5 8a58 c135
000000f0: 41ca 18b4 9628 e5b5 20e8 1935 02f0 0f36
00000100: 4377 0936 9760 17b5 ae5b 11b7 a9e0 7eb6
00000110: 955f bc34 df69 9cb6 7e02 0cb6 cd93 f235
00000120: 0a4e 8e33 e78f dab4 00f7 fe32 6051 3335
00000130: b460 5d33 4ea1 1434 4fa1 9334 a8de e035
00000140: 7d75 beb3 fec1 bbb5 c17e b8b5 b4d7 0eb3
00000150: f5d2 8ab6 5088 95b6 f845 ab35 8615 e635
00000160: 2dc0 fe35 a5bc 42b4 3eb0 9d36 c740 fa35
00000170: 464f 4433 20d9 a436 7fe6 3a36 1ece 5fb5
00000180: 54b6 a531 a7c1 ce31 f98e 97b2 f0e7 4eb3
00000190: f9f0 3432 37a2 fa32 de05 a8b6 74a3 c6b6
000001a0: b654 d835 338a cf35 59eb 1f36 5cc8 9131
000001b0: 8cee 7eb2 2788 a4b1 f20a bb32 30b4 2b33
000001c0: c051 5bb2 d638 eab2 5725 94b7 a4d1 2fb7
000001d0: 8da8 4136 1c77 4fb6 a369 0835 699f 4435
000001e0: dfe6 afb3 59d5 0bb2 0bea 4933 a976 ac33
000001f0: 9146 3f33 d7f7 b8b2 a6b4 03b6 51d1 da33
00000200: 7c95 a535 122e 0db6 b8e1 a6b3 1641 8bb5
00000210: 6c40 beb6 3497 1eb6 9743 7835 08e8 25b6
00000220: 0634 a7b5 c44d 6c31 291d 71b3 66ac ccb4
00000230: 79e0 62b3 55dd db34 381d ed33 415b 7e33
00000240: 17a5 0cb7 1398 12b7 9824 8e35 e64e 76b4
00000250: 9900 ea35 8823 d935 aba9 cd36 c5fd 2936
00000260: 691c dbb5 3e82 8835 c66a af35 7f49 c035
00000270: b253 b9b5 6d1a 10b5 5e3e cab4 9d15 bcb5
00000280: 76f3 c8b5 179d 7e35 314f 9bb6 e65d a1b5
00000290: e81d 7d35 ac14 1cb6 c143 7bb5 267b 41b5
000002a0: 7d31 3eb5 eceb 23b6 216f c0b4 c837 0035
000002b0: 2fac 1434 94fd bd35 ccfc cbb3 9047 de32
000002c0: 18e7 9e33 097c dc33 eb13 b6b2 1fe2 e9b2
000002d0: 68d2 35b3 9733 13b3 8981 86b0 baf2 09b3
000002e0: 778d ad30 c9e0 4530 eb7e 78b7 80b0 d9b6
000002f0: 5b4c aa36 fcf9 c3b4 830f af35 6f2f 0db6
00000300: ace2 5d36 b52a 3136 9c06 c0b5 c059 1a33
00000310: deb9 b5b4 1ff6 2135 28ed 2db7 e881 94b6
00000320: 8977 79b4 420e e4b6 9584 73b6 426f 3236
00000330: a672 1037 4659 5e36 7bc4 0cb6 d161 1b36
00000340: 2ac7 05b5 2615 c634 0ddb b9b7 b14e 4db7
00000350: 0116 8036 cdc2 b0b6 dcb3 9c35 5857 c934
00000360: 8da4 8937 cac9 d436 f304 2db6 1fe7 1237
00000370: e802 6636 2056 45b4 22d8 8bb3 cf01 8733
00000380: b1d4 7533 36b0 d633 265c 5ab3 507a 38b3
00000390: ec06 32b7 a22a aeb6 4dba 7635 0289 dab6
000003a0: c324 18b6 ef1a b435 ab13 8cb6 f983 d7b5
000003b0: 2484 62b3 ea9a 7db6 4173 9db5 4ee8 8c35
000003c0: a3e8 c534 b516 8635 3568 ac33 79a7 11b5
000003d0: a432 32b5 2e19 07b5 46fd 5c35 bc55 5eb4
000003e0: e956 bf34 49a7 e035 10c4 8935 e2d1 35b5
000003f0: fca9 1a36 4a2a c435 e438 75b5 e720 b735
1.1458949e-05 3.8069277e-06 -2.2819208e-06 7.088215e-06 2.0647362e-06 6.329078e-07 8.69151e-06 8.676046e-06
-1.2873933e-06 8.83942e-07 -1.7463575e-06 -1.2280482e-06 1.58632e-08 -4.942204e-09 3.0856848e-10 8.455494e-09
5.1340714e-09 -1.9162826e-08 -8.56828e-06 -2.19006e-06 2.365173e-06 -3.9452184e-06 -6.183758e-07 -1.2664618e-06
1.5966492e-06 1.0852278e-06 5.0435983e-08 1.4131638e-06 3.4656833e-07 -5.503139e-07 9.3295586e-07 5.972506e-07
-1.3716632e-06 -1.135079e-06 -5.323669e-07 1.1513741e-06 2.9502448e-08 -2.6835e-08 1.8866928e-08 4.0886732e-08
6.895124e-08 9.582457e-09 2.2648906e-06 4.5131296e-07 -9.123798e-08 1.6794418e-06 2.4431918e-07 -2.7892594e-07
-9.533116e-06 -4.668551e-06 3.7438294e-06 3.8192205e-08 1.0543176e-06 -2.6721382e-06 -3.494831e-06 -1.4409522e-06
-7.6043824e-07 -3.060404e-06 -1.8679574e-06 1.4405389e-06 -1.4229683e-07 -1.7073642e-06 5.733473e-07 2.1448363e-06
2.048401e-06 -5.639244e-07 -8.664019e-06 -3.7979719e-06 3.5087274e-07 -4.6614873e-06 -2.0863076e-06 1.8073421e-06
6.6265855e-08 -4.0710367e-07 2.9681814e-08 6.680111e-07 5.1543523e-08 1.3842256e-07 2.749825e-07 1.6754102e-06
-8.8689355e-08 -1.3989045e-06 -1.3745959e-06 -3.3258132e-08 -4.137279e-06 -4.456415e-06 1.2760856e-06 1.71426e-06
1.8980405e-06 -1.8136286e-07 4.699482e-06 1.8645304e-06 4.5706905e-08 4.9128575e-06 2.7850326e-06 -8.3373914e-07
4.8228603e-09 6.017405e-09 -1.764373e-08 -4.817406e-08 1.053217e-08 2.9177597e-08 -5.007473e-06 -5.9198883e-06
1.6117908e-06 1.5462923e-06 2.3829837e-06 4.2428336e-09 -1.4838985e-08 -4.788507e-09 2.1774643e-08 3.997792e-08
-1.27660655e-08 -2.7267031e-08 -1.7660363e-05 -1.0479624e-05 2.885735e-06 -3.0914734e-06 5.081767e-07 7.324766e-07
-8.191068e-08 -8.1393745e-09 4.701182e-08 8.030958e-08 4.4534833e-08 -2.1533124e-08 -1.9625672e-06 1.01894905e-07
1.2336964e-06 -2.1037454e-06 -7.7710354e-08 -1.037525e-06 -5.669941e-06 -2.3631846e-06 9.2485556e-07 -2.4721976e-06
-1.245761e-06 3.4386725e-09 -5.6138706e-08 -3.8123397e-07 -5.2823882e-08 4.095297e-07 1.10414874e-07 5.922198e-08
-8.383088e-06 -8.737686e-06 1.0590475e-06 -2.2939238e-07 1.7434533e-06 1.6178101e-06 6.129228e-06 2.5330676e-06
-1.632504e-06 1.0170695e-06 1.3069591e-06 1.4326505e-06 -1.3807933e-06 -5.3682635e-07 -3.767081e-07 -1.4013382e-06
-1.4972018e-06 9.485097e-07 -4.628579e-06 -1.2022763e-06 9.4293364e-07 -2.3257844e-06 -9.360338e-07 -7.207731e-07
-7.085253e-07 -2.4426217e-06 -3.5843644e-07 4.776489e-07 1.3846214e-07 1.4155398e-06 -9.4989076e-08 2.5876744e-08
7.399484e-08 1.026711e-07 -2.1196646e-08 -2.7227598e-08 -4.233371e-08 -3.4273025e-08 -9.786599e-10 -3.2118557e-08
1.2627613e-09 7.198762e-10 -1.4811502e-05 -6.4876513e-06 5.0752838e-06 -3.6503468e-07 1.304303e-06 -2.1038247e-06
3.3063507e-06 2.6399914e-06 -1.4307038e-06 3.5937546e-08 -3.3849113e-07 6.0335327e-07 -1.0366821e-05 -4.425867e-06
-2.3233419e-07 -6.7965893e-06 -3.6286995e-06 2.6588827e-06 8.6097625e-06 3.3132542e-06 -2.0975992e-06 2.3153736e-06
-4.983618e-07 3.6895761e-07 -2.2155722e-05 -1.2237274e-05 3.817259e-06 -5.2678865e-06 1.1675252e-06 3.7502718e-07
1.6408298e-05 6.3415837e-06 -2.578189e-06 8.75609e-06 3.4274362e-06 -1.8378387e-07 -6.512006e-08 6.2867564e-08
5.723695e-08 9.997204e-08 -5.084089e-08 -4.295208e-08 -1.0611238e-05 -5.190567e-06 9.1913245e-07 -6.512856e-06
-2.2671163e-06 1.3418884e-06 -4.174615e-06 -1.6057157e-06 -5.2739907e-08 -3.779011e-06 -1.1730955e-06 1.0498422e-06
3.6863375e-07 9.990387e-07 8.028329e-08 -5.4260414e-07 -6.638386e-07 -5.032806e-07 8.232495e-07 -2.0706551e-07
3.5639758e-07 1.6737987e-06 1.0264357e-06 -6.7733174e-07 2.3046732e-06 1.4615446e-06 -9.13524e-07 1.3644138e-06

exp_avg_sq f4 [60, 6]
00000000: 22f2 2531 6643 c030 6e99 9830 b2e6 1c31
00000010: da92 9c30 d5e8 a330 1326 bd30 99a2 bc30
00000020: bbd0 0830 2735 aa30 9f74 4030 90d8 0230
00000030: 7834 6e29 da1b f028 98f1 8428 62e1 2929
00000040: 4b11 ce28 1cfc b828 22e3 a230 0961 2430
00000050: 91d5 3730 74e3 a530 1d7d 1b30 6aba 3230
00000060: f5d6 082f c49e a62e 52d8 292e c3c7 b32e
00000070: b36b 4c2e 4221 552e bf72 592f ca22 b82e
00000080: 1379 422e 0734 e12e d728 952e 9239 782e
00000090: 0ff3 092a b540 9329 4f79 0729 124b c629
000000a0: 11b2 a629 cb09 8629 209a d52f ce64 432f
000000b0: 05e0 e52e e559 872f d024 1a2f 42d3 402f
000000c0: 8e6e cd30 fcef 8f30 42f2 5430 2e06 b630
000000d0: 2739 5030 0bb0 3430 e4ca a330 a983 912f
000000e0: 80a4 ef2e de69 0a30 8c71 702f f8de c22f
000000f0: acf6 052f b823 b02e d411 702e b0ba 1c2f
00000100: 5b9a ef2e b62e b02e dcda 0f31 d900 b630
00000110: d7a3 5430 7dba 0a31 da1f 8a30 1fa9 9730
00000120: dcad dc2c 0e3b 3f2c 5308 0c2c 6d01 ac2c
00000130: 36b6 ab2c 6403 672c 80d7 3f2e 64fb a32d
00000140: 3b58 772d b70e fe2d 9c2b a62d d10d 922d
00000150: 0398 872f 4d4b 902f 3022 9e2e 15a5 5c2f
00000160: 58f0 122f 7d60 682e 5b2b 6030 01d6 0830
00000170: 9551 bb2f f5e3 5730 6566 cf2f 42bf c02f
00000180: 8f8e a129 7023 2929 cf38 c728 8cf2 6629
00000190: bcc0 2729 0d3c 4129 4486 0830 9b1a 0530
000001a0: b4b8 222f 6fce af2f be34 822f 0def 0b2f
000001b0: 419a ed29 616a 8d29 b38f fa28 d5ad a329
000001c0: 44ae 9129 f147 7e29 d918 ba31 b0cf 9131
000001d0: 0429 1d31 4a0f af31 246d 3c31 4354 2a31
000001e0: 29d1 932a 9181 2f2a 8dd1 9429 37f6 822a
000001f0: c1dd 2c2a e715 482a 83b8 ad2f b770 182f
00000200: cc5a 142f 03ca 4f2f 89c3 372f 7222 372f
00000210: 6e40 8030 190e 3e30 ae2d f32f 31a8 8030
00000220: 157c 1430 fd35 0530 81a4 df2c 5ecc 562c
00000230: c989 142c d6b5 b62c e877 3b2c 6c22 562c
00000240: e6f4 b430 6217 ca30 ccba f72f 5824 a330
00000250: 272e 4630 cc22 f92f 39f7 5b30 d33d 0e30
00000260: 291e c22f 94cf 3330 8699 2330 0ca9 d22f
00000270: 0e2a 652f bd88 2e2f 561b a12e c465 582f
00000280: 4daf 132f b938 d52e a677 cd2f a1dc 8b2f
00000290: e7ec 502f 6ca3 da2f f02a 662f b497 662f
000002a0: bb07 dd2e 30d3 032f 549f dc2d 94d9 ba2e
000002b0: d14d 632e d66e 0f2e 0c1d 5c2a 7e6a 102a
000002c0: 561a 5829 a891 512a 81e8 112a 6e3d 4c2a
000002d0: ceea 8429 a279 0229 d192 8928 3e3c 2e29
000002e0: 33e7 d828 66c5 d228 3cc7 7d31 c047 6231
000002f0: 8df9 0431 767b 8231 4088 1731 91ac 0231
00000300: b35f 5330 045a f02f ceb7 6f2f 3e62 0630
00000310: 79a2 aa2f 24df 862f d89d 7131 b296 2031
00000320: 4fdd b030 996d 6a31 a885 f530 6a46 ff30
00000330: e6a2 8d30 602f 2a30 2f12 0030 c612 7530
00000340: 7fd9 cc2f fecc 0b30 e055 d731 fa0b aa31
00000350: df01 3a31 d3d0 d131 ac60 5d31 2907 4d31
00000360: c282 aa31 2bd5 5b31 606f 2531 4362 af31
00000370: 40b7 2f31 6bb4 3531 2eed 4d2a 0c03 172a
00000380: 4649 7c29 30a3 8f2a a1b2 382a 1258 342a
00000390: 3165 1531 fefa de30 9c27 7430 f499 1931
000003a0: 2466 8e30 931b b230 1d35 0430 1268 ca2f
000003b0: 7989 7a2f ec22 ff2f 6264 9d2f 403a 942f
000003c0: e907 f82d 2e7b bc2d 0098 e72c 0f8f af2d
000003d0: 534f 2d2d 3789 112d e94d e12e 1417 7c2e
000003e0: 7867 552e 8ebc 0a2f 8065 9a2e f2b3 9c2e
000003f0: 3b2c 0130 501d 882f e455 ea2e 731e 972f
2.4148297e-09 1.3988994e-09 1.1103063e-09 2.2832123e-09 1.1392232e-09 1.1925986e-09 1.3762381e-09 1.3725013e-09
4.9773136e-10 1.2384235e-09 7.001492e-10 4.760148e-10 5.2892125e-14 2.6657431e-14 1.4759719e-14 3.7721027e-14
2.2878094e-14 2.0537439e-14 1.1851606e-09 5.980075e-10 6.687851e-10 1.2069976e-09 5.656647e-10 6.5020933e-10
1.2445496e-10 7.5770085e-11 3.8618282e-11 8.1754624e-11 4.6479886e-11 4.8460132e-11 1.9776801e-10 8.373531e-11
4.421803e-11 1.0241057e-10 6.78299e-11 5.6439804e-11 1.2252372e-13 6.539336e-14 3.008124e-14 8.805989e-14
7.4027705e-14 5.952494e-14 3.8853987e-10 1.777096e-10 1.0453508e-10 2.462023e-10 1.4019297e-10 1.7537352e-10
1.4947135e-09 1.0472827e-09 7.746942e-10 1.3243999e-09 7.575118e-10 6.573379e-10 1.1917476e-09 2.6468897e-10
1.0897683e-10 5.0354554e-10 2.1868213e-10 3.5446823e-10 1.2183915e-10 8.009898e-11 5.4585517e-11 1.4254442e-10
1.0895881e-10 8.011851e-11 2.0933646e-09 1.3242484e-09 7.735798e-10 2.018765e-09 1.0049874e-09 1.1034763e-09
6.2720783e-12 2.7175514e-12 1.9899817e-12 4.8886923e-12 4.880342e-12 3.2828957e-12 4.3619774e-11 1.8642594e-11
1.40599156e-11 2.8882991e-11 1.8891382e-11 1.6604414e-11 2.4664368e-10 2.6246952e-10 7.191081e-11 2.0067532e-10
1.336401e-10 5.283639e-11 8.1552337e-10 4.978063e-10 3.407307e-10 7.854049e-10 3.7725836e-10 3.5060493e-10
7.174566e-14 3.7556275e-14 2.2118075e-14 5.1280635e-14 3.724862e-14 4.2906695e-14 4.9667315e-10 4.8422927e-10
1.4799434e-10 3.1978994e-10 2.3684338e-10 1.2726904e-10 1.0551673e-13 6.2801117e-14 2.7817895e-14 7.268809e-14
6.469524e-14 5.646173e-14 5.4161373e-09 4.2436668e-09 2.2869822e-09 5.0949085e-09 2.741964e-09 2.4786153e-09
2.625758e-13 1.5588075e-13 6.6088716e-14 2.3263485e-13 1.5353605e-13 1.7771167e-13 3.159962e-10 1.3864364e-10
1.3492779e-10 1.889831e-10 1.6713221e-10 1.665599e-10 9.331538e-10 6.914163e-10 4.42339e-10 9.361029e-10
5.401842e-10 4.846184e-10 6.356305e-12 3.0524676e-12 2.1108551e-12 5.192939e-12 2.664086e-12 3.0430337e-12
1.3166328e-09 1.470408e-09 4.5061765e-10 1.187014e-09 7.2097567e-10 4.531756e-10 8.002306e-10 5.1747157e-10
3.5309825e-10 6.5414807e-10 5.9517224e-10 3.8318893e-10 2.084237e-10 1.5873787e-10 7.326288e-11 1.968124e-10
1.3431851e-10 9.6961945e-11 3.7374298e-10 2.544072e-10 1.9001654e-10 3.9770087e-10 2.0933633e-10 2.0972274e-10
1.005129e-10 1.198941e-10 2.508186e-11 8.4969504e-11 5.168294e-11 3.2612878e-11 1.9550003e-13 1.2826716e-13
4.7984477e-14 1.8613464e-13 1.2959253e-13 1.8140152e-13 5.90271e-14 2.8971298e-14 1.5273727e-14 3.8688013e-14
2.4081084e-14 2.3400291e-14 3.6929597e-09 3.2928114e-09 1.9350381e-09 3.797534e-09 2.2050841e-09 1.9015582e-09
7.689735e-10 4.3719706e-10 2.1802224e-10 4.8888527e-10 3.1038264e-10 2.453301e-10 3.515984e-09 2.3368725e-09
1.2868585e-09 3.411378e-09 1.7864084e-09 1.8573705e-09 1.0305399e-09 6.1912964e-10 4.659197e-10 8.915716e-10
3.7261924e-10 5.0859217e-10 6.2670864e-09 4.9490128e-09 2.7067626e-09 6.106441e-09 3.2214684e-09 2.9835496e-09
4.9625166e-09 3.1989866e-09 2.407397e-09 5.1043414e-09 2.5570017e-09 2.6441522e-09 1.8289946e-13 1.3412551e-13
5.6018795e-14 2.5515137e-13 1.6404457e-13 1.6017767e-13 2.1739874e-09 1.6223962e-09 8.882297e-10 2.2351943e-09
1.036089e-09 1.2959042e-09 4.80968e-10 3.6817532e-10 2.2786208e-10 4.6409043e-10 2.862946e-10 2.6962432e-10
2.8197849e-11 2.1427828e-11 6.5822903e-12 1.9958727e-11 9.851525e-12 8.2727636e-12 1.0245655e-10 5.7318664e-11
4.852249e-11 1.2618015e-10 7.021139e-11 7.1260234e-11 4.699278e-10 2.4759084e-10 1.0656345e-10 2.7488375e-10

exp_avg f4 [60]
00000000: 683d 8b36 d985 4037 2785 2db3 38da 43b5
00000010: 7eb7 de35 9843 8f36 784a 31b4 d424 0cb6
00000020: a4ef beb6 0952 bf36 9219 afb6 2c5d 2d36
00000030: 4c97 c2b4 7cfb 1236 2c98 ccb6 f13c 12b4
00000040: 01ea 0bb1 4a4d 0bb7 eb3e 16b2 f318 bbb6
00000050: e679 a133 141b 0ab6 d896 c6b4 1183 1c34
00000060: 8112 2cb7 8a97 1a33 3958 3b35 313e d434
00000070: 61db 3fb6 9e2f ba33 122d beb1 271c d4b6
00000080: 7e05 ea36 95fd 8236 7851 3736 ef97 c8b6
00000090: e609 6a36 f72d 0a34 c7f0 93b6 d2ce 21b3
000000a0: 318c 6f35 8cb3 55b6 4f98 ad36 7e16 9fb5
000000b0: 4895 a536 c0e9 19b5 2855 0b36 6d9e 6436
000000c0: 0cd5 ffb5 4840 f634 a44a 9a36 7aa9 0f37
000000d0: 00fc f8b3 3aa2 6036 aa2a 02b3 fbd7 dab7
000000e0: 1865 73b4 b15d 9ab7 184b 0237 ff40 94b5
4.1496714e-06 1.1475256e-05 -4.0400803e-08 -7.296071e-07 1.6593692e-06 4.269601e-06 -1.6511501e-07 -2.0883062e-06
-5.690339e-06 5.7017937e-06 -5.218383e-06 2.5833242e-06 -3.62454e-07 2.1902079e-06 -6.097389e-06 -1.361948e-07
-2.0360178e-09 -8.303041e-06 -8.745455e-09 -5.5759388e-06 7.51932e-08 -2.0579364e-06 -3.6990127e-07 1.4576314e-07
-1.0256307e-05 3.5993743e-08 6.979131e-07 3.9533327e-07 -2.8588913e-06 8.6699615e-08 -5.5348517e-09 -6.3213697e-06
6.974383e-06 3.9038227e-06 2.7316546e-06 -5.978152e-06 3.4874479e-06 1.2868973e-07 -4.4089716e-06 -3.7673836e-08
8.9238443e-07 -3.1843983e-06 5.173533e-06 -1.1852969e-06 4.934762e-06 -5.733709e-07 2.0762182e-06 3.4066863e-06
-1.9060985e-06 4.5867841e-07 4.598247e-06 8.5629235e-06 -1.15942385e-07 3.347303e-06 -3.0306786e-08 -2.6088199e-05
-2.2667916e-07 -1.8401859e-05 7.766088e-06 -1.1045776e-06

exp_avg_sq f4 [60]
00000000: 0f05 ac31 d762 3d31 648e 052a 165b 1731
00000010: 6704 8a2f 4827 cb2f 0bae 822a 5c15 5530
00000020: b0f1 3e31 1a9c 3531 2acc ca2f ee8b b831
00000030: 40a7 592d 49d9 9d2e 3455 e42f 2206 0031
00000040: dc55 232a 1189 5e30 8d65 662a 64a9 4d32
00000050: 724c 182b 9e94 1b30 2f11 1a31 6be7 692d
00000060: 3669 3b31 3bc4 ea30 7346 0230 6eb9 7630
00000070: 3018 612f e262 e62a 59c2 142a 81f9 1532
00000080: ef4d c930 9691 1a32 6ee4 fe30 474b 6e32
00000090: 79dc 3c32 62d1 042b bc2c bc31 4ab1 9930
000000a0: d4c7 432e c8bc a62f 219b 9330 4d10 d22e
000000b0: d0c6 7330 288f 792e d4a3 8e31 d21e 7531
000000c0: d880 142e 46c3 5030 a3d1 2531 0d05 9931
000000d0: c81a 7131 d3f6 8b30 b90e e22b b7af ea33
000000e0: 8fd7 2d2f 8bff 1b32 cb38 c931 96b4 182e
5.006434e-09 2.7559304e-09 1.1862175e-13 2.2025168e-09 2.5105182e-10 3.6953396e-10 2.3213405e-13 7.75193e-10
2.7786022e-09 2.64277e-09 3.6888653e-10 5.371013e-09 1.2372159e-11 7.178131e-11 4.15335e-10 1.8629938e-09
1.4507097e-13 8.095791e-10 2.0463336e-13 1.19710855e-08 5.4107337e-13 5.659987e-10 2.2419717e-09 1.3295902e-11
2.7271887e-09 1.7081513e-09 4.739384e-10 8.975779e-10 2.0472224e-10 4.092482e-13 1.3212468e-13 8.729672e-09
1.4646825e-09 8.997082e-09 1.8545856e-09 1.3870539e-08 1.099317e-08 4.71864e-13 5.476606e-09 1.1182604e-09
4.451535e-11 3.032936e-10 1.0739748e-09 9.55259e-11 8.8685415e-10 5.6743193e-11 4.151369e-09 3.5669712e-09
3.376574e-11 7.594746e-10 2.4129825e-09 4.4534603e-09 3.508534e-09 1.0183733e-09 1.6062352e-12 1.09284365e-07
1.581084e-10 9.080291e-09 5.8563265e-09 3.472119e-11

exp_avg f4 [60, 60]
00000000: 7c28 f734 6e08 2c35 a781 eeb0 8d73 4ab4
00000010: 6847 acb4 f8c5 7535 5d8b 0231 a1ec 6fb5
00000020: c69d bbb5 1455 a134 c48e efb4 a348 4635
00000030: 6fc9 78b3 05cb 70b4 6d09 94b5 55c5 b4b4
00000040: 4900 1732 e37e b9b5 e4ad 11b2 4b24 76b4
00000050: 0a82 91b2 2511 a5b5 4965 1cb5 67f9 0cb3
00000060: 1d5b fbb4 6890 f8b4 757b 9bb4 77e7 5cb5
00000070: 3b10 8eb5 e394 b0b2 ced6 0431 43a6 d7b5
00000080: 9ade fe35 6e8b 9b34 dd5f 64b4 9672 ddb3
00000090: 5fa5 2934 c3d8 b5b2 6c08 2db4 5341 f6b4
000000a0: c934 9db4 1b8e d3b2 3044 8535 9727 8f33
000000b0: 6a13 26b5 53b1 f533 851b 8334 897a 8835
000000c0: 3533 9432 8bb9 83b5 c01c a035 f2e9 ee35
000000d0: 1d5d ce33 1208 b635 6c47 38b3 2aaf e5b4
000000e0: a08d 80b4 623b 92b5 a3c2 9335 670a 13b5
000000f0: 91bc 8932 b070 dd32 faaa e3ae 9864 e2b2
00000100: 2134 6632 8b9f b032 109e 2aaf 7951 0ab2
00000110: 26a9 1632 81da 06b3 c217 81b2 a2ce 03b1
00000120: e353 b431 7185 8831 bc1e b1b2 39a1 1e31
00000130: 6c80 162e 24c1 17b2 07e9 4caf 3caa 3231
00000140: aec7 422f 4de3 01b2 0f4d e832 8ac9 8f31
00000150: 4d5f 37b2 6aec 8db1 d61a 9f32 e105 dc31
00000160: 40f4 a7b1 4eeb 1b30 0829 8aae 52aa 0a33
00000170: f6df 5d32 8b66 1632 4a5d a932 6ccb 36b2
00000180: c1cd d231 f78f 6130 4ce7 8cb2 f260 79b2
00000190: 8af6 2b30 93f6 a9b2 ca44 4f32 f4bc 2cb2
000001a0: e7e9 4631 b693 092f d342 c831 995d 7ab2
000001b0: d136 8bb2 a921 81b2 56b7 2a31 41b9 4432
000001c0: 1e8f cbb1 71f7 beb2 56d6 7330 5787 e1b1
000001d0: 41eb 5db2 9d2b 4ab2 77a8 23b3 c175 afb2
000001e0: b713 2eb5 601e 89b5 1aef 0b31 509a 1e35
000001f0: cd94 e4b3 8fc9 5db5 bef9 6732 8036 0735
00000200: 6149 9834 f39c 8c35 16bf dd34 aea9 0fb4
00000210: 47cf 05b4 3155 e7b2 9332 8d35 6007 de33
00000220: eff5 3b31 706d 6735 cc79 9c30 7f0a 8e34
00000230: 6a14 b2b2 619a 0235 7642 99b4 9535 4ab4
00000240: 2f69 2e35 9247 6634 b4b9 efb2 27ba a7b1
00000250: 15f2 1035 1a0f ffb2 49b4 19b1 3692 e2b4
00000260: d6bf a6b5 901a 0ab4 1a6a 85b4 25d1 cf34
00000270: fc09 02b5 8413 38b3 69d3 5635 7252 2035
00000280: 33f5 bab2 0cdc 6034 1586 10b5 8ebf 4332
00000290: fb69 0634 d77b 07b4 1944 5934 6d18 2833
000002a0: 76dd b634 122c 0a35 f201 cfb4 e24f 7db5
000002b0: 0481 68b4 eb2e 0fb3 ed79 8cb3 4e25 0d35
000002c0: 1cac 3234 f800 5e35 b719 3235 e539 3435
000002d0: 38d5 efb4 5ada 9db5 e3cb 6a31 7dcf 4535
000002e0: 43a6 2eb4 c9ce 87b5 403b 3e32 3665 4f35
000002f0: 4dc2 fcb3 baed be35 dd23 2735 6b79 a9b3
00000300: bf3f f4b3 578a 1ab4 40b6 9a35 8cf0 6c34
00000310: f346 d130 37ed 6335 8e66 e431 5d71 2a34
00000320: 6062 3ab1 701e 6a34 6df0 81b5 0dc0 05b4
00000330: 12e3 3e35 4e33 aab0 0f0e abb4 16f8 d3b4
00000340: a0f2 4435 6674 8cb2 cf8c 1ab1 d820 78b5
00000350: ef5f a0b5 af76 98b4 dd8d 99b2 d945 d634
00000360: 3ce4 9eb4 7605 ccb2 d65f 7135 b0a8 0e35
00000370: 7b72 e6b3 ec11 1335 64fc c4b4 bcc0 3434
00000380: f5f9 2834 5c68 e0b3 8859 0034 f0c6 8d34
00000390: e557 5b35 e2d8 6a35 ce82 f2b4 0934 8fb5
000003a0: c4d0 17b4 975f 9f34 293f e9b1 f471 c834
000003b0: a9c0 8b33 54f5 5c35 63fe a635 65eb 8e35
000003c0: 6ed7 acb0 238e 29b6 1dc8 3f2f 1cd1 2fb5
000003d0: 1b26 d0b5 7d63 1135 3893 6932 c897 1eb5
000003e0: b7ed 83b6 f605 9236 8460 a335 f22d 4435
000003f0: f8d6 d3b4 c32d 2bb6 c105 2535 81e7 71b4
4.6036791e-07 6.408726e-07 -1.7353629e-09 -1.8854753e-07 -3.2089451e-07 9.1557695e-07 1.8996709e-09 -8.937878e-07
-1.3978504e-06 3.005049e-07 -4.4621095e-07 7.386645e-07 -5.7925202e-08 -2.24256e-07 -1.1029603e-06 -3.367119e-07
8.789422e-09 -1.3820503e-06 -8.479649e-09 -2.2923739e-07 -1.6939357e-08 -1.2298448e-06 -5.826192e-07 -3.282312e-08
-4.6818687e-07 -4.629867e-07 -2.8960827e-07 -8.229321e-07 -1.0584548e-06 -2.0556802e-08 1.933063e-09 -1.6067137e-06
1.898926e-06 2.8972448e-07 -2.126903e-07 -1.03119575e-07 1.5799513e-07 -2.1169745e-08 -1.6114944e-07 -4.58686e-07
-2.9281935e-07 -2.4628255e-08 9.929117e-07 6.666158e-08 -6.186807e-07 1.14409566e-07 2.4420675e-07 1.0168452e-06
1.7252754e-08 -9.814261e-07 1.1929296e-06 1.7800469e-06 9.60956e-08 1.3562405e-06 -4.2905796e-08 -4.2782023e-07
-2.3944904e-07 -1.089513e-06 1.1009e-06 -5.4776905e-07 1.603465e-08 2.577903e-08 -1.03531364e-10 -2.6355607e-08
1.3399615e-08 2.0561648e-08 -1.5517565e-10 -8.051182e-09 8.769609e-09 -3.1398034e-08 -1.502838e-08 -1.9180466e-09
5.2482263e-09 3.9732915e-09 -2.0619488e-08 2.308367e-09 3.4220113e-11 -8.833272e-09 -1.863648e-10 2.5999176e-09
1.7715138e-10 -7.5604705e-09 2.7043397e-08 4.18476e-09 -1.0673671e-08 -4.1305173e-09 1.852224e-08 6.403511e-09
-4.8881077e-09 5.672306e-10 -6.282802e-11 3.2285534e-08 1.2914816e-08 8.754465e-09 1.9716612e-08 -1.0640047e-08
6.135196e-09 8.205911e-10 -1.6403327e-08 -1.451575e-08 6.255979e-10 -1.9786318e-08 1.2064627e-08 -1.0054681e-08
2.894575e-09 1.2512555e-10 5.828363e-09 -1.4573197e-08 -1.6206657e-08 -1.5032883e-08 2.484247e-09 1.1450823e-08
-5.924348e-09 -2.2231434e-08 8.8707475e-10 -6.563748e-09 -1.2917384e-08 -1.1767864e-08 -3.8104613e-08 -2.042623e-08
-6.484874e-07 -1.0216136e-06 2.0363076e-09 5.908414e-07 -1.0644144e-07 -8.262222e-07 1.35027545e-08 5.0370727e-07
2.8365596e-07 1.0476491e-06 4.130349e-07 -1.3379642e-07 -1.2461997e-07 -2.693068e-08 1.0520038e-06 1.0339022e-07
2.7351879e-09 8.621346e-07 1.1385111e-09 2.6457198e-07 -2.073121e-08 4.8653425e-07 -2.8546827e-07 -1.8832209e-07
6.4973113e-07 2.1446456e-07 -2.790771e-08 -4.8815028e-09 5.3996456e-07 -2.9692774e-08 -2.236691e-09 -4.2202163e-07
-1.2423795e-06 -1.2861915e-07 -2.485038e-07 3.8708927e-07 -4.8443303e-07 -4.2858588e-08 8.0028855e-07 5.972462e-07
-2.1764754e-08 2.0941678e-07 -5.3839295e-07 1.1394048e-08 1.2518278e-07 -1.2617907e-07 2.0234474e-07 3.9137763e-08
3.4061276e-07 5.1473137e-07 -3.855817e-07 -9.436609e-07 -2.165362e-07 -3.3337454e-08 -6.541436e-08 5.258088e-07
1.6640155e-07 8.2702854e-07 6.634759e-07 6.7139473e-07 -4.4672356e-07 -1.176096e-06 3.4167378e-09 7.3690154e-07
-1.6265498e-07 -1.0118466e-06 1.10729275e-08 7.726079e-07 -1.17700075e-07 1.4225291e-06 6.2264536e-07 -7.8917616e-08
-1.1373731e-07 -1.4392695e-07 1.1526936e-06 2.2066723e-07 1.5226916e-09 8.490928e-07 6.6473325e-09 1.5873725e-07
-2.7122482e-09 2.1804021e-07 -9.681222e-07 -1.2456458e-07 7.1110946e-07 -1.238371e-09 -3.186146e-07 -3.948232e-07
7.3368756e-07 -1.6351077e-08 -2.248999e-09 -9.2434993e-07 -1.1948849e-06 -2.839856e-07 -1.7876056e-08 3.9911427e-07
-2.9595856e-07 -2.3751209e-08 8.9918956e-07 5.3144595e-07 -1.07310335e-07 5.4787847e-07 -3.6691483e-07 1.6833923e-07
1.5737153e-07 -1.0449796e-07 1.19535e-07 2.6408043e-07 8.171176e-07 8.74874e-07 -4.5171186e-07 -1.0669474e-06
-1.413892e-07 2.968561e-07 -6.788373e-09 3.7335815e-07 6.5077366e-08 8.2313386e-07 1.2442e-06 1.0648333e-06
-1.2575876e-09 -2.5265697e-06 1.7442443e-10 -6.5496874e-07 -1.5508298e-06 5.4161484e-07 1.3595859e-08 -5.908046e-07
-3.931778e-06 4.351833e-06 1.2172536e-06 7.308255e-07 -3.9458223e-07 -2.5507622e-06 6.1475663e-07 -2.2529095e-07
